Models/model_optAdam_ep70_neu256_lay3_acc0.9646.pth (torch, 982662 bytes, 10 tensors)

model.input.weight f4 [256, 784]
0.029285405 -0.00023141503 -0.03096532 -0.00051753595 0.031447586 0.026272308 0.032612275 -0.010732481
0.027525458 -0.009158419 0.031017486 0.03134459 -0.0019263308 0.04014082 0.02807079 0.0039369897
-0.012663089 0.018364955 -0.005030982 0.027525883 0.0337564 0.0015731156 0.0046707205 -0.0066427924
0.003449764 0.028997775 -0.0005498268 0.028548326 -0.029216394 0.017312814 -0.03231486 0.008686457
-0.00046820566 0.06055719 0.078154445 0.03922804 0.06390441 0.08316432 -0.027505461 0.05840974
0.06483621 0.07244202 0.31457654 0.32846633 0.2727326 0.20490082 0.06868892 0.07146533
0.11364198 -0.068262786 0.044810493 0.03442681 -0.018995035 0.01313388 -0.011881093 0.020246916
0.013769634 -0.0033263564 0.035150345 -0.03312574 -0.04191651 0.020900927 0.06950195 0.045302764
0.12945962 0.12751506 -0.0710952 -0.07682371 -0.13011563 -0.02136474 0.09150859 0.10957933
0.03956255 -0.10143376 -0.14870133 -0.064142555 -0.091654524 -0.049174882 -0.059628014 0.18609023
0.21322311 -0.009669521 -0.00800252 -0.004993025 -0.018779986 -0.015392385 -0.013135796 0.0014644735
0.051014114 -0.18654525 -0.14148587 -0.0949734 -0.07610631 -0.106339864 -0.074957386 0.05940041
-0.019369027 -0.019191036 -0.15690063 -0.24876983 -0.21711847 -0.14512372 -0.13439624 0.0038188598
-0.060429167 -0.022490378 0.030685158 0.06651084 0.09104946 0.07155801 -0.010412183 -0.018117676
-0.009015752 0.011952683 -0.029566541 -0.07925241 -0.074440636 -0.14472072 -0.05912533 -0.072155
-0.1404152 -0.20816633 -0.115844235 -0.18155283 -0.09168946 0.00569808 -0.00028692145 -0.013868604
0.014850237 -0.048808955 -0.09662728 -0.03522796 -0.015869029 -0.10951777 -0.07434114 -0.020842578
-0.20736459 -0.3188153 -0.06887717 0.031541962 -0.012593197 -0.029348047 0.11386951 -0.046968583
0.03837989 -0.12344308 -0.06734704 -0.1538168 -0.16898137 -0.28629115 -0.2460359 -0.12461264
-0.06240278 -0.037370104 -0.078814015 0.11689967 0.088246584 -0.05990377 -0.07369531 0.043145366
-0.024774067 -0.08389596 0.0064149606 0.2212019 0.012666047 -0.14543979 0.16379422 0.03412068
-0.0069992207 0.024388995 0.13195512 0.043674275 0.04298311 -0.22890979 -0.17832825 -0.18721606
-0.23968452 -0.33312523 -0.1252801 0.011836606 -0.16651663 -0.15051012 -0.04538393 0.14309625
0.027663182 -0.062642775 0.042707115 -0.00714622 -0.13025683 -0.15675531 -0.11917679 -0.025911307
0.083736025 0.107057914 0.1395055 0.19701864 -0.03289454 -0.049439754 0.07152372 -0.04714219
-0.13737017 -0.34189415 -0.18016426 -0.18486802 -0.28168663 -0.21103846 -0.08532107 -0.05852192
-0.16255797 -0.05094569 0.12797682 0.14215314 0.06535238 0.019576712 0.067242816 -0.05377047
-0.18575694 -0.14242546 -0.19333103 -0.0025717083 0.016389146 0.051423457 0.064209454 0.21144466
-0.0014002658 -0.06367618 -0.03198941 -0.09544678 -0.23255442 0.050613202 0.0547754 -0.014746783
-0.08926659 -0.047109783 -0.019606328 -0.09066903 -0.047277357 0.15078841 0.30015838 0.18035655
0.15831426 0.022279443 -0.049799968 -0.08520969 -0.1894226 0.003915328 -0.10283345 -0.04347203
-0.11916988 -0.24661438 0.08579411 -0.0014628003 0.01416773 -0.037450418 0.06524356 -0.005765758
00000000: f2e7 ef3c 00a8 72b9 fcaa fdbc 40ab 07ba
00000010: 2fcf 003d 0639 d73c 7394 053d 4ad7 2fbc
00000020: 127d e13c 320d 16bc 6218 fe3c 2f63 003d
00000030: f07c fcba b36a 243d b7f4 e53c dd01 813b
00000040: d878 4fbc 1a72 963c f0da a4bb f67d e13c
00000050: 2744 0a3d 0031 ce3a d80c 993b c8ab d9bb
00000060: 7015 623b be8c ed3c 4022 10ba 2ede e93c
00000070: 3857 efbc 9ad3 8d3c 965c 04bd a451 0e3c
00000080: 8079 f5b9 d10a 783d 700f a03d 95ad 203d
00000090: 51e0 823d 0e52 aa3d 2253 e1bc 0d3f 6f3d
000000a0: d9c8 843d 7b5c 943d 2d10 a13e bd2c a83e
000000b0: 9ba3 8b3e 85d1 513e c7ac 8c3d 6a5c 923d
000000c0: 20bd e83d 5ccd 8bbd 358b 373d 2003 0d3d
000000d0: 7a9b 9bbc 7c2f 573c eaa8 42bc dcdc a53c
000000e0: 089a 613c 00ff 59bb cff9 0f3d dbae 07bd
000000f0: a5b0 2bbd 6c38 ab3c 0a57 8e3d 648f 393d
00000100: 1091 043e 4f93 023e 5c9a 91bd c055 9dbd
00000110: 083d 05be 1b05 afbc db68 bb3d 216b e03d
00000120: 570c 223d 81bc cfbd 2945 18be 2c5d 83bd
00000130: 5eb5 bbbd 9a6b 49bd 813c 74bd 708e 3e3e
00000140: 2957 5a3e e96c 1ebc 001d 03bc 889c a3bb
00000150: 7cd8 99bc 5830 7cbc 8637 57bc 94f3 bf3a
00000160: 2df4 503d b805 3fbe ace1 10be 6a81 c2bd
00000170: a0dd 9bbd b7c8 d9bd 4283 99bd d84d 733d
00000180: cbab 9ebc 8536 9dbc 8faa 20be 85bd 7ebe
00000190: 4e54 5ebe 509b 14be 2b9f 09be d645 7a3b
000001a0: 9384 77bd be3d b8bc 715f fb3c d636 883d
000001b0: 2478 ba3d 028d 923d dc97 2abc 856b 94bc
000001c0: ceb6 13bc 30d5 433c 8835 f2bc 164f a2bd
000001d0: 5574 98bd ab31 14be 672d 72bd 00c6 93bd
000001e0: 01c9 0fbe 8e29 55be be3f edbd fce8 39be
000001f0: afc7 bbbd f6b6 ba3b f26d 96b9 2439 63bc
00000200: 694e 733c e6eb 47bd 86e4 c5bd 324b 10bd
00000210: c4ff 81bc da4a e0bd 2b40 98bd 0ebe aabc
00000220: 6257 54be c23b a3be 790f 8dbd 2532 013d
00000230: b253 4ebc 516b f0bc 6b34 e93d 2162 40bd
00000240: 3b34 1d3d bacf fcbd 3fed 89bd 2782 1dbe
00000250: 7409 2dbe c194 92be d6f0 7bbe e934 ffbd
00000260: 0f9a 7fbd 6511 19bd 3e69 a1bd 1869 ef3d
00000270: a0ba b43d a85d 75bd 91ed 96bd 32b9 303d
00000280: fcf2 cabc a5d1 abbd 9734 d23b c082 623e
00000290: 4085 4f3c 2bee 14be acb9 273e 20c2 0b3d
000002a0: b859 e5bb 6ecb c73c 3e1f 073e cce3 323d
000002b0: 0f0f 303d 5467 6abe ae9b 36be 91b5 3fbe
000002c0: dc6f 75be 648f aabe 6d49 00be 53ee 413c
000002d0: 5683 2abe 531f 1abe 80e4 39bd d387 123e
000002e0: e69d e23c db4a 80bd a8ed 2e3d d72a eabb
000002f0: 0c62 05be 7784 20be f612 f4bd f343 d4bc
00000300: cb7d ab3d 2e41 db3d 88da 0e3e 41bf 493e
00000310: 6dbc 06bd 5781 4abd 077b 923d 2b18 41bd
00000320: c4aa 0cbe c00c afbe fb7c 38be 0b4e 3dbe
00000330: 3b39 90be 771a 58be d0bc aebd aeb4 6fbd
00000340: 9975 26be 6eac 50bd 5b0c 033e 9890 113e
00000350: 78d7 853d 575f a03c 9ab6 893d 6d3e 5cbd
00000360: 1137 3ebe fbd7 11be 92f8 45be 1b8a 28bb
00000370: 8842 863c 67a1 523d 3f80 833d f384 583e
00000380: 2089 b7ba a868 82bd 5407 03bd 9a79 c3bd
00000390: bf22 6ebe ca4f 4f3d 2b5c 603d 7e9c 71bc
000003a0: 67d1 b6bd 30f6 40bd 739d a0bc afb0 b9bd
000003b0: e7a5 41bd 4768 1a3e 5cae 993e 63af 383e
000003c0: 221d 223e 6183 b63c 0dfb 4bbd 6b82 aebd
000003d0: 00f8 41be 274c 803b 589a d2bd ba0f 32bd
000003e0: 570f f4bd 7b88 7cbe d3b4 af3d 6fbb bfba
000003f0: c41f 683c 9c65 19bd 6a9e 853d afee bcbb

model.input.bias f4 [256]
-0.03887919 -0.035442337 0.059144165 0.013586427 -0.04833108 0.049460463 0.18939878 0.044591006
-0.006938068 -0.031622607 0.015167875 0.08655876 -0.07877872 -0.065116726 -0.044792425 0.002120119
0.05568017 0.050184283 -0.07068447 0.06410181 -0.012676947 -0.045890484 0.0030798877 -0.039651915
-0.02730226 0.050841477 0.044863947 -0.012129367 -0.1387556 0.016753476 0.063816465 0.038618192
0.02228061 0.1359502 0.0369924 -0.012242505 -0.005479445 0.09212786 0.06454568 0.050298713
0.07109993 -0.056341443 -0.041536372 -0.016456619 0.087520786 0.11665538 -0.11003949 0.0037652692
0.02778731 0.15419558 -0.025715685 0.040261686 -0.056612212 0.12151592 0.08636821 -0.01674336
0.005626249 -0.009280353 0.097346865 0.13211802 -0.1007884 -0.013686366 0.04714693 0.019172614
-0.023596311 0.047963753 -0.039316338 0.069277935 -0.021841923 0.00039261937 -0.14053792 0.03883805
-0.01325655 -0.0015162701 -0.007892177 -0.04284705 -0.022975832 0.015510973 -0.036774147 -0.08470406
-0.017178103 0.045873582 -0.041678034 -0.004420529 -0.04878306 0.039429713 0.083758675 0.037996806
-0.08935373 -0.033035915 0.07689744 0.08653306 0.0011926382 0.06982803 0.05223382 0.10314939
-0.00019335834 -0.004734932 -0.0108060315 -0.044386964 0.12942429 0.07086552 0.08685316 0.069487214
0.10068439 0.07095201 -0.03509035 0.052331936 -0.014633722 -0.0042030904 -0.0108008785 0.1131948
-0.18913692 -0.07317671 0.12739563 -0.066958465 -0.03446169 0.060013514 0.060973525 -0.048419867
-0.028312493 0.11760491 -0.016645933 0.0036349182 -0.017777177 0.08941388 -0.05289592 0.041505273
-0.104304925 0.030831717 0.008533531 -0.012700662 0.09296909 -0.08776666 0.040337037 -0.018583525
0.09752927 0.0005670793 0.11998748 -0.0072017536 -0.019548355 -0.015785296 -0.062497333 0.121838644
-0.0052588806 0.13754274 -0.14809306 -0.00051266665 -0.09695629 -0.13545768 -0.018527497 0.013172421
0.012371543 -0.021648496 0.035798628 0.028540514 0.04354858 0.026745424 0.01516698 0.061148748
-0.02703145 -0.13767058 -0.05030188 0.05939775 0.06880435 0.06095668 0.061055735 -0.011679812
-0.038825385 -0.014322471 -0.024551462 0.0034482575 -0.106154725 0.008313768 -0.086672075 -0.034953848
0.09586607 -0.004040088 0.041109476 -0.019286787 0.0048221066 -0.019819835 0.005672092 -0.053816006
0.087110296 -0.0018103882 -0.10502288 -0.068286225 -0.026397554 0.044737443 0.033575088 -0.0825662
0.21677896 -0.044305634 0.06287575 -0.05191177 0.0430733 0.031816304 0.01717373 0.04022843
-0.12939966 0.030678917 0.11036567 0.0022740334 0.03717812 0.09970259 0.021371536 -0.008896542
-0.021924317 -0.049309723 -0.041342188 -0.0033079037 0.070810154 0.049776096 0.0024691327 0.07177443
0.016952379 -0.012007735 -0.0075852075 0.12912434 -0.02591922 -0.009747747 -0.010352464 -0.10375932
-0.15691409 0.06349176 0.036256865 0.06306476 -0.017730575 0.013208523 -0.06587688 -0.0046734763
-0.13714865 -0.06364431 0.1665906 0.1103752 0.009861951 -0.1308183 0.0052162046 -0.070653915
-0.0065752193 0.022278167 0.03174785 -0.030659694 0.09072433 -0.103636324 -0.0007330711 -0.08080893
0.031230483 -0.024144273 -0.12175087 -0.01134649 0.031802867 0.09814352 -0.01912355 0.09768489
00000000: c93f 1fbd fc2b 11bd 2741 723d 9b99 5e3c
00000010: cff6 45bd 0e97 4a3d c1f1 413e 0fa5 363d
00000020: bc58 e3bb b586 01bd ae82 783c b845 b13d
00000030: bd56 a1bd eb5b 85bd 4378 37bd b2f1 0a3b
00000040: e410 643d 098e 4d3d 05c3 90bd cf47 833d
00000050: f8b2 4fbc a9f7 3bbd f1d7 493b 0c6a 22bd
00000060: fda8 dfbc 273f 503d 42c3 373d 41ba 46bc
00000070: f315 0ebe 963e 893c 35b2 823d 1c2e 1e3d
00000080: d385 b63c 8736 0b3e 5885 173d ca94 48bc
00000090: eb8c b3bb 88ad bc3d 8730 843d 0606 4e3d
000000a0: d79c 913d 49c6 66bd 0b22 2abd 08d0 86bc
000000b0: 193e b33d 04e9 ee3d 625c e1bd bcc2 763b
000000c0: 36a2 e33c 72e5 1d3e b3a9 d2bc 70e9 243d
000000d0: 35e2 67bd 57dd f83d d1e1 b03d 5f29 89bc
000000e0: 665c b83b 9f0c 18bc cb5d c73d f249 073e
000000f0: 266a cebd c83c 60bc 241d 413d e30f 9d3c
00000100: 0d4d c1bc a475 443d 2b0a 21bd 97e1 8d3d
00000110: d5ed b2bc 7bd8 cd39 2ce9 0fbe a614 1f3d
00000120: 0032 59bc 95bd c6ba 314e 01bc 6380 2fbd
00000130: d037 bcbc bc21 7e3c 7da0 16bd 5279 adbd
00000140: 18b9 8cbc f0e5 3b3d 96b6 2abd 16da 90bb
00000150: bfd0 47bd 0d81 213d ab89 ab3d 8aa2 1b3d
00000160: 17ff b6bd ab50 07bd 687c 9d3d 3f38 b13d
00000170: 4c52 9c3a 0002 8f3d 21f3 553d fd3f d33d
00000180: 3cc0 4ab9 7d27 9bbb c80b 31bc 1bcf 35bd
00000190: cd87 043e f121 913d 12e0 b13d 504f 8e3d
000001a0: 9e33 ce3d 4a4f 913d e6ba 0fbd 035a 563d
000001b0: 47c2 6fbc 14ba 89bb 2bf6 30bc add2 e73d
000001c0: 1cad 41be acdd 95bd 0074 023e 8521 89bd
000001d0: b327 0dbd bbd0 753d 60bf 793d e953 46bd
000001e0: 9aef e7bc d8da f03d 0d5d 88bc cf37 6e3b
000001f0: 71a1 91bc a01e b73d 64a9 58bd 6f01 2a3d
00000200: d29d d5bd cc92 fc3c 39d0 0b3c 7016 50bc
00000210: 9466 be3d 02bf b3bd 7338 253d 7a3c 98bc
00000220: 6dbd c73d 0ca8 143a ffbb f53d b0fc ebbb
00000230: df23 a0bc 2a50 81bc 34fd 7fbd 8a86 f93d
00000240: b052 acbb 01d8 0c3e b5a5 17be 7a64 06ba
00000250: 0591 c6bd 6bb5 0abe fac6 97bc 23d1 573c
00000260: 03b2 4a3c 3058 b1bc 95a1 123d cccd e93c
00000270: ff5f 323d 3819 db3c ed7e 783c 1c77 7a3d
00000280: 0f71 ddbc 84f9 0cbe 5809 4ebd 0e4b 733d
00000290: 4ce9 8c3d b6ad 793d 9415 7a3d af5c 3fbc
000002a0: 5e07 1fbd cca8 6abc 2620 c9bc 29fc 613b
000002b0: a667 d9bd 7836 083c 2181 b1bd c42b 0fbd
000002c0: 6e55 c43d b762 84bb 6962 283d 53ff 9dbc
000002d0: c302 9e3b 355d a2bc f5dc b93b 2c6e 5cbd
000002e0: e266 b23d 8c4a edba 3c16 d7bd a6d9 8bbd
000002f0: af3f d8bc 9c3e 373d 0886 093d 7818 a9bd
00000300: 4efb 5d3e d379 35bd 00c5 803d 70a1 54bd
00000310: a16d 303d d051 023d ecaf 8c3c 91c6 243d
00000320: 5881 04be 5a52 fb3c 6507 e23d f307 153b
00000330: 1648 183d df30 cc3d 5c13 af3c cdc2 11bc
00000340: a09a b3bc fef8 49bd 6d56 29bd 6ac9 58bb
00000350: ea04 913d 05e2 4b3d 2cd1 213b 79fe 923d
00000360: b7df 8a3c 17bc 44bc 558d f8bb 2c39 043e
00000370: 8b54 d4bc 04b5 1fbc 629d 29bc c47f d4bd
00000380: 16ae 20be f807 823d 1482 143d 1928 813d
00000390: b63f 91bc 9068 583c 75ea 86bd f623 99bb
000003a0: b270 0cbe f357 82bd ba96 2a3e 650c e23d
000003b0: 0594 213c 3cf5 05be b2ec aa3b 00b3 90bd
000003c0: f074 d7bb b480 b63c 090a 023d 0a2a fbbc
000003d0: adcd b93d 483f d4bd 922b 40ba 277f a5bd
000003e0: 12d7 ff3c 36ca c5bc 8558 f9bd a1e6 39bc
000003f0: b943 023d 78ff c83d fea8 9cbc 040f c83d

model.dense1.weight f4 [128, 256]
-0.23523332 0.05686259 0.12556429 0.036559537 0.008517292 0.04258773 0.027032781 0.013952048
0.022771515 -0.047300693 0.11200362 0.03852101 0.2216524 0.06354119 0.11218612 0.013166159
-0.030515864 0.085019216 -0.042287417 -0.029743802 0.0443517 -0.021398788 0.06507788 0.07800981
-0.001280195 0.14845729 0.0006529105 0.16517009 -0.07155505 0.02008322 0.04662909 -0.080829374
-0.041894183 -0.35657895 0.091964796 -0.12966807 0.10388783 0.1107845 -0.31891403 0.04624622
-0.06399464 0.271086 0.06430506 0.023298174 0.040821906 0.028059263 0.24515449 -0.097479984
0.124873884 -0.030609934 0.019548103 -0.07809611 -0.031760253 -0.036939487 -0.096146874 -0.038723305
-0.151058 -0.13490845 0.020652065 -0.15541427 -0.15713927 -0.016467664 -0.12664975 -0.15278378
-0.11715518 0.19333231 -0.055434268 0.0014088134 0.08911585 0.028441304 0.13174528 0.0702673
0.026022246 -0.020712698 -0.35712236 -0.15291579 -0.33603027 0.046395697 -0.18068783 0.09013318
-0.053131957 0.13748962 -0.20395912 0.07560957 0.03928449 -0.061730925 -0.087308176 -0.08275904
-0.116719246 0.023574522 0.032698177 -0.027286757 0.12891379 -0.02822201 0.056009047 0.08119756
0.12146205 0.15004118 0.13152952 0.013019393 0.10547939 0.10564711 -0.10913345 0.020657668
-0.1914909 0.13359466 0.044003304 0.16795719 -0.27204338 0.086109 0.13410792 0.09901084
-0.37737766 0.11313723 -0.013789756 0.11180392 -0.030049896 0.07817372 -0.093898065 0.07462387
-0.0026360243 -0.32936358 0.012560734 -0.2063887 -0.061966002 0.053074505 0.04019191 0.037249997
-0.0524147 -0.13273981 0.18265338 0.10017624 -0.1874612 0.06685353 -0.13510281 0.07101405
-0.58578056 -0.015502461 -0.30710408 -0.021835191 -0.035867263 0.00822948 0.04112287 -0.19554809
0.03453143 0.06057578 0.0065560066 -0.068199076 0.060610708 -0.02719643 -0.02499087 -0.015814796
-0.052458145 0.06771955 0.022175329 -0.08022184 -0.3733618 -0.08971296 0.30263653 0.11955984
0.044701643 0.09257282 0.23210707 -0.19370115 0.14924793 -0.14917164 0.100915305 0.034279186
0.056337822 -0.07249759 0.07816973 0.1874226 0.0227415 -0.021374548 0.03174772 0.015469165
-0.283413 0.07312793 0.06645175 -0.20648919 -0.35590148 0.061540935 0.10865941 0.15669166
-0.026763814 -0.0055435863 0.005748048 -0.18968876 -0.23518744 -0.052040465 0.12917879 -0.097490996
-0.5180231 -0.04024051 0.10745676 0.1949442 0.081373796 0.15826796 0.015236769 0.09863329
0.083972074 -0.08326716 -0.00014569802 -0.014460333 0.07172845 -0.063763544 0.071912155 0.22600266
-0.0134349875 0.19171974 -0.008343756 -0.2459501 0.07948147 0.0834428 -0.032684878 -0.015710274
-0.39666533 -0.013150525 0.0815298 -0.004128121 -0.09133153 -0.23638886 -0.14402351 0.021934269
-0.047437537 0.024361614 0.036809947 0.14791228 0.021626169 0.046912163 -0.1214918 -0.004456327
-0.14873132 0.09099468 -0.32015947 0.043199785 0.054515533 0.07556142 -0.020220276 0.09108843
-0.23497541 -0.16856793 0.060480602 -0.39127496 0.06836055 0.073497936 0.02699363 0.037221238
-0.1007329 -0.02810117 -0.047740743 0.07968343 -0.0823605 -0.28653958 -0.019854277 0.06796409
00000000: 01e1 70be bfe8 683d ed93 003e 74bf 153d
00000010: 1d8c 0b3c 7970 2e3d da73 dd3c 2197 643c
00000020: 548b ba3c 5fbe 41bd 2762 e53d 35c8 1d3d
00000030: d9f8 623e e221 823d d6c1 e53d e0b6 573c
00000040: 68fc f9bc 8e1e ae3d 9235 2dbd 46a9 f3bc
00000050: 21aa 353d 834c afbc 8d47 853d 9bc3 9f3d
00000060: 37cc a7ba 3005 183e 1528 2b3a 5922 293e
00000070: 748b 92bd 9185 a43c 25fe 3e3d df89 a5bd
00000080: 3c99 2bbd 8491 b6be 0a58 bc3d b5c7 04be
00000090: 25c3 d43d fce2 e23d b348 a3be ad6c 3d3d
000000a0: 9f0f 83bd c9cb 8a3e 5fb2 833d d0db be3c
000000b0: df34 273d 8adc e53c c709 7b3e 96a3 c7bd
000000c0: e1bd ff3d afc1 fabc 5823 a03c daf0 9fbd
000000d0: 0a17 02bd dc4d 17bd a7e8 c4bd 549c 1ebd
000000e0: f3ae 1abe 7125 0abe 852e a93c eb24 1fbe
000000f0: 1ee9 20be 32e7 86bc 79b0 01be 5a73 1cbe
00000100: 0eef efbd e8f8 453e 0b0f 63bd efa7 b83a
00000110: 5f82 b63d bdfd e83c 3ce8 063e 4de8 8f3d
00000120: 9b2c d53c adad a9bc bed8 b6be f595 1cbe
00000130: 290c acbe 6a09 3e3d 3b06 39be bf97 b83d
00000140: e5a0 59bd 14ca 0c3e a9da 50be 31d9 9a3d
00000150: c6e8 203d 91d9 7cbd a1ce b2bd 927d a9bd
00000160: 800a efbd 5b1f c13c 86ee 053d 7a88 dfbc
00000170: fa01 043e d831 e7bc be69 653d e84a a63d
00000180: 18c1 f83d 65a4 193e adaf 063e 4b4f 553c
00000190: 9405 d83d 835d d83d 5c81 dfbd 453a a93c
000001a0: 3116 44be 0acd 083e cf3c 343d f8fc 2b3e
000001b0: 4549 8bbe ea59 b03d 9653 093e 32c6 ca3d
000001c0: a537 c1be 7eb4 e73d 6eee 61bc 74f9 e43d
000001d0: 332b f6bc 8b19 a03d a14d c0bd 66d4 983d
000001e0: 26c1 2cbb 58a2 a8be 89cb 4d3c 8f57 53be
000001f0: 10d0 7dbd a764 593d 46a0 243d 7493 183d
00000200: ccb0 56bd f2ec 07be 7d09 3b3e 3329 cd3d
00000210: d4f5 3fbe 81ea 883d 6458 0abe d06f 913d
00000220: b7f5 15bf 09fe 7dbc bf3c 9dbe b7df b2bc
00000230: 8de9 12bd f1d4 063c 7470 283d c23d 48be
00000240: d470 0d3d 4f1e 783d c5d3 d63b f5ab 8bbd
00000250: ef42 783d 0ccb debc a7b9 ccbc 088e 81bc
00000260: 5ade 56bd 8cb0 8a3d 09a9 b53c 594b a4bd
00000270: 4729 bfbe 6ebb b7bd 2df3 9a3e cadb f43d
00000280: 1219 373d d296 bd3d 7aad 6d3e 9859 46be
00000290: 73d4 183e 73c0 18be afac ce3d 5568 0c3d
000002a0: 7dc2 663d 9e79 94bd 7417 a03d b6eb 3f3e
000002b0: 624c ba3c ad19 afbc e609 023d 6172 7d3c
000002c0: 821b 91be 19c4 953d db17 883d e771 53be
000002d0: b838 b6be 5912 7c3d d388 de3d c773 203e
000002e0: c93f dbbc f9a6 b5bb 1f5a bc3b c53d 42be
000002f0: fad4 70be 6228 55bd 7247 043e 5ca9 c7bd
00000300: 299d 04bf 3cd3 24bd 4a12 dc3d 749f 473e
00000310: 4ea7 a63d ff10 223e a4a3 793c 4000 ca3d
00000320: 8df9 ab3d f987 aabd 84c6 18b9 08eb 6cbc
00000330: 5ee6 923d 7696 82bd ae46 933d 3e6d 673e
00000340: 6c1e 5cbc 2e52 443e 40b4 08bc 58da 7bbe
00000350: 2ec7 a23d 0fe4 aa3d 94e0 05bd d5b2 80bc
00000360: b817 cbbe 4d75 57bc 19f9 a63d 3045 87bb
00000370: 060c bbbd ec0f 72be e67a 13be 7faf b33c
00000380: dd4d 42bd 0292 c73c 07c6 163d 5176 173e
00000390: 5d29 b13c f826 403d b1d0 f8bd 6106 92bb
000003a0: 064d 18be 6b5b ba3d f1eb a3be 42f2 303d
000003b0: ae4b 5f3d f2bf 9a3d fea4 a5bc 928c ba3d
000003c0: 659d 70be 129d 2cbe 82ba 773d 3155 c8be
000003d0: 9e00 8c3d 1686 963d bf21 dd3c 4c75 183d
000003e0: 0d4d cebd 6d34 e6bc cc8b 43bd 1131 a33d
000003f0: 9fac a8bd 51b5 92be 70a5 a2bc c230 8b3d

model.dense1.bias f4 [128]
0.2716822 0.24477778 -0.039882448 -0.069611974 -0.015321196 0.14011958 -0.045224372 -0.0347545
0.17226776 0.31490597 -0.05437996 -0.096193366 0.1722696 -0.08163903 -0.039819352 0.02109714
-0.007401215 -0.010388356 -0.016243918 -0.00050272373 0.029415857 0.03516668 -0.044391777 -0.07465601
0.123245016 0.12770954 -0.054598983 0.2062874 0.16130841 0.27191085 -0.07236573 -0.029146194
-0.0073130163 0.19837052 -0.09545702 0.027157957 -0.106826685 0.012847336 -0.038835824 0.05464009
-0.0119987335 0.1361451 -0.13462932 -0.06493538 0.006626181 -0.019947749 0.23822297 -0.014138941
0.06903707 0.18311599 0.06519351 -0.042785697 0.17791833 -0.0044786274 0.2774518 0.2682343
0.2121618 0.02071005 -0.04600512 -0.16541155 -0.083366916 -0.037118897 -0.040563826 0.13973056
-0.055982742 -0.02264733 0.24875113 -0.021587813 -0.004021482 0.026081167 0.021752274 -0.044058025
-0.07366296 0.16793306 0.16917145 -0.052959815 -0.16384467 -0.19047807 -0.06102324 0.021792993
-0.014090036 -0.09431287 0.2655721 -0.09940796 -0.11622511 0.14306258 -0.10868684 0.17085232
0.11656784 -0.028899081 0.02088106 0.021113336 -0.14228971 -0.07666245 -0.017473442 -0.11197481
0.12336987 -0.17267273 -0.06358105 -0.11288389 0.045042906 0.21752591 -0.12559336 0.031563602
-0.1255562 0.1432794 0.08552933 -0.079647504 -0.09891595 0.2248271 0.28142676 -0.03794326
-0.015941279 -0.12174661 0.102911234 -0.07138839 -0.13425988 -0.12347053 -0.079403974 -0.027325047
-0.0082290545 -0.036711752 0.3344767 0.087927684 0.0150198 -0.053400423 -0.10482436 -0.07405943
00000000: ee19 8b3e 07a7 7a3e c75b 23bd b990 8ebd
00000010: c105 7bbc 827b 0f3e 313d 39bd bc5a 0ebd
00000020: f666 303e 5b3b a13e 85bd 5ebd 0701 c5bd
00000030: 7167 303e 5d32 a7bd 9e19 23bd e9d3 ac3c
00000040: e485 f2bb ec33 2abc f711 85bc 38c9 03ba
00000050: 86f9 f03c f00a 103d 27d4 35bd 40e5 98bd
00000060: e267 fc3d 4ac6 023e 2fa3 5fbd 013d 533e
00000070: 082e 253e e637 8b3e 7c34 94bd 00c4 eebc
00000080: 07a2 efbb a421 4b3e f87e c3bd 5d7a de3c
00000090: f3c7 dabd a27d 523c 5012 1fbd 49ce 5f3d
000000a0: 5696 44bc 9f69 0b3e 45dc 09be d7fc 84bd
000000b0: 6f20 d93b 7669 a3bc b9f0 733e 04a7 67bc
000000c0: 4f63 8d3d c282 3b3e 2d84 853d 0e40 2fbd
000000d0: 3930 363e 73c1 92bb 2a0e 8e3e 0256 893e
000000e0: f140 593e 1fa8 a93c dd6f 3cbd a561 29be
000000f0: 46bc aabd fc09 18bd 4126 26bd 8715 0f3e
00000100: 294e 65bd e586 b9bc 9eb8 7e3e edd8 b0bc
00000110: a3c6 83bb 2ca8 d53c d331 b23c 3076 34bd
00000120: 9bdc 96bd a5f6 2b3e 483b 2d3e 64ec 58bd
00000130: e6c6 27be af0c 43be 81f3 79bd 3887 b23c
00000140: e5d9 66bc 1b27 c1bd 11f9 873e 6796 cbbd
00000150: 6e07 eebd ff7e 123e 3597 debd e9f3 2e3e
00000160: 1fbb ee3d c4bd ecbc c20e ab3c e0f5 ac3c
00000170: 65b4 11be 3401 9dbd 7724 8fbc 0d53 e5bd
00000180: 58a9 fc3d 1fd1 30be c836 82bd ab2f e7bd
00000190: e97e 383d 1dbf 5e3e 8c9b 00be d648 013d
000001a0: ce91 00be d6b7 123e 002a af3d 3b1e a3bd
000001b0: 7294 cabd 1339 663e 2b17 903e 646a 1bbd
000001c0: 4997 82bc 4956 f9bd 20c3 d23d 1434 92bd
000001d0: 6c7b 09be 1ede fcbd 8d9e a2bd c7d8 dfbc
000001e0: 28d3 06bc 105f 16bd 8840 ab3e 6e13 b43d
000001f0: 9b15 763c 67ba 5abd 27ae d6bd 78ac 97bd

model.dense2.weight f4 [64, 128]
0.26745197 0.032684345 -0.17566653 -0.16580199 0.05072251 0.024188682 0.019504411 0.09460176
0.020115506 0.14394951 -0.11129619 -0.20668654 0.094809674 0.16815871 -0.07854676 -0.15464602
-0.07627605 -0.20735319 0.11699133 -0.058227047 0.0131596 -0.021668805 0.08743194 0.024541326
0.12008932 0.048822492 -0.35451552 -0.012966341 0.09261594 -0.005653854 -0.19541582 -0.010181689
-0.27582738 0.09494948 0.0077365227 -0.06548058 0.09647698 -0.13205306 0.103373036 0.09708903
-0.25086918 0.10465243 0.08436473 0.0116146775 0.12376366 0.0878849 0.13631347 -0.25644788
0.08054655 0.13767995 -0.004349354 -0.086863734 0.086427234 -0.040662106 0.1128307 0.14255327
0.3025134 -0.15712774 0.01841162 -0.2790215 0.019774277 0.12884328 -0.13011074 0.047171276
-0.2449245 0.07737094 0.031969946 0.010307196 0.042164396 -0.4446529 -0.13567634 -0.012135398
0.03394006 0.0011645694 0.05463381 -0.047671624 0.1625667 -0.1443885 0.06276285 0.10630062
0.019513624 -0.06544698 0.084628664 0.013473486 -0.010156955 0.07192723 -0.07068083 0.08589737
0.07116322 -0.08267521 -0.042065255 0.04487553 -0.20030311 -0.07412953 -0.37144506 -0.23052733
0.15445328 -0.023612002 -0.0032384135 -0.14195286 0.036817987 0.11893308 0.19129829 -0.136475
0.0065784464 0.04692873 0.10038279 0.10721323 -0.033619042 -0.04200064 0.13139986 -0.07688524
0.039484285 -0.06648029 0.0069793556 0.068667985 -0.15410005 -0.113902755 0.11596905 -0.19345821
-0.082165815 -0.017490298 0.044752818 0.0047111083 0.03207046 0.05251685 -0.089751594 -0.035133325
-0.020175105 -0.025426868 0.12031727 -0.1762952 -0.0839832 0.041546546 -0.18762083 -0.23467255
0.19102903 0.08342945 0.084427856 -0.13049428 0.06757433 -0.048801143 0.017160295 0.09363709
0.11454521 0.091332525 -0.27124116 0.12761344 0.16751151 -0.04183587 -0.06009846 0.09612393
-0.08363564 0.018046157 0.31080002 0.103512906 0.025472363 0.07400933 0.24380708 0.020868767
-0.08088066 0.011476488 0.017440151 0.130284 0.09327164 0.12879418 -0.09742377 0.07628704
-0.013919156 -0.077730015 0.08180399 -0.15862985 0.08168959 0.045234397 -0.23037067 -0.03905324
0.028192172 0.022782547 0.09801446 0.03387443 -0.09724472 -0.027928373 0.21005441 -0.02127943
-0.12433123 -0.04176353 0.105976865 0.13327132 -0.19812177 -0.067521945 0.16647033 0.2489628
-0.09901247 -0.026773643 0.18292014 0.14390804 -0.096859455 0.23891127 0.18837996 0.09283061
-0.23657112 0.18150434 0.10054017 0.01985992 -0.057223633 -0.031722285 -0.019344812 -0.039663978
0.16570762 -0.044578888 0.019156933 -0.060418606 -0.0143327825 -0.21240322 -0.0070632305 0.16709885
0.005826339 0.107745685 0.011166002 -0.072594695 -0.06597934 -0.0018331124 -0.097423166 -0.012021592
-0.2327983 -0.14796941 -0.16285497 0.14137506 0.029933617 -0.09400462 -0.1880417 0.17180696
-0.050526846 0.14753099 -0.17540763 0.05332124 -0.015840512 0.09886251 -0.023225876 -0.07353042
0.23301995 -0.10467796 0.07482541 -0.14957424 -0.09748364 -0.02118352 -0.17543502 -0.027275883
-0.06624929 -0.1598985 -0.020447524 0.14792907 -0.021134006 -0.28900242 -0.124379575 -0.24450389
00000000: 77ef 883e 05e0 053d ede1 33be ffc7 29be
00000010: 68c2 4f3d 5827 c63c b7c7 9f3c 91be c13d
00000020: 46c9 a43c 8067 133e 42ef e3bd a3a5 53be
00000030: 932b c23d cc31 2c3e 20dd a0bd 875b 1ebe
00000040: 9e36 9cbd 6554 54be 2799 ef3d 7c7f 6ebd
00000050: 5d9b 573c c782 b1bc 840f b33d e40a c93c
00000060: 64f1 f53d 18fa 473d 0f83 b5be c770 54bc
00000070: 6dad bd3d f743 b9bb 161b 48be 19d1 26bc
00000080: 3f39 8dbe df74 c23d a882 fd3b af1a 86bd
00000090: b995 c53d eb38 07be 3eb5 d33d 9dd6 c63d
000000a0: ed71 80be 0354 d63d 6ac7 ac3d 7d4b 3e3c
000000b0: cd77 fd3d 00fd b33d c295 0b3e 234d 83be
000000c0: 97f5 a43d f9fb 0c3e 0785 8ebb 9de5 b1bd
000000d0: c300 b13d 4f8d 26bd c813 e73d 7cf9 113e
000000e0: 09e3 9a3e 18e6 20be f7d3 963c e8db 8ebe
000000f0: aafd a13c 7eef 033e c03b 05be ab36 413d
00000100: 7dcd 7abe a874 9e3d ebf2 023d 83df 283c
00000110: 93b4 2c3d 8ba9 e3be bdee 0abe 8cd3 46bc
00000120: bb04 0b3d 77a4 983a b4c7 5f3d 5243 43bd
00000130: e377 263e 94da 13be cf89 803d 24b4 d93d
00000140: 09db 9f3c 1109 86bd cb51 ad3d e5bf 5c3c
00000150: 5b69 26bc 954e 933d 1cc1 90bd f6ea af3d
00000160: 06be 913d 9f51 a9bd 9e4c 2cbd 67cf 373d
00000170: 421c 4dbe 39d1 97bd 0c2e bebe 5b0f 6cbe
00000180: 0029 1e3e f56d c1bc 903b 54bb 175c 11be
00000190: 75ce 163d 3093 f33d b3e3 433e 1ac0 0bbe
000001a0: 0290 d73b 5738 403d 7e95 cd3d 9c92 db3d
000001b0: 1fb4 09bd dd08 2cbd af8d 063e 0276 9dbd
000001c0: 46ba 213d d126 88bd 14b3 e43b cda1 8c3d
000001d0: 67cc 1dbe d945 e9bd 2e81 ed3d e919 46be
000001e0: 8d46 a8bd d047 8fbc bb4e 373d a45f 9a3b
000001f0: 515c 033d e91b 573d afcf b7bd f6e7 0fbd
00000200: 4346 a5bc 024c d0bc e768 f63d bb86 34be
00000210: 62ff abbd b62c 2a3d ad1f 40be 004e 70be
00000220: 1d9d 433e 0fdd aa3d 83e8 ac3d 4ba0 05be
00000230: 6964 8a3d b5e3 47bd bf93 8c3c cdc4 bf3d
00000240: ae96 ea3d 8c0c bb3d 1fe0 8abe 19ad 023e
00000250: 2388 2b3e 175c 2bbd ce29 76bd 9fdc c43d
00000260: 2a49 abbd 89d5 933c 2e21 9f3e 93fe d33d
00000270: 6bab d03c 3492 973d 90a8 793e faf4 aa3c
00000280: c2a4 a5bd e107 3c3c a6de 8e3c 2b69 053e
00000290: 3405 bf3d 9fe2 033e 1d86 c7bd 613c 9c3d
000002a0: 2c0d 64bc ea30 9fbd da88 a73d dd6f 22be
000002b0: df4c a73d b447 393d 4ae6 6bbe 4af6 1fbd
000002c0: 45f3 e63c 77a2 ba3c cebb c83d eabf 0a3d
000002d0: 3d28 c7bd 0bca e4bc 8118 573e 3352 aebc
000002e0: 5fa1 febd 3c10 2bbd 660a d93d 4778 083e
000002f0: 6fe0 4abe f248 8abd 3377 2a3e 1bf0 7e3e
00000300: 0dc7 cabd 6654 dbbc 6b4f 3b3e a15c 133e
00000310: 405e c6bd 28a5 743e ade6 403e fa1d be3d
00000320: b33f 72be 46dc 393e 01e8 cd3d 45b1 a23c
00000330: 5463 6abd 3aef 01bd 0379 9ebc b276 22bd
00000340: 42af 293e 5a98 36bd 00ef 9c3c 8079 77bd
00000350: 0cd4 6abc 3b80 59be ac72 e7bb f61b 2b3e
00000360: e0ea be3b c5a9 dc3d 9bf1 363c 87ac 94bd
00000370: 2d20 87bd 0c45 f0ba cc85 c7bd 36f6 44bc
00000380: ad62 6ebe 4b85 17be 74c3 26be a0c4 103e
00000390: 5837 f53c 7f85 c0bd 018e 40be 2aee 2f3e
000003a0: 3df5 4ebd 5d12 173e 0f9e 33be 5f67 5a3d
000003b0: f6c3 81bc 6d78 ca3d 3144 bebc 1e97 96bd
000003c0: c89c 6e3e 6661 d6bd 113e 993d fd29 19be
000003d0: 81a5 c7bd 1089 adbc 3da5 33be ac71 dfbc
000003e0: b5ad 87bd 6fbc 23be 9181 a7bc b87a 173e
000003f0: 3921 adbc 20f8 93be b8ba febd 3a5f 7abe

model.dense2.bias f4 [64]
0.14913328 0.09308029 0.024349118 0.19449015 0.092111826 0.073138535 0.05376807 -0.09043451
0.025957996 0.16661197 0.02826056 0.06513541 0.30937558 0.24138728 0.0692126 0.23324299
-0.09440956 0.15527707 -0.035206303 -0.10673381 -0.16656087 -0.12770024 0.060394123 0.022371411
-0.06239553 -0.011857896 -0.18063581 -0.05880631 0.123651065 -0.02629513 0.039808758 0.013989232
0.03060071 -0.03397437 -0.08211544 0.060188223 -0.113348365 0.2614649 -0.013882524 -0.023424214
0.35736245 0.25621426 -0.05432942 -0.1247928 0.07257049 0.13406016 -0.017787797 -0.05426671
-0.080528736 0.27144527 -0.08333508 0.21479547 -0.17767164 0.22074044 -0.005930298 0.022970617
-0.085920714 0.027305612 0.09180675 -0.033601947 0.18705833 -0.034574527 0.039338198 0.19109206
00000000: 65b6 183e e1a0 be3d cd77 c73c 6d28 473e
00000010: 20a5 bc3d a8c9 953d e83b 5c3d ba35 b9bd
00000020: dda5 d43c 549c 2a3e b182 e73c b765 853d
00000030: 7a66 9e3e 3a2e 773e 56bf 8d3d 40d7 6e3e
00000040: cd59 c1bd f400 1f3e 7c34 10bd 4197 dabd
00000050: ef8e 2abe dac3 02be d45f 773d 4044 b73c
00000060: 7592 7fbd 9f47 42bc 98f8 38be e3de 70bd
00000070: c53c fd3d e268 d7bc 820e 233d 1733 653c
00000080: 57ae fa3c b628 0bbd 242c a8bd ed87 763d
00000090: 3023 e8bd bade 853e 8773 63bc 23e4 bfbc
000000a0: 36f8 b63e 842e 833e 8788 5ebd 5e93 ffbd
000000b0: d69f 943d 1147 093e b7b7 91bc c546 5ebd
000000c0: 40ec a4bd e0fa 8a3e 95ab aabd 58f3 5b3e
000000d0: 8eef 35be c809 623e f252 c2bb e02c bc3c
000000e0: 33f7 afbd 05b0 df3c 2d05 bc3d 32a2 09bd
000000f0: 388c 3f3e 059e 0dbd 1721 213d a3ad 433e

model.dense3.weight f4 [32, 64]
-0.15577978 -0.01706934 0.019126829 -0.1635947 0.14076895 0.14137042 -0.071807906 0.023651944
-0.055839617 -0.12490207 0.056633353 -0.0976577 0.22128022 0.18988462 0.01563301 0.0690463
-0.0101683885 -0.12186674 0.11834375 -0.024342118 0.044711813 0.022596793 0.064641096 0.10575572
0.000980826 0.07030559 0.11304641 -0.041218597 -0.19863485 0.10079044 0.12956907 0.017141568
0.18054046 0.11355857 0.09441626 0.11148686 -0.13494714 -0.10983025 0.011733366 0.22280881
0.25076762 -0.3470342 -0.14494936 0.15195893 0.006043785 0.26176256 0.10134682 0.13008067
-0.0478844 -0.20845363 0.010276112 -0.17997052 0.020783655 0.12378519 0.060594283 0.036631364
0.05473241 0.042673852 0.018821793 0.041025132 -0.09179378 0.10395833 -0.0053446577 0.20575573
-0.101522215 0.08427145 0.14533912 -0.12582105 -0.027985193 -0.08336254 0.09647621 -0.13032362
0.06408692 0.022373881 0.1762892 0.07543849 -0.05054611 0.075027086 0.12121935 0.022191178
0.15716417 -0.021403933 -0.07621299 -0.021168292 0.12598911 -0.25930062 0.09165295 0.064545974
0.06763897 0.1688331 0.11294967 0.121756345 0.08034617 -0.18345295 -0.098594226 0.019096417
0.15987653 -0.014952951 0.07957158 -0.38323492 0.02418436 -0.0044327658 -0.005854976 0.066839755
-0.011705651 -0.17803493 0.043128647 -0.026176002 0.031420786 0.21651138 0.052654605 0.03893988
0.028450394 -0.10456841 -0.09448119 0.09522577 -0.12480618 0.046967827 -0.05102787 0.067148395
-0.15162979 -0.17388655 0.17172058 0.21962644 -0.17243406 0.17563683 0.05177662 -0.018858522
-0.026825191 0.09455496 -0.01479117 -0.05262293 -0.036227196 -0.09630643 0.10324743 -0.0002972904
-0.21302396 0.2540204 -0.1183021 -0.13704595 0.13640901 0.030667048 0.11727067 0.15661417
-0.10554422 -0.060974844 -0.082042225 -0.03976855 0.02350699 0.108083606 0.18082422 -0.16589467
0.12886085 -0.092224166 0.06684289 -0.15211262 -0.03288155 0.108897574 -0.04417657 0.16540775
0.18495136 -0.1599649 -0.010577336 0.045544222 0.06448445 0.10704401 0.11094657 -0.37505946
0.050728697 -0.058483146 0.23822062 0.018159138 -0.254043 0.10952131 0.27014938 -0.07036058
-0.16927108 -0.18404055 -0.06464245 0.118323766 -0.13107754 0.0080665285 -0.13754764 0.051338956
0.00690895 -0.10808784 -0.0403841 -0.00037485166 0.15165024 0.004272486 -0.11167137 0.0265493
0.11656394 -0.08078188 0.052469436 0.19246584 0.12819579 0.22340888 -0.0068897684 -0.124603756
0.019690104 0.1226716 0.20736897 0.1991264 -0.08724955 -0.0660996 0.07005599 0.0022651933
0.20082095 -0.06983113 -0.09474531 -0.10975722 0.2408153 0.30984542 0.19685853 -0.04544448
0.027456334 0.24014233 -0.005181967 0.054373 -0.028752897 -0.090746075 0.22738093 0.0272758
-0.05089574 0.28137058 0.07204259 -0.041942477 -0.09770472 -0.17766044 -0.08122437 -0.32233918
-0.20933346 -0.08410042 -0.0018507955 0.071093865 -0.039155267 -0.019556127 -0.06197589 0.049612395
0.2113715 -0.03919444 -0.12210105 -0.109436594 0.026870131 -0.13904972 -0.041902654 0.073206946
0.34399393 -0.032471996 0.00032889287 0.024954682 -0.0055804634 0.115085654 0.014063468 -0.07222949
00000000: bc84 1fbe 00d5 8bbc deaf 9c3c 5e85 27be
00000010: bc25 103e 68c3 103e 0610 93bd b9c1 c13c
00000020: 15b8 64bd a8cc ffbd 60f8 673d c300 c8bd
00000030: 4897 623e 1d71 423e cc10 803c 2668 8d3d
00000040: 5099 26bc 4595 f9bd 355e f23d 1f69 c7bc
00000050: bc23 373d e91c b93c 8d62 843d 7496 d83d
00000060: 0f8f 803a 61fc 8f3d e084 e73d d5d4 28bd
00000070: ef66 4bbe 386b ce3d c1ad 043e 796c 8c3c
00000080: 99df 383e 6591 e83d 505d c13d 3953 e43d
00000090: 952f 0abe afee e0bd 4e3d 403c fe27 643e
000000a0: 9d64 803e 77ae b1be 9b6d 14be 1f9b 1b3e
000000b0: f10a c63b be05 863e ec8e cf3d de33 053e
000000c0: 6f22 44bd de74 55be 235d 283c 314a 38be
000000d0: 7c42 aa3c 1783 fd3d b631 783d c50a 163d
000000e0: 172f 603d c7ca 2e3d 2930 9a3c f809 283d
000000f0: 61fe bbbd 1be8 d43d 3d22 afbb a1b1 523e
00000100: e1ea cfbd 8396 ac3d c7d3 143e 3cd7 00be
00000110: 3441 e5bc fbb9 aabd 5295 c53d 8e73 05be
00000120: 0140 833d 6e49 b73c 2885 343e 7f7f 9a3d
00000130: 7009 4fbd cda7 993d da41 f83d 46ca b53c
00000140: a5ef 203e 4d57 afbc 8e15 9cbd 2069 adbc
00000150: 4a03 013e 0dc3 84be 8bb4 bb3d ae30 843d
00000160: 4d86 8a3d 96e2 2c3e 2852 e73d 645b f93d
00000170: 888c a43d 17db 3bbe c5eb c9bd 1770 9c3c
00000180: acb6 233e 39fd 74bc 6df6 a23d 5e37 c4be
00000190: 471e c63c bc40 91bb 19db bfbb 48e3 883d
000001a0: 0fc9 3fbc ca4e 36be aaa7 303d 0e6f d6bc
000001b0: 15b3 003d 29b5 5d3e 5bac 573d 6c7f 1f3d
000001c0: cd10 e93c f627 d6bd 5b7f c1bd ba05 c33d
000001d0: 629a ffbd 5661 403d 9a02 51bd 1985 893d
000001e0: d744 1bbe 510f 32be 85d7 2f3e c1e5 603e
000001f0: 8e92 30be 24da 333e b913 543d 307d 9abc
00000200: 81c0 dbbc 08a6 c13d aa56 72bc 248b 57bd
00000210: f862 14bd 4e3c c5bd 6373 d33d a4dd 9bb9
00000220: f422 5abe f60e 823e 5f48 f2bd c655 0cbe
00000230: ceae 0b3e 7639 fb3c 9b2b f03d 775f 203e
00000240: 9127 d8bd c2c0 79bd c105 a8bd 59e4 22bd
00000250: bb91 c03c f05a dd3d fc29 393e 4be0 29be
00000260: 19f4 033e 06e0 bcbd ede4 883d 69c3 1bbe
00000270: ceae 06bd b105 df3d 7ef2 34bd a660 293e
00000280: e463 3d3e d7cd 23be 904c 2dbc 948c 3a3d
00000290: 6c10 843d e439 db3d f537 e33d cb07 c0be
000002a0: e5c8 4f3d 068c 6fbd 1bf0 733e 79c2 943c
000002b0: ed11 82be b54c e03d 0551 8a3e 3519 90bd
000002c0: 6655 2dbe 2075 3cbe 4363 84bd bb53 f23d
000002d0: 3139 06be 7929 043c 4ad9 0cbe cc48 523d
000002e0: 7964 e23b 285d ddbd cc69 25bd bd87 c4b9
000002f0: 334a 1b3e 3600 8c3b f6b3 e4bd eb7d d93c
00000300: 13b9 ee3d f870 a5bd 31ea 563d c415 453e
00000310: c245 033e 4cc5 643e 91c3 e1bb 4130 ffbd
00000320: 244d a13c 3f3b fb3d 8858 543e cae7 4b3e
00000330: e4af b2bd 3a5f 87bd 8479 8f3d a373 143b
00000340: 02a4 4d3e a003 8fbd d409 c2bd 65c8 e0bd
00000350: 4998 763e 0fa4 9e3e 4895 493e fe23 3abd
00000360: 1bec e03c dfe7 753e 7dcd a9bb 39b6 5e3d
00000370: 328b ebbc 14d9 b9bd 8cd6 683e 8071 df3c
00000380: 0d78 50bd ce0f 903e 118b 933d e0cb 2bbd
00000390: 6a19 c8bd 9eec 35be f658 a6bd a409 a5be
000003a0: 835b 56be d73c acbd 6496 f2ba a999 913d
000003b0: 4661 20bd 2c34 a0bc 6eda 7dbd 5e36 4b3d
000003c0: c571 583e 598a 20bd 1e10 fabd 4b20 e0bd
000003d0: c01e dc3c 0d63 0ebe 1ea2 2bbd 86ed 953d
000003e0: f91f b03e 5b01 05bd 416f ac39 c36d cc3c
000003f0: 52dc b6bb 07b2 eb3d 766a 663c 0eed 93bd

model.dense3.bias f4 [32]
-0.05102021 0.051577397 0.06733814 0.07490407 0.194706 -0.042300798 0.12586524 -0.10117294
0.08837595 0.090271816 0.010919764 0.17681883 0.044437543 -0.027191596 -0.04817141 0.28739545
-0.067250915 -0.0008587888 0.14073065 0.018116163 -0.17413151 -0.13216014 -0.131048 0.009083705
0.060110606 -0.020935653 0.08113749 0.11978796 -0.14295463 -0.077243954 0.35118753 0.18417759
00000000: 91fa 50bd d242 533d 94e8 893d 4e67 993d
00000010: 0261 473e 9a43 2dbd d1e2 003e c233 cfbd
00000020: 73fe b43d 6ee0 b83d cfe8 323c ff0f 353e
00000030: 2404 363d e9c0 debc 624f 45bd 7f25 933e
00000040: d9ba 89bd 5720 61ba b21b 103e 5968 943c
00000050: 884f 32be fd54 07be 7231 06be d2d3 143c
00000060: 8a36 763d 3f81 abbc 6a2b a63d 6453 f53d
00000070: b362 12be 1432 9ebd dace b33e 0d99 3c3e

model.output.weight f4 [10, 32]
-0.335507 0.25083786 0.054736987 -0.007871305 0.16938181 -0.13109648 -0.120366834 0.00028119198
0.05177237 -0.13658944 0.12747578 -0.23278323 -0.02243356 0.13047574 -0.41271445 0.13681677
-0.004540511 0.03796904 0.19688444 -0.016376268 0.31847286 0.18595152 0.09627987 -0.22342819
-0.2325402 -0.008652645 -0.24589224 -0.101819254 0.09281019 -0.054503106 -0.20446365 0.1450435
0.1409035 -0.28789768 -0.16656238 -0.03338079 0.014968511 0.044574384 -0.1292698 0.05578094
0.06097512 -0.38991287 0.12599434 -0.09459814 -0.18662713 -0.14044265 -0.19674104 0.09359687
-0.072255366 -0.016782383 -0.20026276 -0.35230455 -0.22471388 0.004091567 -0.14175044 0.08607643
0.036590047 0.025327155 0.35121232 0.19377124 0.026807416 0.14460436 -0.26680034 0.05005152
-0.3997145 0.15511073 -0.16308066 0.15891114 0.17822172 -0.007078209 -0.29569265 -0.002997536
0.146582 0.09886045 -0.27284518 0.12194301 -0.053540785 -0.022414632 -0.24227634 -0.20564294
-0.55602854 -0.014609594 0.06645744 -0.27128196 -0.18717104 0.19891337 0.03446818 -0.25532228
-0.20194207 0.078443274 0.08802436 0.18691657 -0.08464719 0.096737295 0.12719016 -0.10391591
-0.14995083 -0.15162905 -0.076877855 0.18885672 -0.1897567 -0.16712847 0.064339034 -0.13067622
-0.13379988 0.14415571 -0.10642481 0.25282678 -0.12893061 -0.025295038 -0.0315398 -0.022463689
-0.7036735 -0.034750674 -0.13639222 -0.18483575 -0.04661807 -0.15145679 -0.260756 0.1283196
0.113168575 0.08169575 -0.40753692 0.21819454 -0.016665993 -0.12983136 -0.22200622 0.13799004
0.12035095 -0.23608094 0.11923323 -0.07482624 0.14891112 -0.16783737 0.15985644 -0.21170665
-0.106952816 -0.020709677 0.0672458 -0.22366333 0.15283754 0.04914652 0.11453243 -0.28595147
-0.11988476 -0.24054801 0.11874275 -0.010532658 0.06847251 0.24320509 -0.26429954 0.120414406
-0.08142941 -0.09552415 0.25491416 -0.082807496 -0.10584346 -0.31149727 0.10700574 -0.29178503
0.11716666 0.033147722 -0.21958123 0.093222424 -0.34978703 -0.14852059 -0.20110114 0.04077476
-0.118576966 0.0948203 -0.25417382 -0.11532726 0.09477964 0.10582662 -0.04614986 0.21435295
-0.24551664 0.13184664 -0.09357953 0.16189335 -0.25305066 -0.051186062 -0.036286727 0.14260457
0.115058094 -0.16441931 -0.08138198 -0.12267381 0.11143024 -0.21990402 -0.0142715415 0.0836838
0.02157924 -0.10513242 -0.027275058 -0.3053154 0.09303115 -0.13430694 -0.36823186 -0.01761244
0.14515081 0.04913329 0.013562498 -0.07810796 -0.3621103 -0.21992315 -0.16452296 0.12960565
0.089025766 -0.0353977 -0.058772486 0.27858552 0.12701912 -0.2185187 -0.409478 -0.40427426
0.13053939 -0.034741126 0.14474526 -0.20918043 -0.15359443 -0.2925984 0.15413818 -0.00094638043
-0.20774786 -0.19971086 0.09260671 0.2631888 -0.2192412 0.014570899 0.040526234 0.07101689
-0.3805301 -0.3687646 0.07125417 0.11916918 0.14254926 0.020507285 -0.09020613 -0.44696093
-0.6740189 -0.05818754 0.17960855 -0.057787884 0.18609402 0.121483624 0.22940183 0.08485686
-0.31607342 0.050504994 0.027016934 0.25836682 0.10127036 0.08923387 -0.09707935 -0.43583512
00000000: 93c7 abbe d26d 803e e433 603d a5f6 00bc
00000010: 6d72 2d3e 283e 06be e382 f6bd f36c 9339
00000020: 440f 543d 1ade 0bbe 0389 023e ba5e 6ebe
00000030: 96c6 b7bc 6f9b 053e 4f4f d3be b219 0c3e
00000040: 91c8 94bb 6d85 1b3d 139c 493e 8627 86bc
00000050: e00e a33e 136a 3e3e 612e c53d 5cca 64be
00000060: 051f 6ebe d3c3 0dbc 2dcb 7bbe 9d86 d0bd
00000070: 4513 be3d a63e 5fbd eb5e 51be 4986 143e
00000080: 0249 103e 5367 93be 548f 2abe 4cba 08bd
00000090: 7c3e 753c a193 363d 4d5f 04be 8e7a 643d
000000a0: 0cc1 793d a9a2 c7be a904 013e abbc c1bd
000000b0: 2f1b 3fbe 33d0 0fbe 7c76 49be b7af bf3d
000000c0: 9ffa 93bd 357b 89bc ae11 4dbe 4361 b4be
000000d0: 651b 66be 8d12 863b 0727 11be d748 b03d
000000e0: 72df 153d e57a cf3c 1ad2 b33e f86b 463e
000000f0: 3a9b db3c 2a13 143e 0e9a 88be d302 4d3d
00000100: 61a7 ccbe 59d5 1e3e 9efe 26be 9ab9 223e
00000110: c17f 363e 52f0 e7bb 0765 97be 4f72 44bb
00000120: 9819 163e 5977 ca3d 5db2 8bbe 42bd f93d
00000130: 954d 5bbd e49e b7bc 4a17 78be 1094 52be
00000140: e357 0ebf 145d 6fbc d71a 883d 78e5 8abe
00000150: c4a9 3fbe f2af 4b3e 822e 0d3d 9ab9 82be
00000160: e7c9 4ebe dea6 a03d 1e46 b43d 0f67 3f3e
00000170: 825b adbd 341e c63d 233e 023e ddd1 d4bd
00000180: b68c 19be a544 1bbe 2372 9dbd a863 413e
00000190: 954f 42be ba23 2bbe 2fc4 833d fdcf 05be
000001a0: d602 09be 8e9d 133e 40f5 d9bd 8372 813e
000001b0: 6306 04be 8a37 cfbc e12f 01bd c505 b8bc
000001c0: f223 34bf b956 0ebd 67aa 0bbe 9545 3dbe
000001d0: 97f2 3ebd 7d17 1bbe cf81 85be 3766 033e
000001e0: edc4 e73d 1a50 a73d aea8 d0be 646e 5f3e
000001f0: 1f87 88bc 83f2 04be 9955 63be 434d 0d3e
00000200: 8f7a f63d 34bf 71be 8d30 f43d 803e 99bd
00000210: 287c 183e 8fdd 2bbe 68b1 233e a1c9 58be
00000220: 140a dbbd 57a7 a9bc 2ab8 893d 0008 65be
00000230: 7281 1c3e dd4d 493d fb8f ea3d 3b68 92be
00000240: 2486 f5bd 3852 76be 662f f33d 2b91 2cbc
00000250: 513b 8c3d c10a 793e 4552 87be d49b f63d
00000260: 76c4 a6bd 2aa2 c3bd 1c84 823e fa96 a9bd
00000270: 75c4 d8bd 927c 9fbe d325 db3d d964 95be
00000280: 13f5 ef3d e8c5 073d e7d9 60be 66eb be3d
00000290: 4917 b3be c815 18be 75ed 4dbe 6f03 273d
000002a0: 7bd8 f2bd 2531 c23d 1223 82be b330 ecbd
000002b0: d41b c23d a0bb d83d a307 3dbd 577f 5b3e
000002c0: b768 7bbe ce02 073e a0a6 bfbd 5fc7 253e
000002d0: db8f 81be 7aa8 51bd 64a1 14bd ef06 123e
000002e0: 94a3 eb3d 895d 28be 98ab a6bd 683c fbbd
000002f0: 8a35 e43d 852e 61be 2fd3 69bc 6a62 ab3d
00000300: f2c6 b03c ab4f d7bd f16f dfbc 4d52 9cbe
00000310: 1e87 be3d c287 09be e388 bcbe f747 90bc
00000320: 6aa2 143e fd3f 493d 3d35 5e3c 11f7 9fbd
00000330: 8566 b9be 8933 61be b578 28be 58b7 043e
00000340: 2453 b63d 2efd 10bd 6bbb 70bd c3a2 8e3e
00000350: 4d11 023e 5ec3 5fbe 1aa7 d1be 09fd cebe
00000360: 1eac 053e b64c 0ebd 1a38 143e 6533 56be
00000370: dc47 1dbe 75cf 95be 66d6 1d3e 8416 78ba
00000380: dbbb 54be 0181 4cbe 96a8 bd3d afc0 863e
00000390: c480 60be c8ba 6e3c d6fe 253d 4e71 913d
000003a0: d7d4 c2be b7ce bcbe b5ed 913d f90e f43d
000003b0: 6ff8 113e e5fe a73c febd b8bd 10d8 e4be
000003c0: 818c 2cbf 0f56 6ebd 4eeb 373e fdb2 6cbd
000003d0: 6e8f 3e3e 68cc f83d 50e8 6a3e 6fc9 ad3d
000003e0: 60d4 a1be 53de 4e3d 9e52 dd3c a848 843e
000003f0: d666 cf3d 3fc0 b63d 8ad1 c6bd c825 dfbe

model.output.bias f4 [10]
-0.14176168 0.07549027 0.11731239 -0.109134555 -0.050100278 -0.131947 -0.19627489 -0.1399276
0.39978555 0.00146782
00000000: f929 11be a59a 9a3d 7a41 f03d f081 dfbd
00000010: f335 4dbd 1d1d 07be 49fc 48be 2e49 0fbe
00000020: b1b0 cc3e de63 c03a
