Models/model_optSGD_ep5_neu32_lay2_acc0.9132.pth (torch, 108264 bytes, 8 tensors)

model.input.weight f4 [32, 784]
-0.020070208 0.023717247 -0.0066817924 0.0020691827 -0.0065348838 0.03229369 -0.013816558 0.028942589
-0.0114439055 0.031287078 0.024129871 0.011065122 -0.016387103 -0.030247107 -0.027138576 0.033626694
0.005428862 -0.020814475 0.035262275 0.010884821 -0.023005998 0.026290338 0.016576834 -0.017990228
0.03566606 0.023207873 0.016811669 -0.018354958 0.013774034 0.007542789 0.0336512 0.013809819
0.0068089515 0.027641099 -0.016853116 0.028753342 -0.031367883 0.0047724363 0.024889076 0.006541167
0.018918058 -0.0069067967 -0.019830609 0.03349153 0.027587429 0.018544145 0.013633675 -0.012949456
0.0013293166 0.0018090704 0.017042363 0.008275343 -0.015485935 -0.010752836 0.012491114 -0.034231715
-0.021759175 -0.03362423 -0.035195194 -0.022739798 0.025850043 -0.022659548 0.0057422435 -0.011641291
0.024513194 -0.002544343 -0.00024899916 -0.00822298 0.015546154 -0.0036870043 -0.01942414 0.026334086
0.04368161 -0.015483308 -0.036564097 -0.04772346 0.025764689 -0.023838382 -0.0024675168 -0.016163394
0.023043497 0.0249278 0.017475624 0.023402542 -0.0081876945 0.0343293 -0.031311452 -0.03396177
-0.012852248 -0.017423686 0.0043319575 -0.02882871 -0.010369124 -0.0048320335 0.020434557 0.024299951
0.02028594 0.036592606 0.013001915 0.015860336 0.07252307 0.046467546 0.03172356 0.007812501
-0.014830309 -0.0033864614 0.018996375 -0.036500882 -0.008583381 0.014027291 0.030018982 -0.018704824
0.0016258992 0.032912176 0.024431143 -0.0047420096 -0.033696365 -0.026911318 0.027527539 -0.00078524865
0.010839892 0.056093495 0.040631827 0.017815975 0.07892908 0.076582514 0.026231306 0.07904777
0.08282489 0.10686483 0.08983349 -0.012359859 -0.022471579 -0.041116938 -0.0260572 -0.0035532636
0.019400552 -0.025623856 -0.027122296 0.03426307 -0.0026850998 0.012364186 0.032152627 -0.024585828
-0.016171541 -0.0011860358 -0.002069775 0.075108714 0.037247993 0.028866885 0.05310978 0.01890664
0.052973367 0.04792125 0.015700834 0.06783571 0.071347095 0.061048627 0.07197731 0.041427527
-0.016138565 -0.033312734 -0.03712845 0.009715912 -0.0014179238 -0.022690326 0.021337 0.019138286
-0.031913307 -0.014172874 -0.018583575 -0.015811527 -0.030276945 0.004666807 0.038602214 0.07600375
0.07669051 0.07635692 0.10097182 0.044215538 0.035627905 0.006258196 0.0804242 0.04084307
0.038404785 0.02812342 0.051790163 0.068021215 0.04884332 0.008871257 0.0012831734 -0.023659114
-0.039371435 -0.041350942 0.0050435443 0.0008789365 -0.027343603 0.03231273 0.018473506 -0.01486566
0.007823354 0.015677903 0.0221458 0.050249 -0.009183837 0.0117743835 0.06617854 0.04440488
0.017148878 0.09322879 0.075388804 0.05215579 0.041250505 0.045221474 0.071221896 0.118094884
0.092981815 0.01640169 -0.008279507 -0.07424293 -0.091799505 -0.04220334 -0.032468062 -0.03418089
-0.006019167 0.009123836 0.000716041 -0.0043340935 -0.027567707 -0.021326035 0.035131324 -0.026409125
-0.028425999 -0.00910869 0.0317858 0.019178443 0.0036070794 0.00010901965 -0.025877977 0.028494019
0.059010852 0.13194357 0.1432596 0.089357994 0.063206255 0.0035960746 0.009365539 -0.05258089
-0.0925869 -0.051049754 0.019418593 -0.00093294424 -0.012970535 0.025047446 -0.003932609 -0.0031493315
00000000: 476a a4bc ac4a c23c f0f2 dabb 209b 073b
00000010: 9422 d6bb 6346 043d d85e 62bc 0219 ed3c
00000020: 387f 3bbc e126 003d 02ac c53c 7c4a 353c
00000030: 3f3e 86bc c8c8 f7bc b851 debc 25bc 093d
00000040: 98e4 b13b 1e83 aabc 2d6f 103d 4056 323c
00000050: 1377 bcbc d65e d73c 24cc 873c 3e60 93bc
00000060: 9316 123d 701e be3c a0b8 893c 235d 96bc
00000070: 7cac 613c 8029 f73b d7d5 093d 9442 623c
00000080: a01d df3b 966f e23c 8c0f 8abc 218c eb3c
00000090: 9c7b 00bd 1962 9c3b 2de4 cb3c 4957 d63b
000000a0: 0bfa 9a3c 6952 e2bb cd73 a2bc 6a2e 093d
000000b0: 08ff e13c e4e9 973c c75f 5f3c f529 54bc
000000c0: 773c ae3a 541e ed3a 6d9c 8b3c 4e95 073c
000000d0: b8b8 7dbc aa2c 30bc 88a7 4c3c 8e36 0cbd
000000e0: 4c40 b2bc 90b9 09bd d628 10bd d048 babc
000000f0: 78c3 d33c 84a0 b9bc 6e29 bc3b 1dbb 3ebc
00000100: e5cf c83c febe 26bb 1a8c 82b9 aeb9 06bc
00000110: 4cb5 7e3c aba1 71bb 601f 9fbc 95ba d73c
00000120: 7deb 323d b3ad 7dbc 3cc4 15bd ad79 43bd
00000130: 7810 d33c b648 c3bc 10b6 21bb 1869 84bc
00000140: b7c5 bc3c 6335 cc3c 0a29 8f3c b0b6 bf3c
00000150: ae25 06bc e19c 0c3d 7040 00bd 7f1b 0bbd
00000160: 3c92 52bc 1ebc 8ebc 18f3 8d3b 302a ecbc
00000170: 42e3 29bc 0956 9ebb 5f66 a73c b110 c73c
00000180: b32e a63c 21e2 153d fc05 553c 89ed 813c
00000190: fa86 943d c154 3e3d 90f0 013d 0100 003c
000001a0: d3fa 72bc 65ef 5dbb 499e 9b3c f381 15bd
000001b0: 4fa1 0cbc b9d2 653c 5eea f53c dc3a 99bc
000001c0: 201c d53a ebce 063d d223 c83c dc62 9bbb
000001d0: 3305 0abd 2075 dcbc 6f81 e13c 25d9 4dba
000001e0: cd99 313c 4bc2 653d 8f6d 263d cff2 913c
000001f0: 92a5 a13d 4bd7 9c3d 09e3 d63c cce3 a13d
00000200: 19a0 a93d f3db da3d 9ffa b73d 0281 4abc
00000210: 5116 b8bc 3c6a 28bd e975 d5bc dfdd 68bb
00000220: e8ed 9e3c 1fe9 d1bc 942f debc 6f57 0c3d
00000230: 80f8 2fbb 2893 4a3c 79b2 033d 3868 c9bc
00000240: 2e7a 84bc c274 9bba 10a5 07bb 99d2 993d
00000250: 5a91 183d 3f7a ec3c a489 593d 19e2 9a3c
00000260: 9afa 583d 1349 443d 099f 803c 73ed 8a3d
00000270: 6d1e 923d 200e 7a3d d768 933d e9af 293d
00000280: 0635 84bc ef72 08bd 0014 18bd 7d2f 1f3c
00000290: a1d9 b9ba 10e1 b9bc efca ae3c e5c7 9c3c
000002a0: 87b7 02bd 5835 68bc 953c 98bc 2d87 81bc
000002b0: 5b07 f8bc 04ec 983b 5b1d 1e3d dba7 9b3d
000002c0: ea0f 9d3d 0461 9c3d 50ca ce3d 5a1b 353d
000002d0: 91ee 113d 8e11 cd3b 71b5 a43d 104b 273d
000002e0: 564e 1d3d 1663 e63c ec21 543d b54e 8b3d
000002f0: ef0f 483d c058 113c 2830 a83a c2d0 c1bc
00000300: f143 21bd 9b5f 29bd 5144 a53b 6e68 663a
00000310: b1ff dfbc 5a5a 043d c055 973c 198f 73bc
00000320: 862d 003c f26e 803c 1c6b b53c e5d1 4d3d
00000330: ce77 16bc 58e9 403c 9d88 873d e4e1 353d
00000340: ce7b 8c3c bcee be3d 7265 9a3d 4fa1 553d
00000350: 4af6 283d 273a 393d c9dc 913d bbdb f13d
00000360: 406d be3d d65c 863c c5a6 07bc ad0c 98bd
00000370: 6101 bcbd 69dd 2cbd 3bfd 04bd 4301 0cbd
00000380: 6f3c c5bb 247c 153c b3b4 3b3a 0305 8ebb
00000390: acd5 e1bc f0b3 aebc dde5 0f3d f357 d8bc
000003a0: a4dd e8bc 9d3c 15bc d431 023d 1c1c 9d3c
000003b0: c064 6c3b 7ba1 e438 0dfe d3bc 4a6c e93c
000003c0: 5db5 713d 371c 073e a5b2 123e 5301 b73d
000003d0: 4872 813d 1fac 6b3b eb71 193c 0f5f 57bd
000003e0: 339e bdbd 8c19 51bd be13 9f3c d490 74ba
000003f0: 5e82 54bc 4d30 cd3c 1edd 80bb 0465 4ebb

model.input.bias f4 [32]
0.055596296 0.021635996 -0.0019902573 0.1312925 0.0015650168 -1.5350177e-05 -0.014545506 -0.048565045
0.04235036 0.02491874 0.02064762 -0.0019368007 0.0038121014 0.11736882 0.020017084 0.07570812
-0.06407938 0.0373093 0.02783755 -0.08867204 0.05456793 -0.057521503 0.033584133 0.030584555
0.08884794 0.10254667 0.0737625 0.032679897 0.025931058 0.12627114 0.03376565 0.0330883
00000000: f1b8 633d f93d b13c fa6e 02bb 8b71 063e
00000010: 4021 cd3a 41c4 80b7 4650 6ebc 24ec 46bd
00000020: 9277 2d3d 6322 cc3c 3325 a93c 3fdc fdba
00000030: 73d4 793b 105f f03d defa a33c dc0c 9b3d
00000040: 0d3c 83bd a3d1 183d 930b e43c b099 b5bd
00000050: 9f82 5f3d ab9b 6bbd 848f 093d 768c fa3c
00000060: e9f5 b53d fd03 d23d cb10 973d 5bdb 053d
00000070: 5f6d d43c 394d 013e da4d 0a3d 9987 073d

model.dense1.weight f4 [16, 32]
0.14827648 -0.25923857 0.17757635 -0.055720065 -0.25220868 0.35773388 0.14263073 0.13588578
0.29427087 0.0043657077 0.14272653 0.13751352 -0.15435287 -0.058310844 0.00052735873 0.17530534
0.19125953 0.06640958 0.068399906 -0.13907908 -0.03961527 -0.18753956 0.22712612 -0.009404673
0.1116444 -0.22223596 0.022523275 -0.08631438 -0.09823765 0.26719892 -0.02914949 -0.080546476
0.2772044 0.13652542 -0.1021658 -0.30499455 0.14060469 -0.26266122 0.19288756 -0.04899318
-0.18700032 0.018155918 0.005778388 0.10468657 0.032166127 0.084418215 -0.088545054 0.00011767452
-0.25216538 0.22049138 0.22121459 0.005076294 -0.12716214 0.2887727 0.053653393 -0.23310916
-0.30898407 0.32834277 -0.2750092 0.31839198 -0.1272411 -0.122983865 0.3654317 0.106808186
0.4893973 -0.2072019 0.027558992 -0.23626365 0.33408526 0.23406185 0.051706802 0.037053764
0.14517806 0.20778273 0.13275896 0.14476709 -0.0957273 0.6762983 -0.31956053 0.33912104
0.032108687 0.3393716 0.38613635 0.27621913 0.064887434 0.32822075 0.2097586 -0.087137826
-0.476492 0.2863594 -0.059995733 0.18276171 -0.30614406 -0.09601348 -0.055317327 0.111204155
0.16973224 0.14142318 0.24036048 0.06247555 -0.28128833 -0.05979781 0.06771067 0.09534944
-0.41145876 -0.03447978 -0.016790349 0.024470387 -0.044630673 0.18994153 0.10990441 -0.010788714
0.4467747 0.094197966 0.17843798 -0.2879588 0.21251756 -0.28136316 -0.25551558 0.17367281
0.08703574 -0.18456551 -0.03773866 -0.0007770837 -0.13069256 0.20396934 0.22331911 0.17402713
-0.31848687 0.36223587 0.13990669 0.23871195 0.044949837 -0.48261803 -0.031712182 -0.36849645
0.21851648 0.20901522 -0.27475753 -0.2489637 0.09369113 -0.020684492 -0.10961355 0.21561679
-0.15483008 -0.102251425 -0.16612656 0.36462867 -0.08947889 0.37859806 0.15261084 0.109967396
0.023570897 0.27932376 0.6152476 -0.0020695021 0.27696547 -0.31053743 0.45815864 -0.12651423
-0.035159875 0.19847058 0.09994501 0.11082655 -0.21583226 -0.13116696 0.027614692 0.15509978
-0.07819459 0.15761591 -0.044114437 0.20940173 0.24778837 0.07125094 -0.0032607997 0.31966186
0.23532072 -0.096658275 0.21957426 -0.06477589 0.26351732 -0.08297568 0.14361505 -0.12243441
0.120648414 0.41391993 0.26851615 -0.069358416 0.1294832 -0.25030243 0.3963858 -0.36277586
-0.026532361 0.16090904 -0.25982204 -0.100904405 -0.10221076 0.19212477 -0.03726703 0.04062124
0.06435187 0.19743454 0.3026509 -0.19073156 -0.0815346 -0.12708396 -0.14911388 -0.2001812
0.05040892 -0.1272412 -0.11551669 -0.09170317 -0.0029203615 -0.12185968 0.13525437 -0.13464904
0.20901683 -0.17615968 0.30211544 0.14500278 -0.2027555 0.28632447 -0.012534233 -0.084550984
-0.024603646 -0.14966665 0.013642341 -0.09650241 -0.12604128 0.01789306 -0.12155918 0.31168777
0.13074036 0.072882906 0.15944786 0.26133037 0.14165296 0.040690336 -0.14623608 0.2436784
0.31287882 0.1906024 0.25399262 -0.17952076 -0.1222814 -0.26550198 0.035738625 -0.060332377
-0.03520283 0.22051433 0.13023068 -0.11583253 -0.3407589 0.050282575 0.3210145 -0.22904602
00000000: cad5 173e ebba 84be 93d6 353e b93a 64bd
00000010: 7f21 81be e528 b73e ca0d 123e a425 0b3e
00000020: acaa 963e 360e 8f3b e726 123e 58d0 0c3e
00000030: ae0e 1ebe 5ad7 6ebd 723e 0a3a 3e83 333e
00000040: 8ad9 433e bf01 883d 4015 8c3d bf6a 0ebe
00000050: 9f43 22bd 5f0a 40be c093 683e 0f16 1abc
00000060: d2a5 e43d d391 63be bb82 b83c 98c5 b0bd
00000070: d230 c9bd 4cce 883e e9ca eebc 8df5 a4bd
00000080: bced 8d3e 52cd 0b3e 4e3c d1bd 3f28 9cbe
00000090: adfa 0f3e 887b 86be 5184 453e 13ad 48bd
000000a0: 037d 3fbe b8bb 943c a258 bd3b ea65 d63d
000000b0: a1c0 033d 75e3 ac3d 1c57 b5bd 07c8 f638
000000c0: d21b 81be 7ec8 613e 1486 623e 0a57 a63b
000000d0: cb36 02be 04da 933e a9c3 5b3d 2bb4 6ebe
000000e0: 2933 9ebe 8b1c a83e 02ce 8cbe 4604 a33e
000000f0: 7e4b 02be f7de fbbd dd19 bb3e 40be da3d
00000100: 4892 fa3e bc2c 54be 65c3 e13c 19ef 71be
00000110: 390d ab3e e9ad 6f3e 83ca 533d b0c5 173d
00000120: 8fa9 143e ffc4 543e f7f1 073e d33d 143e
00000130: ad0c c4bd e321 2d3f 709d a3be 46a1 ad3e
00000140: 6684 033d 1dc2 ad3e aab3 c53e 986c 8d3e
00000150: b4e3 843d 8d0c a83e f5ca 563e 5175 b2bd
00000160: c2f6 f3be b39d 923e 16be 75bd e325 3b3e
00000170: eabe 9cbe b7a2 c4bd 6c94 62bd 01bf e33d
00000180: 4ace 2d3e 3dd1 103e 0f21 763e 5de6 7f3d
00000190: 0605 90be 8cee 74bd e4ab 8a3d 9146 c33d
000001a0: b9aa d2be ab3a 0dbd ea8b 89bc 1f76 c83c
000001b0: a7ce 36bd 0880 423e 9015 e13d 25c3 30bc
000001c0: a7bf e43e ddea c03d 72b8 363e 566f 93be
000001d0: 349e 593e d50e 90be f0d2 82be 49d7 313e
000001e0: cb3f b23d befe 3cbe da93 1abd 34b5 4bba
000001f0: 45d4 05be 57dd 503e c4ad 643e 2b34 323e
00000200: b610 a3be fb76 b93e b343 0f3e e870 743e
00000210: 521d 383d b619 f7be a2e4 01bd 91ab bcbe
00000220: c9c2 5f3e 1608 563e 05ad 8cbe 57f0 7ebe
00000230: 23e1 bf3d 8672 a9bc 127d e0bd a6ca 5c3e
00000240: c78b 1ebe 3269 d1bd 151d 2abe 9cb0 ba3e
00000250: b540 b7bd 9bd7 c13e 0446 1c3e 9636 e13d
00000260: c117 c13c 8603 8f3e de80 1d3f 7ca0 07bb
00000270: 6bce 8d3e c3fe 9ebe c593 ea3e f28c 01be
00000280: cd03 10bd df3b 4b3e f8af cc3d 08f9 e23d
00000290: 2203 5dbe a250 06be 3538 e23c 7ad2 1e3e
000002a0: 7c24 a0bd 1166 213e 57b1 34bd 686d 563e
000002b0: 3cbc 7d3e 03ec 913d 24b3 55bb b8aa a33e
000002c0: eaf7 703e c6f4 c5bd 13d8 603e 39a9 84bd
000002d0: beeb 863e 27ef a9bd d30f 133e e4be fabd
000002e0: 8416 f73d 50ed d33e f37a 893e c90b 8ebd
000002f0: 3e97 043e a427 80be 14f3 ca3e c2bd b9be
00000300: 655a d9bc 57c5 243e 6507 85be f8a6 cebd
00000310: e053 d1bd 5bbc 443e 50a5 18bd 7562 263d
00000320: eaca 833d 482c 4a3e 0ff5 9a3e 224f 43be
00000330: 9dfb a6bd 4c22 02be 4fb1 18be 4dfc 4cbe
00000340: 9579 4e3d 844b 02be 0494 ecbd dfce bbbd
00000350: 8963 3fbb 9191 f9bd 1f80 0a3e 70e1 09be
00000360: 8208 563e 3463 34be e0ae 9a3e 9c7b 143e
00000370: 239f 4fbe 1f99 923e 625c 4dbc 1129 adbd
00000380: 968d c9bc 3742 19be 2084 5f3c 0ea3 c5bd
00000390: f710 01be 7794 923c 05f4 f8bd 8a95 9f3e
000003a0: cde0 053e a243 953d 4d46 233e 18cd 853e
000003b0: 790d 113e e9aa 263d e9be 15be d586 793e
000003c0: a731 a03e 472d 433e 520b 823e 4ad4 37be
000003d0: ac6e fabd e0ef 87be aa62 123d 151f 77bd
000003e0: d830 10bd 82ce 613e 315b 053e 9b39 edbd
000003f0: f377 aebe 1af5 4d3d 035c a43e 0a8b 6abe

model.dense1.bias f4 [16]
0.2277656 0.02569479 0.31815058 0.12619273 0.06878709 0.2202892 0.03776875 0.05630355
0.13372445 0.21951154 0.15503596 0.17849022 0.34807372 -0.009347842 0.10759887 0.02441054
00000000: 633b 693e e17d d23c a2e4 a23e ab38 013e
00000010: 3fe0 8c3d 7e93 613e 68b3 1a3d 8d9e 663d
00000020: 10ef 083e a2c7 603e bfc1 1e3e 24c6 363e
00000030: b836 b23e b127 19bc cc5c dc3d 9df8 c73c

model.dense2.weight f4 [16, 16]
0.029756235 -0.030156907 0.23110299 -0.0676494 0.44894636 0.42045474 -0.22545955 -0.015524657
0.6186606 0.13954367 -0.17350882 0.4308632 -0.10285441 -0.17261001 0.3468178 -0.29836804
-0.13735805 -0.05243839 -0.12889212 -0.51090664 0.33009353 0.1512089 -0.2628878 -0.04177312
0.054065324 0.31228864 -0.14057404 0.45094344 -0.059832323 0.2537694 0.30719793 0.27867696
0.17610252 -0.3804955 -0.36781478 -0.26867473 0.23745118 -0.15067722 0.12707981 -0.18570352
-0.47086534 0.096619375 -0.21492283 0.3484052 0.54794234 0.47705925 0.1150812 0.23390028
-0.15157391 0.37838787 -0.12951279 0.019429436 0.46321446 0.567025 -0.3677542 0.34220868
-0.15631932 -0.7495628 -0.54179645 0.0008645914 0.57644325 0.50992215 -0.17221743 0.4938545
-0.31850758 0.49464917 0.27026328 -0.4332159 0.30560726 -0.26858452 -0.25977 -0.2946114
0.76619685 -0.124542974 -0.52883697 0.4919793 0.34131786 -0.073377974 0.45248583 0.08873212
-0.02701962 0.13204566 -0.21260218 -0.16827908 0.41907108 0.24411687 0.26889408 0.17959158
0.043450605 -0.27781183 -0.030779876 0.029623838 -0.15701166 0.07626002 -0.0013920018 -0.4122957
0.30630925 -0.43943223 -0.3924018 0.14190616 -0.10156125 0.13710295 0.0898887 -0.20464358
0.02239587 0.27568367 0.6002749 -0.22227083 0.7908182 0.32661417 -0.284453 0.0029874607
-0.0733826 -0.01268478 -0.1725633 -0.13568605 -0.062350582 0.27960396 0.2543415 0.08861757
-0.0022030948 -0.059717126 0.17276958 0.15225655 0.20675798 0.12553933 -0.02887928 -0.2914369
-0.02542697 0.3232169 0.095527604 -0.03454486 -0.27846763 0.18492983 -0.10579448 0.14380224
0.2531735 -0.25338686 0.27252233 -0.07076877 -0.03591262 -0.300319 0.09764782 0.07806028
0.3984327 0.0810732 0.18465798 -0.04690445 -0.622956 -0.5232278 -0.00061421114 -0.13362184
0.49716786 0.702939 -0.08309392 0.0163527 0.46225375 -0.29397717 0.36182585 0.8405048
0.26831627 -0.21810338 0.22356948 0.12168856 -0.15443587 -0.25826395 -0.03933361 -0.1997082
-0.17234549 0.3325052 0.11379427 0.06779632 0.16850634 -0.0049102004 0.18711455 -0.11563234
-0.11717499 0.18791825 0.687989 0.052480757 0.3144804 0.020520693 0.14198837 -0.13371027
0.31353214 -0.21087033 0.17882374 0.19710292 0.20236407 -0.44495434 0.15260209 -0.82661396
0.540118 0.10705546 0.8980423 0.011288456 -0.3793034 0.28416368 0.22677656 0.68807584
-0.0629329 0.3782012 -0.31840092 0.5922223 -0.36024344 0.063451074 -0.3257625 0.55427676
-0.028238026 -0.07072482 0.17321047 0.2969749 -0.21991327 0.04763143 -0.058161218 0.21937631
-0.2299154 -0.1688267 -0.16296105 0.0632337 -0.4286827 0.11560321 0.06336644 -0.1670625
0.018913236 -0.2463197 -0.5529281 -0.57856584 0.60045844 0.15446703 0.35732287 -0.2049143
0.1288076 0.40541455 0.41994807 0.40019077 0.04110339 -0.029495029 0.31890824 -0.69829017
-0.020747907 -0.24980792 0.0076114046 0.19482946 -0.030510454 -0.078278564 -0.037675764 -0.1642918
0.15844361 -0.059459638 0.36500436 -0.16431211 0.16437733 0.21717063 -0.027234573 -0.22097778
00000000: 59c3 f33c 9e0b f7bc 43a6 6c3e c58b 8abd
00000010: 4cdc e53e d845 d73e dede 66be 225b 7ebc
00000020: 8b60 1e3f 89e4 0e3e 4cac 31be 1a9a dc3e
00000030: 55a5 d2bd aec0 30be 1a92 b13e b2c3 98be
00000040: 97a7 0cbe a3c9 56bd 4cfc 03be c7ca 02bf
00000050: 0502 a93e 82d6 1a3e 3b99 86be 4b1a 2bbd
00000060: 9a73 5d3d 4ce4 9f3e a4f2 0fbe 0fe2 e63e
00000070: bd12 75bd 10ee 813e 0c49 9d3e bfae 8e3e
00000080: 3854 343e 4ed0 c2be 3852 bcbe bc8f 89be
00000090: 6726 733e 214b 1abe 3621 023e 1029 3ebe
000000a0: 4315 f1be 61e0 c53d bb14 5cbe 2b62 b23e
000000b0: f345 0c3f 1c41 f43e b1af eb3d 8e83 6f3e
000000c0: 3136 1bbe 0ebc c13e 009f 04be 7b2a 9f3c
000000d0: 722a ed3e 8d28 113f 474a bcbe fa35 af3e
000000e0: 2c12 20be 59e3 3fbf 2cb3 0abf bfa5 623a
000000f0: c991 133f 428a 023f c459 30be 7fda fc3e
00000100: 6d13 a3be a842 fd3e f35f 8a3e 79ce ddbe
00000110: 8e78 9c3e e983 89be 9300 85be 4ed7 96be
00000120: 7a25 443f 6310 ffbd dc61 07bf b6e4 fb3e
00000130: 37c1 ae3e 3147 96bd 39ac e73e 30b9 b53d
00000140: 4058 ddbc fa36 073e 63b4 59be 5a51 2cbe
00000150: 7c90 d63e c6f9 793e 7cac 893e dbe6 373e
00000160: 43f9 313d 5a3d 8ebe 1426 fcbc b1ad f23c
00000170: aac7 20be 372e 9c3d d473 b6ba 6c18 d3be
00000180: 91d4 9c3e 43fd e0be e4e8 c8be d94f 113e
00000190: 58ff cfbd b764 0c3e 9117 b83d 168e 51be
000001a0: 8b77 b73c 6926 8d3e 9eab 193f f79a 63be
000001b0: 1073 4a3f f939 a73e d3a3 91be 46c9 433b
000001c0: 9e49 96bd d3d3 4fbc 6fb4 30be 49f1 0abe
000001d0: 5363 7fbd 4028 8f3e 0d39 823e 217d b53d
000001e0: cc61 10bb f299 74bd 82ea 303e 24e9 1b3e
000001f0: 5db8 533e 628d 003e 3d94 ecbc 3837 95be
00000200: 394c d0bc af7c a53e faa3 c33d e97e 0dbd
00000210: 4f93 8ebe 3f5e 3d3e c7aa d8bd e540 133e
00000220: f59f 813e ecbb 81be 0c88 8b3e 38ef 90bd
00000230: 1d19 13bd 69c3 99be 95fb c73d 11de 9f3d
00000240: 5fff cb3e b509 a63d fb16 3d3e e11e 40bd
00000250: 0b7a 1fbf 42f2 05bf 0303 21ba 2ad4 08be
00000260: c98c fe3e cff3 333f 252d aabd 19f6 853c
00000270: 86ac ec3e 2d84 96be 3d41 b93e 532b 573f
00000280: c060 893e 7e56 5fbe 66ef 643e da37 f93d
00000290: 7024 1ebe 2c3b 84be 481c 21bd 4e80 4cbe
000002a0: 567b 30be 1f3e aa3e f80c e93d ccd8 8a3d
000002b0: ed8c 2c3e bfe5 a0bb f59a 3f3e a6d0 ecbd
000002c0: 71f9 efbd a46d 403e 0c20 303f 10f6 563d
000002d0: 9303 a13e 031b a83c 6665 113e 58eb 08be
000002e0: 4987 a03e 64ee 57be 921d 373e 59d5 493e
000002f0: 8738 4f3e 0ed1 e3be b943 1c3e f99c 53bf
00000300: 2c45 0a3f e53f db3d 1ae6 653f 37f3 383c
00000310: 0e34 c2be e77d 913e 1d38 683e bd25 303f
00000320: f7e2 80bd 96a3 c13e 7205 a3be e19b 173f
00000330: d471 b8be a3f2 813d 58ca a6be 15e5 0d3f
00000340: 6f53 e7bc 2dd8 90bd 165e 313e 180d 983e
00000350: f230 61be 2d19 433d 753a 6ebd 2fa4 603e
00000360: f16e 6bbe e8e0 2cbe 43df 26be ac80 813d
00000370: 4d7c dbbe 60c1 ec3d 44c6 813d 6f12 2bbe
00000380: eeef 9a3c 3b3b 7cbe b28c 0dbf e41c 14bf
00000390: a5b7 193f 9b2c 1e3e 06f3 b63e 0ed5 51be
000003a0: 24e6 033e 7f92 cf3e 6f03 d73e cee5 cc3e
000003b0: 075c 283d 8f9f f1bc f147 a33e 25c3 32bf
000003c0: 84f7 a9bc a6cd 7fbe 1769 f93b 6081 473e
000003d0: 0ff1 f9bc 8350 a0bd e751 1abd 1c3c 28be
000003e0: 0b3f 223e f38b 73bd dae1 ba3e 6f41 28be
000003f0: 8852 283e fa61 5e3e 0a1b dfbc 0048 62be

model.dense2.bias f4 [16]
-0.1801755 -0.3358376 0.509883 0.37552413 0.1454069 -0.06867556 0.346923 -0.16823448
-0.036473542 0.049714316 -0.09399449 0.14075439 0.31337345 0.1384637 0.25163057 -0.114212394
00000000: ed7f 38be e8f2 abbe b187 023f b344 c03e
00000010: 8ce5 143e c6a5 8cbd e49f b13e a945 2cbe
00000020: 4865 15bd 3da1 4b3d 2f80 c0bd eb21 103e
00000030: 7c72 a03e 6ec9 0d3e b9d5 803e 30e8 e9bd

model.output.weight f4 [10, 16]
-0.23345788 -0.31998485 0.10521172 0.70249957 -0.45196575 -0.09404652 0.95037025 -0.1598922
0.012477177 -0.45787203 -0.18084446 -0.28514534 -0.6868299 -0.25588223 -0.38890728 0.39608818
-0.07366166 0.35247272 0.07375591 -0.72089046 -0.8311198 -0.21938396 -0.019617317 0.12261656
0.085175365 0.16074955 0.19166237 -0.51305664 0.97537506 -0.18811697 0.0032989369 -0.28688073
-0.5410004 -0.2907756 0.117854945 0.24075852 0.2276465 0.07762507 0.07450868 0.12577765
0.2837049 0.96047914 0.08563399 -0.019808743 0.21940278 -0.20129496 -0.6901705 -0.30039424
0.006221301 0.3574378 0.26508886 0.7241999 0.63148934 0.03126762 -0.4202793 -0.30719006
-0.20025136 -0.10140388 -0.19556613 -0.5104128 -0.090290666 0.16933377 -0.40850475 -0.10308235
0.4270448 -0.29668483 -0.60344 -1.0496297 0.75157946 -0.114026 -0.52972263 -0.1687484
0.04620052 0.2674383 -0.20061235 0.83691955 0.13975902 -0.045504615 0.09303244 -0.18595043
-0.022951558 0.10723531 0.74748474 0.20290725 -0.08950385 0.45311636 0.19700524 0.026793446
-0.30999395 -0.7143402 0.14140503 0.2043426 -0.43061343 -0.120957084 0.87282807 -0.24043044
-0.19532664 -0.17220971 0.0664259 -0.7140436 -0.27408114 -0.20092952 0.7281932 0.2923996
0.285759 0.6172365 0.156335 -0.0904344 -0.89523983 0.035132695 0.59612864 -0.034982834
0.19406646 -0.4176104 -0.7302801 0.2510845 -0.42072642 0.022462588 -0.3933608 0.111982204
0.08990054 -0.082564525 0.10756605 -0.0056602475 1.012564 0.52587295 -0.4514593 0.20582819
0.6042712 0.5950089 0.0151064405 -0.11112595 0.5017775 -0.18758704 -0.085661374 -0.15604877
-0.36988467 0.35826457 -0.16607898 -0.47704607 -0.1697901 0.12808314 0.20198156 -0.23393726
0.66208357 0.035212807 -0.47729343 0.28103703 0.6044571 0.24912298 -0.34372953 0.23110624
0.1053 -0.76744556 -0.34533292 0.47484848 0.0929594 -0.15780327 0.11162706 -0.060864188
00000000: 950f 6fbe 0ed5 a3be 3e79 d73d 03d7 333f
00000010: 0e68 e7be 769b c0bd 774b 733f c8ba 23be
00000020: 136d 4c3c 346e eabe 4a2f 39be 92fe 91be
00000030: 16d4 2fbf ff02 83be db1e c7be 12cc ca3e
00000040: eddb 96bd 4e77 b43e 570d 973d 478c 38bf
00000050: 44c4 54bf 30a6 60be 7fb4 a0bc 641e fb3d
00000060: 6c70 ae3d 889b 243e 2443 443e ae57 03bf
00000070: 2eb2 793f bca1 40be fa32 583b 08e2 92be
00000080: 017f 0abf 8ae0 94be ef5d f13d 6789 763e
00000090: 2a1c 693e e5f9 9e3d 0298 983d dbcb 003e
000000a0: c541 913e f6e1 753f e060 af3d f245 a2bc
000000b0: 1fab 603e 4420 4ebe 04af 30bf 46cd 99be
000000c0: 0edc cb3b 1602 b73e bab9 873e 2a65 393f
000000d0: 49a9 213f 7a12 003d d92e d7be 0448 9dbe
000000e0: b10e 4dbe d6ac cfbd 7d42 48be 6aaa 02bf
000000f0: 50ea b8bd d565 2d3e 8927 d1be d71c d3bd
00000100: 9ea5 da3e 13e7 97be 0b7b 1abf 445a 86bf
00000110: 8367 403f 7786 e9bd e79b 07bf 61cc 2cbe
00000120: c23c 3d3d aced 883e 536d 4dbe 5c40 563f
00000130: fd1c 0f3e 0c63 3abd cb87 be3d ca69 3ebe
00000140: e804 bcbc 309e db3d 295b 3f3f ebc6 4f3e
00000150: cb4d b7bd defe e73e bebb 493e ee7d db3c
00000160: 87b7 9ebe 00df 36bf 7bcc 103e 303f 513e
00000170: 5d79 dcbe 59b8 f7bd a971 5f3f 6633 76be
00000180: b503 48be be57 30be 4d0a 883d 90cb 36bf
00000190: 5d54 8cbe 78c0 4dbe df6a 3a3f 66b5 953e
000001a0: 014f 923e 3603 1e3f 4816 203e ac35 b9bd
000001b0: 702e 65bf 4de7 0f3d e39b 183f 294a 0fbd
000001c0: 5cb9 463e 08d1 d5be a3f3 3abf 268e 803e
000001d0: 7469 d7be 7603 b83c 9666 c9be ed56 e53d
000001e0: c61d b83d 9717 a9bd 974b dc3d 9979 b9bb
000001f0: b29b 813f 9c9f 063f ac25 e7be a0c4 523e
00000200: 84b1 1a3f 8152 183f 0181 773c 0196 e3bd
00000210: 7e74 003f d116 40be 3b6f afbd 40cb 1fbe
00000220: 8661 bdbe 746e b73e 9c10 2abe 623f f4be
00000230: 75dd 2dbe 3a28 033e 41d4 4e3e 408d 6fbe
00000240: 4f7e 293f 4e3b 103d ce5f f4be 16e4 8f3e
00000250: b3bd 1a3f 181a 7f3e 51fd afbe 1da7 6c3e
00000260: 87a7 d73d 5077 44bf 7acf b0be 571f f33e
00000270: 7f61 be3d 2e97 21be ba9c e43d ba4c 79bd

model.output.bias f4 [10]
-0.012898283 0.2037384 -0.30302924 -0.132515 0.2432244 0.124647446 -0.101001486 0.25690612
-0.6569904 -0.037506588
00000000: 5253 53bc cda0 503e a626 9bbe 03b2 07be
00000010: d10f 793e 2947 ff3d ded9 cebd 3389 833e
00000020: 8630 28bf 82a0 19bd
