Models/model_optRMSprop_ep70_neu256_lay3_acc0.9648.pth (torch, 982704 bytes, 10 tensors)

model.input.weight f4 [256, 784]
0.0035977438 0.018259995 -0.0010434575 0.023689203 0.0051086172 0.024867188 0.029112052 -0.010717368
0.018552762 -0.001548551 0.008085616 -0.03496354 0.03212112 -0.019923484 -0.0022714548 -0.028549941
-0.018371498 -0.035685636 -0.030990385 0.021324083 0.009068564 0.0037846155 0.026480906 0.031229097
-0.0026831068 -0.02681183 0.035508256 -0.016516913 -0.001258798 -0.013145344 0.01578081 0.033843163
0.025206383 0.019872606 -0.022007206 -0.016032815 0.006071359 0.017843535 0.004381789 -0.040368635
0.04581537 0.026320763 0.23756346 0.0813479 -0.07241426 -0.19067982 0.06487047 0.075493574
0.09114736 0.086206965 0.04650793 -0.014459752 -0.027780343 -0.012170166 -0.009073731 -0.024710903
0.035174135 -0.018831534 0.0041037127 0.027918097 0.0037188183 -0.02352161 0.02375731 -0.0078094397
-0.024549825 -0.026995128 -0.19928035 -0.16188681 -0.21852545 -0.25825587 -0.104817 0.024705471
0.051557224 0.0046494557 0.013524156 -0.029664507 0.10419893 0.1385541 0.08946281 0.037259817
0.029814063 -0.01501502 -0.022195537 0.029223304 0.014637008 0.0052579045 0.023907319 0.0030759797
0.024661493 0.009515482 0.028652992 -0.04531049 -0.28054565 0.046652485 -0.09282083 -0.23495992
-0.30313456 -0.17277493 0.06994547 0.09915466 0.028935833 -0.10817221 0.078616366 0.3112357
0.24822956 0.1802253 0.15089068 0.008088348 0.09929571 0.07275899 0.007515773 -0.019844985
0.019882612 -0.007950455 0.022421602 0.052033484 0.042289115 -0.012273865 -0.025898423 0.024816662
-0.16552918 0.06711474 0.072889104 -0.089156985 -0.28614295 0.16062209 0.044099152 0.059847474
-0.029464316 -0.026249906 -0.04941843 0.09254499 0.051334158 0.08770585 0.121967696 -0.08589875
-0.058362857 -0.2683018 -0.0484251 -0.030553559 0.02735651 0.019850682 0.03929575 0.028315952
0.011757347 -0.0072777458 -0.024719164 -0.13263352 -0.22652365 -0.21590845 -0.23188828 -0.07836387
-0.042178232 0.08069905 0.06796193 0.05180756 -0.118326366 -0.2500961 -0.07762515 -0.027545203
-0.065684915 0.06246031 0.10982828 0.056650355 0.13967416 -0.028044773 -0.027982073 0.010827836
0.017700937 -0.025982305 0.07729793 0.079699986 -0.15929216 -0.10542967 -0.29658613 -0.55551004
-0.50293857 -0.43996787 0.10228103 -0.08317865 -0.100122266 -0.02755862 -0.120853044 -0.04433039
-0.1935554 -0.1589348 0.051247932 -0.014388159 -0.026225256 0.06410612 0.015849164 0.025839858
0.1034952 -0.0014979686 0.004267836 0.013224168 0.024692956 -0.035567332 -0.032049842 0.10099947
-0.117678195 -0.10862124 -0.2860076 -0.46571773 -0.27876657 -0.17932947 -0.006660321 -0.10304908
0.093645915 0.012467322 0.050409276 -0.1282288 -0.056953274 0.05538765 0.21263587 0.09225242
-0.002966165 0.11005299 0.019197755 0.033559594 -0.17008087 -0.19808817 0.014541968 0.026871074
0.014654964 0.020286132 0.027372811 0.033119943 -0.058767896 -0.095565066 -9.451152e-05 0.05099515
-0.13445538 -0.20267431 -0.15987569 -0.114304274 0.10752966 0.11467966 0.087047644 0.024263984
-0.007742014 -0.060356654 0.071051665 -0.014146399 -0.16388074 -0.19967344 -0.32526988 -0.411413
-0.22166516 -0.13948283 0.0725354 0.017559465 -0.024533197 0.029484149 0.018755497 -0.002638496
00000000: 20c8 6b3b fc95 953c a0c4 88ba dc0f c23c
00000010: 3066 a73b 46b6 cb3c 667c ee3c e697 2fbc
00000020: f6fb 973c c0f8 caba 8879 043c ee35 0fbd
00000030: 6f91 033d 9336 a3bc b0dc 14bb 91e1 e9bc
00000040: d37f 96bc 1a2b 12bd 8cdf fdbc d8af ae3c
00000050: 5094 143c 5007 783b 7cee d83c 2ad4 ff3c
00000060: 10d7 2fbb 7ca4 dbbc 1b71 113d 7a4e 87bc
00000070: 40fe a4ba 925f 57bc c246 813c 219f 0a3d
00000080: 9e7d ce3c e0cb a23c 7548 b4bc 4057 83bc
00000090: 40f2 c63b 9b2c 923c 1c95 8f3b 9559 25bd
000000a0: e6a8 3b3d a49e d73c d643 733e ba99 a63d
000000b0: ed4d 94bd 9241 43be cfda 843d 609c 9a3d
000000c0: 78ab ba3d 478d b03d 197f 3e3d 98e8 6cbc
000000d0: 9a93 e3bc 6065 47bc fca9 14bc 856e cabc
000000e0: c112 103d 9744 9abc 7078 863b 7eb4 e43c
000000f0: 6bb7 733b 64b0 c0bc b19e c23c 54e6 ffbb
00000100: b71c c9bc e324 ddbc 2610 4cbe a8c5 25be
00000110: 23c5 5fbe 1d3a 84be 4caa d6bd 2163 ca3c
00000120: ab2d 533d 765a 983b 6c94 5d3c fb02 f3bc
00000130: 4066 d53d 20e1 0d3e 4738 b73d c09d 183d
00000140: 9f3c f43c 8f01 76bc 6ad3 b5bc b665 ef3c
00000150: 10d0 6f3c 804a ac3b 48d9 c33c 6096 493b
00000160: e606 ca3c d3e6 1b3c aeb9 ea3c 7e97 39bd
00000170: aea3 8fbe ad16 3f3d d918 bebd 5599 70be
00000180: 7434 9bbe e9eb 30be 923f 8f3d 9911 cb3d
00000190: d70a ed3c 6489 ddbd 9e01 a13d 495a 9f3e
000001a0: e42f 7e3e fb8c 383e 1683 1a3e fe84 043c
000001b0: 8d5b cb3d aa02 953d e046 f63b f391 a2bc
000001c0: dce0 a23c a042 02bc 82ad b73c 1021 553d
000001d0: 5a37 2d3d 5218 49bc ee28 d4bc 504c cb3c
000001e0: 7b80 29be 7473 893d e246 953d f097 b6bd
000001f0: 5481 92be 1e7a 243e 50a1 343d a022 753d
00000200: 265f f1bc 0b0a d7bc fb6a 4abd 3a88 bd3d
00000210: c443 523d 209f b33d 33ca f93d afeb afbd
00000220: e40d 6fbd db5e 89be 6659 46bd 754b fabc
00000230: c21a e03c e69d a23c 95f4 203d dbf6 e73c
00000240: e3a1 403c 287a eebb d87f cabc 15d1 07be
00000250: d1f5 67be 1b17 5dbe 1f74 6dbe 3d7d a0bd
00000260: 15c3 2cbd 8b45 a53d a02f 8b3d 2a34 543d
00000270: 1855 f2bd 990c 80be eff9 9ebd 7aa6 e1bc
00000280: d085 86bd 62d6 7f3d a6ed e03d 340a 683d
00000290: be06 0f3e 27be e5bc a93a e5bc 3c67 313c
000002a0: 8e01 913c d8d8 d4bc 614e 9e3d bf39 a33d
000002b0: 7c1d 23be 83eb d7bd 23da 97be e835 0ebf
000002c0: 95c0 00bf 7843 e1be b778 d13d 9159 aabd
000002d0: e70c cdbd 9dc2 e1bc cd81 f7bd c893 35bd
000002e0: 6333 46be cebf 22be 5ae9 513d 50bc 6bbc
000002f0: 59d6 d6bc 124a 833d 1bd6 813c 1cae d33c
00000300: 4bf5 d33d 7c57 c4ba 34d9 8b3b 2eaa 583c
00000310: e248 ca3c 0daf 11bd b246 03bd cfd8 ce3d
00000320: 4401 f1bd d074 debd 976f 92be 8e72 eebe
00000330: 7eba 8ebe 25a2 37be d23e dabb 650b d3bd
00000340: 6ec9 bf3d bd43 4c3c f579 4e3d 694e 03be
00000350: d647 69bd 29de 623d 38bd 593e d6ee bc3d
00000360: fe63 42bb 7663 e13d 9c44 9d3c c975 093d
00000370: ae29 2ebe a0d7 4abe 6f41 6e3c ba20 dc3c
00000380: 601b 703c 1a2f a63c f23c e03c c7a8 073d
00000390: 9bb6 70bd 9eb7 c3bd 7c34 c6b8 4ae0 503d
000003a0: acae 09be db89 4fbe 74b6 23be 5c18 eabd
000003b0: 8338 dc3d 2bdd ea3d 0946 b23d 43c5 c63c
000003c0: b8b0 fdbb 8a38 77bd 8983 913d 4cc6 67bc
000003d0: 5ad0 27be 3277 4cbe c689 a6be baa4 d2be
000003e0: 31fc 62be 96d4 0ebe 718d 943d ded8 8f3c
000003f0: d8f9 c8bc be88 f13c 21a5 993c 9eea 2cbb

model.input.bias f4 [256]
-0.09341243 -0.14497103 -0.056497883 -0.091611765 -0.047585763 -0.002825247 0.1577122 -0.08163754
0.0070718643 -0.08279977 0.017188765 0.023399187 -0.05220888 -0.04347864 -0.08490647 0.019465052
0.11756313 -0.06051712 -0.1332093 -0.07429504 -0.03548241 -0.043638352 0.097262524 0.005849902
0.04057478 -0.02721193 0.013733336 -0.13960825 0.06579339 -0.08443846 -0.051986724 -0.011715321
-0.03329857 0.05545938 0.0030894307 0.03213645 0.053390004 0.05098589 -0.06328004 -0.065721266
-0.06862638 -0.111751325 1.9274945e-05 -0.074922286 -0.0886153 0.021005407 -0.100612596 -0.032574356
-0.011538534 -0.055135686 -0.056781255 -0.06907012 -0.058938455 0.12002929 0.068602584 0.012154231
-0.044485565 -0.008137954 0.015963906 -0.07953966 -0.08834389 0.045446552 -0.04641521 0.059126846
0.05210114 -0.074161135 -0.057743028 0.0012171156 0.033161484 0.017905481 0.0070015076 0.07973366
-0.08499834 0.031982865 -0.17768928 0.0730438 -0.014916478 0.046889313 -0.029534768 -0.05319685
-0.03480398 0.038731385 0.0037565185 -0.044658292 -0.088169776 0.05988255 -0.016082566 -0.08510866
-0.0316255 -0.037365545 -0.26070225 -0.024059417 0.1134546 0.007566858 -0.108106285 -0.053242918
0.07855158 0.0531906 -0.05787165 0.07096013 0.04045192 0.042036273 0.088261485 0.059284374
0.09261685 0.11391402 0.021556186 -0.07765758 0.09892007 0.04865217 -0.09204698 -0.09227933
-0.027008682 -0.03805957 -0.07022849 -0.09445323 -0.14780498 -0.031883888 -0.030081403 0.10461132
0.015393278 4.2410946e-05 -0.028792515 -0.034289528 0.058724143 -0.036161788 -0.03215452 -0.019634867
-0.0023275767 -0.11291096 -0.113011844 0.023268584 0.003967856 0.11029667 0.03605712 -0.034376364
0.024912398 0.015428866 -0.019925335 -0.12692712 -0.01581878 0.067125686 -0.046481147 0.05388403
-0.02701074 -0.08458934 -0.01394223 0.08138495 -0.001145836 -0.0233476 -0.16666958 -0.071346484
-0.023082815 0.013888386 -0.10628033 -0.09136642 0.07519797 -0.028164847 -0.019180773 0.0071827318
-0.00031154908 0.0147611555 -0.03423332 -0.019259432 0.003036188 -0.03298028 0.05870098 -0.11559631
-0.15041426 0.040765185 0.16641125 0.10468732 0.035929248 -0.041629557 -0.0008953336 -8.344789e-05
-0.09781251 -0.024866404 -0.04594151 -0.03381363 -0.0050489805 -0.014184684 0.006400954 -0.035161644
-0.0005229044 0.06156856 0.070955925 0.07052568 0.06200938 0.014120519 0.015828349 0.06749594
-0.1354578 -0.05249815 0.019086577 -0.019766053 -0.04243245 0.015887208 0.05501068 0.011290217
-0.040436614 -0.040905885 -0.053852987 -0.035364382 -0.020101054 -0.026648203 0.0032932549 -0.02862331
-0.02969888 -0.024127593 -0.003355678 0.043077983 -0.07459166 0.004534905 0.008228321 0.0677794
-0.019219855 0.022919696 0.090657756 -0.04749877 0.045151472 0.005432339 -0.035273153 -0.08216351
0.059897434 -0.022861432 0.00636961 -0.08466677 -0.034993596 -0.07012724 -0.042499226 -0.030613068
0.022289926 -0.032457978 0.030434737 0.005492284 -0.018567072 -0.05300971 -0.029909674 0.07396323
-0.15878241 0.02178129 -0.07439956 0.07455686 -0.0022291685 0.02426556 0.0262427 0.0025066922
-0.10555622 -0.03947205 -0.07160992 -0.028004607 -0.04058949 -0.18489823 -0.14624035 0.0047151092
00000000: 044f bfbd 4973 14be 536a 67bd f39e bbbd
00000010: 4ae9 42bd c727 39bb 4f7f 213e 9531 a7bd
00000020: 19bb e73b ed92 a9bd 74cf 8c3c a7af bf3c
00000030: fbd8 55bd a916 32bd 71e3 adbd 2c75 9f3c
00000040: f0c4 f03d cde0 77bd 0568 08be ff27 98bd
00000050: 0156 11bd 21be 32bd 9331 c73d 89b0 bf3b
00000060: be31 263d 8eeb debc c901 613c 77f5 0ebe
00000070: afbe 863d 12ee acbd 08f0 54bd 9ef1 3fbc
00000080: 1564 08bd 6029 633d 0c78 4a3b 83a1 033d
00000090: 7aaf 5a3d 95d6 503d f798 81bd df98 86bd
000000a0: fd8b 8cbd e1dd e4bd a1b0 a137 db70 99bd
000000b0: f07b b5bd 8813 ac3c fa0d cebd b06c 05bd
000000c0: 1f0c 3dbc f5d5 61bd 7693 68bd a374 8dbd
000000d0: 7369 71bd ebd1 f53d 837f 8c3d 8a22 473c
000000e0: 7f36 36bd 0e55 05bc bdc6 823c b0e5 a2bd
000000f0: a4ed b4bd 2a26 3a3d e01d 3ebd fe2e 723d
00000100: 0168 553d cbe1 97bd f483 6cbd 9f87 9f3a
00000110: 56d4 073d 84ae 923c e76c e53b 674b a33d
00000120: 9c13 aebd 7700 033d 2ef4 35be fd97 953d
00000130: 3e64 74bc 020f 403d e6f2 f1bc f1e4 59bd
00000140: 9e8e 0ebd cda4 1e3d ec2f 763b 9deb 36bd
00000150: 5b92 b4bd 6847 753d 96bf 83bc 734d aebd
00000160: be89 01bd 9d0c 19bd c47a 85be 4118 c5bc
00000170: e35a e83d 68f3 f73b d466 ddbd 3f15 5abd
00000180: a7df a03d 63de 593d d30a 6dbd 8b53 913d
00000190: eab0 253d 3a2e 2c3d 70c2 b43d 2cd4 723d
000001a0: e7ad bd3d c14b e93d 9996 b03c f00a 9fbd
000001b0: 9b96 ca3d 7f47 473d 2183 bcbd f2fc bcbd
000001c0: 5041 ddbc 5ae4 1bbd f4d3 8fbd b270 c1bd
000001d0: 305a 17be ae98 02bd 466d f6bc 763e d63d
000001e0: 1634 7c3c 68e2 3138 48de ebbc 2d73 0cbd
000001f0: ba88 703d 621e 14bd 75b4 03bd 4dd9 a0bc
00000200: 428a 18bb dd3d e7bd c172 e7bd c29d be3c
00000210: ca04 823b 38e3 e13d a1b0 133d 3bce 0cbd
00000220: 1615 cc3c 5bc9 7c3c 753a a3bc 2ff9 01be
00000230: 6396 81bc 3179 893d 0463 3ebd 80b5 5c3d
00000240: a145 ddbc 2d3d adbd f36d 64bc 27ad a63d
00000250: e02f 96ba 7743 bfbc 6eab 2abe 1b1e 92bd
00000260: 2c18 bdbc 1d8c 633c 80a9 d9bd 511e bbbd
00000270: 6501 9a3d f7b9 e6bc ff20 9dbc 1f5d eb3b
00000280: 6957 a3b9 c6d8 713c 3d38 0cbd f5c5 9dbc
00000290: c8fa 463b 5516 07bd 7070 703d c2bd ecbd
000002a0: 3206 1abe 65f9 263d b667 2a3e 4e66 d63d
000002b0: 8c2a 133d c183 2abd d2b4 6aba bf00 afb8
000002c0: ed51 c8bd a1b4 cbbc 2a2d 3cbd 2980 0abd
000002d0: eb71 a5bb e066 68bc 18bf d13b a805 10bd
000002e0: 8513 09ba 502f 7c3d 5751 913d c56f 903d
000002f0: 8cfd 7d3d c059 673c 74aa 813c 503b 8a3d
00000300: 73b5 0abe 4d08 57bd 745b 9c3c 6bec a1bc
00000310: a6cd 2dbd e425 823c e152 613d 9afa 383c
00000320: dda0 25bd ee8c 27bd f394 5cbd 3eda 10bd
00000330: f7aa a4bc 554d dabc a6d3 573b 6f7b eabc
00000340: 114b f3bc 3ba7 c5bc efea 5bbb 8a72 303d
00000350: 83c3 98bd 8a99 943b 14d0 063c edcf 8a3d
00000360: f572 9dbc 16c2 bb3c c6aa b93d 128e 42bd
00000370: c0f0 383d c301 b23b 957a 10bd 5845 a8bd
00000380: 0357 753d e647 bbbc 29b8 d03b c665 adbd
00000390: 7255 0fbd df9e 8fbd ab13 2ebd 42c8 fabc
000003a0: 5d99 b63c a8f2 04bd 4552 f93c 9ef8 b33b
000003b0: f919 98bc b620 59bd 2205 f5bc 097a 973d
000003c0: db97 22be ad6e b23c cc5e 98bd 44b1 983d
000003d0: 3e17 12bb 91c8 c63c eefa d63c 5147 243b
000003e0: dc2d d8bd 72ad 21bd 39a8 92bd eb69 e5bc
000003f0: 2a41 26bd f655 3dbe 08c0 15be 3481 9a3b

model.dense1.weight f4 [128, 256]
-0.3797404 0.15240069 0.113259576 -0.34607443 -0.28460288 0.07702796 -0.11729456 0.05911181
0.20164128 0.025191108 0.032369167 0.0179813 -0.2384721 -0.13689156 -0.0022663856 0.121496744
0.09301855 0.08821893 -0.11630596 0.008171722 -0.14410596 -0.13818978 0.42660177 -0.009886265
0.0026570389 -0.037381094 -0.070063956 0.28477556 -0.29936016 -0.018668117 0.030728996 0.039244566
0.18298072 0.11267191 -0.031285703 0.2444495 -0.35981926 0.32756114 -0.23857471 -0.018822065
-0.07268396 -0.21629296 0.051719617 0.1067227 -0.1751945 0.046788193 0.055516403 0.058222562
-0.05329355 0.09916328 -0.33806375 -0.11112801 0.04643724 0.15936238 -0.6128688 -0.045747906
-0.055270426 -0.27699912 -0.41296968 0.008630036 0.3257483 0.32782894 8.21501e-05 -0.1917557
0.0799645 -0.19284779 -0.017025547 0.007682197 -0.0022104597 -0.13064691 -0.044089116 -0.18099499
-0.078151695 -0.001587718 0.08918259 -0.12773624 -0.0011582971 -0.016133541 -0.003820084 -0.12632896
0.18823148 -0.084673844 -0.03350678 -0.16847466 0.08617715 0.41857633 0.039694287 0.16138192
-0.3582407 0.034858152 0.12611721 -0.17950499 0.15186934 -0.0066334233 -0.12808853 0.05159573
0.054771308 0.094040334 -0.14645147 0.18631908 0.0669843 0.04291806 0.025685992 -0.039597068
0.03267775 0.4179228 -0.1710498 -0.2164208 -0.29272816 0.096186526 0.10815201 0.16039579
-0.022060178 0.14609101 0.38463306 0.20471525 0.031990048 -0.007027313 -0.01594615 0.019056156
0.0051709586 0.16903655 -0.030569972 0.05444009 -0.20541117 -0.023670964 -0.028647423 0.15921351
0.050592773 0.33808365 -0.015392886 -0.030884586 0.08618643 0.13136245 -0.004263203 0.20080085
-0.26432538 -0.31557286 0.036059525 0.115305215 0.05976658 0.04425184 0.031445637 0.5151274
0.044087492 -0.105891906 0.26376855 -0.02002186 -0.27416748 0.21352808 -0.19397165 -0.02849139
0.12356861 0.0053479937 0.050594814 0.27403682 0.04523409 0.011095631 -0.189337 0.049286224
0.012366061 -0.003973067 -0.08428715 -0.27800047 -0.05262702 0.08726689 0.3587136 -0.22167575
0.10796019 -0.066464014 0.22091775 -0.46518418 -0.07339678 -0.24209319 -0.065361254 -0.005808482
-0.00950529 0.23321338 0.10951105 0.019203372 -0.116756804 -0.16470222 -0.092084505 -0.29946375
-0.19402036 -0.12608637 -0.29765785 0.0448621 -0.018217193 -0.12279304 0.09975562 -0.012368478
-0.12995343 -0.020926937 -0.14169301 -0.050523575 0.32846618 -0.042613357 0.0046161143 0.019947119
0.01272434 0.05178505 0.028221592 0.06940887 -0.04388669 0.15735617 -0.24042748 -0.13495879
-0.04480041 -0.113145925 -0.22610086 0.15538074 -0.366821 -0.029030606 0.09066125 -0.087975785
0.10115181 -0.15925376 0.00038267297 0.03341413 -0.0512365 0.055895213 -0.1755382 0.24402887
-0.42951655 0.13277613 -0.1110292 0.107420065 0.052152008 0.07844566 0.112268455 0.04722798
0.13748029 0.16601801 -0.2533152 -0.101207815 -0.012198754 -0.0052724397 0.28812286 -0.3101968
0.17127813 -0.0988587 -0.052908987 0.26036885 0.17497915 0.015505693 0.11592509 -0.05076994
0.18021902 0.006703424 -0.1454209 -0.1824896 0.14630544 0.08203891 -0.16156971 0.03993342
00000000: 556d c2be ed0e 1c3e a3f4 e73d ab30 b1be
00000010: 78b7 91be d6c0 9d3d 2138 f0bd 3a1f 723d
00000020: 0d7b 4e3e 955d ce3c 8895 043d 854d 933c
00000030: 0832 74be 4d2d 0cbe a487 14bb 49d3 f83d
00000040: 8280 be3d 20ac b43d d231 eebd b0e2 053c
00000050: 8390 13be 9f81 0dbe 8c6b da3e 00fa 21bc
00000060: b721 2e3b eb1c 19bd b17d 8fbd 1ace 913e
00000070: bc45 99be e1ed 98bc 60bb fb3c e9be 203d
00000080: 4c5f 3b3e 88c0 e63d 7025 00bd f850 7a3e
00000090: 3b3a b8be 18b6 a73e ee4c 74be bb30 9abc
000000a0: 54db 94bd e77b 5dbe f3d7 533d 6e91 da3d
000000b0: 3066 33be faa4 3f3d 2b65 633d c87a 6e3d
000000c0: 564a 5abd 1e16 cb3d b116 adbe 1597 e3bd
000000d0: fa34 3e3d e42f 233e f8e4 1cbf 2862 3bbd
000000e0: 3e63 62bd d4d2 8dbe c370 d3be ff64 0d3c
000000f0: 7bc8 a63e 32d9 a73e 0048 ac38 9b5b 44be
00000100: 6ec4 a33d e479 45be 2979 8bbc f0ba fb3b
00000110: 5cdd 10bb 4ec8 05be ca96 34bd c056 39be
00000120: ff0d a0bd fa1a d0ba 5da5 b63d 4acd 02be
00000130: 00d2 97ba 7d2a 84bc 605a 7abb 615c 01be
00000140: c1bf 403e 7b69 adbd 683e 09bd 9f84 2cbe
00000150: a57d b03d a34f d63e 7a96 223d 4d41 253e
00000160: 536b b7be 6cc7 0e3d df24 013e 28d0 37be
00000170: a383 1b3e 305d d9bb a429 03be 0b56 533d
00000180: e157 603d 3898 c03d 60f7 15be 6eca 3e3e
00000190: 112f 893d d9ca 2f3d 6e6b d23c 8930 22bd
000001a0: 1bd9 053d faf9 d53e ae27 2fbe 6a9d 5dbe
000001b0: 77e0 95be 71fd c43d cd7e dd3d cb3e 243e
000001c0: 8cb7 b4bc e298 153e a0ee c43e e0a0 513e
000001d0: ff07 033d 6045 e6bb 80a1 82bc a81b 9c3c
000001e0: 2571 a93b eb17 2d3e e16d fabc 92fc 5e3d
000001f0: 4e57 52be 9ce9 c1bc 00ae eabc de08 233e
00000200: 5e3a 4f3d 4d19 ad3e 7132 7cbc ac01 fdbc
00000210: 8382 b03d e183 063e 57b2 8bbb bd9e 4d3e
00000220: a855 87be c492 a1be 27b3 133d 2425 ec3d
00000230: cdcd 743d 6b41 353d 24cd 003d 64df 033f
00000240: 1695 343d dbdd d8bd ac0c 873e e204 a4bc
00000250: ae5f 8cbe 1ba7 5a3e 81a0 46be c766 e9bc
00000260: 8a11 fd3d 393e af3b 823c 4f3d 8e4e 8c3e
00000270: 6247 393d 73ca 353c 8fe1 41be 5ae0 493d
00000280: 059b 4a3c 8030 82bb be9e acbd 1456 8ebe
00000290: 6e8f 57bd fcb8 b23d 4fa9 b73e f8fe 62be
000002a0: 3b1a dd3d 491e 88bd 4338 623e 9f2c eebe
000002b0: 0d51 96bd 47e7 77be 1fdc 85bd 1455 bebb
000002c0: 13bc 1bbc 7dcf 6e3e 5447 e03d 6450 9d3c
000002d0: 311e efbd b3a7 28be cd96 bcbd 5053 99be
000002e0: 46ad 46be c91c 01be 9c66 98be 52c1 373d
000002f0: 393c 95bc eb7a fbbd ad4c cc3d 28a5 4abc
00000300: 8312 05be f86e abbc f917 11be cff1 4ebd
00000310: b82c a83e 588b 2ebd c642 973b 2468 a33c
00000320: c079 503c 901c 543d f830 e73c 3d26 8e3d
00000330: 88c2 33bd fa21 213e 9f32 76be a332 0abe
00000340: a280 37bd 0db9 e7bd fc86 67be 211c 1f3e
00000350: f6cf bbbe 98d1 edbc 9bac b93d a62c b4bd
00000360: ae28 cf3d 6b13 23be 7fa1 c839 41dd 083d
00000370: 5ddd 51bd 61f2 643d 49c0 33be b4e2 793e
00000380: 98e9 dbbe 77f6 073e 4763 e3bd 0dff db3d
00000390: 589d 553d 1ea8 a03d 01ed e53d 2072 413d
000003a0: a2c7 0c3e a000 2a3e 88b2 81be 0b46 cfbd
000003b0: 48dd 47bc 6ec4 acbb d784 933e 1dd2 9ebe
000003c0: 8963 2f3e 6e76 cabd 18b7 58bd 114f 853e
000003d0: bc2d 333e 970b 7e3c 226a ed3d 24f4 4fbd
000003e0: 568b 383e 65a8 db3b 37e9 14be 8ede 3abe
000003f0: 18d1 153e 0404 a83d 8872 25be 3a91 233d

model.dense1.bias f4 [128]
-0.096531875 -0.09116777 -0.24722894 -0.042466298 0.016553802 0.065826975 0.1291075 -0.09000125
0.021650122 -0.12372244 -0.020827785 -0.20866424 -0.19851965 -0.17105299 0.027271278 0.042240012
0.03031095 -0.21995625 -0.2418646 -0.052329767 -0.18113442 -0.12101747 0.10973543 0.032546125
0.046544876 -0.21532273 0.08517271 -0.09989645 0.091948114 -0.12743367 0.06238832 0.04828326
0.0457138 -0.11258273 -0.24129169 -0.05967574 0.05103359 -0.0005291885 0.08840551 0.045458246
-0.115749754 -0.0811153 0.11297607 -0.0065988954 0.23646992 -0.11994577 -0.019233264 0.159787
-0.041275855 -0.08991919 -0.06911369 -0.2732168 0.08955103 0.023969531 -0.0263442 0.028233247
-0.0421086 0.1877741 -0.06286579 -0.12790556 0.09587303 0.07786416 0.04109838 0.0026324186
-0.21692884 0.013763028 0.022589039 0.022843588 -0.1371743 -0.07783736 -0.32089245 0.18404698
-0.11231901 -0.027346693 -0.22723968 -0.13806812 -0.1626569 -0.034190327 -0.12555635 -0.067750834
-0.197854 0.00884032 0.055716526 -0.039237037 -0.19832198 -0.13228741 0.13821223 0.21681143
-0.1628448 -0.066446446 -0.14324428 -0.19848707 -0.21236384 -0.18376353 -0.2985717 0.04860565
-0.04457858 -0.16632035 -0.00035250132 -0.113566265 -0.124797754 -0.0036954917 -0.050454207 0.019927457
-0.27856678 -0.04335528 -0.18261915 -0.07920006 0.20632596 0.054547958 0.16889256 -0.16463149
-0.10498564 0.017926648 -0.11924405 0.04460525 0.031815384 0.0577663 -0.17280522 -0.16768187
-0.156386 -0.01971307 -0.09030796 -0.1915146 -0.08741789 -0.1151055 0.15189858 0.18919972
00000000: 81b2 c5bd 2bb6 babd 9529 7dbe 24f1 2dbd
00000010: d79b 873c 4bd0 863d c234 043e 9352 b8bd
00000020: 995b b13c 3162 fdbd 089f aabc 14ac 55be
00000030: bc48 4bbe 8428 2fbe 0468 df3c dd03 2d3d
00000040: ab4e f83c 363c 61be 5bab 77be bd57 56bd
00000050: 4d7b 39be 02d8 f7bd f8bc e03d 164f 053d
00000060: d7a5 3e3d 907d 5cbe 086f ae3d 8396 ccbd
00000070: 4b4f bc3d f97d 02be e58a 7f3d abc4 453d
00000080: 653e 3b3d c691 e6bd 2b15 77be 8c6e 74bd
00000090: 9908 513d 3db9 0aba f30d b53d 6d32 3a3d
000000a0: 350e edbd c71f a6bd ff5f e73d 8c3b d8bb
000000b0: 2c25 723e 21a6 f5bd 148f 9dbc 349f 233e
000000c0: df10 29bd 8d27 b8bd 7a8b 8dbd 13e3 8bbe
000000d0: 8866 b73d c05b c43c cbcf d7bc 6949 e73c
000000e0: 117a 2cbd db47 403e c8bf 80bd adf9 02be
000000f0: 1459 c43d 3f77 9f3d c656 283d a884 2c3b
00000100: 9822 5ebe 537e 613c a60c b93c 7a22 bb3c
00000110: 6b77 0cbe 3269 9fbd 044c a4be d076 3c3e
00000120: 8207 e6bd 2c06 e0bc 85b1 68be bb61 0dbe
00000130: 888f 26be 280b 0cbd d891 00be f3c0 8abd
00000140: 3d9a 4abe fdd6 103c 0337 643d 04b7 20bd
00000150: eb14 4bbe 5a76 07be 8287 0d3e d103 5e3e
00000160: cac0 26be 1315 88bd a1ae 12be 3240 4bbe
00000170: e875 59be 822c 3cbe 64de 98be b816 473d
00000180: 0798 36bd e24f 2abe edcf b8b9 6e95 e8bd
00000190: f795 ffbd 1030 72bb 12a9 4ebd e83e a33c
000001a0: 4ea0 8ebe 4e95 31bd 8400 3bbe a433 a2bd
000001b0: 1d47 533e ae6d 5f3d 2cf2 2c3e 2895 28be
000001c0: b602 d7bd e8da 923c 3936 f4bd ffb3 363d
000001d0: d950 023d 5b9c 6c3d daf3 30be ccb4 2bbe
000001e0: a723 20be 4e7d a1bc 61f3 b8bd 671c 44be
000001f0: 2708 b3bd 6fbc ebbd 4d8b 1b3e 92bd 413e

model.dense2.weight f4 [64, 128]
-0.060865644 -0.10558472 -0.28989562 0.29166028 -0.005190445 0.16015941 -0.08153368 -0.14990973
-0.26305404 -0.12954858 -0.20536983 0.058412626 -0.15990831 -0.15477404 0.22263652 0.034760356
-0.06248018 0.07080596 -0.032685477 -0.42820558 -0.095142104 0.001986303 -0.18164486 -0.0897373
0.16308965 -0.09874882 -0.08023237 -0.03606948 -0.08993468 -0.03139948 0.16772035 -0.15791595
0.24082218 -0.3479265 0.15576716 0.3221095 0.08886202 0.110962614 -0.048230305 0.10888783
0.01784302 0.025831021 -0.34421015 -0.06746826 -0.35023317 -0.07170932 0.13686931 0.17445067
0.10489619 0.04777937 0.1300679 -0.13201748 -0.10060767 -0.03320026 -0.0779443 0.036562707
-0.25476214 0.10961198 -0.3077744 -0.018925896 0.049677376 -0.5705702 0.19458634 0.044237196
0.03685915 0.1105917 0.027144907 0.26295865 -0.030467115 -0.029677248 -0.06551307 0.1894044
0.15801887 -0.16621603 -0.058019537 0.13115078 -0.10260809 -0.28096482 -0.13119233 -0.031473815
-0.0977676 -0.065382235 0.115886815 -0.01974941 -0.04346163 0.05208629 0.0766179 0.045494843
-0.017250316 0.22684851 -0.0022692627 -0.055825453 0.042418625 -0.35551804 -0.004644274 -0.020189835
0.014817516 0.11378193 0.06525273 0.08344996 -0.007429075 0.032507677 0.00018500106 -0.6050651
-0.1256293 0.27131084 0.08448786 0.24946414 0.12645446 -0.26409474 -0.076305255 -0.07013391
0.13110107 0.21196899 -0.05362075 0.11432414 0.17654277 0.2535605 -0.09779497 -0.07772886
-0.12773886 0.12197671 -0.27878723 0.1088738 -0.00061091536 0.1338086 0.167245 0.14310364
0.14887248 -0.00052499573 -0.073731594 0.19799289 -0.27278644 -0.00466726 -0.011966191 0.08030436
-0.04802549 0.04241526 -0.2048585 0.087739 0.11084313 -0.0049918564 -0.061888684 0.09432027
-0.33002684 -0.19794202 0.0117217535 -0.1561164 0.034468405 0.03747105 -0.34436348 -0.14243889
0.011154791 -0.023733191 -0.33021456 -0.024412239 -0.23705564 -0.10483858 0.0747703 0.06957441
-0.012837454 -0.056887165 0.10901745 0.09896034 -0.27307567 -0.008072998 0.1474313 -0.3563482
0.08689101 -0.2543864 -0.07884978 -0.01342598 -0.32336545 0.06744679 0.16196954 -0.20334391
0.042355865 0.07934726 -0.012815625 -0.041265402 -0.252438 -0.075915545 0.04072118 -0.0035126407
-0.011430628 0.030367142 0.096067615 0.042313844 -0.110449925 -0.19749837 -0.19449489 0.028678482
0.050568752 -0.0077772345 0.10360353 -0.20298517 0.12077557 0.08048425 -0.0056163664 0.078378126
0.15446007 0.03168969 0.07394875 0.005700168 0.047073845 0.040889867 -0.048746847 -0.02568523
-0.05544137 0.06994338 -0.10600539 -0.055896044 0.18131393 -0.09367697 -0.1954264 -0.052274644
0.052876968 0.3393411 -0.09493381 0.0006266644 -0.04700313 0.004111547 0.013274591 0.09022375
-0.22401233 0.002327152 0.12331384 0.32269096 0.30035162 -0.11542962 -0.18131945 -0.017944856
0.11553143 -0.031703554 0.14904107 0.22517727 -0.15950325 0.011048972 -0.23062246 -0.03746844
0.113366656 0.07621229 -0.10535415 0.07213675 -0.104568124 -0.0059621013 0.04531286 -0.032480847
0.01727772 0.070190616 -0.36176378 0.042527482 0.16288325 0.1458456 0.07356232 -0.0060071344
00000000: 414e 79bd cd3c d8bd 336d 94be 7f54 953e
00000010: 9c14 aabb d400 243e 21fb a6bd f081 19be
00000020: 05af 86be 62a8 04be 784c 52be 1442 6f3d
00000030: 01bf 23be 167d 1ebe d4fa 633e e060 0e3d
00000040: 38eb 7fbd b702 913d 35e1 05bd c33d dbbe
00000050: ddd9 c2bd a22c 023b 1c01 3abe 31c8 b7bd
00000060: f900 273e d23c cabd de50 a4bd 97bd 13bd
00000070: ac2f b8bd be9c 00bd e2be 2b3e b8b4 21be
00000080: 179a 763e 6c23 b2be 6d81 1f3e 89eb a43e
00000090: 4afd b53d 5e40 e33d 248d 45bd 9500 df3d
000000a0: 862b 923c 949b d33c 503c b0be cd2c 8abd
000000b0: c351 b3be 56dc 92bd 7827 0c3e 32a3 323e
000000c0: d0d3 d63d 4db4 433d 8530 053e 972f 07be
000000d0: 650b cebd fffc 07bd 43a1 9fbd c7c2 153d
000000e0: 2f70 82be 3f7c e03d 9b94 9dbe 7b0a 9bbc
000000f0: 817a 4b3d e310 12bf a441 473e 1032 353d
00000100: 9ff9 163d e77d e23d ff5e de3c 84a2 863e
00000110: 2c96 f9bc b31d f3bc b72b 86bd 3af3 413e
00000120: b3cf 213e 8934 2abe e5a5 6dbd 644c 063e
00000130: 3124 d2bd 9fda 8fbe 4857 06be b0ea 00bd
00000140: 613a c8bd 1fe7 85bd 1156 ed3d 84c9 a1bc
00000150: d204 32bd 6f58 553d d8e9 9c3d cd58 3a3d
00000160: 8950 8dbc fa4a 683e e9b7 14bb 3ba9 64bd
00000170: 27bf 2d3d 7606 b6be fe2e 98bb 2765 a5bc
00000180: 2bc5 723c 8006 e93d 39a3 853d d0e7 aa3d
00000190: 996f f3bb c526 053d d8fc 4139 8ce5 1abf
000001a0: f8a4 00be 41e9 8a3e f907 ad3d 8773 7f3e
000001b0: 477d 013e 6d37 87be ee45 9cbd 5ea2 8fbd
000001c0: 5c3f 063e 660e 593e 6ea1 5bbd c622 ea3d
000001d0: a1c7 343e afd2 813e bb48 c8bd 4f30 9fbd
000001e0: facd 02be edce f93d 33bd 8ebe 3af9 de3d
000001f0: d625 20ba 1f05 093e 4642 2b3e c389 123e
00000200: 0772 183e de9f 09ba 9700 97bd a6be 4a3e
00000210: aaaa 8bbe d1ef 98bb d80d 44bc 9d76 a43d
00000220: 60b6 44bd a0bb 2d3d 6dc6 51be 81b0 b33d
00000230: b901 e33d ba92 a3bb fd7e 7dbd fc2a c13d
00000240: 47f9 a8be 50b1 4abe 990c 403c fadc 1fbe
00000250: be2e 0d3d 3e7b 193d 6950 b0be 80db 11be
00000260: 96c2 363c 1c6c c2bc e211 a9be 2dfc c7bc
00000270: b7be 72be 9cb5 d6bd 2c21 993d 077d 8e3d
00000280: 2f54 52bc 8402 69bd 8a44 df3d b8ab ca3d
00000290: 93d0 8bbe 9c44 04bc 3bf8 163e 4573 b6be
000002a0: eaf3 b13d ef3e 82be fe7b a1bd a4f8 5bbc
000002b0: 2890 a5be 8b21 8a3d 58db 253e 6339 50be
000002c0: 587d 2d3d d180 a23d a1f8 51bc e905 29bd
000002d0: 8e3f 81be 9c79 9bbd 41cb 263d 5534 66bb
000002e0: 8747 3bbc 83c4 f83c 19bf c43d 4851 2d3d
000002f0: 9233 e2bd 033d 4abe ab29 47be 23ef ea3c
00000300: 2e21 4f3d 2cd8 febb 162e d43d 58db 4fbe
00000310: 2f59 f73d edd4 a43d 7f09 b8bb b684 a03d
00000320: c82a 1e3e 0ccd 013d 7172 973d 7ac8 ba3b
00000330: 81d0 403d 227c 273d c6aa 47bd d569 d2bc
00000340: 7d16 63bd 7a3e 8f3d 5b19 d9bd 40f3 64bd
00000350: 5caa 393e b6d9 bfbd dc1d 48be f01d 56bd
00000360: 8595 583d 1ebe ad3e a86c c2bd bc46 243a
00000370: 5b86 40bd 28ba 863b ac7d 593c 3bc7 b83d
00000380: 7d63 65be 2283 183b f78b fc3d c037 a53e
00000390: b0c7 993e 5d66 ecbd ceab 39be 1701 93bc
000003a0: be9b ec3d 96db 01bd 399e 183e df94 663e
000003b0: d254 23be bf06 353c 4b28 6cbe 8278 19bd
000003c0: c72c e83d 3015 9c3d ebc3 d7bd 6fbc 933d
000003d0: d027 d6bd bb5d c3bb fa99 393d a30a 05bd
000003e0: 018a 8d3c 19c0 8f3d 1a39 b9be 4c31 2e3d
000003f0: deca 263e 8d58 153e d7a7 963d 7fd7 c4bb

model.dense2.bias f4 [64]
0.20198184 -0.13684647 -0.09781146 -0.15603961 0.10208083 0.12991478 -0.05583474 -0.25175536
-0.110782206 0.030574804 -0.09471783 0.00016652296 -0.19749326 -0.21750306 -0.10012591 0.01743001
-0.009323742 -0.116411 -0.15701544 0.24111521 -0.11701907 0.25521904 -0.07004624 0.08430773
-0.059513863 -0.13201009 -0.10381571 -0.062908955 -0.012825482 0.24307767 -0.09608302 -0.0030121244
-0.11679246 0.061402343 0.052565224 -0.078681335 -0.025597924 -0.09588596 0.07359642 0.046167582
0.04679258 0.164278 -0.084586024 -0.059778288 -0.1729577 -0.009538905 -0.122951485 -0.090038635
-0.110832885 -0.230439 -0.22925407 0.18074417 -0.029539589 -0.08701947 -0.046783168 -0.0067121387
0.17514458 -0.15782395 -0.09549044 0.027434675 -0.08752479 -0.093453966 -0.031592894 0.07879571
00000000: 54d4 4e3e 7b21 0cbe 6051 c8bd d9c8 1fbe
00000010: c10f d13d 6108 053e f8b2 64bd 14e6 80be
00000020: c8e1 e2bd 0378 fa3c 6cfb c1bd ab9c 2e39
00000030: ac3b 4abe 1fb9 5ebe d00e cdbd 61c9 8e3c
00000040: 9cc2 18bc e468 eebd a8c8 20be e8e6 763e
00000050: b2a7 efbd 12ac 823e 6774 8fbd 88a9 ac3d
00000060: cfc4 73bd a72d 07be 559d d4bd 69d6 80bd
00000070: f821 52bc 5ae9 783e 2dc7 c4bd 1067 45bb
00000080: e330 efbd 0681 7b3d a24e 573d ae23 a1bd
00000090: bdb2 d1bc dc5f c4bd b8b9 963d 381a 3d3d
000000a0: 94a9 3f3d 7e38 283e 703b adbd 14da 74bd
000000b0: d31b 31be 1149 1cbc fdcd fbbd 2d66 b8bd
000000c0: 5afc e2bd 34f8 6bbe 94c1 6abe 0015 393e
000000d0: 02fd f1bc 4437 b2bd b59f 3fbd 80f1 dbbb
000000e0: 1a59 333e 9a9c 21be 7e90 c3bd afbe e03c
000000f0: 3240 b3bd cb64 bfbd 8d67 01bd a55f a13d

model.dense3.weight f4 [32, 64]
-0.17359307 -0.14386897 -0.036988243 -0.010752035 -0.023393536 -0.04725494 0.11956311 -0.25698584
-0.18241629 -0.07042393 -0.27716157 0.0040188474 0.05551241 0.049527116 0.033605654 0.33447424
0.024820978 0.10595735 -0.008310101 0.21829684 -0.06749917 0.032209437 0.045007724 -0.15029469
0.16565177 0.03847183 0.0033052787 -0.16743284 0.055379935 0.22736493 0.03586042 -0.006679395
-0.04643339 0.16109909 0.22752427 0.16286892 -0.11317287 0.16120775 0.07315686 -0.11980298
0.00023131669 0.008907965 -0.023589429 0.14090252 0.18733487 0.0722172 -0.1375771 0.15386122
-0.2810779 0.034592856 -0.022224093 0.17737935 -0.065593 -0.04384451 -0.115107596 -0.029521953
0.010265243 -0.21231651 -0.117008656 -0.05237632 0.19961306 -0.04515019 -0.07563651 0.035260987
-0.17346007 -0.12556206 0.08706316 0.07404945 0.08070441 0.06781433 -0.051697955 -0.24125075
0.09288051 0.06707848 -0.21893418 -0.1709301 -0.008612456 0.03298206 -0.010534875 0.1597362
-0.08548004 -0.100817926 0.121801876 0.28806522 0.07900479 0.2502116 0.1278441 -0.22004636
0.04543714 -0.18912628 -0.17282426 -0.21344987 0.013378445 0.24330385 -0.029648779 0.082487494
0.034858566 0.13605407 0.25959355 0.1538661 -0.11666696 0.113247305 -0.05711771 -0.15309028
0.09458205 0.23766755 -0.070535034 0.025898779 0.20386285 0.11379359 -0.16152112 0.083961956
-0.23257184 0.064752944 -0.048297342 0.05214211 -0.04710621 0.026400011 -0.009170876 0.021951308
0.04100288 -0.0927538 -0.1840922 0.17536487 0.2732588 -0.024884803 0.02235437 0.13531706
0.044966385 -0.011333793 0.100621045 -0.07955366 -0.08084341 0.034930225 -0.011441541 -0.0076912637
-0.12740605 -0.14217386 0.026180223 0.07028372 -0.121638305 -0.09916054 -0.10942553 -0.014489462
-0.02731252 0.056696236 0.0108536035 0.054912683 -0.13456756 -0.14363934 -0.13337407 -0.06959474
-0.0015335722 -0.09957404 0.014855805 -0.11257528 -0.07873115 -0.08168968 -0.04857899 0.053457536
0.10155773 -0.0046990933 0.06747325 -0.040579267 -0.06749978 -0.065174036 -0.13686982 0.10504252
-0.022433095 -0.13252872 -0.088921346 0.011622892 -0.10913476 0.016193846 0.057616167 0.034464944
-0.070800364 -0.03094862 -0.00030429775 -0.025529383 -0.1219348 0.053077832 0.10029605 -0.0074322084
-0.0071701524 -0.0062020924 0.09444167 -0.13627222 0.009769831 -0.011576825 -0.069296315 -0.038036715
0.10543268 -0.1976513 -0.007855492 0.2209608 0.10678409 0.08355788 0.18278314 -0.15942305
0.095993616 0.14459506 0.043609686 0.13236864 -0.13235041 -0.13252875 -0.051150016 -0.0023794584
-0.06897324 0.021783264 0.11133046 0.18679854 0.04238592 0.10062864 -0.08018574 0.3025584
-0.037671503 0.00097304984 0.0014517341 -0.23370855 -0.08444921 0.24608342 0.088279426 0.106132224
0.09245346 0.168608 -0.1331694 -0.17610511 0.038194742 0.046812873 0.11331506 0.024900638
-0.039701436 -0.11034589 -0.105472445 -0.06990529 -0.0592901 0.034519162 -0.082949586 0.072692595
-0.008372598 -0.11718272 0.10010925 -0.026830379 -0.18106015 -0.18465376 0.07162801 0.07625562
-0.076542504 -0.008553618 -0.069902785 -0.1447408 -0.12782723 -0.0749577 0.17507695 0.10507928
00000000: 62c2 31be 6352 13be fc80 17bd 4e29 30bc
00000010: cda3 bfbc 658e 41bd 81dd f43d a693 83be
00000020: 56cb 3abe 6c3a 90bd 1fe8 8dbe 89b0 833b
00000030: fb60 633d f2dc 4a3d 15a6 093d 3540 ab3e
00000040: 5d55 cb3c 2b00 d93d 1727 08bc 3589 5f3e
00000050: 013d 8abd 0bee 033d 055a 383d dae6 19be
00000060: 9ea0 293e a394 1d3d 609d 583b 8473 2bbe
00000070: 12d6 623d 5ad2 683e 60e2 123d d4de dabb
00000080: f030 3ebd 29f7 243e 1ffc 683e 1cc7 263e
00000090: 2dc7 e7bd a513 253e 44d3 953d 445b f5bd
000000a0: 9a8d 7239 b7f2 113c 9e3e c1bc c048 103e
000000b0: b6d4 3f3e 9de6 933d 03e1 0cbe cc8d 1d3e
000000c0: 71e9 8fbe 3db1 0d3d 4d0f b6bc efa2 353e
000000d0: 9f55 86bd 4d96 33bd 88bd ebbd 06d8 f1bc
000000e0: 8d2f 283c 8069 59be 3ca2 efbd 8d88 56bd
000000f0: 5e67 4c3e 68ef 38bd 51e7 9abd d36d 103d
00000100: 849f 31be 5793 00be 2c4e b23d 3da7 973d
00000110: 5b48 a53d 3de2 8a3d 3cc1 53bd 700a 77be
00000120: 2338 be3d 7160 893d 4830 60be 4d08 2fbe
00000130: 421b 0dbc 3218 073d 789a 2cbc e391 233e
00000140: 2910 afbd a179 cebd 4373 f93d 497d 933e
00000150: 43cd a13d bc1b 803e 90e9 023e d553 61be
00000160: 4b1c 3a3d 52aa 41be d8f8 30be 9a92 5abe
00000170: 4431 5b3c a524 793e ffe1 f2bc 34ef a83d
00000180: dbc7 0e3d c251 0b3e 72e9 843e 138f 1d3e
00000190: 16ef eebd 34ee e73d 43f4 69bd b3c3 1cbe
000001a0: 3cb4 c13d 1f5f 733e ac74 90bd ad29 d43c
000001b0: 6cc1 503e 9d0c e93d cb65 25be 3ff4 ab3d
000001c0: 5027 6ebe 319d 843d 6fd3 45bd f792 553d
000001d0: 71f2 40bd d644 d83c 7141 16bc 3bd3 b33c
000001e0: a3f2 273d b4f5 bdbd aa82 3cbe d992 333e
000001f0: 94e8 8b3e 37db cbbc 8320 b73c 8e90 0a3e
00000200: ac2e 383d 60b1 39bc 6812 ce3d 07ed a2bd
00000210: 3b91 a5bd ff12 0f3d 4d75 3bbc ff06 fcbb
00000220: bb76 02be 0696 11be e877 d63c e9f0 8f3d
00000230: 811d f9bd ae14 cbbd 7e1a e0bd 3565 6dbc
00000240: 82be dfbc 503a 683d 50d3 313c 1fec 603d
00000250: 14cc 09be 3116 13be 3693 08be b087 8ebd
00000260: 2502 c9ba 79ed cbbd c365 733c de8d e6bd
00000270: cc3d a1bd eb4c a7bd c3fa 46bd 4af6 5a3d
00000280: 80fd cf3d dafa 99bb 6a2f 8a3d 7236 26bd
00000290: 533d 8abd f779 85bd 9a27 0cbe 8820 d73d
000002a0: 9cc5 b7bc 9cb5 07be 651c b6bd f16d 3e3c
000002b0: 0c82 dfbd f5a8 843c eefe 6b3d 1d2b 0d3d
000002c0: c8ff 90bd f687 fdbc 278a 9fb9 ff22 d1bc
000002d0: f4b8 f9bd 2468 593d 0468 cd3d e289 f3bb
000002e0: 99f3 eabb ec3a cbbb a26a c13d f28a 0bbe
000002f0: a411 203c b9ac 3dbc 3aeb 8dbd 63cc 1bbd
00000300: 17ed d73d 1a65 4abe 52b4 00bc 8c43 623e
00000310: 9eb1 da3d 6520 ab3d 812b 3b3e cc3f 23be
00000320: 4d98 c43d ba10 143e 12a0 323d a58b 073e
00000330: de86 07be 9eb5 07be ae82 51bd b0f0 1bbb
00000340: d841 8dbd d172 b23c 3901 e43d 1e48 3f3e
00000350: dc9c 2d3d 6316 ce3d 6c38 a4bd efe8 9a3e
00000360: 6f4d 1abd 4514 7f3a 1d48 be3a 4b51 6fbe
00000370: b5f3 acbd 4bfd 7b3e d8cb b43d da5b d93d
00000380: 3d58 bd3d 93a7 2c3e 8f5d 08be e654 34be
00000390: 1772 1c3d dbbe 3f3d ba11 e83d 6cfc cb3c
000003a0: f99d 22bd 07fd e1bd f001 d8bd 812a 8fbd
000003b0: 2dda 72bd f763 0d3d 79e1 a9bd dbdf 943d
000003c0: 392d 09bc 7efd efbd 1406 cd3d 62cb dbbc
000003d0: d567 39be e015 3dbe b5b1 923d e82b 9c3d
000003e0: 51c2 9cbd 7924 0cbc 3129 8fbd ef36 14be
000003f0: 24e5 02be 6c83 99bd 5f47 333e ce33 d73d

model.dense3.bias f4 [32]
0.115150735 0.17218551 -0.092306785 0.13202117 0.08513566 -0.11524811 -0.13538766 0.09957745
0.013566312 -0.03513736 -0.06643043 0.084529854 -0.22692233 -0.05243691 -0.101028994 -0.21309575
0.038159046 -0.31577757 0.19269778 0.035247806 0.10785699 -0.034686323 -0.06843767 -0.17962317
0.2016958 0.052668802 0.24625552 -0.098992184 0.29845607 -0.16864641 0.044163715 -0.108899854
00000000: 26d4 eb3d 6651 303e 570b bdbd 8f30 073e
00000010: 9b5b ae3d 3307 ecbd 10a3 0abe 43ef cb3d
00000020: 3d45 5e3c 31ec 0fbd ad0c 88bd fd1d ad3d
00000030: 545e 68be 16c8 56bd 4ae8 cebd c635 5abe
00000040: a94c 1c3d 99ad a1be 9152 453e 0160 103d
00000050: 20e4 dc3d 3f13 0ebd 0d29 8cbd 23ef 37be
00000060: 5889 4e3e 3ebb 573d 682a 7c3e 6abc cabd
00000070: 3ccf 983e a5b1 2cbe 03e5 343d e306 dfbd

model.output.weight f4 [10, 32]
-0.35068488 -0.08601968 0.13935357 -0.08134032 -0.6432113 0.21943527 -0.0812441 -0.79096675
-0.08343684 -0.80065894 -0.09526124 -0.62271285 0.17838652 -0.45751294 -0.7740589 0.115818135
-0.54347974 -0.24433583 -0.19697191 -0.18688837 -1.0922356 0.043756504 -0.498727 -0.58692133
0.10528174 -0.045211293 0.22121535 0.009861958 0.11946699 -0.6085734 0.06838629 -0.4881366
-0.29113317 -0.51597303 0.07631206 -0.45428556 0.20719624 -0.50952595 -0.18701394 0.22939736
0.077593595 0.031891882 -0.70497096 -0.31765866 -0.3080271 0.26016745 -0.4411254 0.027948797
0.07054268 0.12769145 -0.12920235 -0.3106833 -0.70794404 -0.11092277 -0.5941269 -0.049838413
-0.59928554 -0.7075639 -0.59002376 -0.2325847 -0.30384707 0.09793606 -0.48273352 -0.22754322
-0.33246326 -0.62405807 0.16484317 0.009215927 0.027369628 -0.014707501 0.14310206 -0.46953022
0.03715534 -0.24659656 -0.594339 0.09228163 0.13351071 -0.25431895 -0.75167465 0.13632151
-0.07471212 -0.2217816 -0.3723083 0.08900369 -0.4351338 -0.40111428 -0.24417035 0.15193501
-0.6950853 -0.10796604 -0.5318966 -0.33663175 0.24045014 -1.6505357 0.11024162 0.036082514
0.04462333 0.025614636 0.027486926 -0.023941077 -0.08621141 -0.71400934 -0.13544108 -0.49836448
-0.65186024 -0.3029652 0.1211203 0.23889406 -0.12722264 0.04753345 -0.349664 0.026997695
-0.07835249 -0.47104526 -0.15367731 -0.43692926 0.0034502714 0.021844378 0.07902857 0.022074847
-0.56041163 -0.28878874 -0.08342095 0.09151961 -0.04739087 -0.2678414 -0.33744806 -0.030439574
-0.66628194 -0.56270576 -0.0028496967 -1.0252106 -0.07776798 -0.18200679 -0.1410501 0.04810317
-0.32962972 -0.27016318 -0.49452978 -0.9167738 0.07496396 -0.42260268 0.12734534 -0.15805432
-0.050258115 0.15339075 0.22217977 0.18728168 -1.0018185 -0.9394741 -0.2800751 -0.18251513
0.14075488 -0.010905308 -0.08365582 -0.21718872 -0.40702263 -0.43314353 -0.19871221 -0.16093026
-0.3230412 -0.15338802 -0.07545412 0.19893408 -0.10211169 -0.10333736 0.031091388 0.075116605
0.13034785 -0.5748473 0.19057007 0.107945316 -0.45861554 0.024943521 0.059898946 -0.3037938
-1.0235518 -0.8515416 0.00047072864 -0.97434497 -0.5942802 -0.2983017 -0.44542426 -0.027651042
-0.2377828 -0.8231395 0.10938192 -0.019532189 -0.55594856 0.063383974 -0.15843016 -0.41314864
-1.5319123 -0.4214141 0.00954766 -0.23103905 -0.051924437 0.2900947 0.118523546 -0.021772692
0.06156981 -0.58168036 0.202526 -0.6082158 -0.0372273 0.01502415 -0.33360025 -0.054829665
-1.4346466 -0.10966614 -0.6232363 -0.02075649 -1.5792085 -0.16328464 -1.9107167 -0.21086606
0.1590217 -0.4087958 -0.34887266 -0.6375777 -0.4612784 -0.87313145 -0.26279116 0.016844805
0.042365175 0.087113224 -0.13833722 -0.62426895 -0.6051172 -0.049359147 0.09511817 -0.093029894
-0.31126395 -0.105623335 -0.5439368 -0.22956726 -0.1415053 -0.088372976 -0.3242729 0.042396355
0.08344669 0.12075078 -0.30156586 -0.1782841 -0.73708135 -0.52547675 0.01606169 0.09109343
-0.70915115 0.27031377 -1.0265601 -0.17316622 -0.18521936 -0.06735759 -0.15919052 -0.2087025
00000000: f88c b3be 162b b0bd b4b2 0e3e c195 a6bd
00000010: 7fa9 24bf a4b3 603e 4f63 a6bd cc7c 4abf
00000020: efe0 aabd fcf7 4cbf 5318 c3bd 1c6a 1fbf
00000030: f5aa 363e 233f eabe b928 46bf 0f32 ed3d
00000040: 7d21 0bbf 2c33 7abe 01b3 49be aa5f 3fbe
00000050: 60ce 8bbf 053a 333d 2559 ffbe 7a40 16bf
00000060: f49d d73d 7a2f 39bd 4786 623e 0d94 213c
00000070: 1cab f43d 77cb 1bbf 1c0e 8c3d 0aed f9be
00000080: 680f 95be cf16 04bf 7f49 9c3d 1e98 e8be
00000090: 402b 543e 4b70 02bf 9580 3fbe 24e7 6a3e
000000a0: 64e9 9e3d 10a1 023d fa78 34bf 28a4 a2be
000000b0: bab5 9dbe ab34 853e 30db e1be e0f4 e43c
000000c0: ae78 903d 8cc1 023e 9f4d 04be e211 9fbe
000000d0: d23b 35bf 7a2b e3bd b318 18bf 5d23 4cbd
000000e0: c76a 19bf e822 35bf cc0b 17bf af2a 6ebe
000000f0: d891 9bbe b392 c83d d928 f7be 1701 69be
00000100: a038 aabe 45c2 1fbf a6cc 283e 66fe 163c
00000110: 4536 e03c bbf7 70bc 5989 123e 4466 f0be
00000120: 3330 183d cf83 7cbe 9a26 18bf 27fe bc3d
00000130: 08b7 083e 1836 82be c06d 40bf de97 0b3e
00000140: ab02 99bd b71a 63be 329f bebe 9147 b63d
00000150: dcc9 debe da5e cdbe cb07 7abe da94 1b3e
00000160: 1cf1 31bf 4d1d ddbd 602a 08bf ff5a acbe
00000170: 9038 763e c144 d3bf 5cc6 e13d 42cb 133d
00000180: f4c6 363d c9d5 d13c 432c e13c 1420 c4bc
00000190: 9c8f b0bd 51c9 36bf 11b1 0abe a129 ffbe
000001a0: 50e0 26bf 411e 9bbe eb0d f83d a5a0 743e
000001b0: a746 02be 6fb2 423d 2907 b3be 452a dd3c
000001c0: 4577 a0bd d82c f1be 965d 1dbe 31b5 dfbe
000001d0: f31d 623b fbf2 b23c bbd9 a13d 4fd6 b43c
000001e0: 2377 0fbf 1edc 93be 9ad8 aabd a26e bb3d
000001f0: ee1c 42bd 8222 89be fec5 acbe 6a5c f9bc
00000200: 7491 2abf 7c0d 10bf fac1 3abb 1a3a 83bf
00000210: d244 9fbd fd5f 3abe 706f 10be d407 453d
00000220: 3ac5 a8be d452 8abe 0233 fdbe b0b1 6abf
00000230: b486 993d 615f d8be d166 023e fed8 21be
00000240: 74db 4dbd 7712 1d3e 1883 633e c5c6 3f3e
00000250: 973b 80bf 6081 70bf 0166 8fbe 3fe5 3abe
00000260: 0c22 103e 2dac 32bc be53 abbd b866 5ebe
00000270: 4565 d0be fdc4 ddbe 377b 4bbe e7ca 24be
00000280: a865 a5be c011 1dbe b187 9abd 60b5 4b3e
00000290: ef1f d1bd 8aa2 d3bd 5eb3 fe3c bcd6 993d
000002a0: e879 053e 3129 13bf cd24 433e 6f12 dd3d
000002b0: a8cf eabe 5b56 cc3c 9958 753d dc8a 9bbe
000002c0: bf03 83bf a1fe 59bf 21cc f639 ac6e 79bf
000002d0: bf22 18bf 00bb 98be a60e e4be 7084 e2bc
000002e0: 567d 73be 45b9 52bf a103 e03d f801 a0bc
000002f0: a552 0ebf 75cf 813d 843b 22be 3888 d3be
00000300: b415 c4bf 97c3 d7be ca6d 1c3c 8095 6cbe
00000310: b8ae 54bd 4b87 943e 79bc f23d a55c b2bc
00000320: a030 7c3d 01e9 14bf fa62 4f3e 08b4 1bbf
00000330: a77b 18bd da27 763c a7cd aabe 1295 60bd
00000340: 80a2 b7bf a498 e0bd 6a8c 1fbf 8409 aabc
00000350: 8123 cabf 1734 27be 5d92 f4bf 46ed 57be
00000360: 96d6 223e af4d d1be 709f b2be 4b38 23bf
00000370: af2c ecbe 8b85 5fbf 908c 86be 1efe 893c
00000380: 1b87 2d3d 6b68 b23d 46a8 0dbe 17d0 1fbf
00000390: f6e8 1abf d12c 4abd 51cd c23d 7586 bebd
000003a0: fd5d 9fbe 0c51 d8bd 713f 0bbf ae13 6bbe
000003b0: c4e6 10be e4fc b4bd 1907 a6be cda7 2d3d
000003c0: 19e6 aa3d 2f4c f73d d766 9abe 1b90 36be
000003d0: 5db1 3cbf a585 06bf ce93 833c 318f ba3d
000003e0: ee8a 35bf 9166 8a3e 5266 83bf 7c52 31be
000003f0: 25aa 3dbe c7f2 89bd d702 23be 1cb6 55be

model.output.bias f4 [10]
-0.03119556 -0.08335597 -0.10483952 0.07534201 -0.12210134 -0.25799045 -0.336839 -0.28714266
0.37272286 0.21662594
00000000: d58d ffbc 89b6 aabd 1ab6 d6bd e94c 9a3d
00000010: 4410 fabd 5317 84be 2976 acbe 5d04 93be
00000020: 88d5 be3e 31d3 5d3e
