Models/model_optAdam_ep70_neu64_lay4_acc0.9474.pth (torch, 219506 bytes, 12 tensors)

model.input.weight f4 [64, 784]
0	0xbcdc28c3	-0.026874905
1	0xbc6434fc	-0.013928648
2	0x3ba0f8e8	0.0049124844
3	0x3b28e6d0	0.002577234
4	0x3cb394bc	0.021921508
5	0xbca40073	-0.020019745
6	0xb4ea0000	-4.3585896e-07
7	0x3d03eba1	0.032207135
8	0x3ca10e7e	0.01966023
9	0x3cc83db6	0.024443489
10	0x3ce913c2	0.028451804
11	0x3be90a30	0.00711181
12	0x3d43b645	0.047781248
13	0x3d631ea2	0.055449136
14	0x3d9270d6	0.07150428
15	0x3d63d719	0.055625055
16	0x3c9074a8	0.017633751
17	0xbcd9391a	-0.026516486
18	0x3c9d83f6	0.019227963
19	0xbab08c00	-0.0013469458
20	0xbcc6dd0e	-0.024275329
21	0xbc21ae98	-0.009868287
22	0xbb165cb0	-0.002294343
23	0xbc5765c0	-0.013146818
24	0x3c926460	0.017870128
25	0x3ae84d00	0.0017723143
26	0xbcf9ef7a	-0.0305097
27	0x3d0994e9	0.033589277
28	0xbc9b849e	-0.018984135
29	0xbc559f38	-0.013038449
30	0x39555200	0.0002034381
31	0xbcbfc42c	-0.023408972
32	0x3d099431	0.033588592
33	0xbc915c99	-0.01774435
34	0xbe3de8a9	-0.18545784
35	0xbe184bf0	-0.14872718
36	0x3d06f50b	0.032948535
37	0x3cfcbf21	0.030852856
38	0x3da04a87	0.07826715
39	0xbbf8b483	-0.007589878
40	0xbc8e0d09	-0.0173402
41	0x3d817946	0.06321959
42	0xbe3624a4	-0.17787415
43	0xbeac6cc8	-0.33676744
44	0xbebd040b	-0.36917147
45	0xbeae8594	-0.34086287
46	0x3e22ca3a	0.15897456
47	0xbdb749a1	-0.089495905
48	0xbd26d0a4	-0.04072632
49	0x3d86573f	0.065596096
50	0xbbbc24d1	-0.0057416935
51	0xb9de7aac	-0.00042434537
52	0x3b40f560	0.002944313
53	0x3cd22fc2	0.025657538
54	0xbc78f994	-0.015196223
55	0x3c2634dc	0.010144439
56	0x3d0681c7	0.03283861
57	0xbd080535	-0.03320809
58	0x3cbf1b4c	0.023328446
59	0x3ce3360e	0.027735736
60	0x3d5d39fd	0.05401038
61	0x3da41c2c	0.08013186
62	0xbd1aac7a	-0.037762143
63	0xbc9ef1e4	-0.019402452
64	0x3e925273	0.2857853
65	0x3eebf680	0.46086502
66	0x3db8c07d	0.09021089
67	0xbc7c00a6	-0.015381014
68	0x3d8467b7	0.064650945
69	0x3da29198	0.07937926
70	0x3e58a8a9	0.21158089
71	0x3eb155be	0.3463573
72	0x3ec367ee	0.3816523
73	0x3ed853a3	0.4225131
74	0x3e6caa0d	0.23111744
75	0x3de12b83	0.10994627
76	0x3e0ca757	0.1373571
77	0x3e4fc338	0.20289314
78	0x3ecb2f69	0.3968461
79	0x3dfbd880	0.122971535
80	0x3e01b310	0.12665963
81	0x3d651d52	0.055936165
82	0x3cdca6be	0.026934978
83	0xbc8a96cc	-0.016917609
84	0x3d0060df	0.031342383
85	0x3c8c7a3a	0.017148126
86	0x39534100	0.00020146742
87	0x3d3a275e	0.0454477
88	0x3d6594be	0.056050055
89	0xbdbe20e0	-0.09283614
90	0x3e0e1bae	0.13877746
91	0x3eeb422d	0.45948926
92	0x3eed94f1	0.46402696
93	0x3e402e15	0.18767579
94	0xbe77376f	-0.2414224
95	0xbd013ec0	-0.031553984
96	0x3d3f995f	0.046777125
97	0x3db083b8	0.08618873
98	0x3d3d5089	0.046219382
99	0x3cc0a59a	0.023516465
100	0x3d8fee39	0.07027859
101	0xbe248121	-0.16064884
102	0x3dd32f3a	0.10311742
103	0x3dae10d8	0.084993064
104	0x3df1cd9b	0.11806794
105	0x3e9f61be	0.3112926
106	0x3e9822b9	0.2971399
107	0xbdbf6eb6	-0.09347288
108	0xbd40b864	-0.04705085
109	0x3e3a1c05	0.18174751
110	0xbce0c28a	-0.027436513
111	0xbcab14ac	-0.02088388
112	0xbc2aec1c	-0.010432269
113	0x3b2a3b10	0.0025975145
114	0x3c216564	0.009850834
115	0xbdc00087	-0.093751006
116	0xbde7b6c2	-0.11314155
117	0x3e0516ec	0.12997025
118	0x3e9f0a0f	0.31062362
119	0x3e895882	0.2682534
120	0x3e16b085	0.14715774
121	0x3e708938	0.23489845
122	0x3e000272	0.12500933
123	0x3de700d4	0.11279455
124	0x3e1c14f0	0.15242362
125	0x3e0c9a5b	0.13730757
126	0xbcf333ef	-0.02968785
127	0xbdcb2cde	-0.09920667
128	0x3cde6fce	0.027152922
129	0x3d9e4122	0.07727267
130	0xba537a53	-0.0008067239
131	0x3e92819e	0.28614515
132	0x3e99e700	0.30059052
133	0xbba95372	-0.005167418
134	0x3e103ecc	0.14086455
135	0x3e70f4d3	0.23530893
136	0xbe75823c	-0.23975462
137	0xbef99892	-0.48749214
138	0x3d9dd6a2	0.077069536
139	0x3b9171c8	0.0044386126
140	0x3cb460ee	0.022018876
141	0xbb633b30	-0.003467273
142	0x3e9c9a05	0.30586258
143	0xbb59de9d	-0.003324426
144	0xbc86243f	-0.016374705
145	0x3e1da16d	0.1539361
146	0x3d57c4a6	0.052677773
147	0xbe30a6eb	-0.17251174
148	0xbdbdf1e8	-0.092746556
149	0xbb3b2e5c	-0.0028561568
150	0x3d10e52a	0.035374798
151	0xbc72a39e	-0.014809517
152	0x3dbc7d76	0.09203617
153	0xbda27e26	-0.07934217
154	0xbe1e249d	-0.15443654
155	0xbe1af7d8	-0.15133607
156	0x3d494481	0.049137596
157	0x3e3d4e2d	0.18486853
158	0x3e3cd2b5	0.18439753
159	0x3ea0ac06	0.31381243
160	0x3e0590d6	0.13043532
161	0x3c5c15a4	0.013432894
162	0x3d44e483	0.04806949
163	0x3e9958b4	0.29950488
164	0x3e124fb8	0.14288223
165	0x3e3ec6a8	0.18630469
166	0x3ecce752	0.40020233
167	0x3d6897a7	0.056785252
168	0x3cf17e86	0.029479276
169	0x3cf9b02e	0.030479517
170	0xbd5668e7	-0.052346136
171	0xbc665e3a	-0.014060551
172	0x3d4d7a0a	0.050165214
173	0x3e166795	0.14687951
174	0x3db0b45f	0.08628153
175	0xbdb4491b	-0.08803006
176	0xbdc0c5d5	-0.094127335
177	0x3da8ac0d	0.08235941
178	0xbd0ccbaf	-0.034373935
179	0x3c8074a6	0.015680622
180	0xbe1d5209	-0.15363325
181	0xbe79da66	-0.24399719
182	0xbe91641c	-0.2839669
183	0xbe22c390	-0.15894914
184	0x3b946841	0.0045290296
185	0x3cc96a24	0.024586745
186	0x3e0ad5de	0.13558146
187	0x3d6f6c37	0.05845281
188	0xbcaf9afa	-0.021436203
189	0xbe46283e	-0.19351289
190	0xbd1db773	-0.03850503
191	0x3e3fc9ff	0.18729399
192	0x3dbd1560	0.092325926
193	0x3dfad96c	0.12248501
194	0x3da642d9	0.08118219
195	0x3ea827f9	0.32842997
196	0x3bc08829	0.0058756066
197	0xbea320a7	-0.3186085
198	0xbe0a6596	-0.13515314
199	0xbd65a4c9	-0.056065354
200	0xbb2ce0e4	-0.0026379162
201	0x3e331d1a	0.1749157
202	0xbdba3586	-0.0909224
203	0xbcd00c98	-0.02539663
204	0x3da81b2c	0.082083076
205	0x3cca6522	0.024706427
206	0xbd489d64	-0.048978224
207	0xbe0b195b	-0.13583891
208	0xbe57fca5	-0.2109247
209	0xbe0e35c6	-0.138877
210	0xbe07a756	-0.13247427
211	0xbc3f5c62	-0.011679741
212	0x3ddcbcf7	0.1077823
213	0x3de025a4	0.109446794
214	0x3da625ef	0.08112704
215	0x3de6c0aa	0.112672165
216	0x3cc167ef	0.02360913
217	0xbd699332	-0.057025142
218	0x3d174936	0.036935054
219	0xbe1db3af	-0.15400575
220	0xbe19504e	-0.1497204
221	0xbd4895f5	-0.048971135
222	0x3e04e137	0.12976538
223	0x3e91b5a0	0.2845888
224	0xbc823d81	-0.015898468
225	0xbea25eca	-0.31712943
226	0xbde79b4f	-0.1130892
227	0xbe9765e9	-0.2956994
228	0xbe78912d	-0.2427413
229	0xbc11fb47	-0.008910007
230	0xbdccf5cf	-0.10007822
231	0x3e0c9dc9	0.13732065
232	0x3bf3d7a8	0.0074414797
233	0xbbb4937c	-0.0055107456
234	0xbda9b46e	-0.08286367
235	0xbdb7da35	-0.089771666
236	0xbdf67a06	-0.12034993
237	0xbd836796	-0.06416242
238	0xbdbde6b0	-0.09272516
239	0xbdd210c8	-0.10257107
240	0x3d21c146	0.03949096
241	0x3d836370	0.064154506
242	0xbd89192a	-0.06694253
243	0x3b452d04	0.0030086646
244	0xbdc4132c	-0.09573969
245	0xbe03b806	-0.12863168
246	0x3d3d28e9	0.046181593
247	0xbcd7008e	-0.026245382
248	0xbe39a9f3	-0.18131237
249	0x3deb7bd9	0.114982314
250	0x3ebd8b9e	0.37020582
251	0x3d0b1c06	0.033962272
252	0xbbf9924e	-0.007616318
253	0xbee36e89	-0.4442027
254	0xbdf57c8a	-0.119866446
255	0xbea2585f	-0.31708047

model.input.bias f4 [64]
0	0x3e2b65b9	0.16738023
1	0x3c94fec4	0.018187888
2	0x3d8aff47	0.067869715
3	0x3e1ac5f6	0.15114579
4	0x3db92d71	0.090418704
5	0x3dc69e51	0.09698165
6	0x3c3124a7	0.010811961
7	0x3d260cbf	0.0405395
8	0xbc8a55db	-0.016886642
9	0x3ca60b34	0.020269014
10	0x3e391ed1	0.18078162
11	0x3e2218d0	0.15829778
12	0x3e1bbdd2	0.1520913
13	0xbe1001dd	-0.14063211
14	0x3e2ce328	0.16883528
15	0x3db24a0b	0.08705529
16	0xbbd691f1	-0.0065481593
17	0x3d787046	0.060653947
18	0x3a556c52	0.0008141446
19	0xbda67d27	-0.0812934
20	0x3d4e6285	0.050386924
21	0x3dbf77d1	0.09349025
22	0xbd9d1438	-0.07669872
23	0x3e3032c6	0.17206869
24	0x3b811ae7	0.0039399746
25	0x3c8a8f56	0.016914051
26	0xbdd24352	-0.102667466
27	0x3e87cc62	0.2652312
28	0xbcd31123	-0.025765007
29	0x3e3ec88b	0.18631189
30	0x3d8ec998	0.06972045
31	0x3c108265	0.008820151
32	0xbb3caa4e	-0.0028788033
33	0x3e0b0f66	0.13580093
34	0x3e277489	0.16353048
35	0xbd22ddeb	-0.03976242
36	0xba4c36a8	-0.0007790127
37	0xbd9b5f13	-0.07586493
38	0xbe3d9c10	-0.18516564
39	0xbe43a435	-0.19105609
40	0x3d0a271a	0.033728696
41	0x3da38900	0.07985115
42	0xbcefe15a	-0.02928226
43	0x3dcb8d6d	0.09939084
44	0x3dd4bae7	0.10387211
45	0xbdf73628	-0.12070876
46	0x3e0f245a	0.13978711
47	0x3ddebc81	0.10875798
48	0x3e4a07c7	0.1972953
49	0x3dfe635b	0.12421294
50	0xbc033e8e	-0.00801052
51	0x3e09ea22	0.13468221
52	0x3df1f377	0.11814015
53	0x3c800ed1	0.015632065
54	0x3dd99054	0.106232315
55	0xbd2b74c0	-0.04185939
56	0x3e2b2212	0.16712216
57	0x3dc4bfa4	0.09606865
58	0xbc41a90d	-0.01182009
59	0x3d565386	0.052325748
60	0x3e1591e2	0.14606431
61	0x3bd565c2	0.0065123746
62	0x3d8d8fce	0.06912194
63	0x3d154bfd	0.03644942

model.dense1.weight f4 [32, 64]
0	0xbd071b3f	-0.03298497
1	0x3bee1ff0	0.007266991
2	0xbe218077	-0.15771662
3	0xbc848ce1	-0.016180458
4	0x3bbeefd8	0.0058269314
5	0xbe8b3d2c	-0.27195108
6	0x3ec4651a	0.38358384
7	0x3e045ff1	0.12927224
8	0x3df9eec2	0.122037426
9	0xbdbd8f9f	-0.09255909
10	0xbda0ac6a	-0.078453854
11	0xbd127ff8	-0.03576657
12	0x3ddb13ff	0.10697173
13	0xbbe2bc5b	-0.0069194264
14	0x3df65b9a	0.1202919
15	0x3f3e0ddb	0.7423989
16	0x3ddac72c	0.1068252
17	0xbd8a5e01	-0.06756211
18	0xbd66461f	-0.056219216
19	0xbf01bf38	-0.506824
20	0x3e8db807	0.27679464
21	0x3b26178c	0.0025343625
22	0x3db9e48c	0.09076795
23	0xbe62a02a	-0.2213141
24	0xbdfa50ec	-0.12222466
25	0xbe555cf6	-0.20836243
26	0x3de6d495	0.112710156
27	0xbeeea041	-0.4660664
28	0xbdcb764c	-0.09934673
29	0x3d6b7d24	0.05749239
30	0x3c8e355a	0.017359424
31	0x3dba918d	0.09109793
32	0x3e101193	0.14069204
33	0x3de66ab3	0.1125082
34	0x3d0b9c68	0.034084707
35	0xbe031229	-0.12799896
36	0xbe867ce9	-0.26267174
37	0xbe854814	-0.26031554
38	0x3d8a2f9e	0.067473635
39	0x3e181589	0.14851965
40	0xbd91a73d	-0.07111976
41	0x3d246c1c	0.040142164
42	0xbdc49dac	-0.09600386
43	0xbd968016	-0.07348649
44	0xbdf9748c	-0.12180433
45	0x3e9cce1e	0.30626005
46	0x3ca2a15a	0.019852329
47	0xbec01f52	-0.37523896
48	0xbe384e55	-0.17998631
49	0x3effe730	0.4998107
50	0x3e7e78cd	0.2485077
51	0x3e3e01fa	0.18555441
52	0x3dfc42d2	0.123174325
53	0x3c166138	0.009178452
54	0xbbe663e1	-0.0070309495
55	0x3e9debc1	0.30843928
56	0x3cb6aaf8	0.022298321
57	0xbe254326	-0.16138896
58	0xbe42a775	-0.19009192
59	0x3ed2b3c2	0.4115277
60	0x3e936e74	0.28795207
61	0x3e0f0d69	0.1396996
62	0xbf0781fe	-0.5293273
63	0x3d21c977	0.039498772
64	0xbe8357a8	-0.25652814
65	0xbecb25c5	-0.39677253
66	0xbe89c6eb	-0.26909575
67	0x3e047567	0.1293541
68	0xbed0dd02	-0.40793616
69	0xbeed2a1d	-0.46321192
70	0x3d978121	0.07397676
71	0xbda71872	-0.081589594
72	0xbdc3849c	-0.095467776
73	0x3c0c21c0	0.0085529685
74	0x3e8d25d1	0.27567914
75	0x3d1a5332	0.037676997
76	0x3df20989	0.11818225
77	0x3ee6e4e3	0.45096502
78	0x3dcb9964	0.09941366
79	0xbea02a2f	-0.31282184
80	0xbd3d5ca8	-0.046230942
81	0xbe06307d	-0.13104434
82	0xbdfc927e	-0.12332629
83	0x3dab81c5	0.08374361
84	0xbddd4340	-0.108038425
85	0xbd9f486e	-0.07777487
86	0x3ef7f188	0.4842646
87	0xbec2d2d6	-0.3805148
88	0xbc1dfe30	-0.009643123
89	0xbd0f034c	-0.034915254
90	0x3e6e3f4a	0.2326633
91	0xbdefe748	-0.11714035
92	0x3d931f1a	0.071836665
93	0xbf3eeb37	-0.7457766
94	0x3e5f0ef8	0.21783054
95	0xbc929d10	-0.017897159
96	0x3e3dc130	0.18530726
97	0x3ee67ec5	0.45018592
98	0xbd16bb38	-0.03679964
99	0xbd0a4010	-0.0337525
100	0xbf0cc03c	-0.54980826
101	0xbe4218c5	-0.18954761
102	0x3e3f177f	0.18661307
103	0xbf092ac5	-0.53580886
104	0xbf272993	-0.6529781
105	0x3e15b3f7	0.14619432
106	0xbe6c1590	-0.230551
107	0x3dc574ba	0.096414044
108	0x3e60e118	0.21960866
109	0xbd82a6f0	-0.06379497
110	0xbe5a733a	-0.21333018
111	0xbe90cdbc	-0.28281963
112	0xbe024e49	-0.12725176
113	0x3e916a6c	0.28401506
114	0x3edf6c29	0.43637207
115	0xbf23c9c9	-0.63979775
116	0x3cda5be2	0.026655141
117	0x3eae92b2	0.34096295
118	0xbb9de387	-0.004818383
119	0x3e459da9	0.19298424
120	0xbc8d10b7	-0.017219884
121	0x3e3ddf5e	0.18542239
122	0xbe95e6f7	-0.29277775
123	0x3d34a0c1	0.04409862
124	0x3e90ee35	0.28306738
125	0x3ce1fc01	0.027585985
126	0xbecece56	-0.40391797
127	0xbd1c1927	-0.038109925
128	0x3e847902	0.25873572
129	0xbe6163bb	-0.220107
130	0x3eab87a9	0.33501938
131	0x3e3f30a0	0.18670893
132	0x3de87bb6	0.11351721
133	0x3c74e6b4	0.014947582
134	0xbed96903	-0.4246293
135	0xbe2c4e67	-0.16826783
136	0xbd72bdcb	-0.059263032
137	0x3d54d1a3	0.051957738
138	0x3d4c99ea	0.04995147
139	0x3ea6e9e4	0.3260032
140	0xbf15513b	-0.5832707
141	0x3eb11036	0.3458268
142	0x3e49b5ce	0.19698259
143	0xbf00f238	-0.50369596
144	0x3cd6f0d6	0.026237886
145	0x3d61db24	0.05514063
146	0x3d37dd2c	0.04488866
147	0xbd6022bc	-0.054720625
148	0xbebad00f	-0.3648686
149	0xbe2e945f	-0.17048787
150	0x3da3361b	0.07969304
151	0xbef99fcb	-0.48754725
152	0xbdaee258	-0.085392654
153	0xbe376af9	-0.179119
154	0x3f0526e3	0.5201246
155	0x3d06503b	0.032791357
156	0x3d8a1786	0.06742768
157	0xbe4520c7	-0.19250785
158	0xbd6b15fc	-0.057394013
159	0xbdbfb61a	-0.09360905
160	0xbea5a921	-0.32355598
161	0xbdd75785	-0.1051474
162	0x3d3ee5f4	0.04660602
163	0xbd842b72	-0.06453599
164	0xbef909ae	-0.48640198
165	0x3e9df954	0.30854285
166	0x3daf86cd	0.08570633
167	0x3e4300c6	0.19043264
168	0x3d203af1	0.03911871
169	0x3da8a080	0.08233738
170	0x3e96b02c	0.29431283
171	0x3eaaea17	0.3338172
172	0xbd33e41d	-0.043918718
173	0x3ea79f82	0.32738882
174	0xbe1fe967	-0.1561638
175	0xbd27fffc	-0.04101561
176	0x3e4b4ec6	0.19854268
177	0xbe684532	-0.22682646
178	0xbdcd53cd	-0.10025749
179	0xbda11ec5	-0.07867197
180	0x3b59aff1	0.0033216442
181	0xbdc8a5ba	-0.09797235
182	0x3c6b8bca	0.01437659
183	0x3eca60f2	0.39527088
184	0xbe90bfed	-0.28271428
185	0xbc1d6cd7	-0.009608469
186	0x3ecde5bf	0.40214345
187	0x3f0a6210	0.5405588
188	0xbc5016d7	-0.012700758
189	0xbe58e491	-0.21180941
190	0x3e372473	0.17884998
191	0xbe7c10b1	-0.24615742
192	0x3e6ba8fb	0.2301368
193	0xbda8ac54	-0.08235994
194	0x3d70ce06	0.05879023
195	0x3d0e684d	0.034767438
196	0xbe01f8e7	-0.12692605
197	0x3de7b5bd	0.11313961
198	0x3e179a32	0.14804915
199	0x3d3ac89b	0.04560147
200	0xbdbf9ba9	-0.09355862
201	0xbd0820ad	-0.033234287
202	0x3e187801	0.14889528
203	0x3d7f8c39	0.062389586
204	0xbd969892	-0.07353319
205	0x3f07ae60	0.5300045
206	0x3d15bbd3	0.036556076
207	0x3ebb5d73	0.36594734
208	0x3de04523	0.10950687
209	0xbcc92ad3	-0.024556553
210	0xbdd88d47	-0.105738215
211	0xbf06e2a3	-0.5268957
212	0xbbc3d2a6	-0.005976039
213	0x3e5f4bca	0.21806255
214	0x3ee30c18	0.44345164
215	0x3e4a15fc	0.19734949
216	0x3e001957	0.12509666
217	0xbde1882b	-0.110123
218	0xbda28066	-0.07934646
219	0xbe332453	-0.17494325
220	0x3d5187f0	0.05115503
221	0x3e0ae51f	0.13563965
222	0xbdbfe653	-0.09370103
223	0xbdccb124	-0.099947244
224	0x3e86b802	0.26312262
225	0x3ea0794e	0.31342548
226	0xbd460284	-0.048342243
227	0x3dd0a519	0.1018774
228	0x3cfa7847	0.03057493
229	0xbf4ec78e	-0.80773246
230	0x3f18410b	0.5947425
231	0x3e20b54a	0.15694156
232	0x3bd43cf5	0.006476993
233	0xbd052341	-0.032504324
234	0xbe9cacb4	-0.30600512
235	0x3dd81b7f	0.105521195
236	0xbda9c139	-0.082888074
237	0x3e544338	0.20728767
238	0xbc3f2242	-0.011665883
239	0x3e58ac64	0.21159512
240	0x3e8d56f3	0.276054
241	0x3da3307b	0.07968231
242	0xbe94861e	-0.29008573
243	0x3c03e534	0.008050252
244	0x3da8097d	0.08204935
245	0x3d6f5f39	0.05844042
246	0x3e62ac0a	0.2213594
247	0x3d43a3ad	0.047763515
248	0x3dd221a0	0.1026032
249	0x3de1126e	0.10989843
250	0xbf22015d	-0.6328333
251	0x3da3b2c4	0.07993081
252	0x3e118610	0.14211297
253	0x3e1f1959	0.15537013
254	0x3cd94d51	0.026526125
255	0x3d482012	0.04885871

model.dense1.bias f4 [32]
0	0x3cc13a4b	0.023587367
1	0xbe0c367f	-0.13692664
2	0x3e903446	0.2816488
3	0xbda6825d	-0.081303336
4	0x3c671812	0.01410486
5	0x3e09336d	0.13398524
6	0x3e7eb92e	0.24875328
7	0xbd5c47df	-0.05377948
8	0x3e2bbb36	0.16770634
9	0x3e1d1c7d	0.15342899
10	0x3e3255be	0.1741552
11	0x3d3f1ab6	0.046656333
12	0x3d460dcf	0.048353013
13	0xbbfd9ad2	-0.0077394033
14	0x3e800762	0.25005633
15	0xbd56c73a	-0.05243609
16	0x3e8fadad	0.28062192
17	0x3e33ef15	0.17571671
18	0xbd85e54f	-0.06537878
19	0x3d909e8a	0.07061489
20	0x3db0a265	0.08624724
21	0x3e1e09db	0.15433447
22	0xbc2e3853	-0.010633546
23	0xbdd3b9e3	-0.103381895
24	0x3d8fb1d9	0.070163436
25	0x3e405e0e	0.18785879
26	0x3c58d0b9	0.013233357
27	0xbc2f5905	-0.010702376
28	0x3e3bf703	0.18355946
29	0x3dcb6b3c	0.09932563
30	0x3e119c19	0.14219703
31	0x3e810fb0	0.2520728

model.dense2.weight f4 [16, 32]
0	0x3db48a90	0.08815491
1	0xbf3c099a	-0.7345215
2	0xbe9d9d5c	-0.30784118
3	0x3d3e2a72	0.046427198
4	0xbe9e199b	-0.3087891
5	0x3ec8cd10	0.3921895
6	0x3e46fe10	0.19432855
7	0xbdccac12	-0.09993757
8	0xbf287c3a	-0.65814555
9	0x3eb0838f	0.3447537
10	0x3ecede67	0.40404055
11	0x3e096bcc	0.13420027
12	0xbe6476ff	-0.22311018
13	0x3e69db38	0.22837532
14	0x3f3a1b69	0.72698075
15	0xbe4061a0	-0.18787241
16	0x3e41903a	0.18902674
17	0xbce4043c	-0.02783405
18	0x3eb697b4	0.35662615
19	0xbd8e6155	-0.06952158
20	0x3e52576d	0.20541163
21	0xbd2b49cf	-0.041818436
22	0xbd7aca90	-0.061228335
23	0x3e161439	0.14656152
24	0x3e40e634	0.18837816
25	0x3e95eed4	0.29283774
26	0x3d92104c	0.07132015
27	0xbe4767b6	-0.19473156
28	0x3e004b94	0.12528831
29	0xbe00626e	-0.12537548
30	0xbf14a03d	-0.58057004
31	0x3d1d976f	0.038474496
32	0xbccde8fa	-0.025135506
33	0xbf725255	-0.9465688
34	0xbea68ca6	-0.3252918
35	0x3e91340a	0.28360015
36	0xbd3687ba	-0.044563033
37	0xbedbabdf	-0.42904565
38	0xbec322d2	-0.38112503
39	0x3dec1e64	0.11529234
40	0x3f2b74b4	0.6697495
41	0x3e1b713c	0.15179914
42	0xbe75c1ac	-0.23999661
43	0x3ea0ab95	0.31380907
44	0xbe270c43	-0.16313271
45	0xbe520b41	-0.20512106
46	0x3d969381	0.07352353
47	0x3e4d28e5	0.20035131
48	0x3eb34ec6	0.35021037
49	0x3e56cea6	0.20977268
50	0xbe0e2dfa	-0.13884726
51	0xbe1e9d12	-0.15489605
52	0x3e0d75f7	0.13814531
53	0xbd1e17db	-0.03859697
54	0x3d6218c8	0.055199414
55	0xbde90434	-0.11377755
56	0x3e8a3e32	0.27000576
57	0xbe3bf447	-0.18354903
58	0x3e4d06fc	0.20022196
59	0x3df23bf7	0.11827844
60	0xbe6d885a	-0.23196545
61	0x3e612734	0.21987611
62	0x3d8b2ed0	0.06796038
63	0xbe4d7a3c	-0.2006616
64	0x3db82e2e	0.08993183
65	0x3dfe5b29	0.12419731
66	0x3f8de19b	1.1084474
67	0x3e8933f6	0.26797456
68	0xbe68860a	-0.22707382
69	0x3e91b624	0.28459275
70	0xbd8c4db5	-0.06850759
71	0xbe87d635	-0.26530614
72	0xbf88da1e	-1.0691564
73	0x3e958f7d	0.29211035
74	0x3f17a9b0	0.592433
75	0x3e6cdf5a	0.23132077
76	0xbe045e70	-0.1292665
77	0x3e89a5cc	0.26884305
78	0xbd6ebc93	-0.058285307
79	0xbe610657	-0.21975075
80	0xbd5c48d5	-0.053780396
81	0x3eb40b67	0.3516495
82	0x3f39a5d4	0.7251866
83	0x3f0b1224	0.54324555
84	0x3ea38988	0.31940866
85	0xbe5da53f	-0.21645068
86	0x3ed01a07	0.40644857
87	0x3e1854dd	0.14876123
88	0xbe740105	-0.23828514
89	0x3f05adfb	0.522186
90	0xbeb21f6f	-0.34789607
91	0xbe28438c	-0.16432017
92	0xbbe6755c	-0.0070330333
93	0x3ebfd251	0.37465146
94	0x3e0318c7	0.1280242
95	0x3e23aedc	0.15984672
96	0xbe022be5	-0.12712057
97	0x3e1ba748	0.15200531
98	0xbe0d4251	-0.13794829
99	0x3dad66f2	0.08466901
100	0x3cd30b0d	0.025762105
101	0xbd39732c	-0.045275852
102	0x3e2d3f73	0.16918735
103	0x3e24fe98	0.16112745
104	0xbdc9e334	-0.09857789
105	0xbe53b486	-0.20674333
106	0xbccb01ba	-0.024781097
107	0x3cb9561d	0.02262407
108	0xbce36087	-0.027755989
109	0xbe43bcba	-0.19114962
110	0x3decf62b	0.1157039
111	0xbdf6217e	-0.12018107
112	0xbda4fcc7	-0.08056026
113	0x3ceb5db8	0.028731212
114	0x3dafdef8	0.0858745
115	0x3c905794	0.017619886
116	0x3e195d39	0.14976968
117	0xbd1f263f	-0.038854834
118	0x3d624a69	0.055246744
119	0x3d8a0546	0.06739287
120	0xbe09250d	-0.1339304
121	0xbcf1f7fe	-0.029537197
122	0x3dce3bf9	0.100700326
123	0xbe1ff65f	-0.15621327
124	0xbdf24533	-0.11829605
125	0xbe329cb4	-0.1744259
126	0xbdbfbc03	-0.09362032
127	0xbdf693f3	-0.12039938
128	0x3e33fad8	0.17576158
129	0x3e981053	0.29699954
130	0x3f688ed5	0.90842944
131	0x3dfc7548	0.12327057
132	0x3eb04b07	0.3443224
133	0x3d412dec	0.047162935
134	0x3dfdde6b	0.123959385
135	0xbda24ec3	-0.07925179
136	0xbefd448b	-0.49466357
137	0xbe53d3f5	-0.20686324
138	0xbdf75345	-0.12076429
139	0x3ef2d897	0.4743087
140	0x3ee595ae	0.4484076
141	0x3e8df1fc	0.27723682
142	0xbf19894c	-0.59975123
143	0xbecd283b	-0.40069756
144	0x3d8f47d3	0.06996121
145	0x3e691823	0.22763114
146	0x3f09712b	0.53688306
147	0x3eb6d572	0.3570972
148	0xbe9062b0	-0.28200293
149	0x3e0c4285	0.1369725
150	0xbd3f6ccd	-0.04673462
151	0x3df852a0	0.121251345
152	0xbd18bb5c	-0.037288055
153	0x3e4bb187	0.1989194
154	0xbdc2a093	-0.09503283
155	0x3e982f9f	0.29723832
156	0x3c925647	0.017863406
157	0xbe59f70f	-0.21285652
158	0xbe941e9e	-0.2892961
159	0x3e90a0e3	0.28247747
160	0xbda38561	-0.079844244
161	0x3e06832a	0.13135973
162	0xbe886bbb	-0.26644692
163	0x3ebcbeea	0.36864406
164	0x3f0ed661	0.55795866
165	0xbdea5eee	-0.11443888
166	0xbe941b6e	-0.28927177
167	0x3ebf29c8	0.37336564
168	0xbf616e7c	-0.8805921
169	0xbda3ac13	-0.07991805
170	0xbe3717e2	-0.17880204
171	0x3f0c792a	0.5487238
172	0x3d43f938	0.047845095
173	0x3e883656	0.26603955
174	0xbe8bde4f	-0.27318045
175	0xbdb48730	-0.088148475
176	0x3de70954	0.11281076
177	0x3d9d10b4	0.076692015
178	0x3e860ae8	0.26180196
179	0x3ed3b987	0.41352484
180	0x3e3c7eba	0.18407717
181	0xbe98fa61	-0.29878524
182	0x3e65c4aa	0.22438303
183	0x3c0adaa8	0.008474983
184	0x3e7dbeb2	0.24779776
185	0x3e862fef	0.26208445
186	0x3ea1e125	0.31617084
187	0x3ecc8a68	0.39949346
188	0xbe816fa9	-0.25280502
189	0x3d09fa57	0.03368601
190	0xbf552651	-0.8326159
191	0x3e1f82ca	0.15577236
192	0xbc4da400	-0.012551308
193	0x3c5c87f0	0.013460144
194	0xbe2fd8ee	-0.17172596
195	0x3c889f20	0.01667744
196	0x3c8215b8	0.015879497
197	0x3e12e977	0.14346872
198	0xbdeaa682	-0.1145754
199	0x3ddcf38a	0.10788639
200	0xbc961a08	-0.01832296
201	0x3d1d9ce0	0.038479686
202	0x3dab9ca6	0.08379488
203	0xbe201e51	-0.15636565
204	0xbe325711	-0.17416026
205	0x3d011348	0.03151253
206	0xbe25731e	-0.16157195
207	0xbb2b0280	-0.002609402
208	0xbd97a2f2	-0.07404126
209	0xbdba32ee	-0.09091745
210	0xbdedff78	-0.116209924
211	0xbddf10e5	-0.10891894
212	0xbdf3fd84	-0.11913589
213	0xbdf4e88a	-0.11958416
214	0xbde9cae9	-0.11415655
215	0xbe1931c3	-0.14960389
216	0xbe28b568	-0.16475451
217	0xbe095824	-0.13412529
218	0xbdad6934	-0.084673315
219	0xbe340316	-0.17579302
220	0x3d10e200	0.03537178
221	0xbe081296	-0.1328834
222	0x3c933830	0.017971128
223	0xbdf3ec82	-0.11910345
224	0xbe49a795	-0.19692834
225	0x3e792189	0.24329199
226	0xbe8680af	-0.26270053
227	0x3e8925db	0.26786694
228	0x3e6c0e1e	0.2305226
229	0xbebcd1ee	-0.36878914
230	0xbe897b3b	-0.2685183
231	0x3ee79631	0.45231774
232	0x3f235bfc	0.6381223
233	0x3d656710	0.05600649
234	0xbda59004	-0.080841094
235	0x3d66fcb8	0.056393355
236	0xbd9ed519	-0.07755489
237	0x3e5eb16f	0.21747373
238	0x3de41c4e	0.11138211
239	0x3eb7cece	0.35899967
240	0xbbeb5355	-0.007181565
241	0x39c6c7cd	0.00037914366
242	0xbeac5e3d	-0.33665648
243	0xbdeb2f7d	-0.11483667
244	0x3ea89192	0.3292356
245	0xbe330264	-0.1748138
246	0x3eab2b8c	0.3343166
247	0x3db32b48	0.087484896
248	0x3ec74ae7	0.38924333
249	0x3e1efe88	0.15526783
250	0x3e5222f7	0.2052115
251	0x3baccd36	0.0052734865
252	0xbe186d77	-0.14885508
253	0x3ec18a3c	0.37800777
254	0x3caef21b	0.02135568
255	0x3e26f11a	0.1630291

model.dense2.bias f4 [16]
0	0xbc9dc71d	-0.019259984
1	0x3e2f6e05	0.17131813
2	0x3e025248	0.127267
3	0xbd8b95c1	-0.06815673
4	0x3d39241f	0.045200463
5	0xbdbcd572	-0.09220399
6	0xbd57db00	-0.05269909
7	0x3e4c7b0b	0.19968812
8	0x3eb749a9	0.35798386
9	0x3ecbb289	0.3978465
10	0xbd08e73c	-0.033423647
11	0x3e2b3440	0.1671915
12	0x3e63ef6d	0.22259302
13	0x3c831d24	0.016005106
14	0xbe4fe4d7	-0.20302139
15	0x3e711261	0.23542167

model.dense3.weight f4 [16, 16]
0	0xbe3f2f87	-0.18670474
1	0x3f3c8846	0.73645437
2	0x3e310c8b	0.17289941
3	0x3e2b6b1c	0.16740078
4	0xbc03485d	-0.008012858
5	0x3e3f0a7c	0.18656343
6	0xbe66f9a6	-0.22556171
7	0x3e77dbbe	0.24204919
8	0xbe5b94fc	-0.21443552
9	0x3eb06571	0.34452394
10	0xbd4dc38c	-0.050235316
11	0xbe541c9b	-0.20714037
12	0xbebbb622	-0.36662394
13	0x3ec6c1c7	0.38819715
14	0xbdc4cde4	-0.09609583
15	0xbc83e5e4	-0.016100831
16	0x3f0af48c	0.542794
17	0xbe038d45	-0.12846859
18	0x3ee339ca	0.44380027
19	0x3df76985	0.12080673
20	0x3eccc620	0.39994907
21	0x3c673016	0.014110586
22	0x3dde15f0	0.10844028
23	0xbe8ba5f4	-0.2727505
24	0x3f1c2fff	0.61010736
25	0xbdce3b0f	-0.10069858
26	0x3e21c2f3	0.15797023
27	0x3e3997ee	0.18124363
28	0xbe3b58e4	-0.18295628
29	0xbf0063d3	-0.5015232
30	0x3d2bb3d3	0.04191954
31	0xbe2acc03	-0.16679387
32	0xbe0ad2ec	-0.13557023
33	0xbe13bc08	-0.14427197
34	0xbd2bb18a	-0.04191736
35	0xbe7aab14	-0.24479324
36	0x3d821ac1	0.06352759
37	0xbe399ebe	-0.18126962
38	0x3d67f988	0.056634456
39	0xbe1c14e4	-0.15242344
40	0xbe79ac30	-0.2438209
41	0xbe1bcb37	-0.15214239
42	0xbe77d6dd	-0.24203058
43	0x3e02bec8	0.1276809
44	0xbe368c2f	-0.17826913
45	0x3bedee80	0.0072610974
46	0xbe1d733e	-0.15375993
47	0xbe8b30f6	-0.27185792
48	0xbeac417e	-0.33643717
49	0x3e89aa81	0.26887897
50	0x3e00fc55	0.12596257
51	0x3e8e47c4	0.27789128
52	0x3e33bc40	0.1755228
53	0x3f235362	0.6379911
54	0x3e340ac6	0.17582235
55	0x3eae477c	0.34038913
56	0xbe947561	-0.28995803
57	0xbe069c5d	-0.13145585
58	0x3ebb0b15	0.36531892
59	0x3eb10512	0.3457418
60	0xbd96801d	-0.073486544
61	0x3f24700e	0.6423348
62	0xbd96d627	-0.07365065
63	0x3e339a1b	0.17539255
64	0xbebccb62	-0.3687392
65	0xbb920e50	-0.0044572726
66	0x3de6998b	0.11259755
67	0xbe3a816a	-0.1821343
68	0x3ed7d1c4	0.42152226
69	0xbdbeb013	-0.09310927
70	0xbd62ffa8	-0.055419594
71	0xbe832659	-0.25615194
72	0xbe532456	-0.2061933
73	0x3e9ac565	0.30228725
74	0xbdfa62ce	-0.12225877
75	0xbe94ac89	-0.29037884
76	0x3e75d801	0.2400818
77	0xbe3d9d25	-0.18516977
78	0xbda68a6a	-0.08131869
79	0x3e6d97a3	0.23202376
80	0xbed7c10e	-0.42139477
81	0xbde860ad	-0.113465644
82	0xbe8df704	-0.2772752
83	0x3c77eb88	0.015131839
84	0xbcb502df	-0.022096096
85	0xbe9a65da	-0.30155832
86	0xbe7ae2ea	-0.24500623
87	0x3d5ee0c9	0.05441359
88	0x3e87232c	0.26394022
89	0x3ebc55dd	0.36784258
90	0xbe82d475	-0.25552717
91	0xbd8d8ad4	-0.06911245
92	0x3ed5a2c3	0.4172574
93	0x3f18088c	0.5938804
94	0xbe500b86	-0.20316896
95	0x3ed95a01	0.4245148
96	0x3e2022ee	0.15638325
97	0xbec6756d	-0.38761464
98	0x3e0da62e	0.13832924
99	0xbd8d2f2c	-0.06893763
100	0xbe036f05	-0.1283532
101	0x3e677b1b	0.22605555
102	0x3e757ec0	0.23974133
103	0xbd37d4c2	-0.044880636
104	0x3e4fbc4b	0.20286672
105	0xbd1ebd78	-0.03875491
106	0x3cf05729	0.029338436
107	0xbe26cda9	-0.1628939
108	0xbf04a861	-0.51819426
109	0x3dba9d5b	0.091120444
110	0xbe3c3faa	-0.18383661
111	0xbe98b354	-0.29824317
112	0x3c9dd2f7	0.019265635
113	0x3e48eec4	0.19622332
114	0xbc906a28	-0.017628744
115	0xbda57018	-0.08078021
116	0x3e9ba204	0.30397046
117	0x3eef6995	0.4676024
118	0xbd9b36e8	-0.07578832
119	0x3e67053e	0.22560593
120	0xbef2e408	-0.474396
121	0x3de93e03	0.11388781
122	0xbc57e4a1	-0.013177068
123	0xbdac48dc	-0.08412334
124	0x3eae631a	0.34059983
125	0xbeac4631	-0.33647302
126	0x3e372a32	0.1788719
127	0x3e9193ae	0.28432983
128	0x3e9e64af	0.3093619
129	0x3df9f6cd	0.12205277
130	0xbd563cd5	-0.052304108
131	0xbdcec43d	-0.10096023
132	0xbdb4e353	-0.08832421
133	0xbe8e4ff7	-0.27795383
134	0xbe141ac6	-0.14463338
135	0xb990b363	-0.00027599474
136	0x3f0acae2	0.54215825
137	0x3d06a46f	0.03287166
138	0xbd52af13	-0.051436495
139	0x3e81db32	0.25362545
140	0x3ec93777	0.3930013
141	0x3d5ca7eb	0.053871077
142	0x3d5151f5	0.05110355
143	0x3ca58345	0.020204196
144	0x3e4aec84	0.19816786
145	0xbeda55db	-0.42643628
146	0x3e9c0692	0.30473763
147	0xbd1b05ed	-0.03784745
148	0xbe30d04f	-0.17266963
149	0xbdc1ad8b	-0.09456929
150	0xbe244850	-0.1604321
151	0x3ea9bbc2	0.3315106
152	0xbdf400fb	-0.119142495
153	0x3ec4e609	0.38456753
154	0xbd8e2634	-0.069408804
155	0xbd90a838	-0.07063335
156	0x3ec8665e	0.391406
157	0xbf0acb60	-0.54216576
158	0xbd9b8926	-0.07594518
159	0x3c6afa10	0.014341846
160	0xbddbda5a	-0.10735007
161	0xbed3b3cc	-0.41348112
162	0x3e707d32	0.23485258
163	0xbd7c7983	-0.06163932
164	0x3ef2febf	0.4745998
165	0x3ea57509	0.32315853
166	0x3e5b8f44	0.2144137
167	0xbe86ee6e	-0.26353782
168	0xbe0b803a	-0.13623133
169	0xbe269e76	-0.16271386
170	0x398785c9	0.00025848884
171	0xbe4299c9	-0.19003977
172	0x3f009859	0.50232464
173	0xbe8d51e1	-0.2760153
174	0x3c834bd1	0.016027363
175	0x3ed4146e	0.41421837
176	0x3e060777	0.13088785
177	0xbe0acc07	-0.13554393
178	0x3ed6a8aa	0.41925555
179	0x3c7f342d	0.0155764045
180	0xbd8f1874	-0.06987086
181	0x3efa943f	0.48941228
182	0x3e5459e6	0.20737419
183	0x3ec7f270	0.39052153
184	0xbbd6d367	-0.006555963
185	0x3e273802	0.16329959
186	0x3ef1c4b4	0.47220385
187	0x3eefd987	0.46845648
188	0xbe9b0cf5	-0.30283323
189	0xbeb1eaf1	-0.3474956
190	0xbd928789	-0.071547575
191	0xbec46352	-0.38357025
192	0xbf1b2276	-0.6059946
193	0xbd0ca347	-0.0343354
194	0xbd6ef515	-0.058339197
195	0xbdff5a13	-0.12468352
196	0x3e1049be	0.1409063
197	0xbd08d16a	-0.033402838
198	0x3c09f9e0	0.008421391
199	0x3f11074b	0.56651753
200	0xbe1e450b	-0.15456025
201	0x3e3c73c1	0.18403532
202	0x3eb037d2	0.34417588
203	0x3e4702cc	0.1943466
204	0xbc8df3a8	-0.017328098
205	0x3f739980	0.951561
206	0x3d8c760b	0.068584524
207	0x3c43beea	0.011947373
208	0xbe16e677	-0.14736353
209	0xbf0c24c7	-0.5474362
210	0x3ef6f449	0.4823325
211	0x3e6cf466	0.23140106
212	0xbc6ea6b5	-0.014566113
213	0xbeafa94e	-0.34308857
214	0xbdca7aac	-0.09886679
215	0xbdd70088	-0.10498148
216	0xbea737ba	-0.32659703
217	0x3eb49448	0.3526938
218	0x3c0ab31e	0.008465556
219	0x3eb4f8bb	0.35346016
220	0x3e425d57	0.18980919
221	0x3d911656	0.07084338
222	0xbd0b4e6a	-0.03401033
223	0xbd050e7b	-0.032484513
224	0x3e8f8868	0.28033757
225	0x3f31cfad	0.69457513
226	0xbe29c0b3	-0.16577415
227	0x3e2dfb6f	0.16990446
228	0xbed42973	-0.41437873
229	0x3d43a7d2	0.047767468
230	0x3e285df4	0.1644209
231	0x3ea63e22	0.3246928
232	0x3ead78af	0.33881137
233	0x3ed265e6	0.41093367
234	0x3ebea68d	0.37236443
235	0xbe619fa5	-0.22033556
236	0x3e908ad4	0.28230917
237	0xbec1afbe	-0.37829393
238	0x3e1d30cf	0.1535065
239	0x3ec0bea0	0.37645435
240	0x3db2ef14	0.08737007
241	0xbb1e43b4	-0.002414924
242	0x3e4a0f4f	0.19732402
243	0xbe45b5b5	-0.19307597
244	0xbe65aac8	-0.22428429
245	0xbeb7e14f	-0.35914084
246	0xbe0c339c	-0.13691562
247	0x3e6d198f	0.23154281
248	0x3cf4206b	0.029800614
249	0x3f0a389b	0.53992623
250	0xbe7c8946	-0.2466174
251	0x3d25d520	0.040486455
252	0x3eebb699	0.46037748
253	0xbd0ecc79	-0.03486297
254	0x3d41ab20	0.04728234
255	0x3eb6e7b6	0.35723656

model.dense3.bias f4 [16]
0	0x3e563f3c	0.2092256
1	0x3ebcf217	0.3690345
2	0xbe525f19	-0.2054409
3	0x3da262b0	0.079289794
4	0x3bca03ef	0.0061650197
5	0x3c282e4b	0.010264943
6	0xbe1b6c88	-0.1517812
7	0xbdad56ac	-0.08463797
8	0x3dd2c9e8	0.10292417
9	0x3e293721	0.16524936
10	0x3df4fabd	0.11961887
11	0x3e1476d8	0.1449846
12	0x3e959c6b	0.292209
13	0x3e8289aa	0.25495654
14	0x3d8216c8	0.063520014
15	0x3e3c8bf1	0.18412758

model.dense4.weight f4 [16, 16]
0	0xbe3c237b	-0.1837291
1	0xbe957742	-0.2919255
2	0xbe587060	-0.21136618
3	0x3eb07def	0.3447108
4	0xbea5f838	-0.32415938
5	0xbf13b947	-0.57704586
6	0xbeadda83	-0.33955774
7	0x3d3e21b4	0.04641886
8	0x3e9625d6	0.29325742
9	0x3e3aceed	0.18242998
10	0xbea67803	-0.32513437
11	0x3e3c3476	0.18379387
12	0x3efa0c1e	0.4883737
13	0x3e473352	0.19453171
14	0x3f0f6e70	0.5602789
15	0x3ea6907b	0.32532105
16	0xbe1983f9	-0.1499175
17	0x3f10411d	0.56349355
18	0x3e345079	0.17608823
19	0x3df2450b	0.11829575
20	0xbe604700	-0.21902084
21	0xbed68941	-0.4190159
22	0x3e1834a6	0.14863834
23	0xbe71c70f	-0.23611091
24	0x3e40d4ca	0.18831173
25	0xbea39f53	-0.31957492
26	0x3e35c800	0.17752075
27	0x3e79ff50	0.244138
28	0x3d7d8153	0.06189091
29	0xbde45a87	-0.11150079
30	0xbcce5bda	-0.025190283
31	0xbe026244	-0.12732798
32	0x3e544798	0.20730436
33	0xbeaa820a	-0.33302337
34	0xbb4b7a80	-0.0031048357
35	0x3e9651b3	0.29359207
36	0x3db3d187	0.087801985
37	0x3eccc44c	0.39993513
38	0x3e8edacf	0.27901313
39	0x3e6765d5	0.2259744
40	0xbe391722	-0.1807523
41	0xbe31f0cf	-0.17377017
42	0x3d030963	0.031991374
43	0xbbe8f963	-0.0071098073
44	0x3e90e93f	0.28302953
45	0xbf1241b2	-0.57131493
46	0x3ea3e817	0.32013008
47	0xbce4bab1	-0.027921053
48	0x3bca755d	0.0061785416
49	0x3da5178c	0.08061132
50	0xbe2227f4	-0.15835553
51	0x3f1af6d0	0.60532856
52	0xbd830d00	-0.06398964
53	0xbd813095	-0.063080944
54	0x3e382fe2	0.17987016
55	0x3e756eb6	0.23968014
56	0xbe7bcc2a	-0.24589601
57	0x3d450646	0.048101686
58	0xbbc6427f	-0.0060504074
59	0x3f190a06	0.5978092
60	0x3e974e75	0.29552045
61	0x3f06fb01	0.5272675
62	0xbeb347f0	-0.3501582
63	0xbce5091f	-0.02795845
64	0x3cbc16cb	0.022960087
65	0xbf1d2609	-0.6138616
66	0x3d88f178	0.066866815
67	0x3e2f5f3b	0.17126171
68	0x3e96560a	0.29362518
69	0x3ea41e6a	0.32054454
70	0x3e90950a	0.28238708
71	0x3d3df3a9	0.04637495
72	0x3e12573f	0.14291094
73	0xbea39721	-0.3195124
74	0x3dab6f35	0.083708204
75	0xbe45fe8c	-0.19335383
76	0x3edaf027	0.42761347
77	0xbf2a17ad	-0.66442376
78	0x3eae2a90	0.34016848
79	0x3e0cd546	0.13753232
80	0x3e8b5089	0.2720988
81	0xbde7dc95	-0.113213696
82	0x3e4e3191	0.20136096
83	0x3d556e09	0.05210689
84	0x3e820471	0.25394014
85	0xbe78856e	-0.2426965
86	0xbdd58e0a	-0.104274824
87	0x3ebe0e92	0.3712049
88	0x3d768d3c	0.060193285
89	0x3f05ff16	0.52342355
90	0x3eda269f	0.4260759
91	0xbe28c015	-0.16479523
92	0xbe00dfc5	-0.12585361
93	0x3e057dfd	0.13036342
94	0x3e7e6be8	0.2484585
95	0x3eea891f	0.4580774
96	0x3f4c6f58	0.798574
97	0x3c32bdb1	0.010909484
98	0x3e5471bd	0.20746513
99	0x3e0475e4	0.12935597
100	0x3e3e1571	0.18562867
101	0xbea6c187	-0.32569525
102	0xbdf1f0bf	-0.11813497
103	0x3e987139	0.29773882
104	0xbee52642	-0.4475575
105	0x3e0e715c	0.1391043
106	0xbef0e208	-0.47047448
107	0x3e26db05	0.16294487
108	0xbe2537c5	-0.16134556
109	0xbe1bcbbf	-0.15214442
110	0x3e8a01e2	0.2695456
111	0x3dbfe3ab	0.09369596
112	0x3d97ab86	0.074057624
113	0xbe98aa7f	-0.29817578
114	0xbd394158	-0.045228332
115	0x3e19c645	0.1501704
116	0x3e94069a	0.28911287
117	0xbdd49731	-0.103804
118	0xbeca2136	-0.39478463
119	0x3eb4b66a	0.3529542
120	0xbefc7a06	-0.49311846
121	0x3c823cd9	0.015898155
122	0x3e1c4bc3	0.15263276
123	0xbdeb26f6	-0.114820406
124	0x3d9f36b9	0.077741094
125	0x3cd168ab	0.025562605
126	0x3d8742f7	0.066045694
127	0xbcbd35c0	-0.023096919
128	0xbe17aba8	-0.14811575
129	0xbd945a7b	-0.0724382
130	0x3ce1e810	0.027576476
131	0x3e06ff2e	0.13183281
132	0xbe839be0	-0.2570486
133	0xbdac8e80	-0.08425617
134	0x3dc78ae4	0.09743288
135	0xbe5e1862	-0.21688989
136	0xbd9ea1c3	-0.07745697
137	0xbe113777	-0.14181314
138	0xbd3c734d	-0.046008397
139	0xbe53908a	-0.20660606
140	0xbe769bc8	-0.24082863
141	0xbdcf4340	-0.10120249
142	0xbced9c80	-0.02900529
143	0x3e3471f3	0.17621593
144	0x3d5458da	0.051842548
145	0x3bd26ddf	0.006421789
146	0x3e1d8196	0.15381464
147	0xbdcf23f5	-0.1011428
148	0x3e4e065b	0.20119612
149	0x3e429ecf	0.19005893
150	0xbe48a0c2	-0.19592574
151	0xbe00a4d8	-0.12562883
152	0xbdae6804	-0.08515933
153	0xbe8c13c3	-0.27358827
154	0x3cc986a2	0.02460033
155	0x3bf37f54	0.00743095
156	0xbdd78da8	-0.10525066
157	0x3e398cfb	0.18120186
158	0xbe0b2b43	-0.13590722
159	0xbe2cd899	-0.168795
160	0xbe9a585c	-0.30145538
161	0x3e3b0e22	0.1826711
162	0xbe226740	-0.15859699
163	0x3ea179b7	0.31538174
164	0x3ee38988	0.44440866
165	0x3f00eee9	0.5036455
166	0x3de26a8f	0.11055481
167	0x3ea18089	0.31543377
168	0xbd6aa441	-0.05728555
169	0xbe8cd42e	-0.2750563
170	0x3ee940fd	0.45557395
171	0xbc70202f	-0.014656111
172	0xbdbaca93	-0.09120669
173	0xbe901656	-0.2814204
174	0xbea45dac	-0.32102716
175	0xbd5a07cb	-0.05323009
176	0xbe8ff707	-0.28118154
177	0x3d3a88fe	0.045540802
178	0x3e360920	0.17776918
179	0xbebfd47a	-0.37466794
180	0x3e6242ec	0.22095841
181	0x3f1a8a7a	0.6036755
182	0xbdddc419	-0.10828418
183	0xbe6de848	-0.2323314
184	0x3ee72a3e	0.45149416
185	0x3eb6a202	0.35670477
186	0x3dd94d58	0.10610455
187	0xbc8eb5ed	-0.017420733
188	0xbe3b6934	-0.1830185
189	0x3f1974c7	0.59943813
190	0x3e25681d	0.16152997
191	0x3edc94ba	0.4308222
192	0xbea9fa37	-0.3319871
193	0x3e60ed1b	0.21965449
194	0xbe031306	-0.12800226
195	0x3d8e5b13	0.06950965
196	0xbf03e12e	-0.5151547
197	0xbecd13ab	-0.40054068
198	0xbe80cb86	-0.25155276
199	0x3ebc5519	0.36783674
200	0xbe94eca5	-0.29086795
201	0x3e45fe22	0.19335225
202	0x3ede9db8	0.43479705
203	0x3e0027c0	0.12515163
204	0xbe99052e	-0.29886764
205	0xbed7758f	-0.42081878
206	0x3ecc9e78	0.39964652
207	0x3c800ef6	0.015632134
208	0xbeedf1dd	-0.4647359
209	0x3ef9f341	0.488184
210	0xbe4ece3a	-0.20195857
211	0x3e338c7c	0.1753406
212	0x3d0e0c38	0.03467962
213	0xbdeb8273	-0.114994906
214	0x3e861168	0.26185155
215	0x3d09a8f1	0.03360838
216	0x3e1779d2	0.14792565
217	0x3e9cba0b	0.3061069
218	0x3eb4f198	0.3534057
219	0xbe193430	-0.14961314
220	0xbd565d62	-0.05233515
221	0x3e1ae5f3	0.15126781
222	0xbe69ab3b	-0.22819225
223	0x3e43e6ec	0.19131058
224	0x3e303676	0.17208275
225	0xbde008cf	-0.1093918
226	0xbe3deb2e	-0.18546745
227	0xbe6c3ac7	-0.23069297
228	0xbe60a4e4	-0.21937901
229	0x3dd153a4	0.10221031
230	0x3e0bceec	0.13653153
231	0xbe5759d5	-0.21030362
232	0xbe69c01b	-0.22827189
233	0x3d8a555d	0.06754563
234	0x3e4450e6	0.19171485
235	0x3d7ea064	0.06216468
236	0xbe74b0a4	-0.23895508
237	0x3dba386a	0.090927914
238	0xbd4e15c0	-0.05031371
239	0xbe424e79	-0.18975247
240	0x3df429e3	0.11922052
241	0x3ec5095f	0.38483712
242	0x3dbd96a7	0.0925725
243	0x3cedcf8e	0.029029634
244	0xbf2a3247	-0.6648297
245	0x3e64da05	0.22348793
246	0xbdb12376	-0.08649342
247	0xbebe56b5	-0.37175527
248	0x3ecdf014	0.40222228
249	0x3db807e8	0.08985883
250	0xbea707c1	-0.32623103
251	0x3e870d44	0.26377308
252	0xbeb07f2a	-0.34472018
253	0xbeca795d	-0.39545718
254	0x3eb1ef64	0.34752953
255	0x3dee069f	0.116223566

model.dense4.bias f4 [16]
0	0xbea6bd3d	-0.32566252
1	0x3ea53a2f	0.32270953
2	0x3e4c9640	0.19979191
3	0x3e37b3f7	0.17939745
4	0x3e8fdde8	0.2809899
5	0xbcc7e14e	-0.024399426
6	0xbbc9a118	-0.006153237
7	0xbe3a5459	-0.18196239
8	0xbe22fdad	-0.15917082
9	0xbd5692ec	-0.05238621
10	0x3e2ac632	0.16677168
11	0x3ed6e072	0.41968113
12	0xbe2ffbe2	-0.1718593
13	0x3ed97f1d	0.42479792
14	0xbdb43904	-0.08799937
15	0x3dcd3596	0.10019986

model.output.weight f4 [10, 16]
0	0x3e7045ea	0.2346417
1	0x3e003789	0.12521185
2	0xbdb4df73	-0.08831682
3	0x3f09b29b	0.53788155
4	0x3de13fbc	0.109984845
5	0xbf126298	-0.5718169
6	0xbeb7a100	-0.3586502
7	0xbe47d1a9	-0.19513573
8	0x3e473472	0.194536
9	0xbcaa9ed1	-0.020827683
10	0xbb3bdacf	-0.0028664356
11	0xbf4e5a8a	-0.806069
12	0xbe8ecbbf	-0.2788982
13	0xba959564	-0.001141232
14	0x3e4a67fc	0.1976623
15	0xbed1225c	-0.40846527
16	0xbe004da9	-0.12529625
17	0xbf08572b	-0.5325801
18	0x3f0d6b61	0.5524197
19	0xbe9dc33f	-0.30813023
20	0x3eff327a	0.49843198
21	0x3df8dddd	0.12151692
22	0xbf2d3cfe	-0.6767119
23	0x3deb83e2	0.11499764
24	0xbbf1c4a9	-0.00737818
25	0xbdf7fdea	-0.12108977
26	0x3e187039	0.1488656
27	0xbc26f376	-0.010189882
28	0x3d23ec99	0.04002056
29	0x3e4bdcee	0.19908497
30	0xbde18b76	-0.11012928
31	0x3cfdf770	0.031001776
32	0xbeb7c4bf	-0.35892293
33	0xbd156efe	-0.036482804
34	0xbe9352eb	-0.287742
35	0xbe777a78	-0.24167812
36	0xbf0dfd1f	-0.5546436
37	0x3e4dbe45	0.20092113
38	0x3f003aa4	0.5008948
39	0xbdbb5946	-0.09147887
40	0x3e054368	0.13013995
41	0x3e27ac4d	0.16374321
42	0x3d2229fd	0.039590824
43	0x3efbbc57	0.4916713
44	0xbf268c62	-0.6505796
45	0x3ebf7ac0	0.37398338
46	0x3e47595e	0.19467685
47	0xbf273e86	-0.6532978
48	0x3de19754	0.11015192
49	0x3dd1a07e	0.102356896
50	0xbe886652	-0.26640564
51	0xbf6893fa	-0.90850794
52	0xbe6525cf	-0.22377704
53	0xbd910129	-0.070802994
54	0x3e0a451e	0.13502929
55	0x3ea23910	0.3168416
56	0xbda93878	-0.08262724
57	0xbe569b12	-0.20957592
58	0xbf1b6cca	-0.60712874
59	0x3e83b7ee	0.25726265
60	0xbdd5733c	-0.1042237
61	0x3e32a9d4	0.17447597
62	0x3e78012a	0.24219194
63	0x3ec85e51	0.39134458
64	0xbdcb78d0	-0.099351525
65	0xbec46b61	-0.38363174
66	0x3bb7a0de	0.0056038937
67	0x3e547989	0.20749487
68	0xbe5565be	-0.20839593
69	0x3e9b4eb1	0.30333474
70	0x3e35e3da	0.177627
71	0x3ea6768d	0.32512322
72	0xbdde8af8	-0.1086635
73	0xbe7517af	-0.23934816
74	0x3d53a695	0.051672537
75	0xbf228e4b	-0.6349837
76	0x3ddff058	0.10934514
77	0xbd461603	-0.048360836
78	0x3e669c83	0.22520642
79	0xbf1bfc1c	-0.60931563
80	0xbeba8599	-0.36430052
81	0x3ea9e5e2	0.331832
82	0xbebb14b0	-0.3653922
83	0x3e28e49e	0.1649346
84	0xbea16ef4	-0.31529963
85	0xbeec1680	-0.46110916
86	0x3c4f19e1	0.012640447
87	0x3d072a36	0.03299924
88	0xbdefe6e0	-0.11713958
89	0xbe63d1a9	-0.22247948
90	0xbe93e76a	-0.28887492
91	0xbd441017	-0.047866907
92	0xbe5c495e	-0.21512362
93	0x3e567c88	0.20945942
94	0xbe01c722	-0.1267362
95	0x3eb1e92d	0.34748212
96	0xbf435d01	-0.7631379
97	0x3e84f33c	0.25966823
98	0xbd975e61	-0.07391048
99	0x3e25ecd5	0.16203626
100	0xbe3f0ce4	-0.18657261
101	0xbe6e1f53	-0.23254137
102	0xbf0a6fe3	-0.54076976
103	0xbec714a9	-0.3888295
104	0x3d219e18	0.03945741
105	0x3c59ae14	0.013286132
106	0x3f008e5a	0.5021721
107	0xbedc1cb2	-0.42990643
108	0x3ee08436	0.4385087
109	0x3d5795a2	0.052632935
110	0x3e5246a2	0.20534757
111	0xbecd6ea5	-0.40123478
112	0x3dbebb68	0.09313089
113	0xbf08bcf9	-0.5341335
114	0x3ec209e0	0.3789816
115	0x3c9e92c4	0.019357093
116	0x3f19f7b1	0.6014357
117	0xbdc10687	-0.09425073
118	0x3eadc78d	0.33941308
119	0xbd3a8995	-0.045541365
120	0x3e364d13	0.17802839
121	0xbea5ffea	-0.3242181
122	0xbead98e1	-0.339057
123	0x3f060eb4	0.52366185
124	0xbf403856	-0.7508596
125	0xbf12f434	-0.57403874
126	0xbe1640ab	-0.14673106
127	0xbd77eca6	-0.06052842
128	0x3e94612d	0.2898039
129	0xbec32c2f	-0.38119647
130	0xbee0012b	-0.4375089
131	0x3e3e33bf	0.18574427
132	0xbea6422f	-0.3247237
133	0x3dd44ba6	0.10365991
134	0xbebc2984	-0.36750424
135	0xbeed508a	-0.4635051
136	0xbe0e28fb	-0.1388282
137	0xbf0375f8	-0.5135188
138	0xbeb69190	-0.3565793
139	0x3e1427ac	0.14468259
140	0x3e782e89	0.24236502
141	0x3e4f35fa	0.20235434
142	0xbe224d11	-0.15849711
143	0xbeb9d2e2	-0.36293703
144	0x3e9bd1b2	0.30433422
145	0xbd5e78ff	-0.05431461
146	0x3c9ef0d8	0.019401953
147	0x3d074695	0.033026297
148	0xbe1c7b51	-0.15281416
149	0x3c0d4847	0.008623189
150	0x3e904907	0.28180715
151	0xbdae9815	-0.08525101
152	0xbe4e61b7	-0.20154463
153	0xbe040547	-0.12892638
154	0xbeace7e4	-0.33770669
155	0xbf02488b	-0.5089194
156	0x3e26c113	0.1628459
157	0xbeb4f344	-0.35341847
158	0x3e1e86a1	0.15481044
159	0x3e35a5e5	0.17739065

model.output.bias f4 [10]
0	0xbd19f389	-0.03758577
1	0x3d008a45	0.031381864
2	0x3f1365dc	0.575773
3	0x3e8b20a8	0.27173352
4	0xbea379fa	-0.31928998
5	0x3d9dee8d	0.077115156
6	0xbe5f99c3	-0.21835999
7	0x3e9c6cf2	0.3055187
8	0xbcfa4df7	-0.030554755
9	0xbead6f78	-0.33874106
