Models/model_optSGD_ep10_neu32_lay3_acc0.9314.pth (torch, 109994 bytes, 10 tensors)

model.input.weight f4 [32, 784]
-0.03163385 0.022488099 -0.010685211 -0.012573397 0.023967892 0.001370389 -0.023465827 -0.0069609545
0.008579526 -0.03381417 0.009471513 -0.004876878 0.029990792 0.033815093 0.03351087 0.0012283905
-0.0027151778 0.02068242 -0.033216823 -0.027776357 -0.024691492 0.028838236 0.006880082 -0.019227093
0.034278136 0.030424152 0.017823268 0.018195823 -0.03141161 0.0012782142 0.012106258 -0.007384751
-0.02283638 0.028943863 0.027983468 -0.021885525 -0.026284492 0.014389013 -0.02363133 -0.018536866
0.03404952 0.0020762072 -0.001572406 0.006590054 -0.04299278 -0.0013253363 -0.0322557 0.017508324
-0.0024886935 0.032635085 -0.03394163 -0.0031650653 -0.0160078 -0.016431265 -0.00819334 -0.024438225
0.0072660185 0.0074851364 -0.03191186 0.02949429 -0.007395301 -0.011375641 0.022936469 0.029200409
-0.004630204 0.029534152 0.017247366 -0.013875557 0.021946454 0.011875035 0.023393232 0.009968937
-0.0145530375 -0.031182846 -0.0011764014 -0.0117304595 0.023043144 -0.016321909 0.010101026 -0.011022305
0.029784646 0.0072243544 -0.025747199 0.032676663 -0.0036863945 0.0036422499 -0.016809678 0.03203815
0.004911866 -0.012534236 0.028388849 -0.026337072 -0.034915347 -0.03214991 0.011842567 -0.0021410943
-0.04060328 0.0013124766 -0.017641073 -0.06419325 -0.056279533 -0.048408587 0.0018070652 -0.0353037
-0.04474283 -0.04915853 -0.019278847 0.023634564 -0.01849295 0.024903314 0.00187039 -0.02683448
0.018004917 0.02252242 0.033953857 0.020144852 -0.0037733035 -0.03317908 -0.009794901 0.0048342347
0.018968308 0.00900135 -0.039648615 -0.03186469 -0.08540013 -0.05896486 -0.025501681 -0.008804397
-0.026675371 -0.081348725 -0.005158272 -0.049574796 -0.021236379 0.026303936 0.021626873 0.019743206
0.03905641 -0.028475678 0.014241074 0.0054104924 -0.011667596 0.008496989 -0.022053184 -0.030121587
0.010888316 0.0055146352 -0.046839405 -0.018168468 -0.07314761 -0.08780857 -0.099970676 -0.15476921
-0.112948656 -0.0931609 -0.053053875 -0.044223733 -0.04011704 -0.027632944 -0.028969783 -0.053180914
-0.003962049 0.09382298 0.06274677 0.045207784 -0.00084335415 -0.008471975 0.030895099 0.00052382983
-0.01584366 -0.015095154 0.028011251 0.024360547 -0.003901674 -0.036399513 -0.02091189 -0.02405391
-0.08053284 -0.02861602 -0.100071825 -0.08065043 -0.11239521 -0.10650388 0.021747593 0.006480454
-0.019968547 -0.019631825 -0.012006393 -0.011463407 0.014400589 -0.000165666 0.011349919 0.022216935
0.0406691 -0.0133052245 0.005893267 0.017818602 -0.02683104 -0.006517168 -0.00078417535 0.008592434
0.031187518 -0.03947413 -0.0031404728 -0.041657537 -0.06011639 -0.040761344 -0.117878444 -0.10201383
-0.063200764 -0.06787667 0.010735093 0.026418423 -0.028478319 0.017051151 0.08160229 0.0359717
0.052219216 -0.010129131 0.039198328 0.01235706 0.009233003 -0.013364153 -0.023166208 0.0129777845
-0.006450193 -0.018472098 -0.022745984 -0.033853702 0.016043108 -0.02207671 -0.069314316 -0.03410777
-0.0267333 -0.03274649 -0.06552345 -0.10129623 -0.07336927 -0.030250585 0.06638439 0.00031288882
0.050224334 0.029098533 0.12746063 0.075904034 -0.037881773 -0.023627143 -0.009571958 0.0035397855
-0.03487915 0.0040982137 -0.03120788 0.033645418 0.03072125 -0.031637244 0.007193758 -0.01269009
00000000: 7f92 01bd f638 b83c 0611 2fbc a600 4ebc
00000010: 5058 c43c a09e b33a 683b c0bc b818 e4bb
00000020: 2491 0c3c ba80 0abd 682e 1b3c 38ce 9fbb
00000030: 40af f53c b281 0a3d b242 093d f201 a13a
00000040: 20f1 31bb 2e6e a93c 5d0e 08bd 3e8b e3bc
00000050: d045 cabc 2a3e ec3c 5072 e13b 2382 9dbc
00000060: 3b67 0c3d 123c f93c 1a02 923c 680f 953c
00000070: 76a9 00bd c089 a73a 5459 463c c8fb f1bb
00000080: 5c13 bbbc ae1b ed3c 963d e53c 4649 b3bc
00000090: 9352 d7bc e5bf 6b3c 7e96 c1bc a0da 97bc
000000a0: 8277 0b3d fa10 083b 3119 ceba 61f1 d73b
000000b0: 3319 30bd e8b6 adba 8e1e 04bd 9e6d 8f3c
000000c0: 5919 23bb 5eac 053d 6106 0bbd fc6c 4fbb
000000d0: ca22 83bc dc9a 86bc 5c3d 06bc ac32 c8bc
000000e0: c817 ee3b e045 f53b 03b6 02bd 029e f13c
000000f0: 4854 f2bb e660 3abc 43e5 bb3c b235 ef3c
00000100: f7b8 97bb 9bf1 f13c 594a 8d3c 4e56 63bc
00000110: 0dc9 b33c 828f 423c 2aa3 bf3c c154 233c
00000120: dd6f 6ebc 2b73 ffbc 7b31 9aba 1d31 40bc
00000130: fac4 bc3c 86b5 85bc c67e 253c e696 34bc
00000140: eefe f33c 47ba ec3b caeb d2bc f7d7 053d
00000150: 7097 71bb d0b2 6e3b 73b4 89bc 6f3a 033d
00000160: b8f3 a03b 655c 4dbc bb8f e83c d8c0 d7bc
00000170: 6503 0fbd a0af 03bd 5307 423c 9a51 0cbb
00000180: a04f 26bd 6807 ac3a 0384 90bc c077 83bd
00000190: 5e85 66bd 1548 46bd 0cdb ec3a 9d9a 10bd
000001a0: 4244 37bd 745a 49bd acee 9dbc 469d c13c
000001b0: 877e 97bc 0902 cc3c e027 f53a fcd3 dbbc
000001c0: 0c7f 933c f080 b83c 3313 0b3d d106 a53c
000001d0: 8749 77bb c9e6 07bd cb7a 20bc 8068 9e3b
000001e0: 6d63 9b3c 667a 133c 9666 22bd 8d84 02bd
000001f0: 43e6 aebd 2385 71bd e7e8 d0bc 5140 10bc
00000200: 4f86 dabc 299a a6bd b906 a9bb f10e 4bbd
00000210: eaf7 adbc 5a7b d73c d72a b13c 81bc a13c
00000220: 9df9 1f3d d345 e9bc 6553 693c 804a b13b
00000230: 7229 3fbc f436 0b3c e1a8 b4bc 8cc1 f6bc
00000240: e864 323c 1db4 b43b adda 3fbd 0ad6 94bc
00000250: 6ace 95bd fbd4 b3bd 6dbd ccbd d27b 1ebe
00000260: a051 e7bd 24cb bebd 054f 59bd f223 35bd
00000270: c451 24bd 7c5e e2bc 0a52 edbc 3bd4 59bd
00000280: 13d4 81bb 4326 c03d 6181 803d cc2b 393d
00000290: 8a14 5dba 0ace 0abc b817 fd3c a051 093a
000002a0: 90ca 81bc aa51 77bc da77 e53c c58f c73c
000002b0: 3ab3 7fbb a817 15bd 694f abbc b50c c5bc
000002c0: 67ee a4bd 256c eabc 75f2 ccbd 0d2c a5bd
000002d0: 762f e6bd b51e dabd 0228 b23c fd59 d43b
000002e0: 1495 a3bc ecd2 a0bc 76b6 44bc 04d1 3bbc
000002f0: 73f0 6b3c a1b6 2db9 03f5 393c 4a00 b63c
00000300: a494 263d 28fe 59bc 4f1c c13b 51f8 913c
00000310: c5cc dbbc f88d d5bb 1e91 4dba 48c7 0c3c
00000320: f77c ff3c a0af 21bd 64d0 4dbb 18a1 2abd
00000330: 9b3c 76bd 5ef5 26bd 416a f1bd a0ec d0bd
00000340: 676f 81bd ec02 8bbd 3ee2 2f3c 736b d83c
00000350: 5d4b e9bc dbae 8b3c 1a1f a73d 1057 133d
00000360: d1e3 553d a8f4 25bc 6d8e 203d 4475 4a3c
00000370: 0546 173c 52f5 5abc 0fc7 bdbc c6a0 543c
00000380: 245c d3bb cc52 97bc c955 babc 2eaa 0abd
00000390: d66c 833c 37da b4bc aaf4 8dbd 97b4 0bbd
000003a0: cbff dabc 2f21 06bd 2931 86bd 6674 cfbd
000003b0: a142 96bd 13d0 f7bc 8af4 873d 3a0b a439
000003c0: 08b8 4d3d 0c60 ee3c 0a85 023e 9373 9b3d
000003d0: eb29 1bbd b68d c1bc b4d3 1cbc bffb 673b
000003e0: 71dd 0ebd 4f4a 863b aba7 ffbc c7cf 093d
000003f0: 22ab fb3c 0e96 01bd 9eb9 eb3b 18ea 4fbc

model.input.bias f4 [32]
0.024249658 -0.120241255 0.11796179 -0.07105471 0.16188657 -0.02965508 -0.036126565 -0.072338365
0.12839147 0.04300168 0.051323052 -0.087690584 0.06218592 -0.102681935 0.0289527 0.22008601
-0.0015006417 -0.07884902 0.06197579 0.013871624 0.34184584 0.09622863 -0.02193636 0.010349965
0.08790579 0.02180431 0.027190082 0.009924997 0.019274632 0.07768096 -0.04807955 -0.007515558
00000000: 38a7 c63c 0c41 f6bd f395 f13d 2285 91bd
00000010: 98c5 253e 36ef f2bc 73f9 13bd 2326 94bd
00000020: 0e79 033e 8822 303d 1f38 523d 1f97 b3bd
00000030: aab6 7e3d e84a d2bd 362e ed3c 3a5e 613e
00000040: 2eb1 c4ba 987b a1bd 53da 7d3d cf45 633c
00000050: 6b06 af3e 8413 c53d e2b3 b3bc e692 293c
00000060: f307 b43d f49e b23c bcbd de3c 749c 223c
00000070: d5e5 9d3c 3217 9f3d 10ef 44bd 1245 f6bb

model.dense1.weight f4 [16, 32]
-0.16825838 -0.32537064 0.24969143 0.21836068 0.41807497 -0.21828827 0.15086764 0.07501012
-0.046524458 0.32332364 0.55748117 -0.2320061 -0.46491075 0.30191442 -0.4757263 0.20990185
-0.3377984 0.07228347 0.42119998 0.09606664 -0.12105742 0.18440369 -0.21603075 0.023062943
-0.32217222 0.2206205 0.2486342 -0.43494058 -0.31940213 0.19001989 -0.06481332 -0.4887714
0.17836165 -0.0010668816 -0.023272524 0.16701625 0.12200143 0.19064528 0.17049055 -0.1396969
0.14726764 0.3255581 0.5073261 -0.20888679 0.42513916 0.0067180386 -0.033011995 0.31922618
-0.112319745 -0.074682854 0.15316199 0.23555607 0.21012318 0.050773866 0.34711817 -0.35714266
-0.17544205 0.27122548 -0.026938846 -0.054102246 0.2102891 -0.30730304 -0.26236266 0.36900467
0.1658465 0.2628557 -0.098713905 -0.3478092 0.07649516 0.17683256 0.1139987 -0.35390037
0.36983386 0.3901526 0.24128015 -0.100863144 0.1468793 -0.47305787 0.261971 0.36918804
0.4398958 -0.28526524 0.2543455 -0.086724535 0.22523925 -0.445428 -0.22626375 0.23002967
-0.053595398 -0.30831352 -0.44457605 0.07188567 0.01784758 -0.23100221 0.28123122 0.37190858
0.16568017 -0.12913874 -0.17011206 -0.027790673 -0.16314991 -0.064760655 0.06642466 -0.13474636
0.10757409 0.045544352 -0.06430758 -0.16261598 -0.16337688 -0.15991224 -0.15374048 -0.13719894
-0.15921779 -0.13781424 -0.0050600828 0.086729206 -0.102069914 -0.121272296 0.02517118 -0.032174136
-0.021468632 -0.15788975 0.14858027 -0.09302264 -0.13347077 0.15103388 -0.08151995 -0.030210331
-0.22304307 -0.16686772 0.098886274 -0.08030925 -0.124237426 -0.095542744 -0.12883416 0.2838766
-0.039109323 -0.19336115 0.116831504 -0.17752303 0.14719553 0.18156014 0.21642417 -0.111140184
0.073060825 0.24242339 -0.0048786555 0.0076369145 0.07923415 -0.11499462 -0.027254635 -0.15054165
0.19390003 -0.069904685 0.21853599 -0.05242924 0.0065355673 -0.14312752 -0.10258092 0.1991674
-0.5769457 -0.07888548 0.31390744 0.2785627 -0.12970436 0.0029131903 -0.021934327 0.1814058
0.2748255 -0.6452403 -0.46431258 0.12941849 -0.2447954 0.39082405 0.16952512 -0.30935547
0.14674336 0.0012650315 -0.37429157 0.19282825 0.36484814 0.060034767 -0.08892402 0.4486764
0.24638095 -0.13150102 0.18353967 0.2937034 -0.17608681 0.07680815 0.019461822 -0.118938565
0.1451165 0.41955483 0.022237802 0.53283834 0.119398475 -0.10120178 0.052168235 -0.3079804
0.10167389 -0.25691646 0.16685355 0.071869604 -0.028772902 0.24011749 0.011973633 0.54303193
-0.17932594 0.199601 0.34950525 0.3577612 0.09406429 -0.08283616 -0.056693494 -0.44535434
-0.17300469 0.07573719 -0.30454922 0.46727774 0.19668283 -0.4168903 0.15284254 0.17101902
-0.10914709 0.0874508 0.03714539 0.05716311 -0.16009665 -0.0345097 -0.0064417436 0.15248837
-0.0491201 -0.20069295 -0.24891913 -0.03508509 0.07085729 0.29135665 0.10187672 -0.23363404
-0.12478291 -0.10486238 0.005105275 0.1663559 0.16412047 0.18517096 -0.12140656 -0.138599
0.12282199 -0.21687865 0.15585507 -0.15122627 0.09444329 -0.05335676 -0.12302645 -0.08612391
00000000: ed4b 2cbe fb96 a6be 1caf 7f3e f199 5f3e
00000010: ec0d d63e f686 5fbe 0c7d 1a3e e89e 993d
00000020: 6e90 3ebd ad8a a53e 16b7 0e3f 0293 6dbe
00000030: c808 eebe 8794 9a3e 6692 f3be 83f0 563e
00000040: e9f3 acbe 5b09 943d 86a7 d73e 96be c43d
00000050: f4ec f7bd 52d4 3c3e 2a37 5dbe 7fee bc3c
00000060: c2f3 a4be 57ea 613e f799 7e3e 88b0 debe
00000070: ad88 a3be 9394 423e d9bc 84bd 3f40 fabe
00000080: 70a4 363e 9bd6 8bba 05a6 bebc 4f06 2b3e
00000090: e3db f93d 8438 433e 1395 2e3e b40c 0fbe
000000a0: 54cd 163e 8daf a63e 20e0 013f 6be6 55be
000000b0: d7ab d93e fe22 dc3b 9637 07bd 9d71 a33e
000000c0: e507 e6bd 53f3 98bd 7fd6 1c3e 9c35 713e
000000d0: 882a 573e 42f8 4f3d 79b9 b13e 67db b6be
000000e0: 15a7 33be 11de 8a3e dbae dcbc 519a 5dbd
000000f0: 0756 573e d356 9dbe 6654 86be 2eee bc3e
00000100: aad3 293e 0695 863e 842a cabd 0c14 b2be
00000110: 7fa9 9c3d 9813 353e 2778 e93d 6e32 b5be
00000120: dd5a bd3e 15c2 c73e 2512 773e 5691 cebd
00000130: 8767 163e a434 f2be 1021 863e 3706 bd3e
00000140: 063a e13e 490e 92be 9339 823e a29c b1bd
00000150: 1ea5 663e 240f e4be afb1 67be e68c 6b3e
00000160: d986 5bbd 45db 9dbe 799f e3be cb38 933d
00000170: 1735 923c d88b 6cbe 8afd 8f3e cd6a be3e
00000180: 10a8 293e f23c 04be db31 2ebe 44a9 e3bc
00000190: c510 27be 3ca1 84bd a709 883d f3fa 09be
000001a0: ce4f dc3d b78c 3a3d b1b3 83bd ce84 26be
000001b0: 454c 27be 09c0 23be 256e 1dbe e17d 0cbe
000001c0: fd09 23be 2d1f 0dbe 0dcf a5bb 159f b13d
000001d0: 080a d1bd 9c5d f8bd ca33 ce3c 07c9 03bd
000001e0: fcde afbc daad 21be 6d25 183e a782 bebd
000001f0: 90ac 08be a0a8 1a3e eef3 a6bd a87b f7bc
00000200: 6765 64be 5fdf 2abe e384 ca3d 2d79 a4bd
00000210: 3170 febd eaab c3bd 1aed 03be 4658 913e
00000220: 1931 20bd 7700 46be 5b45 ef3d 99c8 35be
00000230: 6dba 163e e7ea 393e 4c9e 5d3e 779d e3bd
00000240: eaa0 953d d63d 783e 21dd 9fbb 153f fa3b
00000250: 8445 a23d 4d82 ebbd 1d45 dfbc 9727 1abe
00000260: bb8d 463e 302a 8fbd e6c7 5f3e 0bc0 56bd
00000270: 5028 d63b 0590 12be f215 d2bd 8af2 4b3e
00000280: b7b2 13bf b68e a1bd 7ab8 a03e c59f 8e3e
00000290: 38d1 04be 39eb 3e3b 9eaf b3bc 71c2 393e
000002a0: eeb5 8c3e 782e 25bf 61ba edbe 4886 043e
000002b0: a5ab 7abe 171a c83e fe97 2d3e d763 9ebe
000002c0: e443 163e 6acf a53a 25a3 bfbe c574 453e
000002d0: 60cd ba3e 04e7 753d cc1d b6bd eab8 e53e
000002e0: 4a4b 7c3e 34a8 06be d3f1 3b3e 4b60 963e
000002f0: 1a50 34be 974d 9d3d 666e 9f3c 1096 f3bd
00000300: 6b99 143e e4cf d63e 0d2c b63c 1868 083f
00000310: 3087 f43d e142 cfbd 5cae 553d 9baf 9dbe
00000320: 673a d03d 8e8a 83be a8db 2a3e 5f30 933d
00000330: 26b5 ebbc 5ce1 753e 0f2d 443c 2404 0b3f
00000340: 38a1 37be 3464 4c3e 5af2 b23e 7a2c b73e
00000350: c7a4 c03d 01a6 a9bd 7037 68bd 7c05 e4be
00000360: 2428 31be 1a1c 9b3d e0ed 9bbe 073f ef3e
00000370: 3967 493e a572 d5be c182 1c3e 9c1f 2f3e
00000380: 8288 dfbd 6819 b33d c425 183d dd23 6a3d
00000390: 60f0 23be 0b5a 0dbd 4315 d3bb e925 1c3e
000003a0: 2832 49bd 7482 4dbe a8e4 7ebe 62b5 0fbd
000003b0: a01d 913d b32c 953e bea4 d03d c33d 6fbe
000003c0: 2f8e ffbd 16c2 d6bd 274a a73b 3359 2a3e
000003d0: 320f 283e 759d 3d3e 01a4 f8bd e5ec 0dbe
000003e0: 188a fb3d 7015 5ebe 7998 1f3e 0fdb 1abe
000003f0: 7c6b c13d 9e8c 5abd 4bf5 fbbd bc61 b0bd

model.dense1.bias f4 [16]
0.31660867 0.19908154 0.25132215 -0.050240356 0.09327441 -0.014450766 0.091942996 0.06723135
0.29853958 0.013954024 -0.036163785 0.08989677 0.14486226 0.102222085 0.19843082 0.176079
00000000: 881a a23e 08dc 4b3e 4cad 803e d5c8 4dbd
00000010: a706 bf3d e8c2 6cbc 9c4c bc3d 97b0 893d
00000020: 2eda 983e 6b9f 643c 7a20 14bd cc1b b83d
00000030: c656 143e d059 d13d 7331 4b3e 0e4e 343e

model.dense2.weight f4 [16, 16]
-0.2011605 -0.11539459 -0.15306808 0.022430139 -0.08981056 0.18376587 -0.24124578 -0.04937966
-0.17765231 -0.07411943 -0.17269622 -0.122835375 -0.20612307 0.03398474 0.14987525 0.01950938
0.26262838 -0.5165081 0.16513468 0.020717112 0.09715347 0.52956843 0.11892389 -0.18150942
0.13241674 0.4462172 -0.15690592 0.37389287 0.04139779 -0.31340224 0.2280192 0.4885813
-0.05311812 0.0030595143 0.10864393 0.17233141 0.008360016 -0.2734742 0.46231768 0.038058776
-0.20019896 0.093305096 0.023073567 -0.16441563 -0.17672847 -0.18259066 -0.24620605 -0.046848632
0.54062074 0.0023354308 0.34201738 0.13131042 0.0010463253 -0.12239871 -0.3587821 0.034653142
0.54469573 -0.017876364 -0.22795531 0.3525632 -0.044938296 0.29389125 -0.12182186 0.270255
0.7059858 0.38724944 -0.024217332 -0.10476139 0.18385215 -0.5663232 -0.28989062 0.025074346
0.54216665 -0.3575794 -0.14112313 -0.6032986 0.61303496 0.36798245 0.03080828 0.4016573
-0.26531044 0.44731256 0.7057191 -0.19952351 -0.025489327 -0.3629032 0.64420575 -0.113389835
-0.29041737 -0.35235047 0.23268779 0.5474106 -0.22642154 0.052534714 -0.38431668 0.36688188
1.0317767 0.13603535 0.058293242 -0.20203488 0.15365276 0.33194593 0.13189316 0.03432442
0.017421737 -0.47796562 -0.056301944 0.64822525 -0.44587332 0.75473267 -0.35599706 0.20784041
0.06584423 0.57416856 -0.39038345 0.19793445 0.22487356 0.55925274 0.781016 0.26698118
-0.61832166 -0.39078656 0.17753215 -0.16256315 -0.12968284 0.40933737 0.18793458 -0.29533148
-0.17575304 -0.1297804 -0.08618476 -0.116225176 -0.052496165 -0.12587675 -0.18982236 -0.05797901
0.18175167 -0.10958906 -0.17133333 0.104184315 -0.011103296 0.1847392 0.06661556 -0.019591479
-0.085443765 -0.23299497 -0.14211589 -0.06961646 0.24439906 -0.01663253 -0.124593675 -0.14482848
0.33849582 0.30675057 0.12346618 -0.048807845 0.06618325 -0.16871136 0.21422197 0.15245242
-0.33563313 0.21805593 -0.04967238 -0.14621527 0.073655054 0.5578954 0.32942522 0.05619003
-0.10907097 0.5082353 -0.0447732 0.1379741 -0.09289367 -0.35793883 0.46004117 0.014084606
0.008511573 0.068699546 -0.15300822 0.18352252 -0.06423293 -0.028131006 0.089508206 0.13415217
-0.12523381 0.04585818 -0.10267987 0.042358935 -0.030648641 -0.2241551 0.13477951 0.043186873
0.54959536 0.4164456 -0.59109783 -0.13236341 -0.27377558 -0.43845487 0.6203715 -0.43183562
0.054905586 0.6945404 0.08105689 -0.25969005 0.62775475 0.01668591 0.3193505 0.5125124
0.27205434 -0.056197777 0.029751325 0.13795945 -0.38353866 -0.18827926 0.4746343 -0.07790494
0.06886191 0.2533165 0.15883523 0.0028923473 0.14853401 -0.0012294756 -0.28759885 0.43167257
-0.15914412 0.31457174 0.11208643 0.18536557 0.24273576 0.18093896 -0.21792234 0.06368994
0.3107823 0.15313788 -0.27451363 -0.1226869 0.057296824 -0.41222546 0.5457482 0.20882612
-0.17942911 0.466851 0.7654314 -0.12868579 -0.15751903 -0.3454022 0.328826 -0.12213547
0.006010357 -0.2165925 0.13207585 0.3233891 0.085611634 -0.21117927 -0.34588447 0.45411342
00000000: 05fd 4dbe 0054 ecbd e1bd 1cbe 69bf b73c
00000010: 99ee b7bd 1f2d 3c3e 2209 77be 5442 4abd
00000020: 7dea 35be edcb 97bd 47d7 30be 1d91 fbbd
00000030: ed11 53be 9533 0b3d e678 193e 23d2 9f3c
00000040: 3a77 863e e039 04bf 1119 293e efb6 a93c
00000050: 66f8 c63d cc91 073f 5e8e f33d 9bdd 39be
00000060: 4198 073e 9576 e43e f2ab 20be e36e bf3e
00000070: bb90 293d 4276 a0be dd7d 693e 5427 fa3e
00000080: 6392 59bd 2282 483b b580 de3d a577 303e
00000090: 73f8 083c cf04 8cbe e7b4 ec3e 85e3 1b3d
000000a0: f500 4dbe be16 bf3d c704 bd3c 925c 28be
000000b0: 4ff8 34be 0cf9 3abe 701d 7cbe 5ae4 3fbd
000000c0: 1f66 0a3f 070e 193b e71c af3e 3d76 063e
000000d0: da24 893a 2dac fabd 4ab2 b7be 74f0 0d3d
000000e0: 2e71 0b3f 7471 92bc 1e6d 69be 2a83 b43e
000000f0: 3811 38bd ea78 963e bd7d f9bd dd5e 8a3e
00000100: 7cbb 343f 8f45 c63e 6d63 c6bc 248d d6bd
00000110: bd43 3c3e 8ffa 10bf 8b6c 94be b768 cd3c
00000120: 6fcb 0a3f a614 b7be 9582 10be c771 1abf
00000130: dcef 1c3f 3268 bc3e a561 fc3c 07a6 cd3e
00000140: c5d6 87be 2706 e53e 02aa 343f e44f 4cbe
00000150: fece d0bc 73ce b9be abea 243f ee38 e8bd
00000160: 96b1 94be 4867 b4be b545 6e3e 1a23 0c3f
00000170: 0cdb 67be a42e 573d 28c5 c4be f1d7 bb3e
00000180: 4211 843f da4c 0b3e e5c4 6e3d 3be2 4ebe
00000190: 2657 1d3e d1f4 a93e 000f 073e c397 0c3d
000001a0: 08b8 8e3c e9b7 f4be de9c 66bd 17f2 253f
000001b0: 8249 e4be 2936 413f 3f45 b6be 1ed4 543e
000001c0: 57d9 863d b6fc 123f 57e0 c7be 54af 4a3e
000001d0: 4145 663e 302b 0f3f aaf0 473f c2b1 883e
000001e0: 544a 1ebf 2d15 c8be fdca 353e f476 26be
000001f0: 94cb 04be ab94 d13e ec71 403e b035 97be
00000200: 9bf8 33be 27e5 04be a381 b0bd 7707 eebd
00000210: 3806 57bd d6e5 00be cb60 42be 667b 6dbd
00000220: 1c1d 3a3e 3b70 e0bd 0172 2fbe 965e d53d
00000230: 99ea 35bc 462c 3d3e bd6d 883d 4f7e a0bc
00000240: 24fd aebd 3c96 6ebe d486 11be 1393 8ebd
00000250: bf43 7a3e f240 88bc f82a ffbd eb4d 14be
00000260: 534f ad3e 690e 9d3e d6db fc3d bcea 47bd
00000270: 158b 873d acc2 2cbe 015d 5b3e 7d1c 1c3e
00000280: 1bd8 abbe 0e4a 5f3e 4475 4bbd 75b9 15be
00000290: 76d8 963d 3cd2 0e3f 6caa a83e 8427 663d
000002a0: 9a60 dfbd b51b 023f 1a64 37bd 1549 0d3e
000002b0: 093f bebd c243 b7be 848a eb3e 1fc3 663c
000002c0: 2074 0b3c 59b2 8c3d 30ae 1cbe 54ed 3b3e
000002d0: 8e8c 83bd ff72 e6bc 1450 b73d 305f 093e
000002e0: 4b3d 00be c9d5 3b3d d349 d2bd 9080 2d3d
000002f0: dc12 fbbc ea88 65be a403 0a3e b8e4 303d
00000300: 48b2 0c3f 5c38 d53e 3052 17bf 468a 07be
00000310: 502c 8cbe 287d e0be abd0 1e3f 8f19 ddbe
00000320: aee4 603d 66cd 313f 2801 a63d 18f6 84be
00000330: 89b4 203f e4b0 883c e981 a33e 0334 033f
00000340: b54a 8b3e a42f 66bd 0db9 f33c 3e45 0d3e
00000350: 2e5f c4be 47cc 40be 4403 f33e a08c 9fbd
00000360: 7907 8d3d b3b2 813e b4a5 223e 898d 3d3b
00000370: 4d19 183e 5b26 a1ba 2840 93be 3004 dd3e
00000380: adf6 22be 8c0f a13e 928d e53d 79d0 3d3e
00000390: b98f 783e 1048 393e 0927 5fbe df6f 823d
000003a0: dc1e 9f3e 2dd0 1c3e 0d8d 8cbe 4543 fbbd
000003b0: 13b0 6a3d 370f d3be 27b6 0b3f 84d6 553e
000003c0: 44bc 37be 1807 ef3e 50f3 433f 35c6 03be
000003d0: ab4c 21be 8fd8 b0be e25b a83e 2922 fabd
000003e0: 87f2 c43b 6dca 5dbe e43e 073e 4293 a53e
000003f0: 2755 af3d 613f 58be c517 b1be 8e81 e83e

model.dense2.bias f4 [16]
-0.14951576 0.10467807 -0.13166948 0.14512457 0.12511562 0.21034081 0.1621811 0.4695386
-0.18976755 -0.08272907 0.19311918 -0.17112625 0.14799592 -0.20143424 0.22553162 0.20758517
00000000: a91a 19be 7561 d63d 5dd4 06be 899b 143e
00000010: 4f1e 003e 9563 573e cd12 263e 5d67 f03e
00000020: 6d52 42be dc6d a9bd 09c1 453e b83b 2fbe
00000030: 3e8c 173e c744 4ebe c3f1 663e 3591 543e

model.dense3.weight f4 [16, 16]
-0.15933716 -0.04198949 0.21528725 0.05603729 0.13861685 0.20624746 -0.07105465 -0.23097256
-0.09109968 -0.24740441 -0.019069456 0.10135438 -0.12096036 -0.04324272 -0.09141085 -0.021712938
-0.20351689 0.775337 -0.34539816 0.36633748 0.18213387 -0.20608857 0.22924757 -0.5793561
-0.18785433 0.174272 0.19171862 -0.1308386 0.8172845 0.25878453 0.3538911 -0.1263048
0.13886875 0.24691759 -0.09480706 0.07393655 -0.04607708 -0.025160866 0.51202 0.14631364
-0.22035146 0.24574544 -0.09366987 -0.22130015 -0.5532515 -0.39530247 -0.11200917 -0.26325685
-0.07369605 -0.11810618 -0.093524106 0.64669824 0.46572825 0.48399436 0.7392442 -0.35115728
0.23759514 0.17266218 -0.66808873 0.026532272 -0.2743276 0.12720199 -0.26548612 0.6019285
0.20385076 0.3307632 0.019197794 -0.017794983 0.45456776 -0.29503694 -0.20482174 0.24031651
-0.19725122 0.09649019 -0.09650079 0.07531479 0.8657494 -0.10228201 0.08069911 -0.28054065
0.043670863 0.13515428 0.21108927 -0.15433069 0.41216826 0.1627468 -0.4370847 -0.36210564
0.16391066 0.22922473 -0.412497 -0.28554013 0.38714397 0.47702658 -0.23543377 0.4133781
-0.13536412 -0.030545387 -0.015558913 0.33417666 -0.31535906 0.72912514 0.5457481 0.036016136
-0.0010149331 -0.02288232 -0.24875681 0.13083008 -0.42657596 -0.16668616 -0.016921233 0.5260404
0.014578902 -0.36967695 -0.16704208 -0.5256356 0.2615237 0.33457333 -0.44824934 0.86126286
0.0007903242 -0.06122278 0.21747364 -0.1276431 -0.0069207014 -0.31110352 0.15301389 0.20079358
-0.17372505 -0.0054858625 0.059491497 0.20563397 0.59944034 -0.17949998 0.85254645 0.50576794
-0.1378133 0.0685192 -0.46229184 0.13664408 0.23201993 0.043920916 -0.2910376 -0.36696997
-0.12545082 -0.24640025 -0.20391919 0.2176826 0.0974074 0.1669708 -0.047649816 -0.034249127
-0.006741813 -0.10306874 -0.120722845 0.1451143 -0.04141703 -0.06290767 -0.2431289 -0.08830078
0.0002279586 0.04044629 0.2555387 0.11144285 -0.49214074 -0.17793094 0.8708482 0.48072493
-0.052553438 0.12131667 -0.2332791 0.020196863 0.2543247 0.20772877 -0.5577338 -0.21959543
0.028356161 0.3499836 0.2944565 0.113078415 -0.32674706 0.12004137 0.018981175 0.30290046
0.10571499 0.29083845 0.20051719 -0.009442294 -0.6420475 -0.06801619 0.20897555 -0.046857916
0.1359141 -0.30952436 0.19360478 -0.47577864 -0.003795556 0.4815032 -0.062698595 0.73251545
-0.23272662 -0.20047724 -0.19907232 -0.21214499 0.59475327 0.32394904 -0.033940565 0.316675
0.19350064 -0.07453134 -0.17835552 -0.15453255 -0.16539304 -0.10143635 -0.15350941 0.088754095
-0.08465314 -0.07455142 0.16823836 0.23621377 -0.17639834 -0.23594497 -0.17745869 -0.24973327
0.10808489 0.4074975 0.07968591 0.2664341 0.34044048 -0.83022785 0.32837752 0.22963676
-0.16864382 0.21852319 0.26791453 -0.07672638 -0.08829069 -0.3731287 0.2634146 -0.5362697
-0.08508881 0.7030979 0.04297642 -0.22192022 -0.67046624 0.60663825 0.24284047 0.09523299
0.13042744 -0.090604894 0.28624845 -0.015258083 -0.2852798 0.12538253 -0.2136185 0.29371196
00000000: 4829 23be 2cfd 2bbd 4374 5c3e 5b87 653d
00000010: 93f1 0d3e 8932 533e 1a85 91bd 1284 6cbe
00000020: 7892 babd 9557 7dbe 8c37 9cbc e392 cf3d
00000030: 11ba f7bd 471f 31bd 9d35 bbbd 55df b1bc
00000040: bb66 50be 7c7c 463f 07d8 b0be 9690 bb3e
00000050: 4d81 3a3e e208 53be e0bf 6a3e ae50 14bf
00000060: e35c 40be 5c74 323e e351 443e 8efa 05be
00000070: 8f39 513f 687f 843e 3731 b53e 0c56 01be
00000080: 9c33 0e3e f7d7 7c3e 342a c2bd 0c6c 973d
00000090: 52bb 3cbd 291e cebc be13 033f 3ed3 153e
000000a0: d0a3 61be b1a4 7b3e fdd5 bfbd 829c 62be
000000b0: e4a1 0dbf 1665 cabe 1065 e5bd 9ac9 86be
000000c0: f4ed 96bd a7e1 f1bd 9189 bfbd 048e 253f
000000d0: ef73 ee3e 1cce f73e 1c3f 3d3f e3ca b3be
000000e0: 244c 733e 5bce 303e dd07 2bbf 355a d93c
000000f0: ab74 8cbe 3d41 023e cced 87be fc17 1a3f
00000100: 41be 503e cb59 a93e b144 9d3c c9c6 91bc
00000110: 1bbd e83e 150f 97be cabc 51be 8815 763e
00000120: 39fc 49be a69c c53d 35a2 c5bd a43e 9a3d
00000130: c1a1 5d3f 3b79 d1bd 9345 a53d 06a3 8fbe
00000140: 38e0 323d e265 0a3e c927 583e dd08 1ebe
00000150: b807 d33e 19a7 263e 91c9 dfbe e965 b9be
00000160: 32d8 273e e3b9 6a3e cf32 d3be 5132 92be
00000170: bc37 c63e d43c f43e 8d15 71be 4ba6 d33e
00000180: e49c 0abe 523a fabc d0ea 7ebc 3419 ab3e
00000190: be76 a1be f2a7 3a3f 26b6 0b3f a885 133d
000001a0: 8107 85ba b473 bbbc 1bba 7ebe 52f8 053e
000001b0: 2a68 dabe c7af 2abe 669e 8abc 95aa 063f
000001c0: 59dc 6e3c 4c46 bdbe 140d 2bbe 0e90 06bf
000001d0: 6fe6 853e 324d ab3e f080 e5be b97b 5c3f
000001e0: c22d 4f3a bdc4 7abd 69b1 5e3e dfb4 02be
000001f0: 0dc7 e2bb f648 9fbe acaf 1c3e d59c 4d3e
00000200: fbe4 31be c0c2 b3bb 5bad 733d b691 523e
00000210: ec74 193f d8ce 37be 7c40 5a3f 027a 013f
00000220: ee1e 0dbe cb53 8c3d 84b1 ecbe 6dec 0b3e
00000230: a296 6d3e 6be6 333d e102 95be 7de3 bbbe
00000240: 2e76 00be 5950 7cbe 31d0 50be 30e8 5e3e
00000250: 887d c73d 65fa 2a3e 742c 43bd d048 0cbd
00000260: 6dea dcbb b415 d3bd 8a3d f7bd d898 143e
00000270: e7a4 29bd bdd5 80bd c8f6 78be 0ad7 b4bd
00000280: 2c08 6f39 02ab 253d f8d5 823e 263c e43d
00000290: dff9 fbbe 8733 36be e8ef 5e3f 9421 f63e
000002a0: 4642 57bd e074 f83d b7e0 6ebe e473 a53c
000002b0: d936 823e dab6 543e a4c7 0ebf a0dd 60be
000002c0: 2e4b e83c 0d31 b33e 01c3 963e a895 e73d
000002d0: 644b a7be 40d8 f53d 697e 9b3c c515 9b3e
000002e0: 1a81 d83d c7e8 943e 6154 4d3e dab3 1abc
000002f0: 3a5d 24bf 124c 8bbd b0fd 553e 16ee 3fbd
00000300: 112d 0b3e fa79 9ebe 5540 463e 4299 f3be
00000310: ddbe 78bb 9687 f63e 1f68 80bd 2286 3b3f
00000320: e34f 6ebe e849 4dbe 9dd9 4bbe 893c 59be
00000330: c041 183f a6dc a53e 4305 0bbd 3a23 a23e
00000340: 0825 463e e3a3 98bd d4a2 36be c83d 1ebe
00000350: cb5c 29be dcbd cfbd 9231 1dbe b5c4 b53d
00000360: a05e adbd 6aae 98bd ad46 2c3e 06e2 713e
00000370: c4a1 34be 8f9b 71be bbb7 35be 14ba 7fbe
00000380: 9c5b dd3d 83a3 d03e 5e32 a33d 0d6a 883e
00000390: 374e ae3e d089 54bf 1921 a83e e625 6b3e
000003a0: f7b0 2cbe 8bc4 5f3e 182c 893e b822 9dbd
000003b0: c0d1 b4bd ba0a bfbe 47de 863e f948 09bf
000003c0: 0b43 aebd 39fe 333f 0b08 303d 0e3f 63be
000003d0: ada3 2bbf a54c 1b3f 2cab 783e 8409 c33d
000003e0: c58e 053e 0f8f b9bd 288f 923e 0afd 79bc
000003f0: 3210 92be 4764 003e cfbe 5abe 6a61 963e

model.dense3.bias f4 [16]
-0.054245632 -0.13861038 0.027679875 -0.114862606 0.10853656 -0.2207711 -0.13453944 0.2740979
-0.5189982 -0.16697454 -0.055957716 0.13973649 0.096926674 0.07487042 0.12705831 0.09359535
00000000: ab30 5ebd e1ef 0dbe e8c0 e23c 163d ebbd
00000010: 6a48 de3d d211 62be b5c4 09be 8f56 8c3e
00000020: 11dd 04bf 60fb 2abe eb33 65bd 1517 0f3e
00000030: 7e81 c63d aa55 993d 931b 023e ebae bf3d

model.output.weight f4 [10, 16]
-0.19484432 -0.5808492 0.6893682 0.3122269 -0.5297454 0.1917923 0.34630966 -0.1880544
0.37348852 0.153477 0.5584447 0.26463166 -0.77397543 0.22294204 0.5844429 -0.031016855
-0.06575944 0.86667585 0.13607706 -0.5829831 0.49884877 0.69859 0.102124445 -0.278137
-0.77076197 0.07659908 -0.6865255 -0.4951626 0.27251166 0.085811414 -0.64888895 -0.40127826
0.08186569 0.5509247 0.22868948 -0.46488935 -0.041515652 -0.19039847 -0.40082997 0.39654788
-0.031697128 0.22605447 -0.21518499 0.46002218 -0.6448188 0.111625776 0.60239214 0.51056796
-0.01969997 0.561754 -0.07510994 0.16091527 0.386114 -0.13057852 -0.71455145 0.17621371
0.57357085 0.08220205 -0.13574061 -0.05197663 -0.11770668 -0.075065084 0.34102535 -0.39505306
-0.23234951 -1.0344151 -0.18391274 0.5403211 -0.5182814 -0.17716372 0.42204145 0.27851537
-0.20951554 0.10262145 -0.25275344 0.2609204 0.65690196 -0.17953248 0.15419148 0.31876153
0.047324464 0.030935688 -0.2184968 1.060916 -0.13996151 -0.18001415 0.21996136 -0.21097519
0.59022725 0.10593044 0.069025874 -0.33291152 -0.22178484 -0.0003786969 -0.1363196 -0.43054107
-0.02433666 0.21914385 0.103353284 0.6526839 -0.6458255 0.017359864 0.53781545 -0.42198065
-0.48756546 0.02586991 -0.40810716 0.4107901 -0.7658705 0.023861134 -0.17565404 0.6524758
0.16557112 0.07987263 0.22611548 -0.7756749 0.6261979 -0.5856559 -0.26969728 0.8491455
-0.33943462 0.00908987 -0.65960824 -0.26810077 0.62476945 0.15527992 0.32736492 -0.6364481
0.18441279 0.5553675 -0.36492676 -0.10565572 0.02332091 -0.36748254 -0.104181856 -0.52795833
0.013930702 0.022761745 0.6383679 -0.13304889 0.19757865 0.15338665 -0.4564541 0.49321577
-0.22876054 -0.74989486 0.17287344 -0.17651841 -0.04622778 0.34221178 -0.33726466 0.41877073
0.63286304 -0.05778604 0.24886853 0.02114838 0.71712595 -0.1652779 0.13417467 0.021989876
00000000: 4585 47be 88b2 14bf 6f7a 303f 34dc 9f3e
00000010: 659d 07bf 3365 443e 804f b13e 5591 40be
00000020: e339 bf3e 1329 1d3e 3bf6 0e3f cd7d 873e
00000030: 4123 46bf eb4a 643e 0d9e 153f 0f17 febc
00000040: e3ac 86bd 78de 5d3f c957 0b3e 613e 15bf
00000050: 1b69 ff3e cbd6 323f 9f26 d13d f967 8ebe
00000060: a850 45bf fadf 9c3d 23c0 2fbf f485 fdbe
00000070: a686 8b3e e5bd af3d 961d 26bf 5874 cdbe
00000080: 33a9 a73d 6709 0d3f 932d 6a3e fa05 eebe
00000090: 510c 2abd d1f7 42be 9639 cdbe 5308 cb3e
000000a0: d9d4 01bd d37a 673e 7459 5cbe 0788 eb3e
000000b0: d812 25bf 0e9c e43d 5f36 1a3f 95b4 023f
000000c0: d561 a1bc 1ccf 0f3f 3dd3 99bd f9c6 243e
000000d0: bcb0 c53e 60b6 05be d8ec 36bf 5e71 343e
000000e0: 8ad5 123f 8c59 a83d 96ff 0abe 72e5 54bd
000000f0: 3310 f1bd b9bb 99bd e09a ae3e 6544 cabe
00000100: 08ed 6dbe b767 84bf 9f53 3cbe 7c52 0a3f
00000110: 17ae 04bf 686a 35be d115 d83e 9199 8e3e
00000120: 3e8b 56be 322b d23d e668 81be 5c97 853e
00000130: ba2a 283f 5dd7 37be 5fe4 1d3e b634 a33e
00000140: 4cd7 413d d76c fd3c a0bd 5fbe 18cc 873f
00000150: 1252 0fbe a155 38be 8d3d 613e e109 58be
00000160: 2219 173f 0ff2 d83d 705d 8d3d 6173 aabe
00000170: 911b 63be d68b c6b9 5d97 0bbe e16f dcbe
00000180: ad5d c7bc 3f67 603e e3aa d33d 4b16 273f
00000190: d254 25bf 4636 8e3c 46ae 093f d90d d8be
000001a0: 2ea2 f9be 22ed d33c 6cf3 d0be 1453 d23e
000001b0: 1710 44bf 6d78 c33c a7de 33be a708 273f
000001c0: 7a8b 293e 4394 a33d d18a 673e a192 46bf
000001d0: 814e 203f 8ced 15bf c315 8abe 9961 593f
000001e0: 60ca adbe aeed 143c 16dc 28bf 8144 89be
000001f0: e4f0 1f3f b301 1f3e 609c a73e 43ee 22bf
00000200: b5d6 3c3e 912c 0e3f aed7 babe 0762 d8bd
00000210: 7e0b bf3c ac26 bcbe 4c5d d5bd 4728 07bf
00000220: 993d 643c d776 ba3c 146c 233f f83d 08be
00000230: 0f52 4a3e 6411 1d3e 5ab4 e9be c786 fc3e
00000240: 3440 6abe 1cf9 3fbf bc05 313e 3ec1 34be
00000250: 5759 3dbd 6236 af3e f4ad acbe 1e69 d63e
00000260: 5003 223f 0eb1 6cbd 64d7 7e3e 5e3f ad3c
00000270: 9195 373f 9c3e 29be 1665 093e 1d24 b43c

model.output.bias f4 [10]
-0.54856837 0.28349292 0.015197646 -0.550044 0.24781266 -0.4133677 -0.23878819 1.2373148
-0.49468693 0.0053179516
00000000: fa6e 0cbf fc25 913e 8cff 783c afcf 0cbf
00000010: 9ac2 7d3e eea4 d3be e484 74be 5560 9e3f
00000020: 9b47 fdbe 3642 ae3b
