Models/model_optRMSprop_ep5_neu32_lay2_acc0.9038.pth (torch, 108312 bytes, 8 tensors)

model.input.weight f4 [32, 784]
000000 a8 66 7e 3c 04 48 4e 3c 90 f1 4d 3c 24 d8 4a 3c
       0.015527405 0.012590412 0.0125698 0.0123806335
000010 f4 e9 76 3c d2 e0 df 3c 77 22 8b bc 10 74 33 3b
       0.015070427 0.027328882 -0.016984208 0.002738241
000020 05 10 a9 bc 48 ef fe 3b 33 18 01 3d d0 08 7d 3b
       -0.020637522 0.0077799894 0.03151722 0.003860999
000030 e2 88 8c 3d 30 24 96 3c ac b3 90 bd 94 b8 86 bd
       0.06862046 0.018327802 -0.0706552 -0.06578174
000040 6a 5e 7f bc c5 f0 80 bc a3 40 92 bc 86 1b ff 3c
       -0.015586475 -0.015739808 -0.017853087 0.031141054
000050 40 65 12 bc e8 98 b0 3c 12 54 ae 3c 18 0f 5e bc
       -0.008935273 0.021557286 0.021280322 -0.013553403
000060 cc f0 be bc e7 10 8c bc ba 69 d4 3c 94 19 77 3c
       -0.02330818 -0.017097903 0.02592932 0.015081782
000070 01 fc 03 3d ba 33 a6 3c c8 9a 87 3c 24 04 24 3c
       0.03222275 0.020288337 0.016553298 0.010010753
000080 f8 ae 85 bb 80 93 ee 3b e1 18 e0 3d f3 f8 04 3e
       -0.004079696 0.007280767 0.10942245 0.12985592
000090 04 50 da 3d a6 f1 1f 3e ac 96 d9 3d 9d 3a 08 3e
       0.10659793 0.15619525 0.106244415 0.13303609
0000a0 9f 11 36 3e f2 0a 91 3d bc a0 03 bd 6e 22 16 3d
       0.1778016 0.07082166 -0.03213571 0.03665393
0000b0 22 67 e3 3c 70 ed 68 3d d2 d0 21 3e b2 14 0a 3e
       0.027759138 0.056867063 0.15802315 0.13484457
0000c0 65 c9 07 3e dc 6d 5c 3d b2 be 5a 3d ab b9 2b 3d
       0.1326042 0.053815708 0.053404517 0.041925114
0000d0 02 46 ad 3c 05 90 80 bc 6e fe 77 bc 60 fd c6 3c
       0.021151546 -0.015693674 -0.015136344 0.02429074
0000e0 6a 41 9b bc c5 1a dd bc fc 58 27 3c 3a f5 bc bc
       -0.01895209 -0.026990304 0.010214087 -0.023066152
0000f0 b0 d5 28 3d 8a 99 3e 3d 91 f0 2b 3e 31 45 62 3e
       0.041219413 0.046533145 0.16790988 0.22096707
000100 46 f8 50 3e e6 96 8a 3e 7a ec 87 3e 1d 25 7c 3e
       0.20407209 0.2706825 0.26547605 0.24623533
000110 75 52 2f 3e 83 20 47 3e 47 69 f8 3d 9d fc cb 3d
       0.17121299 0.19445996 0.12129455 0.099602915
000120 4b f9 15 3e ef 0c 3a 3e e1 26 5d 3e 38 76 6b 3e
       0.14645879 0.18168996 0.21596862 0.22994316
000130 f6 05 f8 3d 7b 1a 01 3e 4d 02 10 3e 32 7b 10 3e
       0.12110512 0.12607758 0.14063378 0.14109495
000140 d3 7b 8a 3d ec af 73 3c 99 00 01 3d ca 0d c6 3c
       0.06761899 0.014873486 0.03149471 0.024176497
000150 2e e4 0d bc 32 c7 41 bc 1c 4a ce bb 72 f9 31 3d
       -0.008660359 -0.011827277 -0.0062954556 0.04345078
000160 37 33 7e 3c 31 4b 37 bc 4a 47 8c 3c 45 f7 80 3d
       0.01551514 -0.011187361 0.017123837 0.06297163
000170 ab 97 a1 3d 24 22 e4 3d e5 1d 32 3e 1e 92 58 3e
       0.078902565 0.11139324 0.17394216 0.2114949
000180 1f 11 91 3d 01 78 0c 3e c6 15 01 3e 6a 46 e3 3d
       0.07083344 0.13717653 0.12605962 0.11097415
000190 9e 40 d6 3d 01 bf 2c 3e de cb 42 3e ad 4d 45 3e
       0.104615435 0.16869737 0.19023082 0.19267912
0001a0 9b 5b 2f 3e d5 28 fe 3d 4f 35 e2 3d 7a c3 92 3c
       0.17124788 0.12410132 0.11045324 0.017915476
0001b0 22 15 e6 bc 07 1d 5f 3d f8 fc 77 bc be fc b9 3c
       -0.028086249 0.054471042 -0.015135996 0.022703525
0001c0 e0 8d 3e 3c b8 8c 69 bc 6b 65 05 3d cb ce 5d 3c
       0.011630505 -0.014254741 0.032567423 0.013538073
0001d0 e0 a8 5f bd 56 3f 00 bd 88 93 11 bc 44 34 34 bd
       -0.05460441 -0.0313104 -0.008885272 -0.043995157
0001e0 8e f6 2f bd 08 17 c4 3c 0d 5f 97 3d 94 e3 72 bb
       -0.042959742 0.023936763 0.073911764 -0.0037061917
0001f0 85 72 02 bd 3c 8c 93 bc bc 5a 4b bc 40 4b 91 3d
       -0.031847496 -0.018011205 -0.0124117695 0.07094431
000200 7b fd 52 3d 7f 0c 20 3d 1e fa 1a 3c 13 e7 ef 3d
       0.05151127 0.039074417 0.009459047 0.11713996
000210 81 ad 2b 3e cd 88 ac 3d 77 b9 38 3d 00 9d 46 bd
       0.16765405 0.0842453 0.045098748 -0.04848957
000220 63 22 e0 bd c9 3c da bd bd 89 84 bd 90 3c 4e bb
       -0.10944059 -0.10656125 -0.06471584 -0.0031469204
000230 20 26 2c bb 88 54 dd bc fd d5 02 3d 3e a3 0b 3c
       -0.0026267841 -0.027017847 0.031942356 0.008522807
000240 da 74 1e bb d3 2e 9b bd f0 ec 96 bd 35 4e 03 be
       -0.0024178536 -0.075772904 -0.07369411 -0.12822802
000250 9c c4 db bd 91 9e e5 bd 86 f8 32 3b 9f 0e dd bd
       -0.1073086 -0.11211885 0.0027308776 -0.107938044
000260 13 21 8e bd 63 eb 9e bd 81 26 8c bc 8c fc cc bc
       -0.06939902 -0.0775974 -0.017108204 -0.025022767
000270 41 3d 4a bd d0 f2 ac bd 8a 92 8b bd fe 47 56 3d
       -0.049374823 -0.0844475 -0.068150595 0.05231475
000280 e1 9c c4 3d cf 93 aa 3c 99 eb a5 3a 90 a0 87 bd
       0.09600235 0.020822434 0.0012658715 -0.06622422
000290 29 5c 08 bc d2 09 26 be 87 bd ff 3c 7e bc e3 bb
       -0.008322754 -0.16214684 0.031218303 -0.0069499603
0002a0 88 f0 f4 bb ec 76 c2 bc 50 46 82 3d 4c c0 b4 ba
       -0.0074749626 -0.023738347 0.06361067 -0.0013790219
0002b0 f8 d8 05 3c b1 d7 97 bd 70 b2 fa bd 4c 1e 2e be
       0.008169405 -0.07414187 -0.122410655 -0.17003745
0002c0 31 83 32 be 2a c9 ba bd 4d b0 dc bd 78 df a6 bd
       -0.17432858 -0.091204 -0.10775814 -0.08148092
0002d0 d7 a0 d7 bd ae fc 5c bd a0 62 e1 bc 5e 96 56 bd
       -0.10528725 -0.05395191 -0.027512848 -0.052389495
0002e0 87 2e 60 bd f2 b3 16 be e6 d8 3c be e9 f1 b0 bd
       -0.054731872 -0.14717081 -0.18442115 -0.08639891
0002f0 78 56 0d be 0d e3 10 be 9d cc 02 be dd 69 a0 bd
       -0.13802516 -0.14149113 -0.12773366 -0.07832692
000300 3c 96 04 be 8c 46 15 be 1f d6 5a bb 85 9b e5 bc
       -0.12947935 -0.14577693 -0.0033391786 -0.028028259
000310 3a 0c dd 3c c8 62 08 bc fe 61 2d bd e2 0c 8f 3b
       0.02698337 -0.008324333 -0.04232978 0.0043655494
000320 a8 b5 b1 bc c2 6f df bd 12 74 13 be 42 8e 64 be
       -0.021693066 -0.10909988 -0.14399746 -0.22319892
000330 99 64 03 be 92 26 be bd 9f 2e 89 bd 0e 71 b1 bd
       -0.12831344 -0.092847005 -0.066983454 -0.086641416
000340 2f 54 e1 bd 17 47 d7 bd 37 c0 55 bd 07 0d f3 bc
       -0.11002385 -0.10511606 -0.052185263 -0.029669298
000350 8e 89 af bd f1 9c 02 be 74 b8 99 be b6 8a a0 be
       -0.08571158 -0.12755181 -0.3002354 -0.31355828
000360 b9 57 91 be 50 1b 8c be f9 b4 55 be 98 f6 1e be
       -0.2838724 -0.27364588 -0.20869817 -0.15523756
000370 da 75 4c be 23 cc 24 be 8b 2a 72 bd 39 3a 1b bd
       -0.19966832 -0.16093497 -0.059122603 -0.037897322
000380 00 9c e0 3a bd e6 62 3d 31 d5 c1 bc 8b 42 17 3c
       0.0017136335 0.05539583 -0.023661228 0.009232174
000390 bb f8 fe 3c 8c d3 3c bd 41 ac d6 bd 57 30 28 be
       0.031124463 -0.046100184 -0.104820736 -0.1642469
0003a0 20 70 c3 bd 21 0a 07 be b6 f9 d2 bd cb 29 d5 bd
       -0.095428705 -0.13187458 -0.10301535 -0.10408362
0003b0 b4 25 cd bd e4 70 88 bd 41 fb 06 bd 83 3e a8 3c
       -0.10016957 -0.06662157 -0.03295446 0.02053762
0003c0 17 a5 25 bd 89 4f 1c be 7d 05 b5 be 46 b8 b4 be
       -0.040440645 -0.15264715 -0.3535575 -0.3529684
0003d0 3c 20 87 be fd 54 77 be cc 2f 7a be d9 91 90 be
       -0.2639178 -0.24153514 -0.24432296 -0.28236273
0003e0 43 b1 86 be 56 18 88 be 9e 69 f2 bd 1c 47 1b bd
       -0.26307115 -0.26581067 -0.11836551 -0.037909612
0003f0 d0 ca 41 bb 7e b1 86 3d 24 64 82 bd c2 86 84 3d
       -0.0029570349 0.06576823 -0.063667566 0.064710155

model.input.bias f4 [32]
000000 aa 0c 4e 3d f1 09 e3 3d 05 8e 95 bd 01 6f 4e 3e
       0.050305046 0.110858805 -0.07302479 0.20159532
000010 98 32 02 3d f5 2b 14 3e 95 07 10 bd ed 9e 5c 3e
       0.03178653 0.14469893 -0.03516348 0.21545
000020 24 37 26 bd c5 58 0e 3e cc 55 17 3d 79 18 13 3e
       -0.04057993 0.1390105 0.036947057 0.14364804
000030 ef 2d 33 bd 7c 10 0d be aa ad 22 bd 8b 35 7d bd
       -0.043744978 -0.1377582 -0.0397164 -0.06181864
000040 bd 4a 20 3e ff d2 05 3e ff a6 0d 3e b5 f1 e9 3c
       0.1565351 0.1306877 0.13833235 0.028557638
000050 27 e8 ec bd 3e 47 6b bb 5c 3f e0 3d 9b 3e d1 bc
       -0.11567717 -0.0035900618 0.10949585 -0.025542548
000060 06 e2 03 3d bf 78 74 3c b5 d3 06 3c 31 5c d2 3c
       0.032197975 0.014921366 0.008229186 0.025678726
000070 d7 a9 b3 3d 77 1d 0b 3e 15 83 20 3d 76 4f 67 3c
       0.08772629 0.13585459 0.03918751 0.014118066

model.dense1.weight f4 [16, 32]
000000 06 89 79 bd 9e d5 a7 3d 30 41 10 bc 6b 3c e0 bd
       -0.06092169 0.08195041 -0.008804604 -0.10949024
000010 71 b6 ea bd 13 c8 85 bd 0a 01 96 3d 4a c4 05 be
       -0.11460579 -0.06532302 0.07324417 -0.1306316
000020 ea 2a 04 be fe dd c7 3d d5 7a da bd 70 e6 18 be
       -0.12906995 0.097591385 -0.106679596 -0.14931655
000030 e6 9d b0 bd 6e 40 85 3d e0 88 70 bc 90 8e 11 3d
       -0.08623867 0.065064296 -0.014681071 0.03553635
000040 34 5c 4f bd 60 7d a0 3b 97 a0 2c 3e d0 f3 43 3d
       -0.05062504 0.0048977584 0.16858135 0.04783994
000050 d0 3e 08 be 36 bf 2f be e8 5e 1a be d8 d8 7a 3d
       -0.13305211 -0.17162785 -0.15075266 0.061241955
000060 9c a8 2f be 76 02 ce 3d ba 73 d7 3d d9 18 af bd
       -0.17154163 0.10059063 0.1052012 -0.08549661
000070 30 f0 31 3d 18 82 b6 bc 40 bc 39 bc ce ec 69 bd
       0.04344195 -0.02227883 -0.011336386 -0.0571106
000080 3e 0c 00 3f 90 c4 6e 3e 63 3a 87 bd e5 cf 16 3e
       0.5001868 0.2331717 -0.06602933 0.14727743
000090 12 ce 64 be ea be ba ba 83 8e 07 be d6 1a 22 3e
       -0.22344235 -0.0014247571 -0.13237958 0.1583055
0000a0 56 9c 7b 3e 67 fe 98 be 87 ad e5 3e 13 93 89 bd
       0.24571356 -0.29881594 0.44858953 -0.06717505
0000b0 75 f9 11 3d d7 7e 43 3e 80 37 92 3e be a4 9e 3e
       0.03563829 0.19091354 0.28557968 0.30985063
0000c0 ac 8b dc bd 5f a6 d6 bd 72 c0 9a be 92 fe 44 be
       -0.10768828 -0.104809515 -0.3022495 -0.19237736
0000d0 30 10 79 3e 5f ec 56 3e b7 95 b0 3c fe 21 2c bd
       0.24322581 0.20988606 0.021555765 -0.042024605
0000e0 31 94 5c bc 63 ed 96 3c b9 1a 32 bc de e2 b9 3d
       -0.013463066 0.018423742 -0.010870629 0.090764746
0000f0 7b 8a 0d be bc b9 08 3e e8 61 2b bc a5 15 ae 3c
       -0.13822357 0.13352102 -0.010460354 0.021250555
000100 73 3e 8e be 38 0c a5 3d 1d f5 9e be f0 2c e0 3d
       -0.2778202 0.08058971 -0.31046382 0.10946071
000110 55 4c ce be 58 be 7e be f8 94 e8 3d a1 76 fd 3b
       -0.40292612 -0.24877298 0.113565385 0.007735089
000120 90 a3 65 3e 5c 2d bb bc 06 b0 ea be 22 25 1b be
       0.22425675 -0.022848777 -0.4583742 -0.15150884
000130 b9 d7 05 3e 7b 93 a4 bd 7e 6f be 3d 9c 0f d1 3d
       0.13070573 -0.08035942 0.09298609 0.102080554
000140 7a f8 8b 3e 72 bf 49 be bd f3 b8 be 59 f8 86 3e
       0.2733801 -0.19701937 -0.36123458 0.2636135
000150 ec 02 cd 3d 27 e8 0f 3e 48 29 0d bd 07 c2 96 bc
       0.10010323 0.14053403 -0.034463197 -0.018403066
000160 eb f2 23 3d ad 66 29 3e f4 10 18 3e 80 a4 7c 3e
       0.040026587 0.16543074 0.14850217 0.24672127
000170 d8 3c c1 be 6d 16 89 bd 33 8e 56 be 21 37 cf 3e
       -0.37741733 -0.066937305 -0.20952682 0.40471748
000180 f2 45 93 be 95 83 ab bd 36 43 06 3d 44 d0 1f be
       -0.28764302 -0.08374707 0.03277894 -0.15606791
000190 dc 8b fe 3e 3d 19 48 be cd 9c 0a be 91 9d f1 be
       0.4971608 -0.19540878 -0.13536377 -0.47190526
0001a0 96 26 37 bd 01 c8 b8 3d bd 43 c8 3e 47 60 91 3d
       -0.044714533 0.09022523 0.3911418 0.070984416
0001b0 83 c4 6e 3e df 55 b6 3d 3c 75 1c bd 3c 0f ae 3e
       0.23317151 0.08903097 -0.03819774 0.33995998
0001c0 87 14 38 3e ae 37 1d 3d 0d 6f 12 be ab 4b f9 3e
       0.1797658 0.03838318 -0.14300175 0.48690543
0001d0 43 f4 bd bd 7f 0b 67 bc c9 7a 99 3e 5f 7c 00 bd
       -0.09275105 -0.014101862 0.2997649 -0.03136861
0001e0 2b 4d 3c be e7 a3 05 3e 81 b1 27 3d c6 00 bc 3e
       -0.18388812 0.13050805 0.040940765 0.3671934
0001f0 3f a9 cb 3c 8f 5c 87 3e d5 5b 30 bd a6 94 67 3e
       0.024860976 0.26437804 -0.043056328 0.22615299
000200 2c e3 89 3e 1f f4 8d be 48 48 b0 bd cf 8a 27 be
       0.2693113 -0.27725312 -0.086075366 -0.16361545
000210 b2 a2 00 3f f9 be 19 bd d1 18 b9 bb 93 34 33 3a
       0.50248253 -0.03753564 -0.0056487103 0.0006836142
000220 3d 37 47 3e e2 5b 02 be fa e5 d6 3d d5 5f 42 3e
       0.19454665 -0.12730363 0.10493083 0.1898187
000230 92 14 e8 bd 2e 53 41 be f1 d1 b5 bc 8d c9 85 bd
       -0.113320485 -0.18879387 -0.022194834 -0.065325834
000240 a0 f1 47 3e e0 5b 85 3e 00 be 1b be 3f d0 89 3e
       0.19525766 0.26046658 -0.15209198 0.26916692
000250 1e 5f 64 be a5 0e 9a be 78 9e 87 3e 45 fd be bd
       -0.2230191 -0.30089298 0.2648809 -0.09325651
000260 50 9b c4 be 4e 36 43 3e 32 12 db 3d b1 6b 19 3e
       -0.38399744 0.19063684 0.1069683 0.14982487
000270 d9 29 66 be 62 0f 91 be 51 59 84 be d7 7e 8a bc
       -0.22476901 -0.2833205 -0.25849393 -0.016906185
000280 8d a5 1e 3e 62 28 6d be 3e 40 9b 3d a8 44 c2 bc
       0.1549284 -0.23159936 0.075806126 -0.023714378
000290 bb d8 d5 bd 52 10 1d be 32 f8 ab 3d 22 92 1e bb
       -0.10441729 -0.15338257 0.08396949 -0.0024195989
0002a0 b6 0b 92 3d 72 ba 24 3e 87 84 72 bd 58 1c db 3c
       0.0713114 0.16086748 -0.05920842 0.026746914
0002b0 74 b5 1a be 53 1c b5 3b e2 ae 6d bd 92 1f 2c be
       -0.15108281 0.005527058 -0.05802811 -0.16808918
0002c0 d4 c4 17 3d 18 1f 0f bd 18 f9 fb bd df ab 3c be
       0.037052944 -0.034941763 -0.1230337 -0.18424939
0002d0 87 84 4d be 3f f2 1c bc 88 ec 4e be ac c7 2f bd
       -0.20070086 -0.00957924 -0.20207417 -0.04291503
0002e0 59 e1 13 3c 07 bb 30 3e dd 7c 1d be 09 44 04 3e
       0.009025895 0.17258845 -0.15379663 0.12916578
0002f0 3c c9 47 3e c1 f3 de 3d d3 94 33 3d 29 bb 20 bd
       0.19510359 0.10886336 0.0438431 -0.03924099
000300 d5 35 e8 bd 7d 3b 05 3e 02 58 89 3e 98 1a 70 3e
       -0.11338393 0.13010974 0.26824957 0.23447645
000310 fc 27 fb 3e ac aa 5e 3e 0f 57 a8 bd aa 63 37 3e
       0.49053943 0.21744794 -0.0821973 0.17909113
000320 fd 3c 8a be 6e 31 7a 3d 14 c8 17 3f 55 08 f2 3d
       -0.26999655 0.061082296 0.5928967 0.118179955
000330 6d 42 52 be 3a 17 35 be 6f 25 0e 3e 24 93 e0 bd
       -0.20533152 -0.17684641 0.13881467 -0.10965565
000340 1a b8 39 3d a4 ad 2e be 67 56 a4 be d9 f9 b5 bd
       0.04534159 -0.17058426 -0.3209717 -0.08885545
000350 a2 4f c6 bd 85 fa 09 bc 01 36 1e be a3 64 13 3e
       -0.096831575 -0.008421545 -0.15450288 0.14393859
000360 25 aa 25 bd 4f f7 0a be 53 fe 05 3e 57 d2 20 3e
       -0.040445466 -0.13570903 0.13085298 0.15705238
000370 ce 05 07 3f cf 10 fd 3d 28 2a 3d 3e 2d 55 d4 bc
       0.5274323 0.123567216 0.18473113 -0.025919521
000380 ba 59 94 3c 76 39 17 3e 65 20 7f be 14 71 a1 3e
       0.018109191 0.14768013 -0.24914701 0.31531584
000390 ce d6 9f 3d 5d b6 a6 be 75 65 87 3d 20 53 90 3e
       0.078046426 -0.32561007 0.06611148 0.2818842
0003a0 df fb 0e 3e e0 d1 5b 3e d8 66 68 be 76 f1 46 3e
       0.13963269 0.2146678 -0.22695482 0.19428048
0003b0 ee 51 e5 bc bd c6 a8 be 9b 3b 06 be f7 ca 82 3c
       -0.027993169 -0.32964125 -0.13108675 0.015965922
0003c0 1a 64 9f bc 2e 85 c0 be a4 eb 0d bf 0f 34 22 3e
       -0.019456912 -0.37601608 -0.55437684 0.15840171
0003d0 e4 08 37 3e ea 80 52 be 14 df 23 3e 4e 4c 93 3d
       0.17874485 -0.2055699 0.16003066 0.07192288
0003e0 f4 2e 95 be ce ab 4e 3e 24 e4 cc 3d e7 1c c7 3d
       -0.29137385 0.20182726 0.10004452 0.097223096
0003f0 05 4e 40 3e e1 b4 ab bd 9e 74 88 3e b6 92 b2 3e
       0.18779762 -0.08384109 0.26651472 0.34877557

model.dense1.bias f4 [16]
000000 b6 fe d5 bd 1a c2 2e 3e 30 4c 04 3e 7f fc 0c 3e
       -0.10448973 0.17066231 0.12919688 0.13768195
000010 8a 26 04 3e c7 2e 7d 3d 42 d8 4e 3e 72 8c 8d bc
       0.12905326 0.06181219 0.20199683 -0.017278884
000020 12 da 04 3e 43 3d 37 3e c7 45 cc 3e 89 08 ba 3d
       0.12973812 0.17894463 0.39896986 0.09083659
000030 b0 6c 8c 3e 41 53 b5 bd b3 3d 1f 3d 05 4d a0 3c
       0.27426672 -0.0885377 0.0388772 0.019567976

model.dense2.weight f4 [16, 16]
000000 44 be fb bd 8d 84 5d 3d 49 b6 a4 be f8 08 81 be
       -0.1229215 0.05408149 -0.32170323 -0.25202155
000010 68 aa f6 3e 2b 3d 44 be 75 31 05 3f f4 62 49 3e
       0.48176885 -0.19163959 0.5202859 0.19666654
000020 25 2d 7c 3d 1f 1c 87 3e a8 6b 6e 3e 51 8b 44 be
       0.06156649 0.26388642 0.23283255 -0.1919377
000030 c1 89 13 be 02 27 76 3e cd e0 a9 bd 9e bb 81 be
       -0.14408018 0.24038318 -0.082948305 -0.25338453
000040 ec b4 48 3e ed 89 ab bd 7c a5 57 be 49 30 94 3c
       0.19600266 -0.08375917 -0.21059221 0.01808943
000050 44 a4 da 3d 03 59 47 be 77 da 61 3e d8 cc 45 be
       0.106758624 -0.19467549 0.22055994 -0.19316423
000060 67 32 0d bc 0f 46 d1 bd b1 4a 1c 3e 56 36 39 3e
       -0.008617974 -0.10218441 0.15262868 0.18087134
000070 7e 05 c7 3d f9 18 17 be b9 62 d9 bd b2 08 eb bd
       0.097178444 -0.1475562 -0.10614533 -0.11476268
000080 30 5c cc 3c 70 cd 37 3e a8 28 8d be ff ab 90 be
       0.024946302 0.17949462 -0.2757008 -0.28256223
000090 37 c7 30 bd fb 9a 89 3d 9d cd 16 bd f6 05 a7 be
       -0.043158736 0.06719013 -0.03681718 -0.32621735
0000a0 52 48 c7 3d 6a b5 17 be eb 40 f6 3e fe bb f2 bd
       0.09730591 -0.14815298 0.48096403 -0.11852263
0000b0 69 78 12 3f 24 fd 27 3e a6 7b 67 3e 11 81 42 3e
       0.5721498 0.16405159 0.22605762 0.18994547
0000c0 30 79 0d be a7 c1 42 be 72 c0 e5 3e e2 aa 5d 3e
       -0.1381576 -0.19019185 0.44873387 0.21647218
0000d0 8e ae f2 3e 87 17 80 be 31 1f f6 bd 86 14 f2 3e
       0.473988 -0.2501795 -0.12017668 0.47281283
0000e0 c9 e3 41 be 66 93 bf bd 68 25 2b 3e ab 65 35 bc
       -0.1893455 -0.09354286 0.16713488 -0.011071603
0000f0 25 12 99 3e dc ea 95 3d 8c 2b b5 3e 5c 15 07 3e
       0.29896656 0.073201865 0.35384786 0.13191742
000100 e8 f0 0e bd ab 8c 70 be 0b 25 bf 3e 4b e6 bd 3d
       -0.034897715 -0.2349116 0.3733295 0.092724405
000110 74 03 10 be 72 d4 a8 be 49 c5 9f be 4c eb 07 be
       -0.14063817 -0.32974583 -0.31205204 -0.13273352
000120 4e c7 d0 3e 5a 45 9d bd 83 f9 a6 3e f1 43 b6 3e
       0.40777057 -0.076792434 0.32612237 0.3559871
000130 e7 51 bd bd 5f 50 68 3d af 91 ce 3e 7e 47 87 be
       -0.09244137 0.056717273 0.40345523 -0.26421732
000140 04 06 0d be ea ad 2c be 59 47 2c 3e 38 f7 99 3a
       -0.13771826 -0.16863218 0.16824092 0.001174665
000150 c6 3c 67 be da 3a d7 bd db 80 f4 bd 16 29 68 3e
       -0.22581777 -0.10509272 -0.1193864 0.22671923
000160 82 0f 30 be 99 de 90 bd f4 f6 8b 3d e1 e9 d2 3c
       -0.17193416 -0.07073707 0.06834212 0.025746288
000170 cb 44 80 3e ef a0 fe 3d c2 2d b8 bd 49 02 aa 3d
       0.25052485 0.124330394 -0.089931026 0.08301217
000180 be cc 61 be 20 af ee 3e ed 79 c2 3e 44 1a 93 3d
       -0.22050759 0.46617985 0.37983647 0.07182744
000190 10 72 39 be ac 39 b5 bd c9 83 98 be 4e 6a 9c 3d
       -0.18109918 -0.08848891 -0.29788044 0.076374635
0001a0 ac 32 9e be e8 03 d2 bd 06 2a 51 3e af db 90 bd
       -0.30898035 -0.10254651 0.20426187 -0.07073151
0001b0 a8 1d 7d be 0e 6d cd 3e 01 30 89 bc a2 ee 3c be
       -0.24718344 0.40122265 -0.016746523 -0.18450406
0001c0 ae 39 2c 3e 53 53 74 be 15 b2 6f 3d 3c 29 0b 3e
       0.16818878 -0.2385991 0.05851944 0.13589948
0001d0 d7 91 6d be 05 36 17 be 80 6f 31 3e 83 81 1f 3e
       -0.23200165 -0.147667 0.1732769 0.15576749
0001e0 2e fa c5 3e 16 d2 f0 3e b0 ce f5 bc a4 59 02 bd
       0.38667434 0.47035283 -0.030005783 -0.03182377
0001f0 28 a7 bf 3e 2a 06 10 3e ac c1 89 be e2 3a 71 be
       0.37432218 0.14064851 -0.26905572 -0.23557618
000200 c8 53 ae 3d da f7 43 bd 4c bf aa 3d 50 f7 98 bd
       0.08512074 -0.04784379 0.08337268 -0.07469046
000210 18 c0 a0 3d 90 50 65 be f0 b8 83 be 6e 9b 95 3d
       0.07849139 -0.22394013 -0.25727034 0.073050365
000220 46 87 ac 3d 46 96 70 3e 7d dd 59 be 09 b8 85 bd
       0.08424239 0.23494825 -0.21275897 -0.065292425
000230 2a 82 02 be 6e 8d a9 bd f8 4a 67 3d 9c 25 74 be
       -0.12744966 -0.08278929 0.05646798 -0.23842472
000240 16 cc 68 be 51 d8 93 3d 3f 25 38 3e 07 77 b7 3e
       -0.22734103 0.072189935 0.17982958 0.35832998
000250 71 e9 b8 be d2 16 24 be 0d b0 1e 3e ce 5f 5b be
       -0.36115602 -0.1602433 0.15496846 -0.21423265
000260 4f 2c 7d be 0b cc cc 3e d9 8c 12 be b6 3b 70 3e
       -0.24723934 0.39999422 -0.14311542 0.23460278
000270 b6 dc 86 be 88 8f 96 3e 16 ef ee bd 22 e8 bb be
       -0.26340264 0.2940638 -0.11666696 -0.3670054
000280 38 d2 0d 3d 1d 95 1e 3d 9d 81 20 be 65 be d7 3e
       0.03462431 0.038716424 -0.15674444 0.42137447
000290 14 8a 9f 3e d5 fd 6a be d1 17 c9 3c 56 2b 8b bd
       0.31160033 -0.22948392 0.02454749 -0.06795375
0002a0 42 cb cb 3e 59 7b 46 be 93 d5 c4 bd 0b 29 1e be
       0.3980351 -0.19382991 -0.096110485 -0.15445344
0002b0 99 cc 69 be 14 d4 89 3d 2a 6f 3b 3e 05 09 21 be
       -0.22831954 0.06729904 0.18304124 -0.15726097
0002c0 c6 25 0b 3e ee f1 fa 3d 39 25 bc 3d 00 cb 0f be
       0.13588628 0.12253176 0.09186787 -0.14042282
0002d0 22 ba c7 3e e8 49 71 3e ce 86 84 3e 36 62 b3 3d
       0.39009196 0.23563349 0.25884098 0.087589666
0002e0 28 49 0c be 9f af bb 3e db 1a d3 bc 4c 91 e5 be
       -0.13699782 0.36657426 -0.025769642 -0.44837415
0002f0 ca 9b c8 bd 5a e6 92 3d f2 91 89 bd 71 8c a8 bd
       -0.097953394 0.07172842 -0.0671729 -0.08229912
000300 34 da 98 3d b7 00 97 be 39 5d 4b 3e 5c 20 bc 3e
       0.07463494 -0.29492733 0.1985978 0.36743438
000310 98 98 d0 3e 12 ab 98 3e e2 32 95 3e b2 dd 24 3e
       0.4074142 0.29818016 0.29140383 0.16100195
000320 91 06 02 be 31 74 ae 3d 49 bf 08 3e 36 e0 86 be
       -0.12697817 0.085182555 0.1335422 -0.26342934
000330 0a d6 9b 3e 04 a8 0e be bd d7 43 bd f6 1a 04 3f
       0.30436736 -0.1393128 -0.047813166 0.5160364
000340 96 97 5d 3e de df 0a 3e 43 97 14 bd 00 55 b4 3e
       0.21639857 0.13561961 -0.036277067 0.352211
000350 6f 80 bd 3a 4f 90 b7 3d 80 86 1d 3d ca 03 95 3e
       0.0014457832 0.089630716 0.038458347 0.29104453
000360 1b f5 b3 3e bb 61 c2 3e 69 6c 9d bd 85 64 ab be
       0.35147938 0.37965187 -0.07686693 -0.33475128
000370 77 f4 c8 be 1c e1 90 bd 80 1d 15 be b1 5d d9 3c
       -0.39249012 -0.07074186 -0.14562035 0.026533933
000380 9c 97 f2 3d 9b f5 b1 3d 49 a1 33 be a5 c2 1d be
       0.118453234 0.08689424 -0.17541994 -0.15406282
000390 32 8f a8 3d c6 3c 75 be de 98 15 3e 03 17 4b 3e
       0.08230437 -0.23948964 0.14609095 0.19832997
0003a0 15 d2 1d bd 08 9a 3a be f4 bb b2 bd 28 39 2d 3d
       -0.038530428 -0.18222821 -0.087272555 0.042290837
0003b0 63 a8 43 be a7 28 3b be e8 f6 9e 3d 9c 74 1b 3e
       -0.19107203 -0.18277226 0.077619374 0.15181202
0003c0 88 68 59 3e 26 28 76 3e ce 5a 5d be f9 8b 8c 3e
       0.21231282 0.24038753 -0.2161667 0.2745054
0003d0 62 e7 95 3e 22 53 f3 b9 7e e0 14 3e ab 66 c5 be
       0.29278094 -0.0004641051 0.14538762 -0.38554892
0003e0 56 b5 05 be 8a 5e 00 3d 26 dc af 3e cc bc e1 3e
       -0.13057455 0.03134016 0.34347647 0.44089353
0003f0 e3 20 a0 bd 3a 06 71 be f9 9b 13 be 96 4b 8c 3e
       -0.07818773 -0.23537531 -0.14414968 0.27401417

model.dense2.bias f4 [16]
000000 0a 28 80 bd a9 2a dc bd 5a c9 c7 3e fa 2a 69 3d
       -0.06257637 -0.10750324 0.39020807 0.05692575
000010 54 0e 0b 3d d9 e9 29 be 33 cd 56 3e 79 13 88 be
       0.03394921 -0.16593112 0.20976715 -0.26577356
000020 f3 01 7c be 92 76 cb 3d 84 9c 0d 3e 7c 41 ca 3d
       -0.24610119 0.09934725 0.13829237 0.098757714
000030 dd ab b5 3e 78 d7 b5 3e 08 cb 3a be f1 e5 82 3e
       0.35482684 0.35515952 -0.18241513 0.25566056

model.output.weight f4 [10, 16]
000000 07 32 25 3e 35 ff 9b bd 27 72 70 3e 0e 80 dc be
       0.16132365 -0.07617036 0.23481046 -0.43066448
000010 b3 ef 00 bf 0e 79 81 3b 5d 1d ac 3d 9f a5 0b 3e
       -0.5036575 0.0039511984 0.08404038 0.13637398
000020 38 94 7f 3d 97 83 b0 3e 95 9d 81 be a4 05 97 bb
       0.06239721 0.34475395 -0.25315538 -0.0046088267
000030 fa f6 6f be 15 0e 14 bf 98 81 86 bd b8 23 90 3e
       -0.23434058 -0.5783399 -0.06567687 0.2815225
000040 b3 8b b5 bd c5 16 19 3e d1 e0 19 bf a4 88 ac 3e
       -0.08864536 0.14950092 -0.6010867 0.33698
000050 6a 3a f4 3c db a9 de 3d c7 35 7f be 04 f7 d3 be
       0.02981301 0.10872241 -0.24922858 -0.41399395
000060 5c 29 36 3e b0 52 46 be a5 7c bf 3e 4e f3 32 be
       0.17789215 -0.1936748 0.37399784 -0.17475626
000070 a3 9c bc 3e 27 4e ab bd d3 1a 30 3e d9 f1 75 3e
       0.36838254 -0.08364516 0.17197733 0.24018039
000080 32 36 a6 be 51 b5 1b 3e 19 a9 84 bd db 72 b1 be
       -0.32463223 0.15205885 -0.06477565 -0.3465794
000090 10 c8 a5 be 81 ed 02 3d 18 f6 49 3e df 52 18 bd
       -0.32379198 0.031964783 0.19722784 -0.037188407
0000a0 91 77 4d be 21 73 ab 3e eb e1 c0 3e a7 6d 8b bb
       -0.20065142 0.33486274 0.37672362 -0.004255015
0000b0 25 b9 25 bd 43 e6 16 3e cc be 3d bd 4b 02 5a 3e
       -0.04045977 0.14736275 -0.046324536 0.21289937
0000c0 34 15 ac be 2e 8d 28 be 91 25 b4 3d 88 08 43 be
       -0.33609927 -0.16460106 0.08796228 -0.19046223
0000d0 b3 cb de 3e 22 f6 64 be d9 a6 9f 3e 9b 25 b4 be
       0.43514785 -0.22359517 0.31181982 -0.3518494
0000e0 d5 e5 0f 3d 50 f6 e7 3d 7b 86 1f be c8 44 d0 bd
       0.035131294 0.11326277 -0.15578644 -0.10169369
0000f0 4f d7 a6 be d4 6a 15 be 59 d7 5f 3e 36 64 d2 3c
       -0.32586142 -0.14591533 0.21859492 0.02568255
000100 8a 8e 3f 3e 13 71 86 be 6b d2 4a be e0 76 9d be
       0.18706718 -0.26258144 -0.1980683 -0.30754757
000110 62 b4 f1 be 33 bf af be d8 11 87 be 30 17 91 3e
       -0.47207934 -0.3432556 -0.263808 0.28338003
000120 87 ae 21 3c 37 90 d2 bc 47 da 9e bd e3 5d b5 3e
       0.009868271 -0.025703533 -0.07756477 0.35423192
000130 d9 28 7b 3e bb f1 ee 3e 13 fe 67 be bb 7b 52 be
       0.24527301 0.466688 -0.22655515 -0.20555012
000140 ca e5 3d be 2f a5 a6 be 18 25 8b 3e 64 93 3b 3e
       -0.18544689 -0.325479 0.27176738 0.18317944
000150 bd 29 28 be ee a2 5a 3e b3 81 8d 3e e0 64 87 bb
       -0.16422172 0.21351215 0.27638015 -0.0041318983
000160 c5 81 1f 3e 57 f8 38 3d e2 a6 44 bf 4a ee 7c be
       0.15576847 0.04515871 -0.7681714 -0.24700275
000170 ed 30 63 3e 49 bb de be 9b 75 48 3e d8 e9 a4 bd
       0.22186632 -0.43502262 0.19576113 -0.08052415
000180 29 fb 9a 3e 9c c9 c6 be b0 e0 59 3e 66 c9 02 be
       0.30269745 -0.3882569 0.21277118 -0.1277214
000190 cc 6e 0f bf 95 5f 65 bd d2 5c 8e 3e d2 f0 b1 be
       -0.5602844 -0.055999357 0.2780519 -0.34754044
0001a0 f5 5e c5 3d 2c c8 05 3e ce b1 4a 3e 48 eb df 3e
       0.09637252 0.13064641 0.1979439 0.43734193
0001b0 14 18 db be 57 86 a9 3d 90 ec 74 bd f1 12 13 bf
       -0.42791808 0.082775764 -0.059795916 -0.5745078
0001c0 67 53 c8 bd b1 9c 96 3d b1 1e fb 3e 95 69 03 3e
       -0.09781533 0.07354105 0.49046853 0.12833245
0001d0 80 b7 5a 3d 35 e9 9e be b3 3e b5 be 66 3c 95 3d
       0.053397655 -0.31037298 -0.35399398 0.07286911
0001e0 7e 97 ab 3d 97 bc d1 be 23 fa 84 3e c8 a2 00 3e
       0.08378504 -0.40964195 0.2597209 0.12562096
0001f0 bf fb d7 3c f4 d1 b2 be e5 eb 09 bd a7 1f 3d be
       0.02636516 -0.34925807 -0.033672232 -0.18469106
000200 de 9e 0a be 46 49 3d 3e 85 87 ca be f7 64 46 3e
       -0.13537166 0.18484983 -0.39556518 0.19374453
000210 77 d1 1a bc 92 b5 2f bd d8 91 70 3e 73 5c 94 3e
       -0.009449354 -0.04289777 0.23493135 0.28976783
000220 c7 00 9b 3d 6e 26 66 3e 1e 7f 51 bd a7 66 1a be
       0.07568508 0.22475597 -0.05114662 -0.15078221
000230 3d 98 61 be 07 cf 1b be 89 8d 5d be ae d6 fd be
       -0.2203073 -0.15215693 -0.21636023 -0.4957785
000240 0b 1e 71 3e 8f 93 84 be 96 21 a4 bd ef d7 3b be
       0.23546617 -0.25893828 -0.080142185 -0.18344091
000250 f2 e4 b0 3d ae b9 5b be c3 20 cc be 41 3f 8c 3e
       0.08637418 -0.2145755 -0.39868745 0.2739201
000260 ed ab f4 3c 71 31 0e 3d 1f 99 33 3e 72 35 b1 be
       0.029867137 0.03471512 0.1753888 -0.34611088
000270 b8 f1 bf bd 9e 28 1c 3e a8 69 6c be 35 1f cc 3c
       -0.09372276 0.15249869 -0.2308718 0.024917224

model.output.bias f4 [10]
000000 20 b1 cc bd 9d 91 09 3e 0a 6d 42 3e 03 7e 13 3e
       -0.099947214 0.13434453 0.18986908 0.14403538
000010 b4 9e f5 bb bc 36 de 3e 12 5d 69 be ef bc 7c bd
       -0.0074957255 0.43401134 -0.2278941 -0.06170362
000020 42 db 6b be 45 d1 7f be
       -0.23032859 -0.24982174
