Models/model_optRMSprop_ep5_neu64_lay3_acc0.9176.pth (torch, 217748 bytes, 10 tensors)

model.input.weight f4 [64, 784]
0	0xbb4d63e0	-0.0031340048
1	0x3c389114	0.011265058
2	0x3d11e2c3	0.035616647
3	0x3c870894	0.016483583
4	0xbd030d1e	-0.03199493
5	0xbcb8b7ea	-0.022548635
6	0x3d0f05c7	0.03491762
7	0x36ea4000	6.981194e-06
8	0x3ca7c260	0.020478427
9	0x3ca73996	0.020413201
10	0x3a842200	0.0010080934
11	0xbcfd2383	-0.030900722
12	0x3c813ab7	0.015775068
13	0xbc8c4aa9	-0.017125444
14	0x3bb19bf3	0.005420202
15	0xbd1626e7	-0.036658194
16	0xbbf97a54	-0.0076134596
17	0xbc844e67	-0.016150666
18	0xbbb506f8	-0.0055245124
19	0x3b9ede58	0.004848283
20	0x3cd0a68a	0.025470037
21	0xbc3f338e	-0.011670006
22	0x3d0680f5	0.032837827
23	0x3ccb8b4c	0.024846695
24	0x3d0f873f	0.03504109
25	0xbafda740	-0.0019352213
26	0x3d1074e7	0.035267737
27	0xbccd4880	-0.025058985
28	0xbc8f3eb5	-0.017485956
29	0x3cafd0fc	0.021461956
30	0xbcf1260c	-0.029437087
31	0x3c3641b0	0.01112406
32	0x3c9fc4da	0.019503046
33	0xbbcbaf3d	-0.0062159584
34	0x3db93038	0.090424
35	0x3dd10bf1	0.10207356
36	0x3dbcb6f3	0.09214582
37	0x3df9279c	0.12165758
38	0x3d97231c	0.073797435
39	0x3e0bdc58	0.13658273
40	0x3da3f65e	0.08005975
41	0x3dacee07	0.084438376
42	0x3d12ddb3	0.03585596
43	0x3dacc866	0.084366605
44	0x3cb1d390	0.021707326
45	0x3dc2c336	0.0950989
46	0x3cc4d114	0.024025477
47	0x3d53d57b	0.051717263
48	0x3cd4e516	0.025988143
49	0xbd09d13b	-0.033646803
50	0xbbfb0cfa	-0.007661459
51	0x3d344be0	0.044017673
52	0x3c0a0f04	0.008426432
53	0x3ce6a196	0.028153222
54	0xbc28f08e	-0.010311259
55	0xbc20cc72	-0.009814369
56	0x391ca800	0.00014939904
57	0x3bb0e438	0.0053982995
58	0xbccaa34e	-0.024736073
59	0x3cfcd362	0.030862514
60	0x3c3c119c	0.011478808
61	0x3d3335d5	0.04375251
62	0x3d20d90a	0.039269485
63	0x3dfdaeec	0.12386879
64	0x3e2a9e92	0.16662052
65	0x3dc643e4	0.09680918
66	0x3cf0afdb	0.02938073
67	0x3e146b49	0.14494051
68	0x3dee04ac	0.11621985
69	0x3ddfe6c3	0.10932686
70	0x3e09dcc7	0.13463126
71	0x3e1740d8	0.1477083
72	0x3e5ba96c	0.21451348
73	0x3e18ae26	0.14910182
74	0x3df942ca	0.12170942
75	0x3e003879	0.12521543
76	0x3d44225b	0.047884326
77	0x3c8d44b8	0.017244682
78	0x3d3b09d0	0.045663655
79	0x3d7a9bab	0.061183613
80	0x3ce8ecc4	0.028433211
81	0xbcfd417e	-0.030915018
82	0x3cd580ca	0.026062388
83	0x3d0f0355	0.034915287
84	0x3cfb303e	0.030662652
85	0xbc78bea6	-0.015182173
86	0xbc5bd372	-0.013417112
87	0x3d098959	0.03357825
88	0x3d2d4e1e	0.042310826
89	0x3c961768	0.018321708
90	0x3d8c7295	0.06857792
91	0x3d5daf77	0.054122414
92	0x3d7d1021	0.06178296
93	0x3da23310	0.07919896
94	0x3dbd5e99	0.09246559
95	0x3df398a9	0.11894352
96	0x3d74227b	0.059603196
97	0x3d2b1b0c	0.04177384
98	0x3a462656	0.0007558813
99	0x3ccb333f	0.02480471
100	0x3d2c4dab	0.042066257
101	0xbd8c22c9	-0.06842572
102	0xbdba50b9	-0.09097428
103	0xbdcbc97c	-0.099505395
104	0xbd9253ab	-0.07144865
105	0xbd98adc5	-0.07455019
106	0xbd48c989	-0.049020324
107	0xbd889b42	-0.06670238
108	0xbd3ea7cb	-0.04654674
109	0xbc11dff8	-0.008903496
110	0x3d0cee09	0.034406696
111	0xbcb5b368	-0.022180274
112	0x3ca8999c	0.02058106
113	0xbd089cd3	-0.033352684
114	0x3c938082	0.018005613
115	0x3c82694f	0.015919356
116	0xbdac8b9f	-0.08425068
117	0xbbef8d71	-0.0073105623
118	0x3d77e4c7	0.060520913
119	0x3d2f698e	0.042825274
120	0x3d37450c	0.044743583
121	0x3d967024	0.07345608
122	0x3dca1d45	0.09868864
123	0x3e206497	0.15663372
124	0x3e19370d	0.14962406
125	0x3dd8dd44	0.10589078
126	0x3d39501f	0.045242425
127	0x3d448019	0.047973726
128	0xbc8a1788	-0.016856924
129	0x3d485c18	0.048915952
130	0xbc2249b3	-0.009905267
131	0xbd70854e	-0.05872088
132	0xbda4f33e	-0.08054207
133	0xbdc68ed1	-0.09695209
134	0xbd5dd72a	-0.054160275
135	0xbddce27a	-0.107853845
136	0xbdddcc74	-0.10830012
137	0xbb100b81	-0.0021979513
138	0x3d73252c	0.05936162
139	0x3c6331c4	0.0138668455
140	0xbc2c701c	-0.010524776
141	0xbcc10d70	-0.023565978
142	0x3be63929	0.007025857
143	0xbc0b45d3	-0.008500534
144	0xbda7f8d9	-0.08201761
145	0xbde28035	-0.1105961
146	0x3c26aba9	0.010172763
147	0x3d86d4fb	0.065835916
148	0x3d500ba0	0.050792336
149	0x3d54d086	0.051956676
150	0x3dae269b	0.08503457
151	0x3dec7b21	0.115469225
152	0x3d918f3d	0.07107399
153	0x3d9bfc32	0.07616462
154	0x3a960d1e	0.0011448001
155	0x3cedc8b5	0.029026369
156	0x3d2c4c08	0.042064697
157	0x3d00faac	0.03148906
158	0xba84fdda	-0.0010146454
159	0x3b90bdf2	0.0044171745
160	0xbcfdfe53	-0.03100506
161	0xbdaeffc7	-0.085448794
162	0xbdf20032	-0.118164435
163	0xbde1cb45	-0.11025099
164	0xbdd56c06	-0.104209945
165	0xbd14a7d8	-0.03629288
166	0xbbee220d	-0.0072672428
167	0x3b1bc246	0.002376692
168	0xbcc076ae	-0.02349409
169	0xbc39566a	-0.011312107
170	0x3c51f6d4	0.012815196
171	0xbdc444e7	-0.095834546
172	0xbdd3f223	-0.10348918
173	0x3c9bb500	0.019007206
174	0x3d7ead2a	0.06217686
175	0x3d9d75c4	0.07688478
176	0x3d2c92c1	0.042132143
177	0x3d71a365	0.058993716
178	0x3dc14146	0.09436278
179	0x3dbe7e81	0.093014725
180	0x3d8d290e	0.06892596
181	0xbc3b9d2b	-0.011451046
182	0x3d043a1c	0.03228198
183	0xbc9b6ad5	-0.01897184
184	0x3c62e400	0.013848305
185	0xbc702ba9	-0.014658847
186	0x3d81b917	0.06334131
187	0xba99c7ad	-0.0011732482
188	0xbd7ce0ff	-0.06173801
189	0xbd34187b	-0.04396866
190	0xbd78f087	-0.06077626
191	0xbd9590a7	-0.07302981
192	0xbe1572de	-0.145946
193	0xbd4c0036	-0.04980489
194	0x3c516291	0.012779848
195	0xbcb46787	-0.022022022
196	0xbbdb0078	-0.0066834055
197	0x3d51e4fc	0.051243767
198	0x3c5d9e41	0.0135265
199	0xbda57a4e	-0.080799684
200	0xbdffa36e	-0.124823436
201	0x3d21f4c1	0.039540056
202	0x3d93a06e	0.07208334
203	0x3da1e750	0.079054475
204	0x3bf90cb9	0.0076003936
205	0x3de7826a	0.113041714
206	0x3debf6f5	0.11521713
207	0x3dbcf21e	0.09225868
208	0xbc66705c	-0.0140648745
209	0xbd85bba5	-0.06529931
210	0xbce2cb5c	-0.02768486
211	0xbcd6556a	-0.026163775
212	0x3d8116c4	0.0630317
213	0x3d2bf5ed	0.04198258
214	0x3b94a24f	0.0045359503
215	0xbd65baf6	-0.056086503
216	0x3c0f8ee9	0.0087621
217	0xbcae8731	-0.021304699
218	0xbd8f36e9	-0.06992895
219	0xbc9d7e71	-0.019225331
220	0xbdbce221	-0.09222818
221	0xbd67dca8	-0.05660692
222	0xbc0f539a	-0.0087479595
223	0x3c33cbfb	0.010973926
224	0xbb48ca80	-0.0030638278
225	0xbc1be8fa	-0.009515995
226	0x3d6a3e2b	0.057188194
227	0xbdc338a8	-0.09532291
228	0xbdd17c89	-0.10228831
229	0x3d66dd0f	0.05636316
230	0x3d3e8697	0.046515074
231	0xbca7842b	-0.020448765
232	0x3d09924c	0.033586785
233	0x3d56f3d1	0.052478615
234	0x3e064147	0.13110839
235	0x3d34e4be	0.044163458
236	0xbd2ff39c	-0.042956933
237	0xbd8c1e71	-0.06841744
238	0xbd380f10	-0.04493624
239	0x3c0b70ae	0.008510752
240	0xbd946e02	-0.07247545
241	0xbd9f5dd0	-0.07781565
242	0xbd5bdb9d	-0.053676236
243	0xbdccd537	-0.10001605
244	0xbcd8a8e1	-0.026447715
245	0xbd295fa8	-0.04135099
246	0xbd3e011d	-0.04638778
247	0x3c0ce989	0.008600601
248	0x3c074225	0.008255516
249	0xbcf9849e	-0.030458745
250	0x3d09277d	0.033484925
251	0x3d2eb971	0.04265732
252	0xbceea59a	-0.0291317
253	0x3d07f531	0.033192817
254	0x3e2a88a1	0.16653682
255	0xbd91e1c2	-0.07123138

model.input.bias f4 [64]
0	0x3d682267	0.056673434
1	0x3d8018b7	0.06254714
2	0x3d8d0ded	0.06887422
3	0x3cb80d8b	0.022467395
4	0x3c880897	0.016605658
5	0x3be9f19d	0.0071393983
6	0xbc7041b2	-0.0146641005
7	0x3cfbfd53	0.030760443
8	0x3dc72a58	0.09724873
9	0x3cab2bc2	0.020894889
10	0x3bce68f0	0.0062991306
11	0x3d5e77e6	0.054313563
12	0x3d914a1b	0.070942126
13	0xbb7be2a1	-0.0038434642
14	0x3d72491c	0.059151754
15	0x3b723edf	0.0036963744
16	0x3c00aedc	0.00785419
17	0x3d3c8dfe	0.04603385
18	0xbd2d3e11	-0.04229552
19	0xbb19c3f1	-0.0023462737
20	0x3d8b09c8	0.06788975
21	0x3d8abcf1	0.06774319
22	0x3e1a57ba	0.15072528
23	0x3ad6ed63	0.0016397651
24	0x3e0ccdd8	0.13750398
25	0x3bbc4d12	0.005746492
26	0x3d1ec40b	0.03876118
27	0x3c97dd1e	0.018538054
28	0xbc40e77e	-0.011773942
29	0x3e718e18	0.2358936
30	0x3cfdf9ea	0.031002957
31	0xbc80d552	-0.015726719
32	0x3d836d6f	0.06417357
33	0xbcf6020a	-0.03003027
34	0x3da29f32	0.0794052
35	0x3d482f73	0.048873376
36	0xbbdc1c61	-0.00671725
37	0x3d5665a2	0.05234302
38	0x3c1c50a7	0.009540713
39	0x3d1e588c	0.038658664
40	0x3db2a370	0.087225795
41	0x3d3e9e9f	0.04653799
42	0x3d877430	0.06613958
43	0xbc9e0b43	-0.01929248
44	0x3d4c04a6	0.04980912
45	0x3c78bbc5	0.0151814865
46	0x3d754a7b	0.059885483
47	0xbd325d93	-0.04354627
48	0x3ba2e3c7	0.004971001
49	0x3dba394f	0.09092962
50	0xbd33081c	-0.043708906
51	0x3d935adc	0.071950644
52	0x3dbfe34a	0.09369524
53	0xbd1ac0a6	-0.03778138
54	0x3dadd452	0.084877625
55	0x3dbfcc71	0.09365166
56	0xbd606835	-0.05478688
57	0x39d69cc3	0.00040934057
58	0x3d633ef9	0.055479977
59	0x3b9fe51a	0.004879606
60	0x3b9c352f	0.004767082
61	0xbd059bb7	-0.032619204
62	0xbd1d74c3	-0.03844143
63	0xbd0117df	-0.031516906

model.dense1.weight f4 [32, 64]
0	0x3e206de5	0.15666921
1	0xbdb60d6d	-0.088892795
2	0xbe5ae336	-0.21375737
3	0xbe0713cb	-0.13191144
4	0x3da7aae0	0.08186889
5	0xbd128396	-0.03577002
6	0x3d4f45f0	0.050603807
7	0xbe8323c7	-0.25613233
8	0x3d6ba6a3	0.057531964
9	0xbd647f36	-0.05578538
10	0xbdc5d97c	-0.096606225
11	0x3de4adf4	0.111659914
12	0xbca483a8	-0.02008231
13	0xbe6d71d2	-0.2318795
14	0x3a74bd1e	0.0009336042
15	0xbe79ff67	-0.24413835
16	0x3e3305c3	0.17482667
17	0x3dd8b888	0.105820715
18	0x3d28e8a9	0.041237507
19	0xbbed11b1	-0.007234775
20	0xbe1c99ca	-0.15293041
21	0xbe3472b8	-0.17621887
22	0xbe2c2328	-0.16810286
23	0x3e04131d	0.12897916
24	0xb86e0835	-5.6751265e-05
25	0x3d395037	0.045242514
26	0x3d1e6ee7	0.038679983
27	0x3d873ceb	0.06603416
28	0xbcecd7fc	-0.028911583
29	0xbd90e258	-0.07074422
30	0xbdb9f67f	-0.090802185
31	0xbe592a7a	-0.2120761
32	0xbd56acb9	-0.052410815
33	0x3cd7b0fd	0.026329512
34	0x3d2021e8	0.039094836
35	0xbe83c1c0	-0.25733757
36	0x3dc0b873	0.09410181
37	0xbcc4121f	-0.023934422
38	0xbd22b9f1	-0.03972811
39	0x3ddebeb2	0.10876216
40	0xbd475999	-0.04866943
41	0xbe3ec371	-0.18629242
42	0xbe097950	-0.13425183
43	0xbc72aed6	-0.014812192
44	0x3dfb1bca	0.1226116
45	0x3d504baa	0.05085341
46	0xbe406d2b	-0.18791644
47	0xbe91264e	-0.28349537
48	0x3d903706	0.07041745
49	0xbda679c7	-0.08128696
50	0xbcc97e5e	-0.02459639
51	0xbc24d1d3	-0.010059792
52	0xbd9738a0	-0.07383847
53	0xbe46d53e	-0.19417283
54	0x3dcbb5c3	0.09946778
55	0x3e1d5313	0.15363722
56	0xbdd607bd	-0.10450695
57	0x3d422aec	0.047404215
58	0x3de08961	0.10963703
59	0x3d0707e2	0.032966502
60	0xbd85e411	-0.06537641
61	0xbd293f8c	-0.04132037
62	0x3dd9b19a	0.10629578
63	0x3d0eae5e	0.03483426
64	0x3eb1ca10	0.34724474
65	0xbe11eca1	-0.14250423
66	0xbd439b05	-0.04775526
67	0x3e8e8ba8	0.27840924
68	0x3e15cb84	0.14628416
69	0xbe8cc938	-0.27497268
70	0x3d5f1386	0.05446198
71	0xbeb068ca	-0.34454948
72	0x3d3a366c	0.045462057
73	0x3e42bd76	0.19017586
74	0x3e1d8b83	0.15385251
75	0xbda4530d	-0.08023653
76	0x3dd2db9c	0.102957934
77	0x3e17a139	0.14807595
78	0x3ea73f1e	0.32665342
79	0x3daf71ac	0.08566603
80	0xbbc850c6	-0.0061131446
81	0x3d5c8bc7	0.05384424
82	0xbdcba2cc	-0.099431604
83	0x3d5da0ae	0.054108314
84	0xbe8521b4	-0.26002276
85	0xbda88b3c	-0.08229682
86	0x3e2bcd9c	0.16777653
87	0xbddd3cc1	-0.108026035
88	0x3e16ef6f	0.14739774
89	0xbd95ebb1	-0.07320345
90	0x3ea98f6a	0.3311723
91	0x3b7caaba	0.003855391
92	0xbdcc5198	-0.099765
93	0x3c8581a2	0.016297165
94	0x3dd31847	0.10307365
95	0x3e06b398	0.13154447
96	0xbd89c15e	-0.06726335
97	0xbd926d3a	-0.071497396
98	0x3dffd23e	0.124912724
99	0x3e16db2d	0.14732046
100	0xbd988d45	-0.0744882
101	0x3e147d7b	0.14500992
102	0xbc005cab	-0.007834594
103	0x3de9341a	0.11386891
104	0x3dfb0fa6	0.12258844
105	0xbcf3a7ff	-0.029743193
106	0xbdb428db	-0.08796855
107	0xbe4aae0a	-0.19792953
108	0xbd067772	-0.032828756
109	0x3e31b141	0.17352773
110	0xbb10fda7	-0.0022123845
111	0xbdb8c7f2	-0.090225115
112	0x3d02e18f	0.03195339
113	0x3e24d2e3	0.16096072
114	0x3d08a1a1	0.033357266
115	0xbe1759ec	-0.14780396
116	0x3e66f3de	0.22553965
117	0xbe874d53	-0.2642618
118	0x3d8dabb7	0.06917518
119	0x3c08ebce	0.0083570015
120	0x3e2664f6	0.16249451
121	0x3d7b3162	0.061326392
122	0x3e270e64	0.16314083
123	0xbe18231d	-0.14857145
124	0x3dee1a83	0.116261505
125	0x3c680f36	0.014163783
126	0xbbb0639d	-0.0053829686
127	0xbdc04d66	-0.093897626
128	0xbe2544ba	-0.16139498
129	0x3e25cdb2	0.16191748
130	0x3df61aef	0.12016856
131	0xbc2a109d	-0.0103799375
132	0x3c867e31	0.016417595
133	0x3e88aa3a	0.26692373
134	0x3bb68ee2	0.005571232
135	0x3e5d8a1f	0.2163472
136	0xbd532c78	-0.05155608
137	0xbd894751	-0.06703056
138	0x3a6e835e	0.0009098555
139	0xbe0872ea	-0.13325086
140	0xbda9b630	-0.08286703
141	0xbc7ba7ba	-0.015359813
142	0xbdcdf366	-0.1005619
143	0x3e8b90ee	0.2725901
144	0x3ce48b55	0.02789847
145	0xbe38e6d0	-0.18056798
146	0x3c15d9b7	0.009146146
147	0x3e03f73e	0.12887284
148	0x3e81a084	0.25317776
149	0x3e2717a9	0.1631762
150	0xbbbd4fb0	-0.0057773218
151	0x3d834fc4	0.064116985
152	0xbd836d60	-0.06417346
153	0x3da62b7f	0.08113765
154	0xbe52d845	-0.20590313
155	0x3e328549	0.17433657
156	0xbd507b59	-0.050898883
157	0x3dab4f20	0.08364701
158	0x3d0fa99e	0.03507387
159	0x3e13497e	0.14383504
160	0x3e068530	0.13136744
161	0x3d85944e	0.065224275
162	0x3c8a8cdd	0.016912872
163	0xbe9b5ace	-0.30342716
164	0xbd03d8fc	-0.032189354
165	0xbd4b91bd	-0.049699534
166	0x3e1dd38e	0.15412733
167	0x3df2cfe9	0.11856062
168	0x3d561647	0.05226734
169	0xbddd219a	-0.107974246
170	0x3df4a8e2	0.11946274
171	0x3ea76a7a	0.32698423
172	0xbda6f2a4	-0.08151749
173	0x3c7f35bb	0.015576775
174	0x3df967ae	0.121779785
175	0x3e102727	0.14077435
176	0xbc98d572	-0.018656466
177	0xbe4433e9	-0.19160427
178	0x3d916b89	0.07100589
179	0xbdd8c333	-0.10584106
180	0xbde85c82	-0.113457695
181	0x3e766802	0.24063113
182	0x3e1f4009	0.15551771
183	0x3e398d72	0.18120363
184	0x3dfa5d90	0.12224877
185	0xbde20df6	-0.11037819
186	0xbde9d250	-0.11417067
187	0x3e910470	0.28323698
188	0xbdd8c77d	-0.10584924
189	0x3dbfd3a2	0.09366538
190	0x3dd6b2ae	0.10483299
191	0xbd9d70dd	-0.076875426
192	0xbe535b58	-0.20640314
193	0x3e4d528d	0.20051022
194	0x3e1952ae	0.14972946
195	0xbd6c0a13	-0.057626795
196	0xbdb6b1cb	-0.0892063
197	0x3eba82ac	0.3642782
198	0x3d65a750	0.056067765
199	0x3c72bc80	0.01481545
200	0x3daeb487	0.085305266
201	0xbc5c9339	-0.013462835
202	0x3dea7d04	0.11449626
203	0xbc993786	-0.018703233
204	0x3e325c33	0.17417984
205	0xbd40fd49	-0.04711655
206	0xbe8aff4e	-0.27147907
207	0x3f1e33ad	0.617976
208	0x3e37f5cb	0.17964856
209	0xbe542797	-0.20718227
210	0x3e29f1c7	0.16596137
211	0x3dc45778	0.09586996
212	0x3e2e8c0e	0.17045614
213	0xbcc4e10f	-0.024033098
214	0x3d1459e7	0.03621855
215	0x3e0a1568	0.13484728
216	0xbdd399f4	-0.103320986
217	0x3dd076d4	0.10178915
218	0x3c03779f	0.008024125
219	0x3dcd7cf3	0.10033598
220	0xbd2fa9fc	-0.04288672
221	0x3d9fedb5	0.07809011
222	0x3e2fe74f	0.17178081
223	0x3e4ebbc3	0.20188813
224	0x3e1844ec	0.14870042
225	0xbdb29ae4	-0.08720949
226	0x3e1c0d0b	0.1523935
227	0xbe903e51	-0.28172544
228	0x3c15cf6b	0.009143691
229	0xbb66a1d5	-0.0035191674
230	0x3d193ee1	0.03741348
231	0xbd1b0b03	-0.0378523
232	0x3df7551e	0.12076782
233	0x3de1928c	0.1101428
234	0x3daf260c	0.08552179
235	0x3e1e5aba	0.15464297
236	0x3da18915	0.078874744
237	0xbd6f0b11	-0.058360163
238	0x3dc56414	0.09638229
239	0x3e8a6980	0.27033615
240	0x3c4ea478	0.012612455
241	0xbdf02847	-0.11726432
242	0xbd6ac1f1	-0.057313863
243	0xbe24542c	-0.16047734
244	0xbe0d6829	-0.13809265
245	0x3e95d621	0.2926493
246	0x3d25e696	0.040503107
247	0x3e40eadc	0.18839592
248	0x3e07c208	0.13257611
249	0xbc231a49	-0.009954997
250	0xbdcc411c	-0.09973356
251	0x3eb78ff8	0.35852027
252	0xbd2d663b	-0.042333823
253	0xbae1bf59	-0.0017223164
254	0x3bbfa914	0.005849013
255	0xbde5e565	-0.11225394

model.dense1.bias f4 [32]
0	0x3db83d4c	0.089960665
1	0x3ca96c0d	0.020681405
2	0x3daf5efd	0.085630395
3	0x3d872083	0.06597998
4	0x3e5749e7	0.21024285
5	0x3d5e880a	0.054328956
6	0x3da8da5b	0.08244773
7	0xbded0321	-0.115728624
8	0x3e23f9b1	0.16013218
9	0x3dc89a77	0.09795087
10	0x3e0eb711	0.13937022
11	0x3ca27264	0.019829936
12	0x3dc24d6f	0.094874255
13	0xbe25afd6	-0.16180357
14	0x3d3fd69e	0.046835534
15	0x3c8ca67b	0.017169228
16	0xbd9cc4a2	-0.07654692
17	0x3e064287	0.13111316
18	0x3db0f4c0	0.08640432
19	0xbcbfd57d	-0.023417229
20	0x3da99b6f	0.082816
21	0x3cbedef7	0.023299677
22	0x3d9d4138	0.07678455
23	0xbc2ea129	-0.010658541
24	0x3de17423	0.110084794
25	0x3e2af2c2	0.16694167
26	0xbdac45b2	-0.08411731
27	0xbda335e1	-0.07969261
28	0x3ca27c7c	0.01983475
29	0x3de0db83	0.109793685
30	0xbcbe73e8	-0.023248628
31	0xbc9c2fd8	-0.019065782

model.dense2.weight f4 [16, 32]
0	0xbdbb1465	-0.09134749
1	0xbe0b37ed	-0.13595553
2	0x3e319019	0.17340125
3	0x3da667f5	0.08125297
4	0x3e548ae0	0.20756102
5	0x3e19ec05	0.1503144
6	0x3e1d1de6	0.15343437
7	0x3e16434e	0.14674112
8	0x3e024b8d	0.12724133
9	0xbdc90660	-0.09815669
10	0x3e5e692a	0.21719804
11	0x3d16700e	0.036727957
12	0xbd952551	-0.07282508
13	0xbe58ae59	-0.21160258
14	0x3e7db312	0.24775341
15	0xbb310fab	-0.0027017395
16	0xbd014c50	-0.031566918
17	0xbe605438	-0.21907127
18	0x3e11585c	0.14193863
19	0xbe759bc1	-0.23985197
20	0x3e0e955a	0.1392416
21	0xbd37a637	-0.04483625
22	0xbd0a7e08	-0.0338116
23	0x3d141a3b	0.036157828
24	0xbcdcfc1e	-0.026975688
25	0xbe1c33a9	-0.15254082
26	0xbdacd8ed	-0.08439813
27	0xbe53695f	-0.20645665
28	0x3d489836	0.048973285
29	0x3de7291c	0.11287138
30	0x3ce4186d	0.027843678
31	0xbc3d70d5	-0.011562546
32	0x3e195168	0.1497246
33	0x3e6ad866	0.22934112
34	0x3d3d5ce5	0.04623117
35	0x3dbd9a8b	0.09257992
36	0x3e4e1809	0.20126356
37	0x3dc53d04	0.096307784
38	0x3cd53ea1	0.02603084
39	0x3d02bab9	0.031916354
40	0x3c6e88ab	0.014558951
41	0x3e58d29a	0.21174088
42	0xbd1ef937	-0.03881189
43	0x3e075fdc	0.13220161
44	0x3e4bc473	0.19899158
45	0x3ea0eedc	0.31432235
46	0x3e5060ff	0.20349501
47	0xbdc749ce	-0.09730874
48	0xbea4243d	-0.32058898
49	0xbe0589ee	-0.13040897
50	0xbe6a217d	-0.22864337
51	0x3ebdf834	0.37103426
52	0x3e82ce58	0.25548053
53	0x3d539dee	0.051664285
54	0x3e607660	0.21920156
55	0x3b48eb7e	0.0030657942
56	0xbe3dba92	-0.18528202
57	0x3e0ba45a	0.13636914
58	0x3dff0b0f	0.12453281
59	0xbde7be1a	-0.11315556
60	0x3ceb8988	0.028752103
61	0x3e6d8268	0.23194277
62	0x3d25c243	0.040468466
63	0x3ec154d9	0.37760046
64	0xbe12d7ce	-0.14340135
65	0xbd91994e	-0.07109319
66	0x3d0c6016	0.034271322
67	0x3e066f62	0.13128427
68	0x3dbc03a6	0.091803834
69	0x3cce3cdf	0.02517551
70	0x3e8fca92	0.28084236
71	0x3e012699	0.1261238
72	0x3e08bfb3	0.13354377
73	0x3d879044	0.06619313
74	0x3df21368	0.11820108
75	0xbd81ac53	-0.06331696
76	0x3e326e0e	0.17424795
77	0x3e0ae4fc	0.13563913
78	0xbd1b25ef	-0.037877973
79	0xbe381e8e	-0.17980406
80	0xbe52260b	-0.20522325
81	0x3e4462d3	0.19178323
82	0x3e1ca30a	0.1529657
83	0x3e9a4ba3	0.3013583
84	0x3df0b766	0.117537305
85	0x3c9dc875	0.019260624
86	0xbd7bd06b	-0.06147806
87	0x3e15351a	0.14571038
88	0xbdda5942	-0.10661556
89	0xbdede7b0	-0.116164565
90	0xbd6dbb90	-0.0580402
91	0x3e8e6ae3	0.27815923
92	0x3e2b4f6b	0.16729514
93	0xbe279ba4	-0.16367966
94	0x3d951645	0.07279638
95	0x3c3c603a	0.011497552
96	0x3d4fc672	0.05072636
97	0x3b4555d1	0.0030110965
98	0x3e552af7	0.20817171
99	0x3e0044d3	0.12526254
100	0xbdbdb810	-0.09263623
101	0x3d10ca0e	0.035348944
102	0xbcdc483c	-0.026889913
103	0x3e7ae607	0.24501811
104	0xbe5cdf2d	-0.2156951
105	0x3df37dc8	0.11889225
106	0xbdbcb9eb	-0.092151485
107	0xbdbf267d	-0.09333513
108	0x3d23dad4	0.040003613
109	0x3e7fb33a	0.24970713
110	0xbdd17cfa	-0.102289155
111	0x3e955a97	0.29170677
112	0x3ed4e009	0.41577175
113	0x3cdea617	0.027178807
114	0x3c777f14	0.015105981
115	0x3e12983c	0.14315885
116	0xbe4aea95	-0.19816048
117	0x3e0c34c7	0.13692008
118	0x3ab3ffbf	0.0013732834
119	0x3e4183e0	0.18897963
120	0x3e89c165	0.2690536
121	0x3c10739f	0.008816629
122	0xbeb6ee81	-0.3572884
123	0x3d8ec8a2	0.069718614
124	0xbcf367d3	-0.029712593
125	0x3d43744b	0.047718327
126	0xbd0a2c8d	-0.033733893
127	0xbd682b9b	-0.05668221
128	0x3e7ee725	0.24892862
129	0x3d0ec162	0.034852393
130	0x3ae73e6f	0.0017642508
131	0xbdd277c6	-0.10276751
132	0x3bc1376b	0.005896499
133	0x3e2f5e77	0.17125879
134	0x3e114be9	0.14189114
135	0x3e2beb33	0.1678894
136	0x3e9db8ff	0.30805203
137	0xbc23f699	-0.010007524
138	0x3e90bd5a	0.28269464
139	0xbd82c847	-0.06385856
140	0xbddd7329	-0.10812981
141	0xbd2aa0a4	-0.041657105
142	0x3e34ee54	0.1766904
143	0xbe5dd493	-0.21663122
144	0xbe5110ef	-0.20416616
145	0xbe1c84c2	-0.15285018
146	0x3e5fcd08	0.21855557
147	0x3e2114c0	0.15730572
148	0x3e5492d0	0.2075913
149	0xbc32c8b9	-0.010912114
150	0x3e7b44de	0.2453799
151	0xbc811c67	-0.015760614
152	0xbdb96daf	-0.090541236
153	0x3da3a0be	0.079896435
154	0x3e9e11bc	0.30872905
155	0x3d76b783	0.060233604
156	0xbc45590c	-0.012045156
157	0xbdc857d8	-0.0978238
158	0x3e5fa686	0.21840867
159	0x3e60d295	0.2195533
160	0xbcab3244	-0.020897992
161	0x3e96b420	0.294343
162	0xbe80849e	-0.2510118
163	0xbe4d7da6	-0.20067462
164	0x3e8d8224	0.27638352
165	0xbe38d34b	-0.18049352
166	0x3d7428ff	0.05960941
167	0xbe63c1ea	-0.22241941
168	0xbda72260	-0.081608534
169	0xbe3285b1	-0.17433812
170	0x3e555008	0.20831311
171	0x3d985b2e	0.07439266
172	0x3e731893	0.23739843
173	0xbdbb030e	-0.09131442
174	0xbe9c1847	-0.30487272
175	0x3e065f1f	0.13122223
176	0x3dcc3217	0.099704914
177	0xbe615c4a	-0.22007862
178	0xbe3dc707	-0.18532954
179	0xbe0c851a	-0.13722649
180	0x3e0195c7	0.12654792
181	0x3ddb670d	0.10713015
182	0x3eb4090c	0.35163152
183	0x3e369f82	0.17834285
184	0xbd40e8b4	-0.047096923
185	0x3eaef5bc	0.34171855
186	0xbd9cd93d	-0.076586224
187	0x3e64f66f	0.22359632
188	0xbdd2b058	-0.10287541
189	0x3db4c2ea	0.088262394
190	0x3e1dd795	0.1541427
191	0xbe75370f	-0.23946784
192	0x3b651492	0.0034954888
193	0x3c84cf27	0.01621206
194	0x3e8fa29f	0.28053758
195	0x3d9c35ce	0.0762745
196	0x3d004051	0.031311337
197	0xbdbc3ed5	-0.09191672
198	0x3dc281cf	0.09497415
199	0x3d2a6f60	0.04161012
200	0xbd3c275e	-0.04593598
201	0x3e57a25d	0.2105803
202	0xbe0db227	-0.13837491
203	0x3d773ae5	0.0603589
204	0xbe3b7273	-0.18305378
205	0x3da069d3	0.07832684
206	0x3d754f25	0.05988993
207	0x3ea743f2	0.32669026
208	0x3ec47ce3	0.3837653
209	0x3e7f9866	0.24960479
210	0x3d481155	0.048844654
211	0xbe5ace8d	-0.21367855
212	0xbe9f4f10	-0.31115007
213	0xbcd1fe8f	-0.025634078
214	0x3b1ea195	0.0024205197
215	0x3d7d5f0c	0.061858222
216	0x3dde9bb5	0.108695425
217	0xbcfe1682	-0.031016592
218	0xbe86cefe	-0.26329798
219	0xbcff31bc	-0.031151645
220	0xbd7ab17b	-0.061204415
221	0x3dd19a49	0.10234506
222	0xbe57bdc3	-0.21068482
223	0x3d9290f9	0.071565576
224	0x3ea129ec	0.31477296
225	0x3cc109a0	0.02356416
226	0xbd5b8a17	-0.05359849
227	0x3d65ee8a	0.05613569
228	0xbe425f0c	-0.1898157
229	0x3e643730	0.22286677
230	0xbd599690	-0.053122103
231	0x3e8139ca	0.25239402
232	0xbdb36bcb	-0.08760794
233	0x3e596a5e	0.21231982
234	0xbe87bc65	-0.2651092
235	0xbdf4bd70	-0.11950195
236	0x3de92180	0.11383343
237	0x3d5864e7	0.052830603
238	0x3d353df5	0.04424854
239	0x3e7807df	0.24221753
240	0x3db6b1e9	0.089206524
241	0xbe6a40e6	-0.2287632
242	0xbe14f0ca	-0.14544979
243	0x3d180a09	0.037118945
244	0xbd855643	-0.06510594
245	0xbd18db90	-0.037318766
246	0x3e05e465	0.13075407
247	0x3e430087	0.1904317
248	0x3e86eb74	0.2635151
249	0x3e0f0751	0.13967635
250	0x3d55c1a4	0.052186623
251	0xbe2f1c3d	-0.17100616
252	0xbe00b9b8	-0.12570846
253	0x3e2f9dfe	0.17150113
254	0xbe259dc6	-0.16173467
255	0xbceae66f	-0.028674332

model.dense2.bias f4 [16]
0	0xbdf40608	-0.11915213
1	0xbdcf1de0	-0.1011312
2	0x3caa325b	0.020775964
3	0x3da93cd3	0.082635544
4	0x3e6f515a	0.23370877
5	0x3e6676c5	0.22506244
6	0xbc9e203d	-0.019302482
7	0xbd5cae2d	-0.053877044
8	0xbd9ce1d7	-0.07660263
9	0x3d376a97	0.044779386
10	0x3daf955e	0.085734114
11	0xbd9210f4	-0.0713214
12	0x3e6817df	0.22665356
13	0x3d70776d	0.058707643
14	0x3e18ab56	0.1490911
15	0x3e219a5c	0.1578154

model.dense3.weight f4 [16, 16]
0	0x3ec4a108	0.38404107
1	0xbe07b6c0	-0.13253307
2	0x3c88de39	0.016707527
3	0x3e1a35c4	0.15059572
4	0xbd40e75c	-0.04709564
5	0xbe410321	-0.1884885
6	0xbbd3ebdf	-0.006467327
7	0xbe56f361	-0.20991279
8	0x3db3a75f	0.08772158
9	0x3b1a056e	0.0023501772
10	0x3e9878b6	0.29779595
11	0xbd5d8260	-0.054079413
12	0xbdb32996	-0.08748166
13	0x3eaed1bd	0.34144393
14	0x3e0cbe07	0.13744365
15	0x3e8ffb5a	0.28121454
16	0xbe62ebbb	-0.22160237
17	0xbde7c253	-0.11316361
18	0x3ce4b5c3	0.027918702
19	0xbe3ba896	-0.18326029
20	0xbe6adf5d	-0.22936769
21	0xbdf02803	-0.11726382
22	0x3dfd05d9	0.12354631
23	0xbdc73399	-0.09726638
24	0xbdbe2a44	-0.09285405
25	0x3e7a20cb	0.24426572
26	0xbd46b89c	-0.0485159
27	0xbdef3688	-0.11680323
28	0xbdda4164	-0.106570035
29	0xbe28cab2	-0.16483572
30	0x3e0b49f1	0.13602425
31	0xbe4ac691	-0.1980231
32	0xbe2e9a8e	-0.17051145
33	0x3e84ab86	0.25912112
34	0x3e1fe630	0.15615153
35	0x3e297777	0.16549478
36	0xbd4cfb7d	-0.050044525
37	0xbe1988b9	-0.14993562
38	0xbc9f735e	-0.019464191
39	0x3ea15508	0.31510186
40	0x3dfbc570	0.122935176
41	0x3e32d97a	0.17465773
42	0xbe2b92eb	-0.16755264
43	0xbe44c672	-0.19216326
44	0xbe9dec24	-0.30844223
45	0xbe57e834	-0.21084672
46	0xbd08c8db	-0.033394676
47	0xbcc68dc6	-0.024237525
48	0x3ebdb6cc	0.37053525
49	0x3e8db1c8	0.276747
50	0x3e9d142f	0.3067946
51	0xbd043313	-0.03227527
52	0x3df4164a	0.11918314
53	0xbe8b6e09	-0.27232388
54	0x3d80b0db	0.062837325
55	0xbce0c098	-0.027435586
56	0xbd76e304	-0.060275093
57	0xbe3d96a5	-0.18514498
58	0xbdaed568	-0.08536798
59	0xbc910740	-0.017703652
60	0xbe9b45f6	-0.30326813
61	0x3ec91008	0.39270043
62	0x3ec30c8a	0.38095504
63	0xbcb29dc8	-0.021803752
64	0xbdee3058	-0.116303146
65	0xbe793b84	-0.2433911
66	0xbd981673	-0.07426157
67	0x3eac6b00	0.33675385
68	0xbe4dc6f8	-0.20095432
69	0xbe53413c	-0.20630354
70	0x3ee9a954	0.45637
71	0x3def12ad	0.11673484
72	0xbd049eda	-0.032378055
73	0x3e6cee16	0.23137698
74	0x3d8d5ccc	0.06902465
75	0x3db09214	0.08621612
76	0x3e2fe3a2	0.17176679
77	0x3d063588	0.032765895
78	0x3de30a2b	0.11085924
79	0x3ecec7b0	0.40386724
80	0x3e1c56f1	0.1526754
81	0x3e0cb05d	0.13739152
82	0x3e7c08cf	0.24612735
83	0x3e5e928c	0.2173559
84	0x3e8007e2	0.25006014
85	0xbec15a76	-0.3776433
86	0xbda09652	-0.07841171
87	0x3e5d0d63	0.21587138
88	0xbde78150	-0.11303961
89	0xbd97ab16	-0.07405679
90	0xbd4137db	-0.04717241
91	0xbdafba80	-0.08580494
92	0x3ddf0a72	0.10890664
93	0x3e16a739	0.14712228
94	0x3e94c549	0.29056767
95	0x3dad8a53	0.08473649
96	0xbe0694b3	-0.13142662
97	0xbdb9d20c	-0.090732664
98	0xbe51bf14	-0.20483047
99	0x3e93bb53	0.28853855
100	0xbea223ff	-0.31668088
101	0x3e577eab	0.21044414
102	0x3e280c32	0.16410902
103	0x3ebdd95c	0.37079895
104	0x3e16975b	0.14706175
105	0xbdd7f7d3	-0.105453156
106	0xbdd93aa1	-0.10606886
107	0x3d785030	0.060623348
108	0x3dbe7f63	0.09301641
109	0x3c22cdaf	0.009936734
110	0x3e5c1adc	0.21494621
111	0x3d41024e	0.04712134
112	0x3e168919	0.14700736
113	0x3e7ef93f	0.24899767
114	0xbe88083b	-0.2656878
115	0x3e993e73	0.29930457
116	0xbda5f7a6	-0.08103876
117	0xbe3f1578	-0.18660533
118	0x3e8fb781	0.2806969
119	0x3e8b2df9	0.27183512
120	0x3e35351f	0.17696045
121	0xbcefff90	-0.029296666
122	0xbe6efd66	-0.23338851
123	0xbd82a094	-0.06378284
124	0x3e216553	0.15761308
125	0xbd90012c	-0.070314735
126	0x3e5a3729	0.21310104
127	0x3e237d10	0.15965676
128	0xbebd0c51	-0.3692346
129	0x3eabc89b	0.33551487
130	0x3d3f8cd0	0.04676515
131	0xbb52aa0b	-0.003214481
132	0x3d961157	0.07327526
133	0xbe8b1254	-0.2716242
134	0xbe8c3fcd	-0.27392426
135	0xbdb4a159	-0.08819837
136	0x3e8e6a40	0.27815437
137	0x3e4868ec	0.19571275
138	0xbe59a3f5	-0.21253951
139	0x3e76bd88	0.24095738
140	0x3db4c311	0.088262685
141	0x3deb5b30	0.11492002
142	0x3ec71d69	0.38889626
143	0xbdabaa64	-0.08382109
144	0xbe70df43	-0.23522668
145	0x3dca508b	0.098786436
146	0xbde50bff	-0.11183929
147	0xbdb5416d	-0.088503696
148	0x3e99850b	0.29984316
149	0x3e8354de	0.25650686
150	0xbe423dd7	-0.18968903
151	0x3e8ea9ea	0.2786401
152	0x3cb91ce5	0.022596786
153	0xbe1a740d	-0.15083332
154	0xbe28794d	-0.16452523
155	0x3d4302b0	0.047609985
156	0x3ebe0ba2	0.3711825
157	0x3ed0a86c	0.40753496
158	0x3ead33a8	0.33828473
159	0xbeac0074	-0.33594096
160	0x3e9ba21a	0.3039711
161	0xbc1be452	-0.009514885
162	0xbc5f7f5f	-0.0136412075
163	0xbd487548	-0.048939973
164	0x3e23fe2b	0.16014926
165	0xbe84dc09	-0.25949124
166	0x3e84af00	0.25914764
167	0xbe82890b	-0.2549518
168	0x3e5be7b9	0.21475114
169	0xbcfca1e7	-0.03083892
170	0x3eb7d229	0.35902527
171	0x3df8a168	0.12140161
172	0x3ec6617b	0.38746247
173	0x3ed31e9f	0.412343
174	0xbdf0f08f	-0.11764633
175	0x3e880231	0.26564172
176	0x3d7d5c8a	0.06185583
177	0x3e9e2437	0.30887005
178	0x3c79fd26	0.015258109
179	0xbe8a3ba5	-0.2699863
180	0x3e6a4f46	0.22881803
181	0x3e9f252d	0.3108305
182	0xbcc34aff	-0.023839472
183	0xbbeb0e61	-0.007173345
184	0xbeeaebaa	-0.45882922
185	0xbdaf89a3	-0.08571174
186	0x3e0a0847	0.1347972
187	0x3d9f0028	0.07763702
188	0xbcfc8755	-0.03082625
189	0x3e319a66	0.17344055
190	0xbcf63060	-0.030052364
191	0xbf01b201	-0.5066224
192	0xbd0b1eae	-0.033964805
193	0x3e201f3a	0.15636912
194	0x3e8ca8ac	0.27472436
195	0x3e263aa1	0.16233303
196	0x3e82cf8c	0.2554897
197	0x3ebac3e4	0.36477578
198	0xbe23a3e2	-0.15980485
199	0xbe560d07	-0.20903407
200	0x3decfa32	0.115711585
201	0x3ec83565	0.39103237
202	0x3dac02f4	0.08399001
203	0xbe2c8f5a	-0.1685156
204	0xbe87a20e	-0.26490825
205	0xbe4e49be	-0.20145318
206	0xbe23c6e4	-0.1599384
207	0x3e87805a	0.26465112
208	0xbd9f78fe	-0.07786749
209	0x3e5986cb	0.21242826
210	0xbd320c25	-0.043468613
211	0x3ce4a2ee	0.027909722
212	0x3d600152	0.05468876
213	0x3ef3750d	0.4755024
214	0xbd21f327	-0.03953853
215	0x3c8869db	0.016652038
216	0xbe0a81fd	-0.13526149
217	0x3ec9306e	0.3929476
218	0x3dc6d536	0.097086355
219	0xbd366160	-0.044526458
220	0x3edfd1f2	0.43714863
221	0xbdb0729c	-0.0861561
222	0xbe6f3040	-0.2335825
223	0x3dfb152c	0.122598976
224	0xbe5f2825	-0.21792658
225	0x3e301edc	0.17199272
226	0x3e9c633d	0.30544463
227	0xbbd21c37	-0.006412055
228	0xbea76ceb	-0.32700285
229	0xbc0df1d1	-0.008663611
230	0x3d233484	0.039845005
231	0x3dba3a7a	0.09093185
232	0x3f05131f	0.519823
233	0x3eacee4d	0.3377556
234	0x3dcacdfb	0.09902569
235	0xb9115800	-0.0001386106
236	0xbe4c8e50	-0.19976163
237	0x3c4ccbd5	0.012499769
238	0xbd95f300	-0.07321739
239	0x3ed5cd2f	0.41758105
240	0xbdff5e8d	-0.12469206
241	0x3daa1cf0	0.08306301
242	0xbdc7d6a7	-0.097577386
243	0x3ec8b9a0	0.3920412
244	0xbe82bef6	-0.25536317
245	0xbd9d96a9	-0.07694752
246	0x3e729e91	0.23693301
247	0x3e2c0d21	0.16801883
248	0x3e6720d7	0.22571121
249	0xbe0a8aba	-0.13529482
250	0x3e29b2fd	0.16572185
251	0x3e63928a	0.22223869
252	0x3de999e0	0.114063025
253	0x3ca14200	0.019684792
254	0x3d9ad09a	0.07559319
255	0xbe00e39c	-0.12586826

model.dense3.bias f4 [16]
0	0xbc34717a	-0.011013383
1	0x3d72d33b	0.059283476
2	0xbe3306fa	-0.1748313
3	0x3d530b6a	0.051524557
4	0x3df20c30	0.11818731
5	0xbeb8411f	-0.35987183
6	0x3e765800	0.24057007
7	0x3d89ab33	0.06722107
8	0x3e2d20bf	0.16907023
9	0x3eacbf0b	0.33739504
10	0x3e397346	0.1811038
11	0x3ce4395b	0.02785938
12	0x3cc31879	0.02381538
13	0x3eacdd09	0.33762386
14	0xbe964df8	-0.2935636
15	0x3e8b7f40	0.27245522

model.output.weight f4 [10, 16]
0	0xbed051db	-0.4068745
1	0x3e2b636e	0.16737148
2	0x3ea56910	0.3230672
3	0x3e5b54c3	0.21419053
4	0xbee6d2a2	-0.45082575
5	0x3defcf51	0.11709464
6	0xbd8c7eea	-0.068601444
7	0x3e6fcf42	0.23418906
8	0x3e9e40c8	0.309088
9	0x3e34b0e5	0.17645605
10	0xbec15e27	-0.37767145
11	0xbc5e47b9	-0.013566905
12	0xbda9b31e	-0.08286117
13	0xbee3c46e	-0.444858
14	0xbecc5f08	-0.39916253
15	0x3db96538	0.09052509
16	0xbd9a1eec	-0.07525429
17	0x3e0bf1b6	0.13666424
18	0xbeb1c8f0	-0.34723616
19	0xbe4553f7	-0.19270311
20	0x3daddf1f	0.084898226
21	0xbe5ecd6f	-0.21758054
22	0xbeabd615	-0.3356177
23	0xbe7ba5e0	-0.24574995
24	0xbea02b35	-0.31282964
25	0xbeaa3e0b	-0.3325046
26	0xbc835156	-0.016029995
27	0xbedcfc57	-0.4316127
28	0x3edd7031	0.43249658
29	0x3e838d39	0.25693682
30	0x3e5b5345	0.21418484
31	0xbd65ea73	-0.05613179
32	0x3e959847	0.2921774
33	0xbe39b9eb	-0.18137328
34	0xbda8d2ca	-0.0824333
35	0x3e025198	0.12726438
36	0x3de55698	0.11198157
37	0xbcef5bd2	-0.029218588
38	0xbe4eb97e	-0.20187947
39	0xbdff5950	-0.12468207
40	0x3d206f7d	0.039168824
41	0xbeb254ec	-0.34830415
42	0x3e2e4d2f	0.1702163
43	0xbd9b845c	-0.07593605
44	0x3e5ca9c7	0.2154914
45	0xbe896f5f	-0.26842782
46	0x3e7bf224	0.24604088
47	0x3dcb153a	0.09916158
48	0xbdc3ba04	-0.09556964
49	0x3e733556	0.23750815
50	0x3e8c6e14	0.27427733
51	0xbe9d2d6f	-0.30698726
52	0x3eaab8fc	0.33344257
53	0x3deae5dd	0.11469624
54	0x3e02864d	0.12746544
55	0x3e8ec35f	0.2788343
56	0xbbc9edc8	-0.006162379
57	0xbed81879	-0.4220617
58	0x3e3f771e	0.18697783
59	0x3e1af7e5	0.15133627
60	0xbd2c21cd	-0.042024422
61	0xbdb13633	-0.08652916
62	0xbd451c40	-0.048122644
63	0x3e765fd8	0.24059999
64	0xbe1b28ed	-0.1515233
65	0xbc19a632	-0.009378003
66	0xbe68ee34	-0.22747117
67	0x3cc3e193	0.023911273
68	0xbd2c3ebf	-0.042052027
69	0xbe9c03a2	-0.30471522
70	0xbec6ecf5	-0.3885266
71	0xbe8ebd68	-0.2787888
72	0x3e21812a	0.15771928
73	0x3e54724d	0.20746727
74	0x3e5c407b	0.21508972
75	0x3ee07cd1	0.43845227
76	0x3e0983e4	0.13429219
77	0x3e823516	0.25431126
78	0xbf007b0d	-0.5018776
79	0xbed1e1c5	-0.4099256
80	0x3d0318f9	0.032006238
81	0x3e29c133	0.16577606
82	0xbe211740	-0.15731525
83	0x3d0774eb	0.033070486
84	0xbd846828	-0.06465179
85	0x3d908cbd	0.07058094
86	0xbcc20a15	-0.023686448
87	0x3e6162fb	0.22010414
88	0x3eaed863	0.34149465
89	0xbba6032a	-0.005066295
90	0x3e3e0d59	0.18559779
91	0xbea644cf	-0.32474372
92	0xbe85ec9a	-0.26157075
93	0xbe6833dd	-0.22676034
94	0xbc533a6e	-0.012892349
95	0x3eb9cb08	0.36287713
96	0x3ea0feee	0.31444496
97	0x3dd843c4	0.105598
98	0xbe3757a4	-0.17904526
99	0x3ea94418	0.33059764
100	0xbe60c5b7	-0.21950422
101	0x3e5f0e73	0.21782856
102	0xbef46889	-0.47736004
103	0x3da435f2	0.08018102
104	0x3d5d815a	0.054078437
105	0xbde92aeb	-0.11385139
106	0x3e88c2f8	0.2671125
107	0x3c80d2fd	0.015725607
108	0xbe3cd2d0	-0.18439794
109	0xbc153c5a	-0.009108627
110	0xbea6da7d	-0.32588568
111	0xbe95c56f	-0.29252192
112	0x3ddd1cba	0.10796495
113	0xbd1d420f	-0.038393077
114	0xbeeb6336	-0.4597413
115	0xbf01c563	-0.50691813
116	0x3e129647	0.14315139
117	0xbe1687a2	-0.14700177
118	0x3e809345	0.25112358
119	0x3e694c70	0.22783065
120	0xbe202323	-0.15638404
121	0x3e5b56db	0.21419851
122	0x3e78be5e	0.2429137
123	0xbec22744	-0.37920582
124	0xbeb60b80	-0.3555565
125	0x3de3b954	0.11119333
126	0xbd9aaa14	-0.07551971
127	0x3ea09e48	0.3137076
128	0xbe47ea3d	-0.19522949
129	0xbe33702f	-0.17523263
130	0x3dc7f2e8	0.097631276
131	0xbe5d419a	-0.21607056
132	0xbe4ab070	-0.19793868
133	0x3e2e4898	0.1701988
134	0xbe57ac30	-0.21061778
135	0x3e3e9ff0	0.18615699
136	0x3e840f23	0.25792798
137	0xbdba6b08	-0.09102446
138	0xbd3feef4	-0.046858743
139	0xbe1ff9f2	-0.1562269
140	0x3e281998	0.16416013
141	0x3d7756b9	0.06038544
142	0x3e59a92e	0.21255943
143	0xbe67527c	-0.22590059
144	0xbe9f21a8	-0.31080365
145	0x3d722dba	0.05912564
146	0xbe341cdf	-0.17589138
147	0xbd9acff6	-0.07559197
148	0xbe94409b	-0.2895554
149	0xbe50b9a5	-0.20383318
150	0x3e2c74ed	0.16841479
151	0x3d3b9ab0	0.04580182
152	0x3e0338ef	0.12814687
153	0x3e5b6c22	0.21427968
154	0xbec0c5e1	-0.3765097
155	0x3c42231e	0.011849193
156	0x3e030a0d	0.12796803
157	0x3e70d2fb	0.23517983
158	0xbe389d23	-0.18028693
159	0x3e62a6b5	0.22133906

model.output.bias f4 [10]
0	0xbe2acd8b	-0.16679971
1	0x3e4483f3	0.1919096
2	0xbe0d590e	-0.13803503
3	0xbd81d1a2	-0.063388124
4	0xbd96d7d8	-0.07365388
5	0x3c58696b	0.013208727
6	0x3d218a36	0.03943845
7	0x3e90f1a9	0.28309372
8	0xbe9549de	-0.2915792
9	0x3e1b8bc8	0.15190041
