Models/model_optRMSprop_ep5_neu64_lay4_acc0.9034.pth (torch, 219538 bytes, 12 tensors)

model.input.weight f4 [64, 784]
00000000: 5440 97bb 64f5 dabb 1005 8bbc a0ee b03c
00000010: 72dd 66bc dad9 f8bc e03c 90bc c074 0b3c
00000020: e015 42bc 6017 ff3b 3797 93bc 2008 8a3c
00000030: f775 a03c d3e6 8e3c 1f61 293b 7bf6 093b
00000040: e67d 2dbc 0eb4 9d3c 3ecd e23c d82c acbc
00000050: 18ce eebc 4e10 82bc d8cc 32bc 7ced 8cbc
00000060: 2cbd bcbc 6278 f33c 249e d9bb b85e 92bb
00000070: 0090 90ba 7894 8b3b ece5 b0bc c26c dd3c
00000080: c066 db3c 12cf 73bc b4e8 043c ed62 c6bc
00000090: f226 f23b c6ed 213d 6ec8 6d3d 363c 313d
000000a0: ce54 c13d c305 c83d 5336 9e3d e699 ae3d
000000b0: 3bc6 ed3d 5723 703d 4e82 3c3c e5d7 793c
000000c0: a8d8 b5bc fae7 dbba ec34 4cbc 0aba 6abc
000000d0: c6b0 25bc 0a6d 07bc 7817 b13b 7551 dabc
000000e0: 1c53 a6bc b87a bcbc 3e26 f13c e0fd a7bc
000000f0: 5721 dd3b dbd7 ebba bb55 ea3b f7b5 7b3b
00000100: 3582 67bd b6ee eabc bbf7 f63c e9f4 15bb
00000110: 0500 653c beb8 033d 092b 803d 872a ac3d
00000120: 4da3 393d b9df 323c f00b 303d b252 29bd
00000130: 2169 c7bd e57b 06be 1782 31be 2acd a6bd
00000140: 2e59 76bd 5abd af3c ccae b43c fa76 9fbc
00000150: ac97 82bc ae93 35bc e812 06bd 4423 9bbc
00000160: 9d1d f13c 141a 7ebc 9853 8fbd 2b06 8fbd
00000170: 4689 16be 5552 a1bd a003 933c 2b70 c03d
00000180: 6563 233e 3580 0f3e aa98 0c3e 3e56 153e
00000190: 8ad4 543d 5877 003d 5f5e 023d 6d19 2cbd
000001a0: 28bb 81bc 847f 49bd 3764 113c 63cb 7b3d
000001b0: 7306 5b3c f3db babd 5560 083d a26d e03c
000001c0: c01a 103c 1e11 c0bc 7cfb a4bc cc55 9bbc
000001d0: 38cb 81bc 3414 a6bd 52ad 04bd 5e17 75bc
000001e0: 6c7b 783c 8ec4 2ebc 05e3 873c ab1a 043e
000001f0: 8dad 3c3e 968b 093e 2613 193d 2add 553d
00000200: 53ad 023d d433 283d 768f dc3d d26a 813d
00000210: c377 153d 1084 ee3c d974 82bc e2d9 2e3d
00000220: 687a 1e3e b9c5 aa3d e93c cb3c 72b1 fd3c
00000230: 10bc 82bb ee7b 1ebc d699 0b3b bd50 1dbd
00000240: d04a c0bd 4a29 97bd da73 3a3a faf3 733d
00000250: 95c5 24bd 92cf c53c 51e9 8b3d c37f eb3d
00000260: 0738 8a3d 363a b53d 45b6 9f3d 4539 3a3d
00000270: ddd7 e53d db61 f03d 7e6f 443d 805a 983d
00000280: ae18 9e3d a6b3 d33d a9e0 323d 906d e03c
00000290: 3daa 123e c9f7 fe3d 7e09 cd3b 00a8 f1bc
000002a0: 0082 d93b b0a6 1bbb a6a6 76bc 9c43 e7bc
000002b0: e89d 34bd ee26 5fbd 028d c3bc 029a 933c
000002c0: 68e6 1bbc d85d e03c fa68 873c 20a7 163d
000002d0: a088 203d 0bfb a43c 125a 833a 44f3 253d
000002e0: 72cd a4bb 4e03 af3c 8f4b 1abd 29ec 703d
000002f0: d25c 8e3d e011 533d dd2d 2b3d 79ea e23d
00000300: 91d8 4c3e 32a6 833e 9a60 063d b223 2dbd
00000310: 4835 d5bb 15bb 94bd bf6d 0fbd 1b56 8bbd
00000320: 5c70 11be 262d f8bd 8f68 b0bc 4ad1 54bd
00000330: 37ba 983c 2aa6 653c e4a0 0f3d db0b 0cbd
00000340: 6c07 05bd 1f7c 91bd c5dd 58bc 0baf 51bd
00000350: 2eb1 60bd 4932 c4bc 973c fcbc 1bf3 bf3c
00000360: daf4 173c e63f 9b3d 9ca4 8b3d 597c 9d3d
00000370: f8fd 813e 5222 8f3e dc47 8d3d c315 c1bc
00000380: 58d4 abbc 7f57 edbd ba7c 01be f65f d2bd
00000390: b85d 3cbe d792 e5bd 8118 60bd b40b af3c
000003a0: de47 343d ca3d 4dbc 31d4 3fbd 199e 8e3c
000003b0: 1167 79bc 1a03 26bc 35f7 cbbd 356e eabd
000003c0: a5e5 3cbd 288e 9fbd ec86 89bb 8eb3 8f3d
000003d0: af8b 063d 86f5 5d3d 19c1 9f3d e44d 1e3e
000003e0: f62e b13e 849e b83e 7b9e bb3d 435c 3f3d
000003f0: 725f e43c d03d 17bc 7570 c1bd efee 37be
-0.004615823 -0.006682085 -0.016970187 0.02159816 -0.014090883 -0.030377317 -0.017607152 0.008511722
-0.011846036 0.007784769 -0.01801644 0.016849577 0.0195875 0.01744405 0.0025845242 0.0021051455
-0.010589099 0.019250896 0.027685758 -0.021017477 -0.029151008 -0.015876915 -0.010913096 -0.017203085
-0.023039423 0.029720489 -0.0066411663 -0.0044668578 -0.0011029243 0.004259642 -0.02159401 0.027029399
0.026782393 -0.014880912 0.008112121 -0.024217093 0.0073898965 0.0395334 0.058052473 0.043270312
0.09440003 0.09766724 0.07725205 0.085254475 0.11610075 0.058627453 0.011505676 0.015249227
-0.022198036 -0.0016777508 -0.012463789 -0.014326582 -0.010112947 -0.008265743 0.005404409 -0.02665017
-0.020303302 -0.023007736 0.02943718 -0.0205068 0.006748359 -0.0017993407 0.007151333 0.003840802
-0.05652066 -0.02867828 0.030147424 -0.0022881574 0.013977055 0.032158606 0.06258208 0.08406549
0.04532175 0.010917597 0.042980134 -0.04133863 -0.097368486 -0.131332 -0.17334782 -0.08144601
-0.060143642 0.021452595 0.022056006 -0.019465912 -0.015941463 -0.011082573 -0.032732874 -0.018937714
0.029433066 -0.015509147 -0.06998366 -0.06983598 -0.14700803 -0.07877032 0.017946064 0.09396394
0.15955885 0.14013751 0.13730112 0.1458368 0.051960506 0.031363815 0.03182828 -0.042016435
-0.015836313 -0.049193874 0.008873991 0.06147326 0.013368237 -0.09123983 0.033294994 0.027396027
0.00879544 -0.023445662 -0.020139448 -0.01896181 -0.015843973 -0.08109322 -0.032391854 -0.014959184
0.015166145 -0.0106669795 0.016587744 0.12900798 0.1842558 0.13432154 0.037371777 0.05221287
0.031903576 0.041065052 0.107695505 0.063192025 0.036491167 0.029115707 -0.015924858 0.042688258
0.15476382 0.08338494 0.024809318 0.030968402 -0.003989704 -0.009673102 0.002130141 -0.038407076
-0.09389269 -0.07380922 0.00071126 0.059558846 -0.04022749 0.024146829 0.06831611 0.11498978
0.067489676 0.088489935 0.07798437 0.045464773 0.11222813 0.117374144 0.04795789 0.074391365
0.07719551 0.103369996 0.043671284 0.027395993 0.14322753 0.12449605 0.006257235 -0.029499054
0.0066378117 -0.0023750477 -0.0150543805 -0.02823048 -0.044095904 -0.054480486 -0.023870949 0.018017773
-0.009515382 0.027388498 0.016529549 0.036780477 0.039192796 0.020139238 0.001002135 0.0405152
-0.005029374 0.02136388 -0.037669715 0.05881897 0.06951298 0.05153072 0.041791786 0.11079878
0.20004489 0.25712734 0.03280697 -0.04227037 -0.0065065958 -0.072622456 -0.03501677 -0.06803533
-0.14203018 -0.121179864 -0.021534232 -0.051957406 0.018643482 0.014016667 0.035065547 -0.034190994
-0.03247778 -0.07103752 -0.013236468 -0.051192325 -0.05485647 -0.02394976 -0.03079061 0.023431351
0.009274686 0.07580547 0.06818506 0.07689733 0.25389075 0.27955872 0.06898472 -0.023569947
-0.020975277 -0.11588954 -0.12645236 -0.10272209 -0.18395126 -0.11209648 -0.05471087 0.021367885
0.04401385 -0.012526939 -0.04683322 0.017409371 -0.015222327 -0.010132575 -0.099592604 -0.114468016
-0.046117444 -0.07790786 -0.004196992 0.07016669 0.032848056 0.054189228 0.07800502 0.154594
0.3460614 0.36058438 0.09161087 0.046718847 0.027877543 -0.009231046 -0.094452776 -0.1796224

model.input.bias f4 [64]
00000000: 94ac d63d 95f8 223d e17c bb3d 549e 18bc
00000010: d19a 713b 8c7c 723d a111 40bc eb7c a83c
00000020: 2794 0cbd 3550 813d ab63 7f3d 9f34 34bd
00000030: 9f6e a6bc 232f b7bc 6f58 19bc 7ce1 823a
00000040: 4608 f63b a576 e93b 6ab1 b93b 36d7 3d3c
00000050: e83f 6f3d 10fa 523d 3668 77bd e2a0 123e
00000060: 86d9 c93c d29d 863c 20e4 483d 20f5 9a3d
00000070: f0d1 8c3d 61ea c3bc 4686 b13d 4cda af3c
00000080: a461 603d d355 e2bc fc17 023e 7661 213c
00000090: 76d1 2abd f332 bd3d 78b4 1dbd 4cf4 da3c
000000a0: b17b 373d 7781 7c3d a19a 2f3d df5c 42bd
000000b0: f2b0 c23a 109d 1b3c 545e eb3c e71f a3bb
000000c0: 091f 603d dd30 ee3c 1ca5 563c 42c0 0a3d
000000d0: b351 903d 3257 753d 3339 453d 6fa7 173d
000000e0: 68b7 6b3d ac5d 62bc 844e f53c c533 273d
000000f0: 44f8 cb3d aab6 043c d456 ff3d fe73 853d
0.104821354 0.039787848 0.09154678 -0.009315092 0.003686596 0.05920081 -0.011722953 0.020567378
-0.034320977 0.063141264 0.06235091 -0.043995496 -0.02031642 -0.022361344 -0.009359463 0.0009985412
0.0075083105 0.0071247392 0.0056669014 0.011586955 0.058410555 0.05150801 -0.060402118 0.14319184
0.024639856 0.016432676 0.049045682 0.07566285 0.0687598 -0.023915472 0.08668189 0.021466397
0.054780617 -0.027628815 0.12704462 0.009849897 -0.041703664 0.092382334 -0.038502187 0.026727818
0.044795696 0.061646905 0.042872075 -0.04745185 0.0014853759 0.009497896 0.028731503 -0.0049781683
0.054717097 0.029076034 0.013100889 0.033874758 0.07046833 0.05989761 0.048150253 0.03702491
0.057547957 -0.013816278 0.029944666 0.040820856 0.09959462 0.008100191 0.12467733 0.065162644

model.dense1.weight f4 [32, 64]
00000000: dd72 893d 01a9 d1bb 9612 52bd 5214 04bd
00000010: d66b 86be a258 d03d 9d49 003c 3815 bf3c
00000020: 2da1 6dbd ce0b 243e f167 b23d 3cf3 b73d
00000030: 218f abbe d5cb 21bc 7d92 ca3d 9c95 443d
00000040: bc45 dbbd 6238 ab3d 7360 fdbd fbad 96be
00000050: 1b81 94bd 8081 be3e fac3 dd3d 9c60 2f3e
00000060: eae0 3cbd 5f0a 1abe f08f 8fbd 3ed5 023e
00000070: cd8b cc3d f885 b63c c5bf bbbc 2c7e d23c
00000080: 0054 813c f6fa 1f3c a188 153e 85b8 66bd
00000090: 3f1e dbbd 3e1c ea3d 67a1 7fbd 2cc7 973d
000000a0: a4b6 883e e570 ad3d 33e0 133d 85de 993c
000000b0: 8cbb 2fbe 98d4 9b3d 000e f2bd d4d5 6ebd
000000c0: 2d14 c4bd f2b5 c6be 10d7 ae3d 64de a8bc
000000d0: 8988 b63d da00 a3be ebe9 653e 5ebf 413e
000000e0: f500 b0bd 1195 97bd b4f0 8e3e 088c 0f3e
000000f0: 1240 d2bc e85b 543e d372 563d 80a8 9c3d
00000100: b1bf 903e fed0 903b 07bd 913d 8189 743e
00000110: a8a7 81bd e8ef 033d 0214 06bb 602d d33a
00000120: d502 20bd 4c87 9b3d 96b0 59bd 1d80 cabd
00000130: 7199 1d3f 3af3 c4bd c938 a4bd 0582 19bd
00000140: e437 613e 424d b8bd 6a8a 643e 893b 553e
00000150: 5256 c43c 0f4c d2be f821 3dbd 8e26 693e
00000160: 6092 c43e d66c 003e e832 883e f832 a33d
00000170: 9fab 773e bbec a53d 3760 883d 558e 523e
00000180: e1cf 9cbd b4a4 cabd 1328 343e a624 f23d
00000190: 7fcc 1ebd 201d 9d3d e652 403e 9c17 063e
000001a0: aa67 593c 11dc 9fbc d9d2 8b3d 6aff 773d
000001b0: ddd1 ac3e 6022 583c 0cb5 7f3e 4b01 b8bb
000001c0: d293 51bd 4339 403e 55ea 7c3d 79c3 10be
000001d0: cff8 5e3e f59a 82be fb05 78be 2fc6 f23d
000001e0: b8e3 653e b3aa a5bd 4270 a6be 352d 0a3e
000001f0: 81d8 1f3e 2691 edbb 5bce 353e 567d 2f3e
00000200: b180 df3d 839c 6c3d 716d 903a c917 263e
00000210: ade5 97bd 1c71 0f3c dbe3 dd3d 124a 853b
00000220: b3d7 63be 7908 6c3e 9bab 86bc cf89 9e3d
00000230: 3029 b2be 8d3d 8dbd 169e f9bd 4ece 57bd
00000240: d222 b6bd 4f8b cc3b 997b a7bd ed88 57be
00000250: 8cea b73c fe0b 8c3e 85b9 933c e3d7 1f3e
00000260: 0f71 0bbd b20f 83be 1d65 b93d ca40 ed3c
00000270: 86f8 943d 1d36 1abc b07d 563e 3fab a3bd
00000280: b25e 2fbe 1ab3 81bd e462 133d 0b26 07be
00000290: 62b3 1bbc 5c3f 0c3e 8224 0abd 003a 1b3e
000002a0: 6028 7e3e e6f3 db3d f209 fd3d 2958 5e3c
000002b0: 51d5 07be 9ce8 083e 404d a13d d471 0cbd
000002c0: c893 a73c 5ed1 bbbe 5dc8 353e db98 95be
000002d0: 9b23 85bd e5dd 4abe ff80 c1bd 1b51 7dba
000002e0: 223c 093c d832 2cbd 4283 0f3e 819f 973d
000002f0: 43ce 0b3e 4327 563e d305 0f3e 4813 e33d
00000300: bb5b 623d 2288 2f3e d337 0e3e 2a9a 823d
00000310: ae03 a13e e5d7 c5bc a51e 0dbe a178 813d
00000320: c163 483e ea79 833d d660 0e3e c920 b33c
00000330: 184c cb3e c7d0 37bc e00f fc3d eadf debd
00000340: d68d fb3d 6563 97bc 65aa 423e 4ef0 ac3e
00000350: b4bd 87bd 009f 49be 6ee0 df3d 3609 6cbd
00000360: a135 823c 00d3 263e 2221 ea3d f98e ffbc
00000370: 9f34 89bd 960a 0c3d e6ce acbc b3ec 953e
00000380: 929b ce3d 541e 843d 8e4c c53d cc9c 4c3e
00000390: 4416 11bc 1bc1 bc3c c1e3 1b3e 07a6 94bd
000003a0: f7d5 e9bd 69a0 173e d7b8 8ebc 9a17 d53d
000003b0: eaa7 8b3e 68bf 16bd 9720 a53d c1d2 c6bd
000003c0: 1b31 8e3e afd5 b83e eb08 c5bd f9d4 23bd
000003d0: ed50 55bd 125c 523e d7fb d63c e35b aebd
000003e0: eb8b 013d f058 9dbd 1903 38be 7a93 043e
000003f0: 4512 e73c 0117 1dbe 6106 293d a8ac 1b3d
0.067113616 -0.0063983207 -0.051287256 -0.03224594 -0.26254147 0.10173155 0.007830051 0.023325548
-0.058015037 0.16020128 0.087112315 0.0898194 -0.33507636 -0.0098752575 0.09891222 0.04799424
-0.1070666 0.083603635 -0.12371912 -0.29429612 -0.072511874 0.37208176 0.10828395 0.17126697
-0.046112932 -0.15043019 -0.07009876 0.12776658 0.099876024 0.022280678 -0.022918591 0.025694929
0.015787125 0.009764424 0.14602901 -0.056328315 -0.10699128 0.11431168 -0.062409785 0.07411036
0.26701844 0.084687985 0.036102485 0.018782863 -0.17161387 0.076089084 -0.118190765 -0.05830939
-0.09574161 -0.38810688 0.08537114 -0.020613857 0.08912761 -0.31836587 0.22452514 0.18920657
-0.085939325 -0.07401479 0.27918017 0.14018261 -0.025665317 0.20738184 0.0523556 0.07649326
0.2827125 0.004419445 0.07116132 0.23880579 -0.06330806 0.032211214 -0.0020458703 0.0016111545
-0.0390652 0.07594165 -0.05314692 -0.09887717 0.6156226 -0.09616704 -0.080186434 -0.037477512
0.21993977 -0.08999111 0.22318426 0.20823492 0.023966942 -0.41073653 -0.046174973 0.22768614
0.38392925 0.12541518 0.26601338 0.07968706 0.24186562 0.081017934 0.066589765 0.20562108
-0.07656837 -0.09894696 0.17593412 0.118233964 -0.03876924 0.07671571 0.18781623 0.13094944
0.013269344 -0.019514116 0.068273254 0.060546316 0.33753863 0.013191789 0.24971408 -0.0056153885
-0.051166363 0.18771844 0.061746914 -0.14137067 0.217746 -0.25508848 -0.24221031 0.11854207
0.22450149 -0.08089199 -0.3250752 0.13493808 0.15609933 -0.007249969 0.177545 0.17137656
0.10913218 0.05776645 0.0011018944 0.16220011 -0.07416854 0.008754995 0.108344756 0.0040676678
-0.22250251 0.23050107 -0.01643925 0.07741129 -0.3479705 -0.068965055 -0.121883556 -0.05268698
-0.0889336 0.006242193 -0.08177871 -0.21048327 0.022450708 0.273529 0.018032799 0.15609698
-0.034043368 -0.25597912 0.09052489 0.028961558 0.072739646 -0.009412316 0.20946383 -0.07991647
-0.17125967 -0.06332989 0.03598298 -0.13198106 -0.009503217 0.13696045 -0.033726223 0.15158844
0.2482009 0.10739879 0.123554125 0.013570824 -0.13264968 0.13369983 0.078760624 -0.034288242
0.02045621 -0.36683172 0.17752214 -0.29218182 -0.06500932 -0.19811209 -0.09448432 -0.000966327
0.008376153 -0.042040676 0.14014915 0.0740347 0.13652901 0.20913415 0.13967066 0.11087662
0.055263262 0.17141774 0.13888483 0.06377061 0.3144812 -0.024150798 -0.13781221 0.06321836
0.19569303 0.06419738 0.13904127 0.02186622 0.39706492 -0.01121921 0.123077154 -0.10882552
0.122829124 -0.018480012 0.19010313 0.33777088 -0.0662798 -0.1968956 0.109314784 -0.05762597
0.015894713 0.16291428 0.11432101 -0.031196104 -0.0669949 0.034189783 -0.02109475 0.2928215
0.100882664 0.06451097 0.09633742 0.19981688 -0.008855406 0.023041299 0.152236 -0.0725823
-0.11417764 0.14807285 -0.017422123 0.10404892 0.27276546 -0.036803633 0.08062857 -0.09708167
0.2777184 0.36100528 -0.096208416 -0.03999803 -0.05207913 0.20542935 0.026243133 -0.0851362
0.031627577 -0.07682979 -0.17969932 0.12946883 0.028206954 -0.15340807 0.04126585 0.038006455

model.dense1.bias f4 [32]
00000000: ddd0 d43d be78 863d eabd 1a3e 427f 273e
00000010: 8698 c4bd 28e3 cdbc 9b6f e3bd 7814 4abc
00000020: db50 bf3d 7567 143d 4e3a 9a3d 970e 1a3e
00000030: 93fc 363e 1a4c ef3d ff1b 523c d0a3 6a3d
00000040: 7734 d53d 92af 2f3e 3466 e43d 8376 a43c
00000050: bcec 91bd f5ab 1dbd 9fa3 783d fc93 223e
00000060: a861 d13d 4710 a53b 727e 8fbd 48d3 9b3c
00000070: b4a9 48b9 e888 f83a 1ccd 81bd 8cb6 fb3c
0.103914 0.065659985 0.15111509 0.16357139 -0.09599404 -0.02513273 -0.111052714 -0.012333982
0.09341594 0.036231477 0.07530652 0.15044628 0.17869787 0.11684437 0.012824058 0.05728513
0.104103975 0.17156819 0.11152306 0.020076042 -0.071252316 -0.03849407 0.060702916 0.15876764
0.102237046 0.005037341 -0.070065394 0.019021645 -0.00019136706 0.00189617 -0.0633795 0.030726694

model.dense2.weight f4 [16, 32]
00000000: b0a5 833d 14f9 0fbe 76f5 5b3e c910 d13c
00000010: 8e16 36bd ea72 983d 9ac1 293d d4ab 7dbe
00000020: c709 1f3e cdbb 9f3e 2192 053e 7e43 823c
00000030: 1dde 963d a780 193e 8c97 183e 91a4 ff3c
00000040: 25b5 1ebd a925 c73d 4aaf 2e3c 8353 263d
00000050: 3a3f 23be 8031 0fbe 7182 ecbd d328 19be
00000060: 83d2 ec3d 7669 d53d 83f0 42be 18a2 213d
00000070: 7087 1d3e d40e 9d3c dde0 313e 181b 61bd
00000080: d4e6 2ebe 3144 443e 5aaf 41be 9585 cd3c
00000090: 1208 17bd 8773 b4bd 7355 9c3e 01fb 033e
000000a0: 22bb 75bd 2df6 9b3d 102b da3c c708 e93c
000000b0: d130 19bc 144e cbbc 6a0e 07bb 10ea 29bc
000000c0: fa60 5c3e ebac 513e 9262 55be 04df b43e
000000d0: 6e76 3e3d c341 3d3e f965 11be 23e1 1f3e
000000e0: a863 423e 1353 bb3d 3dea 08be 06ea 723e
000000f0: 9647 1a3e 227f 8e3d b9dc bd3e 671e 11be
00000100: ab63 01be 9f0d ccbd d593 153d 5c32 d93d
00000110: 9116 493e b16b 563d a956 103e b665 09bc
00000120: 2d77 a43c 9fe2 0d3e 1e01 5dbe e2b6 0bbd
00000130: 1347 e23d e109 bebd af90 b9bc d619 a93d
00000140: 2c97 0bbc 6a5d ef3d c0c0 12be 05a9 0dbd
00000150: 0f3a eebd 82a7 fcbd f659 7abc 5a38 123e
00000160: d115 10be 157d 28be 94d4 b2bd ab39 ad3d
00000170: d437 483e 9318 713a c954 673e 7486 81ba
00000180: 5b43 7b3e 6300 373e 84b9 c93c da6d 4d3e
00000190: 5da1 14be 9073 85bc 4313 1abe eaa8 543e
000001a0: b00d 94bd 1576 76bd c7ba 803d d167 11bc
000001b0: 6a7e 2dbe 11bd cf3d 134e 823e 95f1 143d
000001c0: c017 12be fdab b1bc a9c5 8abe bb4c 093c
000001d0: 349d dc3d 213a 483e 6223 d1bd 0cd6 c83d
000001e0: 32ed d23c 8a3c 483e 253a 033e df02 613d
000001f0: 24ef 1cbe e544 08be 52eb 51be 430c 213c
00000200: fe3e 84be 871f ec3d ceb4 2c3c 8817 323d
00000210: d554 903e 13af 23be 2baf e23d 93b3 193e
00000220: d576 4d3d 99a3 3fbd 9bdf 803d e9d1 24be
00000230: 8671 08bd ca31 c6be 7a6e aebd 828e 7ebb
00000240: 46b8 8f3c fa89 86bd fcd1 8e3e c318 75bc
00000250: 7ccf 723e 644a 2fbe 0833 b63d 278a 353e
00000260: a6c8 3abd 7692 ffbd b165 d2bb 5fd5 19bd
00000270: edd1 393e 9d1a e53c 495e 63be 7f0d ae3e
00000280: 88cd 68bd 9b46 8b3d d57a c23c c771 863e
00000290: 1a6a 323e 413e b6bd e724 57bd 54bd 923e
000002a0: 7102 2bbe b2ee 88be dab3 77be c841 97be
000002b0: 0a5c 973c cb53 5cbd e7b3 06bd 7caf 42bc
000002c0: 6796 7abe b763 193d 9f8c 013e 5a98 bcbd
000002d0: cb83 153e 7a17 8e3c d10c 843d b369 2e3e
000002e0: e1b7 933d c99b 3e3c dfbe ca3e 1f53 3f3e
000002f0: b280 f8bd fce9 133e 6566 36be c280 a43e
00000300: 1e18 103e c1f4 8c3e ebd2 383e ef83 763d
00000310: 87da 58bc 5a7a 26be 1996 0d3e 367f ecbc
00000320: dda5 7c3e d305 073d 900e 45bd 9423 a33e
00000330: 6d34 b33d a957 843e 7a8b 913e 1e97 9e3e
00000340: 2c43 453e bceb c7bd c01a 0ebe ba36 fc3d
00000350: 4865 d9bd 600e 923e caa9 2b3e ead1 253d
00000360: 2e5a 9d3e 1724 e63d 869d 2ebe d648 773d
00000370: 4a69 5a3e 3cb7 0abd fd47 ba3e 6839 12be
00000380: fac2 eebc df4f d53d a6d5 b3bd 29e0 7c3e
00000390: 0f5e a13c d624 a23d 3ace db3d 8b8f d43d
000003a0: 911a 2abe 7dee b23e 7f35 e53d a86b a9bc
000003b0: 6363 1e3e 46cd 9b3e 3061 47be 2cc6 8d3c
000003c0: b99a c93e abcd c73d fd6b cc3d 5887 373e
000003d0: 9050 473e bdb9 2c3d 3c2f 09be 0a5a 29be
000003e0: 9261 ddbd 8925 0f3e e79e 04be 5ed4 0e3e
000003f0: 9b02 e93d cbb1 aebc 3efb 983e 884b 6fbc
0.06428087 -0.1405986 0.21480355 0.0255207 -0.044455104 0.07443793 0.0414444 -0.24772578
0.15531074 0.31197968 0.13044025 0.015901323 0.073665835 0.14990483 0.1490156 0.031206401
-0.03874697 0.0972398 0.010661909 0.040606987 -0.15942088 -0.13983727 -0.11548317 -0.1495698
0.115635894 0.10420506 -0.1903706 0.039461225 0.15383697 0.01917211 0.17370935 -0.05495748
-0.17080241 0.19166638 -0.18914548 0.025088111 -0.03687293 -0.088110976 0.30533943 0.12888719
-0.059992917 0.07615314 0.026631862 0.028446568 -0.009350018 -0.024817504 -0.0020607957 -0.010370746
0.21521369 0.20476119 -0.20838383 0.35326397 0.046499662 0.18482117 -0.14199056 0.15613227
0.18983328 0.091467045 -0.13370605 0.23722085 0.1506637 0.069578424 0.3708246 -0.14171754
-0.12635677 -0.099635355 0.036517937 0.106053084 0.19637515 0.052348796 0.14095558 -0.008386066
0.020076359 0.1385598 -0.21582457 -0.034109958 0.110487126 -0.09279228 -0.022651998 0.08256881
-0.008519929 0.11687739 -0.14331341 -0.034585018 -0.116321675 -0.12336637 -0.015280237 0.14279309
-0.14070822 -0.16453965 -0.08731952 0.08458265 0.19552547 0.0009197082 0.22590937 -0.0009881989
0.24537413 0.17871241 0.024624594 0.20061436 -0.1451468 -0.016290456 -0.1504641 0.2076756
-0.07229173 -0.060171206 0.06285625 -0.008874849 -0.16942754 0.101434834 0.2545019 0.036363203
-0.14266872 -0.021688456 -0.27103928 0.00838011 0.107721716 0.19553424 -0.10211827 0.09806451
0.02574787 0.19554344 0.12815149 0.05493438 -0.153256 -0.13307531 -0.20499924 0.009829584
-0.2582931 0.11529451 0.010541154 0.043479472 0.28189722 -0.15984754 0.11068567 0.15009908
0.050162155 -0.04678688 0.06292649 -0.160957 -0.03331139 -0.3870986 -0.085171655 -0.0038842265
0.017543923 -0.06569286 0.2789458 -0.014959517 0.23711962 -0.17118222 0.08896452 0.17728482
-0.04560151 -0.12479107 -0.006420814 -0.037557002 0.18146487 0.027966792 -0.22203936 0.33994672
-0.056836635 0.06800576 0.023740212 0.2625868 0.17423287 -0.08898593 -0.052525427 0.2866007
-0.1670015 -0.2674461 -0.24189702 -0.29542375 0.018476505 -0.05379085 -0.032886412 -0.011882659
-0.24471436 0.03744861 0.12651299 -0.09208746 0.14601056 0.017345179 0.06447757 0.17032509
0.072128065 0.011633822 0.39598748 0.18684052 -0.12133922 0.14444727 -0.17812498 0.32129484
0.140717 0.27530482 0.18049209 0.060184415 -0.013235695 -0.16257611 0.13826789 -0.028869253
0.24672647 0.03296454 -0.04810959 0.3186308 0.08750234 0.2584813 0.28426725 0.30974668
0.19263905 -0.0976176 -0.13877392 0.12315126 -0.10615021 0.28526592 0.16763988 0.040483393
0.30732864 0.11237352 -0.17052278 0.060372196 0.21329227 -0.033866152 0.36383048 -0.14279711
-0.029145706 0.10415625 -0.087809846 0.24694885 0.019698171 0.07917182 0.10732694 0.10378941
-0.16611697 0.34947577 0.11191844 -0.020681217 0.154676 0.3043005 -0.19470668 0.01730641
0.39375857 0.09756025 0.09981535 0.17922723 0.19464326 0.04216932 -0.13396925 -0.16538253
-0.10809626 0.13979162 -0.12951241 0.13948199 0.1137745 -0.021325013 0.29879183 -0.01460541

model.dense2.bias f4 [16]
00000000: 21d9 32bd bdba 09bc c5bd 7d3b 3878 4fbc
00000010: 06a1 d5bc 3bf9 c23d 4ef3 783e 7b0e f8bd
00000020: fc40 14be be3a 4bbd aa7a 9f3c 5ad5 92bc
00000030: ef94 723e 61ef 2a3e c286 573e 0463 603e
-0.0436641 -0.008406338 0.0038717848 -0.01266294 -0.026077759 0.09520193 0.24311563 -0.12112137
-0.14477915 -0.049616568 0.01946767 -0.017924 0.23689626 0.16692878 0.210475 0.21912771

model.dense3.weight f4 [16, 16]
00000000: 2654 15be 8030 b0bb 84d2 4cbe 70da 133d
00000010: 27a6 363e 9e30 f8bd f6d0 4abe 782a 4abd
00000020: 96dd 42be 08dd ea3d d891 71be bc81 0abe
00000030: 58de 553d c0c8 a23b df9e ea3d 03c2 7bbd
00000040: b6db 69be 58a2 4cbe b484 cebd 9aa0 3cbe
00000050: e091 143c ccc7 05be c8d4 50bd 50cb 0cbd
00000060: aacc 4b3e 403e f53c c0bc b8bc a0e0 f53c
00000070: 203b eebd a830 183d 1861 febd 8cc2 acbd
00000080: 9672 1cbe b4c9 083d 66d0 0b3e 70b2 c03e
00000090: bcdc 94be 08d0 a6bd f10a 9c3e 4bbf 72be
000000a0: 0013 993b 4b35 07be 84cc 92be 2278 7bbe
000000b0: 4fa6 bfbd cf9a 38be 3057 a83e 10ec ac3e
000000c0: 2e1f 1a3e 9c19 58be c856 7e3e bffa a6be
000000d0: f026 f33e fad1 7d3d 2efc 46be d3a9 713b
000000e0: 2e85 19be fa05 babe 11df 393d 27b9 203e
000000f0: e1af 1b3d 117b f5b9 dba0 a63e f877 bf3d
00000100: 41e7 be3d cc01 013e 990c 673e da5f e8be
00000110: b054 703e 7911 a03d df79 353e a735 573b
00000120: bc99 8bbd 38bf 53be b459 68be c2b0 653e
00000130: 7e36 35be aa4b a33c 1861 523e 95d7 a4bd
00000140: a3ae 7b3e 7772 3abd 95f4 5d3e 0193 913d
00000150: fb12 6ebe 188c 81bd 5655 233e ba67 bf3c
00000160: 8c71 093e 9260 723e c4aa a8be 25a9 48bd
00000170: 5147 953e 855b 9e3d 6265 303c c0cb 19be
00000180: d61a 04bd 528e 7b3c d140 0cbe abc5 56be
00000190: d763 6cbe b890 08be a5aa 6f3e 7161 a03e
000001a0: d693 0fbe 825b d1bd 4b2d 45bb 3828 703e
000001b0: 8d22 adbc 7bc5 83bd 5fe2 993e 945f 2abe
000001c0: 40a4 603e f941 8c3e 3722 003e 7461 d53d
000001d0: 6a49 41bd 4c82 6bbd 9382 5d3d e809 c5ba
000001e0: c454 95bd bea1 b3bd 91b8 38be 0f3b 283e
000001f0: 2b99 d1bc b407 cfbd 640c 673e d26a 64be
00000200: a916 a73e 3fd9 11be a242 1dbd 56d6 21bd
00000210: 7eb0 c3bc 609b f0bd 8d3a a63e 06bb 29be
00000220: aa9c 2f3e ba66 973d b9da 77be 5a8f 4cbd
00000230: eacc 383e 49fa 41bc 6662 683e d44b 1e3e
00000240: 1fb4 cc3e 2752 163d c785 be3d 73ca 86be
00000250: e5ec 9bba 20b9 14be 6f2b 4f3e 4f37 bb3e
00000260: 981f 693e 3666 ab3e d04d 76be 3042 9e3e
00000270: 0d18 8d3e b0a7 563d e0ad 04be 757d 043e
00000280: c576 abbe e207 e73d deb8 263e 5be9 113e
00000290: 2275 143e 5728 063f 1c27 1b3e ca9e abbd
000002a0: b020 cc3c d796 463d c925 f13e f1b3 a93d
000002b0: 7f51 40be eda8 3cbe be26 0a3e f4af b53e
000002c0: 685c 3e3e 7566 543d c4e4 033c 389f 033e
000002d0: 165e 5bbe 511b 62be e060 283e 4d02 04be
000002e0: 387b 303d 2513 603e 3704 d2bd 125a 99bd
000002f0: 1ad2 243e 123c 753e 624b 5a3e 4454 603e
00000300: 07de db3c d389 7fbe 8e98 d0bd 082c 053d
00000310: 9c8a 43bc 6cde a13e 58e6 cbbc bafa 75be
00000320: 502c ce3c 6efc 95be febc 32be 2428 3bbe
00000330: 9922 50be fb75 893e 65c3 723e 3cde a13c
00000340: cbbb 1fbe 863b bf3e d585 803e 91d2 823e
00000350: 6bb9 d4be 81a6 62be f822 193e e070 a4bc
00000360: d895 e93d fa97 3c3c 1a61 15bd 3566 313e
00000370: ea2f 2bbe ba23 62be a5be 673e c174 24be
00000380: 3595 44bd 35dd b73e 5574 613e 270f d3bd
00000390: 4db9 c33d 712c 4abe 0f8c 283e 1e77 853e
000003a0: e411 ac3d 2982 4c3e d143 383e 1061 ab3e
000003b0: ebca c83e 503f 15be 8c05 61be 99c9 4f3d
000003c0: 6fab 8e3d f192 513c 5058 46bc e548 13be
000003d0: 538f d4bd 7272 383b 2d36 893d 24a6 b7be
000003e0: 78cd 65be ed99 9e3e 42fa d5bd 9f4b 5ebd
000003f0: 6fc7 863e f5c3 e9bd 70da 283e 3cb3 b93e
-0.14582881 -0.0053768754 -0.2000218 0.03609699 0.1783682 -0.12118648 -0.19806275 -0.049356908
-0.19029841 0.114679396 -0.23590791 -0.13526052 0.052213997 0.004967779 0.114560835 -0.06146432
-0.2283772 -0.19983804 -0.10083905 -0.1842064 0.009067982 -0.13064498 -0.050984174 -0.03437358
0.19902292 0.02993691 -0.02255094 0.030014336 -0.11632371 0.037155777 -0.12420863 -0.08435544
-0.15278086 0.033395484 0.13653716 0.37636137 -0.29074657 -0.081451476 0.30477098 -0.23705785
0.0046714544 -0.13203923 -0.28671658 -0.24557546 -0.09357893 -0.18027805 0.3287902 0.3377385
0.15050957 -0.21103519 0.24837792 -0.3261318 0.47490644 0.061967827 -0.19432136 0.0036874905
-0.1499221 -0.36332685 0.04537875 0.1569563 0.038009528 -0.00046821733 0.32544598 0.09349054
0.09321452 0.12598342 0.225634 -0.4538563 0.23469806 0.07815833 0.17722271 0.0032838376
-0.06816432 -0.20678413 -0.22690469 0.22430709 -0.17696568 0.01993354 0.20544851 -0.080489315
0.24578337 -0.04551932 0.21675332 0.07108117 -0.23249428 -0.06325549 0.15950522 0.02336489
0.13422221 0.23669651 -0.32942784 -0.048989434 0.29155973 0.077323 0.010766359 -0.1501913
-0.032252155 0.015353756 -0.136966 -0.20973842 -0.23084961 -0.13336456 0.2340494 0.31324342
-0.14021239 -0.10222532 -0.0030086811 0.23452842 -0.02113464 -0.06434151 0.3005552 -0.16638023
0.21937656 0.27394083 0.12513052 0.10418978 -0.047189154 -0.057497308 0.054079603 -0.001503286
-0.072915584 -0.08771084 -0.18039156 0.16428779 -0.025585731 -0.10108891 0.2256332 -0.22306374
0.32634476 -0.14243029 -0.038393624 -0.039511047 -0.023887869 -0.117483854 0.32466546 -0.1657525
0.17149606 0.073926404 -0.2420453 -0.0499414 0.18046919 -0.011839458 0.22693786 0.15458614
0.3998117 0.03669944 0.0930286 -0.26326331 -0.0011896162 -0.14523745 0.20231412 0.36565635
0.22765958 0.33476418 -0.2405312 0.30909872 0.27557412 0.052406013 -0.12956953 0.12938483
-0.3348905 0.112808004 0.16281459 0.14249174 0.14497808 0.52405304 0.15151638 -0.08379896
0.02491793 0.048483696 0.4709914 0.08286274 -0.18781088 -0.18423815 0.13491341 0.35485804
0.18589938 0.051855523 0.008050147 0.12853706 -0.2142261 -0.22080733 0.16443205 -0.12891503
0.04308626 0.21882303 -0.1025471 -0.07487883 0.16095772 0.23948696 0.21317819 0.21907145
0.02683927 -0.2495492 -0.101853475 0.032512695 -0.0119349025 0.31615007 -0.02489011 -0.24021426
0.025167614 -0.2929415 -0.17454907 -0.18277031 -0.20325698 0.26847824 0.2370735 0.01975929
-0.15598981 0.373501 0.25102106 0.25551274 -0.41547713 -0.22133829 0.14954746 -0.020073354
0.114055336 0.011510843 -0.036469556 0.17324145 -0.16717497 -0.22083941 0.22631319 -0.16060163
-0.047993857 0.35910955 0.22017033 -0.103056245 0.09556828 -0.19743516 0.16459678 0.26067442
0.0840185 0.19971527 0.1799462 0.3347249 0.39217314 -0.14574933 -0.21974772 0.050729368
0.06966292 0.012791381 -0.012106016 -0.14383276 -0.103788994 0.0028144387 0.06699786 -0.35868943
-0.22441661 0.3097681 -0.104481235 -0.054271337 0.2632403 -0.11414329 0.16489577 0.36269557

model.dense3.bias f4 [16]
00000000: b442 63be c8bd 40be c188 a03e ecbb 563d
00000010: fb7d 21be effd 38bd c1eb a13e 9012 193e
00000020: e86a 08be 682e 8e3e 2c75 bbbc 806f f13d
00000030: 0beb 5e3e 2e97 d03d cab9 603e 1392 78be
-0.22193414 -0.18822396 0.31354335 0.05242531 -0.15770714 -0.045164045 0.31625178 0.14948487
-0.13322031 0.2776978 -0.02288302 0.11788845 0.2176935 0.10185085 0.21945873 -0.24274473

model.dense4.weight f4 [16, 16]
00000000: cdb1 8f3b 1085 073e a0f8 983e 39e0 ad3e
00000010: cadb 14bd 896d 063e be63 2c3d 67f1 11bd
00000020: 0629 7c3e ab29 c9bb 1058 fabd 3556 903d
00000030: 8684 f83e b1a0 f3be 94f6 6a3b 90cb 413e
00000040: b255 6d3e 3c33 08be ff6f 913d 822b 5ebd
00000050: 577f 8a3c 2882 1a3f 406e 1a3e 77f1 803e
00000060: 5ace b53d f138 383e afa9 85be faf5 8bbc
00000070: f5c7 1f3e 02d5 af3d eb82 9e3e 0e41 58bd
00000080: c51e 0abc 9c3b 51be 26e8 923e 0066 b0bd
00000090: 94b3 8dbe 72d8 88bd 244f 7dbe 844c ac3b
000000a0: e60c 763e 0a30 603e 3a7b b73e 9142 8a3e
000000b0: 2b60 89be b08c f9bd 275c f03d ca06 963e
000000c0: 504b f2bd 5ca1 de3d b59c 94bd 4694 4b3d
000000d0: a264 23be f181 853c 28a4 4abe 3228 9cbe
000000e0: f330 91bd 0753 323e bc74 9b3e 9caf 363e
000000f0: c759 f9bd 7efc aabe 58fa 9e3e 6e00 a23e
00000100: 7455 483b 9886 833d 7524 bd3e 5935 10be
00000110: 17cc 3abe 2106 51be 06a1 51be 9191 e5bd
00000120: a181 7a3e 67a1 c8bd f963 b73e 48df 043e
00000130: 997b 3fbe a524 ae3d 69cb d73c 2795 ddbd
00000140: be6d e4bd fc04 223e 388f fabc d8de 013f
00000150: de39 613e 8cf4 6b3e 2ba8 2dbc 9a50 89bd
00000160: 3f46 e23d fc14 103e e585 ebbc 9424 5f3d
00000170: 60be c73e 29e5 c9be 3c30 a43d 4564 bd3d
00000180: 2b5f c6bd a032 14bd 5a3f 62be 3d7d eb3e
00000190: 2f89 af3d d2f8 8fbe 50c7 5ebe 3ab9 55be
000001a0: b5bf 92be d4ef 053e 0a83 b13e 62d6 8abe
000001b0: 5755 06be 907a bd3d 7927 663e 2f7b 2f3d
000001c0: 56ca 3fbe 70d4 84bc 9161 f43d 52fe 523e
000001d0: 1a99 1f3e 8ac8 e1bd 55b5 2e3e 7196 213e
000001e0: 0125 25be ee62 89bd 828a 773e ec6f d7bd
000001f0: 67c5 f33e 03bb 723e a3c6 c43d 6569 863d
00000200: b045 0bbe 8cd6 5b3e ebb1 0abe 8e43 8f3e
00000210: c52a 2dbe 5ec1 30be 5131 1e3e 20f8 eabd
00000220: 7ec4 3d3d 602c 82be 7510 083e f603 51be
00000230: 0069 9d3e bf20 abbe 19b6 773e e81b 383e
00000240: eac3 68be c082 6a3e 27f5 a0be ca96 8ebe
00000250: c23d c8bd ad1e c83d c173 653e 7105 95bd
00000260: fac4 f83d 58e1 973e 3ae0 c0bd 6d11 663e
00000270: dc78 7cbd eb8b 6fbe f3e1 773e 76ff 243d
00000280: b6d2 963d b04a 473d 9fcb 703e 205c 25bd
00000290: 3d25 293e 8f61 4d3d ba83 253e 7116 c53d
000002a0: 8132 873e f298 3a3e 020d 0bbe 3d8c a03e
000002b0: 20c3 393e 9684 e43d 9b1b 02be fee4 903e
000002c0: dddc 47be b4e5 0dbe bd35 a1bd f8ce adbd
000002d0: 3ed0 7cbe 7269 bb3e 3b73 3bbe 516c c7bc
000002e0: 27a1 50bd 7bb8 ff3b acd2 2f3e 393d 583e
000002f0: 5bb0 373e 6b93 8ebe 3171 19bd 3517 833e
00000300: 5ca6 1ebd 2273 513e 0643 523e b90c f43b
00000310: 8926 963d e12e b53d 5fcd 67be c383 063e
00000320: 3ecb afbd f9b9 b8be e098 953e 50d6 6bbe
00000330: 5d5f a83d 6003 75be e27f 07be 77d6 69be
00000340: 72e3 43be b897 40bd 79d3 e63e f0c5 68bd
00000350: 2f83 b0bd 40bc 3ebe d81c 6d3e cfb5 02bd
00000360: 3ac9 533d 5796 5bbe f690 2cbb a8fd af3d
00000370: 4937 2b3e 3ab5 7dbd cab1 d43a 92e5 5d3e
00000380: a55a ea3c d02c 4bbd ea55 dbbd d887 aa3e
00000390: 7742 443e f055 b8be 377f 5cbd cf5f cbbd
000003a0: 1b95 543e 1ecd 25be 537b d93d ccda 9f3d
000003b0: e502 663e 11b8 13be 49af 14be 31e6 903e
000003c0: c8de 8b3d 4234 04be 224d 813d 0415 ae3e
000003d0: 2670 e93e 58be 31be 92cb cb3e 19df e53e
000003e0: d1e8 053e 728b 383e 385b 0ebe 492d 293e
000003f0: ee21 9c3e ebf7 d63e 2106 c43e a9e7 53be
0.004385209 0.13234353 0.29877186 0.3396013 -0.03634242 0.13127722 0.04208731 -0.03563061
0.24625024 -0.0061390004 -0.12223828 0.07047693 0.48538607 -0.47583535 0.0035852538 0.18925309
0.23177221 -0.13300794 0.0710144 -0.05424071 0.016906423 0.6035485 0.1508112 0.25184223
0.08877249 0.17990471 -0.2610602 -0.017085064 0.15603621 0.0858555 0.30959257 -0.052796416
-0.008430188 -0.20432895 0.2869274 -0.08613205 -0.2767607 -0.06681909 -0.24737221 0.005258145
0.24028358 0.21893325 0.35836202 0.2700391 -0.26831183 -0.12185037 0.11736327 0.29302055
-0.11830771 0.108706206 -0.07256452 0.04970195 -0.15956357 0.016297312 -0.19789183 -0.30499417
-0.070894144 0.17414485 0.303625 0.17840427 -0.12175327 -0.3339576 0.31050372 0.31640953
0.0030568512 0.06422156 0.36941877 -0.1408285 -0.18241917 -0.20412494 -0.20471582 -0.11209405
0.24463512 -0.0979641 0.3581846 0.129758 -0.18699493 0.08503083 0.02634211 -0.10819464
-0.11153744 0.15822214 -0.03058587 0.5073066 0.21994731 0.23042506 -0.010599176 -0.06704827
0.11048555 0.14070505 -0.02875037 0.054478243 0.39012432 -0.39432648 0.080170125 0.092476405
-0.096861206 -0.036181092 -0.22094479 0.45993987 0.085710876 -0.28119522 -0.21755719 -0.2087144
-0.28661886 0.13079768 0.34670287 -0.27116686 -0.13118492 0.092518926 0.22475995 0.042842086
-0.18729529 -0.01621458 0.11932672 0.20604828 0.15585747 -0.11024578 0.1706136 0.15780045
-0.16127397 -0.067083225 0.2417393 -0.10519394 0.47611544 0.23704152 0.096081994 0.06563071
-0.13600802 0.21468562 -0.13544433 0.27981228 -0.16910847 -0.17261264 0.154485 -0.11473107
0.046329968 -0.2542448 0.13287528 -0.20411667 0.3074417 -0.3342342 0.24190558 0.17979395
-0.22730985 0.2290144 -0.31437036 -0.27849418 -0.09777404 0.09771476 0.22407438 -0.072764285
0.12146945 0.2966411 -0.09417768 0.22467585 -0.061638698 -0.23393218 0.24207287 0.04028269
0.07364409 0.048655212 0.23515175 -0.04037106 0.16518112 0.050141867 0.16163531 0.09623421
0.2640572 0.18222407 -0.13579181 0.31356993 0.1814084 0.11158101 -0.12705843 0.28299707
-0.19517846 -0.13857156 -0.07871578 -0.08486742 -0.24688813 0.36603886 -0.18305676 -0.024343641
-0.050934937 0.007803974 0.17170209 0.21117105 0.17938368 -0.27846846 -0.037461463 0.25603643
-0.03873287 0.20454076 0.2053338 0.0074478057 0.07331569 0.08846832 -0.22636937 0.131362
-0.08583687 -0.36079386 0.29218197 -0.23030972 0.08221314 -0.23927069 -0.13232377 -0.22835718
-0.19129732 -0.04701969 0.45083216 -0.056829393 -0.08618771 -0.18626499 0.23155534 -0.031911667
0.051705576 -0.21444069 -0.002633152 0.08593303 0.16720308 -0.06194041 0.0016227302 0.21669605
0.028607676 -0.049603283 -0.10709746 0.33306766 0.1916598 -0.36003065 -0.05383226 -0.099303834
0.20760004 -0.16191527 0.10619225 0.07805404 0.22462042 -0.14425685 -0.14519991 0.28300622
0.068296015 -0.1291056 0.0631354 0.3400041 0.45593375 -0.17357767 0.3980375 0.44896773
0.13077094 0.18021944 -0.13901985 0.16521181 0.30494636 0.4198602 0.38285926 -0.2069384

model.dense4.bias f4 [16]
00000000: 23d6 833c f7f4 b53e e3e9 263e e198 f93d
00000010: c866 e6bc b2d7 75be f571 413e 4a0d ad3e
00000020: 8eeb e03d eeca 1e3d fae7 373e 8bfd 2bbd
00000030: 3a55 e33e 537e 2a3c d2f2 cbbd 7603 b63d
0.01609332 0.35538456 0.16300158 0.121873625 -0.028125182 -0.24008062 0.18891127 0.337992
0.109824285 0.038767748 0.17959586 -0.041989844 0.4440096 0.010406095 -0.09958424 0.08887379

model.output.weight f4 [10, 16]
00000000: 01a9 9abc 1839 a53e 85d1 973b 3f30 ef3d
00000010: 8cc3 ecbe 4af0 ad3d 8388 8bbe 96ff e0be
00000020: 5969 8fbe f14c 2b3e 4aaa 763d 304a db3d
00000030: 539d 9dbc 755b 10bf ea9a 6abe 1b50 283d
00000040: 4a3a f2be cdb6 0b3e 57d0 223e f675 663d
00000050: d065 973e 63ff 3dbf ff44 9d3d 16b6 343e
00000060: 71dc 2b3e ebd6 90be 046c b7be b2eb 363e
00000070: 1628 333f cc0e e2bc 629a 29be 295b d4be
00000080: fff1 5abe 8332 9a3d 23da e2bc dff5 3d3e
00000090: 5d69 84be cf88 86be 4160 483d 02ae 803e
000000a0: 2678 c43c be70 dbbc 589d 93be 2c27 b7be
000000b0: 1aed a9be b9a6 383e 2223 bc3d 02b9 963e
000000c0: 054f 71be b27e 24be b6cb 643d 90cd 033e
000000d0: 9963 80bd 42fc 88bc fe0b 973e 1397 933d
000000e0: a73d 163e a4c8 7f3d cddd 8cbe d019 4c3e
000000f0: ea0d 53be 24e6 63bd 5ae9 37be cbd2 c3bd
00000100: 8341 ff3d b737 35bb b692 52bd 3885 ecbe
00000110: cc78 d5bb ccf2 193e d4b5 cdbe 97e0 6b3e
00000120: 672b afbe 7c1c acbe 9f94 243d 9902 0fbe
00000130: b147 76bc e2a9 ad3e bcca ac3d fd6f 683e
00000140: a940 743e 05ad 3e3e 61ba 293e 1a38 403e
00000150: 7729 95bc 50f9 56be 05c7 9abe c783 a23b
00000160: 49d1 7fbe 7a7b eebd b555 863d e911 27bc
00000170: 0f4a 64be 3731 b2bd 1ae0 cbbe d1b3 81bd
00000180: d8fa b8be c2d3 b83e d90f 79be f05c 24be
00000190: b19d 403e bb8f e5bd c747 1abf 8528 9c3d
000001a0: 7f6e 53be 1637 853e d42b 41bc c6d3 88bd
000001b0: e4ee 91bc 32e8 5abd e120 95be b93b 813e
000001c0: dcde 303d b720 dfbd d9d5 35be 283b 08be
000001d0: 45fc cc3d 54c2 a33d d59d ae3e a372 ba3d
000001e0: 654b 4a3e b8dc ccbe c0c9 52be 11d0 32be
000001f0: bd7b 643e e179 d1be be44 753e c498 f43c
00000200: db47 4ebe 8829 85be c9ed 8d3e ae48 cc3d
00000210: 3632 ab3e 6119 fbbd be74 e9bd 0d63 3fbe
00000220: 5cff ffbd f2dc 87be de76 303d 410e ffbd
00000230: f889 48be ab72 213e 4234 5e3d 9287 11be
00000240: 0bfa a33e 902a 79be ba41 7ebe 1bfc 913c
00000250: 130a 163e 68b0 413e ed6a a2be 4ba0 6a3e
00000260: 5042 2c3e 05bd f13d 9d37 dcbd 8e48 093e
00000270: 35f5 853e 74d1 203e 380d 2b3e 28cd 7cbd
-0.018879415 0.32270122 0.004633131 0.11679124 -0.4624294 0.08493097 -0.27252588 -0.43944997
-0.2801006 0.1672857 0.060220994 0.107075095 -0.019240057 -0.5638955 -0.22910658 0.04109202
-0.47310096 0.13643952 0.15899788 0.05626484 0.29569864 -0.74217814 0.076791756 0.17647585
0.1678331 -0.2828897 -0.35824597 0.17863348 0.6998304 -0.027594946 -0.16562799 -0.414758
-0.21381377 0.075291656 -0.027691906 0.18550824 -0.25861636 -0.26276252 0.04891992 0.25132757
0.023983072 -0.026787158 -0.2883098 -0.35772073 -0.33188707 0.1803235 0.091863886 0.29438025
-0.235653 -0.16063955 0.055858336 0.12871385 -0.06268997 -0.016721848 0.29501337 0.072065495
0.14671956 0.062447205 -0.2751297 0.19931722 -0.20610777 -0.0556394 -0.1796011 -0.0956169
0.12463667 -0.0027651617 -0.051409446 -0.46195388 -0.0065146443 0.15034026 -0.40177786 0.23034893
-0.342128 -0.33615482 0.0401808 -0.13965835 -0.015031741 0.33918673 0.08437106 0.2269897
0.23852791 0.18620689 0.16575004 0.18771401 -0.018208249 -0.20993543 -0.30229965 0.0049595567
-0.2498218 -0.11644645 0.06559316 -0.010197141 -0.22293876 -0.08700793 -0.39819413 -0.063331254
-0.3612888 0.36099058 -0.24322452 -0.16051078 0.18810154 -0.11209055 -0.60265774 0.07624916
-0.2064762 0.2601859 -0.011790235 -0.066810176 -0.017814107 -0.053444095 -0.29126647 0.25240877
0.043181285 -0.10894912 -0.17757358 -0.13303816 0.10009054 0.079960495 0.3410479 0.091038965
0.19755323 -0.40012145 -0.20584774 -0.17462184 0.22312827 -0.409133 0.23952004 0.029858
-0.20144598 -0.26008248 0.27720478 0.099748 0.33436745 -0.122607 -0.1139922 -0.18690129
-0.12499878 -0.26535755 0.04308211 -0.124538906 -0.19583881 0.15766399 0.054249056 -0.14211872
0.32026705 -0.24332643 -0.2482976 0.017820409 0.1465228 0.1891495 -0.31722203 0.2291271
0.16822171 0.11803631 -0.10752795 0.13406584 0.2616364 0.157049 0.16704261 -0.06171909

model.output.bias f4 [10]
00000000: 5d38 28be dde4 743e 5c6d 45be 816f 0d3d
00000010: a59f 6b3c fc7a 073e 6ca2 13bd f2c4 153d
00000020: 4118 08be 34e8 413d
-0.16427751 0.2391543 -0.19279999 0.034530167 0.014381324 0.13230509 -0.03604357 0.036564775
-0.13290502 0.047340587
