Models/model_optSGD_ep70_neu32_lay4_acc0.9336.pth (torch, 111778 bytes, 12 tensors)

model.input.weight f4 [32, 784]
00000000: 5829 40bc 37cb 95bc 0624 9c3c da33 f8bc
00000010: 4380 cfbc 5cca 88bc c883 ddbb 4ee2 06bc
00000020: 40a3 af3b 8076 c23b 03b9 ebbc 3c3c 983c
00000030: 63f9 2ebb b4d9 1c3a c757 693c 1792 d43c
00000040: aa67 923c 5c71 acbc e0d1 91ba cc5b c3bc
00000050: 9c77 123c 0084 e5bb f096 96bc 1030 90bb
00000060: 1250 a03c 778d 0bbd d8ef 09bd 30ba 9abc
00000070: 14a9 09bd 1b29 09bd 084a fd3b 9ebe fe3c
00000080: be0c dc3c d0ba 16bc abd4 99bb a7f1 2b3d
00000090: 206c bb3d d9b8 2b3c 9b15 d7bc 37a6 f0bc
000000a0: fd64 01bd e758 953c 75f7 d43c df0d 7a3c
000000b0: 1040 c23c 42e9 72bc 25db c5bb faf2 433c
000000c0: b0d0 29bc 6917 f43c 9dc3 01bd 1dc8 d2bc
000000d0: 086b b3bc 7ad3 a23c 2090 ed3a 651b 023d
000000e0: 02c7 c73c f631 ef3c 449e 433c f841 60bc
000000f0: 9d19 d53c a352 f53c 6ac0 cd3c a107 6e3d
00000100: 7f49 153e ff13 b83d d1c9 9a3d a77f 8a3d
00000110: eb97 e63d d8e6 de3d 0b82 003d 4926 9538
00000120: cf2e 2fbd 6e96 603c 1c86 1a3d 6ce0 f4bb
00000130: bf56 393c 3970 9bbb 046e cebc 4360 243d
00000140: d5a5 1a3d 8a71 a03c 5e65 11bd c04f ca3c
00000150: 6a91 c83c 91da 043d 33e4 babc a695 db3c
00000160: 0258 f6bc f6bb adbc 2b39 183d 4725 463c
00000170: fabc 8e3d 5e89 453c 5fcc 8dbc 5b78 c1bc
00000180: 526b e33d 41f8 9f3d 1202 d0bd e157 14be
00000190: e18f d2bd eb99 39be f554 52be a975 9bbc
000001a0: ef95 813d 87bb 6a3d 6b95 c83c 829b b2bc
000001b0: d83c 163b 2c39 f0bb 08fe c43c be50 a6bc
000001c0: 082d e23b 38c8 dc3b 589d a33b 1d88 a3b9
000001d0: 0f30 e63c 020c aaba 968a b23c 2b63 ce3d
000001e0: 62c3 053d 7d8f d73c 1655 963d 153f 403c
000001f0: 386b 4b3e 6cce 44bd 97b1 97bd 35e2 7dbe
00000200: 4ab7 5abe 4108 c73c 94ab 3bbe 65d0 2bbe
00000210: ba60 acbb 70ab 19be 50df 88be a6be 44be
00000220: 2810 02be d02f 31bc cd45 593a 1000 32bb
00000230: b881 083c d0a4 ab3b 2fff 52bb 44f0 21bc
00000240: b9fc 3e3d 92fd fe3c 7bb3 3a3d d6ba 213d
00000250: caaf 8a3d 5704 07be 7387 6fbd c882 06bc
00000260: 533a 6c3b cac5 54bd 4a98 9abd 94ab 8fbd
00000270: 8a38 17be f3ec 1c3b dc32 04be 6434 febd
00000280: 665d cebd 2163 80be 3445 4dbe c891 2ebe
00000290: b354 02be 81d7 00bd 7a02 d93b 8679 5d3c
000002a0: 3c8e c73c 4092 f7ba c5ed 79bc cb3a d1bc
000002b0: 51dd 983d ad90 8cbd 2df8 bd3c 5d82 acbd
000002c0: 9320 26be 9a9a cc3b 12aa 973d caa2 853c
000002d0: b321 26be 1793 77be 83df 72be 7a36 83be
000002e0: d838 22be 6ccf 41bd cafa bebd f250 92be
000002f0: a248 99be 9ea1 4dbe 1dd5 a5bc 70c5 4dbd
00000300: c75a e6bc a855 a13d f87e 993d ef19 003d
00000310: 39ee 9f3c a1e7 b93c a504 dd3c ce7a d1bc
00000320: 871c dc3c 21a7 87be cf0e 1abe addb 5abe
00000330: c37e 12be d86e 52bb 2f0e 03be 0eb5 ad3d
00000340: 9036 08be 6160 bebe 32f2 edbd e40d 40be
00000350: b99c 0cbe 46f5 f3bd b832 b8be a7cd 9cbe
00000360: 614d 9ebe fdf7 9cbe 439e 86bd eabb 08be
00000370: 94ee bfbd 4ee6 03bd 0cb1 9e3d b5d4 483d
00000380: c307 0b3c 3339 423c e52e e7ba 74e3 84bc
00000390: c5fb 5cbd 1ae5 843d 8200 a73b eeb9 2fbe
000003a0: 3cb7 9cbc b176 eb3d 6356 303e bf33 943d
000003b0: 9f84 85be a06c 1cbe 1528 6dbd 054f fcbd
000003c0: 123b 0dbd 32fa 00be cd97 92be e6b3 0cbe
000003d0: 8b4f 39bd e0a6 8dbe 129b 3dbe a315 6cbe
000003e0: 44c7 22be 6da5 98bd f576 60bc 2b50 23bc
000003f0: 660c ddbc ef2b cdbc 7aa6 953c 0344 87bd
-0.011728607 -0.018285377 0.019060146 -0.030298162 -0.025329715 -0.016698055 -0.0067600943 -0.008232666
0.005360037 0.0059345365 -0.028774744 0.01858341 -0.002669894 0.0005983368 0.014242119 0.025948567
0.017871697 -0.021050148 -0.001112517 -0.023847483 0.00893965 -0.007004261 -0.01838252 -0.0044002607
0.01956943 -0.03407046 -0.033676 -0.01888761 -0.03360851 -0.033486467 0.0077297725 0.031096753
0.026861545 -0.009199813 -0.0046945415 0.041978505 0.091514826 0.010481083 -0.02625542 -0.029376132
-0.03159045 0.018230869 0.025996903 0.015262096 0.023712188 -0.014826121 -0.006038087 0.011959786
-0.010364696 0.02979632 -0.031680692 -0.025730187 -0.021901622 0.01987623 0.0018124618 0.031764407
0.024386887 0.029198628 0.011939589 -0.013687603 0.02601319 0.02994663 0.025116164 0.058112744
0.14578818 0.08988189 0.07558025 0.06762629 0.11259445 0.10883874 0.03137402 7.112005e-05
-0.04276925 0.01370774 0.037725553 -0.0074730422 0.011312186 -0.0047436026 -0.025198944 0.040130865
0.037755806 0.01958539 -0.035497062 0.02469623 0.024483401 0.032435004 -0.022813892 0.026804756
-0.030071262 -0.02120779 0.037163895 0.012093849 0.06969638 0.012056677 -0.017309366 -0.02361696
0.11104454 0.078110225 -0.10156645 -0.14486648 -0.10281349 -0.18125121 -0.20540221 -0.018977003
0.06327426 0.057307746 0.02448531 -0.021802668 0.002292445 -0.007331034 0.024046913 -0.020302173
0.006902341 0.006737735 0.004993122 -0.00031191195 0.028099088 -0.0012973549 0.021794599 0.100775085
0.032657035 0.026313538 0.073404476 0.01173379 0.1986512 -0.04804842 -0.074069194 -0.24793322
-0.21358982 0.024295928 -0.1832717 -0.16778715 -0.005260554 -0.15006804 -0.26732874 -0.19213352
-0.12701476 -0.010814622 0.0008288294 -0.0027160682 0.008331709 0.005238153 -0.0032195558 -0.009883944
0.046627734 0.031126771 0.045581322 0.03948482 0.0677181 -0.1318525 -0.058478784 -0.008209892
0.0036045506 -0.05194644 -0.07548578 -0.07015148 -0.14767662 0.0023944944 -0.12910026 -0.124123365
-0.10076408 -0.2507563 -0.2004593 -0.17047799 -0.12727623 -0.03145552 0.0066226097 0.013517743
0.024359815 -0.001888819 -0.015254443 -0.02554073 0.07464088 -0.06863532 0.023189628 -0.08423302
-0.16223364 0.006244016 0.07405485 0.016312975 -0.16223793 -0.24177204 -0.23718075 -0.256275
-0.15841997 -0.047316954 -0.09325178 -0.2857738 -0.29938227 -0.20081183 -0.020243222 -0.05023712
-0.028119458 0.07877666 0.074949205 0.031274732 0.019522773 0.022693457 0.026979754 -0.025571253
0.026869072 -0.26494697 -0.15044712 -0.21372862 -0.14306168 -0.0032109525 -0.1279838 0.08481799
-0.13302064 -0.37182906 -0.11618461 -0.18755299 -0.1373166 -0.119120166 -0.35976195 -0.3062565
-0.3091841 -0.3065795 -0.06573155 -0.13352934 -0.09371677 -0.032202058 0.07748613 0.04903098
0.008485737 0.011854458 -0.0017637877 -0.01622174 -0.053951044 0.0648901 0.005096496 -0.1716077
-0.019130342 0.11497248 0.17220454 0.07236432 -0.26077744 -0.15275812 -0.057899553 -0.12319759
-0.034480162 -0.12595442 -0.2863144 -0.13740501 -0.045241874 -0.27666378 -0.18516186 -0.23055129
-0.15896326 -0.074534275 -0.013700237 -0.009967844 -0.026983451 -0.025045363 0.018267859 -0.06604769

model.input.bias f4 [32]
00000000: f0b9 c53d 00fd a9be d412 15be 03e4 8fbe
00000010: d465 c73d d3bd 8bbe eee4 67bd be10 8bbd
00000020: 022d 823e 1bed 2f3e 0e11 dfbb ebe7 80be
00000030: 3424 013e ecb8 373e 23d8 51bd 0ff2 96be
00000040: 2848 debd 7c29 aebe d47e 72be c5da 9c3e
00000050: 07c0 0cbf 6302 eabd ca37 03bf fd18 223e
00000060: 0cdb 29be 0fba aabd 0adf b9bd 57e4 ae3d
00000070: 7c61 b13d 2211 fe3e c12a 08be 13f7 b3bd
0.096546054 -0.33200836 -0.14557964 -0.28103647 0.09736219 -0.27293262 -0.05661481 -0.06790303
0.25424963 0.17180292 -0.006807453 -0.2517694 0.12611467 0.17941636 -0.051231515 -0.2948155
-0.108536065 -0.34016025 -0.23681194 0.30635658 -0.5498051 -0.114262365 -0.51257 0.15829845
-0.16587466 -0.08336269 -0.090757445 0.08539646 0.08661172 0.49622446 -0.1329756 -0.0878736

model.dense1.weight f4 [16, 32]
00000000: e1ae d63e 23ac 9b3d 9d63 6b3e f6f9 953e
00000010: a073 2fbd 56d8 4dbd f76c 5bbe 6ecf 5eba
00000020: 2ba5 17be 56e9 c83d 268e 89bd d0c5 84be
00000030: 93cf 0ebe 2dc2 f83d 4f23 d8be af9b 9ebd
00000040: f217 633d 379a 57bb 716b 66be 0013 11bc
00000050: 7f70 553e 0a69 773d 85c2 27be 31a1 9b3e
00000060: 01b6 7abe 2c32 2ebe db8e 3abc 40f6 ea3d
00000070: 9637 a83d 9a40 3cbd 6dbe d83c 76a4 5f3e
00000080: f6b6 113f 6c39 873f 69e7 b8bd 88c5 29bd
00000090: ced4 223e aaa7 7d3e b5c3 413f a735 96bd
000000a0: d7f7 60bf cc93 143f fbb8 473f 56d8 e93e
000000b0: 9960 ef3e cb49 16bf 03f9 ff3c 50be 8bbe
000000c0: 6a14 243f 0edf 67be 98a3 d33e a512 acbe
000000d0: 81b8 a73e 775c a03d 22f8 d13e e7e9 cf3e
000000e0: 829d 80be c61b 3fbe 66b3 1d3f 89d7 683f
000000f0: a3fd 5bbe 8989 7b3d d825 36bd c4a6 debd
00000100: 9795 793e 6ca6 4a3e d7c7 af3e 6b2c bf3e
00000110: 51de ebbe 3c59 0dbf 5486 1abe ba10 2abf
00000120: a1bd 21bf eb8a 94be 4c5a 153d 0bdd 863e
00000130: 9ce0 e5bd 3b18 36bf 1a2d 4e3e ae71 cfbe
00000140: f013 ab3e 9c43 2c3f 8efc a13d 14bf 54bf
00000150: b6a5 c1be ed05 e33e 8cee e63d 293f 9c3e
00000160: 037f 32bf 8084 143f fe75 853e 729a d93e
00000170: 17e6 9b3e 766b 14be b550 b9be eb12 d63e
00000180: ed70 1a3e 6e72 8dbd b44b 0dbd 01c8 4abd
00000190: 6aed 243e e640 95bd 722a 413d cec9 053d
000001a0: 018b 083e d99c 18be 51f7 0fbd 3d05 993d
000001b0: 9733 373d f86b 383c 77bb a6bd 9f35 283e
000001c0: 33cd 25bc 4dfa abbd fe00 96bd f1b7 30bd
000001d0: 288d 15bd 230e adbd d339 f8bd 4184 50be
000001e0: 2690 06bd 9a2d cdbd 170a 523e 5fb6 a33c
000001f0: 9524 993e a413 ca3d c9cd 123c 7b0a 08be
00000200: 6e0c be3d a20c 1f3d 97c4 4bbd 1d0f ebbc
00000210: af54 fabd 6314 d1bd 2b62 b9bd 0c23 073e
00000220: a46e 59bd 7bd8 cbbd 516b e1bd f720 193e
00000230: 26e4 1fbe a87e c5bd bc89 dfbd 6af7 f2bd
00000240: 3e5c 513e fffa 813d e46e 38be 5574 d53d
00000250: 9cdb edbd 4d21 88bd f05c 933d 8101 43bd
00000260: 0381 32be 74c7 00bd a86d a83d 6856 05be
00000270: bfd0 9cbd 9a44 073e d200 433c a0d0 6fbd
00000280: bc4d 4f3c edae 5d3f 7043 00be 54ce 3b3d
00000290: 2fa3 db3d 8063 c3be b594 0a3f 56eb c1be
000002a0: b9d4 b13e f89a b83e 8413 863d 6d1f 9f3e
000002b0: d517 303f 91d3 17be 9713 063f dd3c 12bc
000002c0: 3829 a7be b00e e83e 6f6a 303f 7153 223e
000002d0: ebd9 3bbf d6e6 523d ddca 353f cfcd b1be
000002e0: 8a5b e93e 6441 f1bd 3b5b af3d c0af 373f
000002f0: 71a8 30be 4157 77bf c9ff a33e 719c 0cbf
00000300: 1978 a93e e85b 8e3e 1fa2 1abf 8e1b 0dbf
00000310: 5c99 ed3d f94d 873e 79c7 073f 5e9c 213f
00000320: 2ffb 0dbd e90b 503f 71f4 e93e 0b07 c93d
00000330: 1136 85be 41df ba3e 40b6 04bd fd24 883e
00000340: 4753 6a3e 0731 4fbf 782d 7ebe d365 a6be
00000350: b5d5 a63e 4d45 083e a75e a23d 788d a53e
00000360: 08a0 383c 4d84 8cbe e24e ec3e f3cc 033f
00000370: ae16 a73e b6af a4bd 9511 943d c7f6 c3bd
00000380: c947 bfbe de04 d8bd 7c95 a8bd 5c32 efbe
00000390: 646f 73bd 066e 2c3e 6cf0 5ebe 0c33 56bf
000003a0: 9523 32bf 1804 093c e7a3 5abd 14e4 efbd
000003b0: d4d0 2bbf 430d b8be 6c12 033f b00d 1cbf
000003c0: 1a00 ca3e c850 67be a96e e5be 1e1d a4be
000003d0: 6427 5ebd 7bc7 f9be f75b 82be e0e3 b23e
000003e0: 2e37 14bf 8795 28bf a426 17bf 4ec6 d0be
000003f0: 5eba e03e ffad fb3d f590 9b3e 707e 01bf
0.41930297 0.07601192 0.22987218 0.29292268 -0.042834878 -0.050255142 -0.21428286 -0.00084995374
-0.148091 0.0981013 -0.06716566 -0.2593217 -0.13946371 0.12146411 -0.42214438 -0.07744538
0.055442758 -0.0032898316 -0.22501923 -0.008854628 0.20843695 0.060402907 -0.16382797 0.30396417
-0.24483491 -0.17011327 -0.011386598 0.1147275 0.08213727 -0.045960046 0.02645799 0.2184008
0.569198 1.0564399 -0.09028513 -0.041448146 0.15901491 0.2477099 0.7568925 -0.07334452
-0.87878174 0.5803802 0.7801663 0.45672864 0.46753386 -0.5870635 0.031246668 -0.27293634
0.6409365 -0.22643682 0.4133575 -0.33607975 0.32757953 0.07830136 0.41009623 0.4060814
-0.2512017 -0.18662938 0.61601865 0.9095388 -0.21483473 0.06141046 -0.044469684 -0.10871652
0.2437347 0.19790047 0.34332153 0.37338576 -0.4606805 -0.55214286 -0.15090305 -0.6643177
-0.63179976 -0.29012236 0.036463067 0.26340517 -0.112244815 -0.7113072 0.20134392 -0.40516418
0.3341365 0.67290664 0.07909499 -0.8310406 -0.3782174 0.4434046 0.11275968 0.30516937
-0.69725055 0.5801468 0.26066583 0.42500645 0.30448982 -0.14494118 -0.36194387 0.41811308
0.1508214 -0.06906591 -0.034496024 -0.049507145 0.16106191 -0.07287769 0.04715962 0.03266316
0.13334276 -0.14903583 -0.03514797 0.07471702 0.044726934 0.0112562105 -0.08141225 0.16426705
-0.010119724 -0.083973505 -0.07324408 -0.04314417 -0.03651157 -0.08449962 -0.12120404 -0.20362951
-0.032852314 -0.100184634 0.20511661 0.019984422 0.29910722 0.098670274 0.008960196 -0.13285248
0.092797145 0.038830407 -0.04974803 -0.02869373 -0.12223183 -0.102089666 -0.09051927 0.13196963
-0.05308403 -0.099534 -0.11006797 0.14953981 -0.15614375 -0.096432984 -0.109149426 -0.11863597
0.20445344 0.06346702 -0.18011051 0.10422579 -0.11614153 -0.066469766 0.07195461 -0.047608856
-0.17432027 -0.031440213 0.0822404 -0.13021243 -0.07657003 0.13209763 0.011902051 -0.05854857
0.012652811 0.8659504 -0.12525725 0.045851067 0.10724484 -0.3816185 0.5413316 -0.3787486
0.34732607 0.36055732 0.06546691 0.31078663 0.68786365 -0.148268 0.5237364 -0.008925644
-0.32648635 0.45323706 0.68912405 0.15852143 -0.7337939 0.051489674 0.7101267 -0.34727332
0.4557765 -0.117800504 0.08562323 0.7175255 -0.17251755 -0.96617514 0.32031086 -0.5492621
0.3309944 0.27804494 -0.6040363 -0.5512017 0.116015166 0.26426676 0.53038746 0.6312922
-0.034663375 0.81268173 0.45694306 0.098157965 -0.26017812 0.36498454 -0.03240037 0.2659072
0.2288333 -0.80934185 -0.24822032 -0.3249956 0.3258492 0.13307686 0.0792821 0.32334495
0.011268623 -0.27444687 0.46153933 0.514846 0.3263449 -0.08041327 0.07229916 -0.095685534
-0.37359455 -0.10547803 -0.08231637 -0.4671811 -0.059432402 0.16838846 -0.21771401 -0.8367164
-0.69585544 0.008362792 -0.053378966 -0.11713424 -0.6711552 -0.35947618 0.51199985 -0.60958385
0.39453202 -0.2258941 -0.4481099 -0.32053465 -0.054236785 -0.48785004 -0.2546079 0.3493948
-0.578967 -0.6585316 -0.59043336 -0.40776294 0.43892187 0.122890465 0.3038403 -0.50583553

model.dense1.bias f4 [16]
00000000: a097 b0be 59ed e53d 2aa0 0a3f b5ef 31be
00000010: 0278 9ebd 871d 243f 2c81 983e e8db dd3e
00000020: 9685 da3d 5501 65bd 3e23 eabd 71ef 0b3f
00000030: 6fcf 573e 59e0 2d3e d738 073f 6e13 07be
-0.3449068 0.11226911 0.5415064 -0.17376597 -0.077377334 0.64107555 0.2978605 0.43331838
0.10670011 -0.055909473 -0.11432503 0.54662234 0.21075223 0.16980113 0.52821106 -0.13191006

model.dense2.weight f4 [16, 16]
00000000: 0010 3d3c c7d8 d83c ac2c d93d 22ad 47bd
00000010: d60c 593d 7a9d 7f3e 57d0 023e 2280 043f
00000020: fd19 72be 6d6b 05be db1f 8abd ff8a f63e
00000030: fc0b 2abc 4035 82be e843 ac3e f4f6 cebd
00000040: f1bc 08be 98c0 bcbe c5fa 2f3f 2406 85be
00000050: e4b5 46be da44 dd3e 5a9f 38bf 50d4 543f
00000060: c1fc 283f f4dd b0be 651c 9dbe 880f 5bbd
00000070: 5127 11bd de01 c5bc 2cc2 30bd c91e c13e
00000080: 048f 5abe 907a 153f 3a02 953e e270 b13d
00000090: 81b8 51be ab54 f73e cdda e83d 3c2c 99be
000000a0: e5e5 c5bd daec a1be 80ae 92be 6805 903e
000000b0: 1aec 29be 4c74 10bf d5a4 be3e 856f 20be
000000c0: b1d7 eebe c5ae c63e 0e1e d93e 7429 21bd
000000d0: 5ffa a2bd b34b 323f f7bf 02be 7b09 dabe
000000e0: e27f 3dbe ef88 6abe 2a3f 393f 7f87 63bd
000000f0: 1ba9 10bf a722 4abd 4349 93be 28ff 363c
00000100: 9024 42bd fecb 6b3f 1450 0f3f c833 9cbe
00000110: bace 2d3e 02c8 91bd 0420 0d3e 69e2 9f3e
00000120: d820 e4bd 9c4f 1d3f d8a6 133d 9625 513e
00000130: fac4 70be 04f5 8abd 1a3c c1bd fb93 b93e
00000140: 5d00 debe 621c 91bd 38de e7bd 3e30 63be
00000150: aaa5 943d f9b4 2f3f 919b cd3e 2853 92be
00000160: 6d11 543e 5143 fabe 580b 953e cec2 0f3f
00000170: b0be b0be fa82 07bf 394b 333f 34ef fa3c
00000180: ea88 2abe 7c94 e437 0058 38be f4eb 503e
00000190: 612e 7bbe 5062 20bd f457 0c3e 9190 a9bd
000001a0: 9b18 be3d cd42 5c3e 22dc bbbe f1ab 0b3e
000001b0: f51c 55be b5df 05be 9fd3 b53c 7357 a03d
000001c0: b5ba 473e 36ad 133e e96f 8c3f 7da6 113e
000001d0: 5779 13be 1888 07bf 993a 8c3b e318 1c3f
000001e0: beef c2bd 2c66 3dbe 0d2b 433f 737a 013d
000001f0: 892d 283d 3540 f53d 2434 9fbe fcf6 28bc
00000200: 69bb 73be 59f6 203f c5a5 79be 1dfe 4ebe
00000210: 88e9 06be 4ad0 9f3e ebae 8f3e af5f 073f
00000220: f652 bd3e 1d47 36be e530 2cbf 77ad 183f
00000230: cbfb 58be 85cd 9bbe cfe3 aa3e 7a5f 433d
00000240: 6baa 39be d6be 72be 36a8 46ba 7557 f0bd
00000250: 5154 b9bd 7b63 cbbe adfe 9a3e cdb9 02be
00000260: d505 ab3e ada5 073e 0e70 27be 1092 9f3e
00000270: fbaf b6bc f358 113e e1b7 953d db66 acbd
00000280: d2cb 44be 88a5 6fbe 8a6e fcbe 46f9 943e
00000290: d2c3 953e bbeb 853d a07b c03e fe12 483f
000002a0: 34a1 11be 8a43 e53d 305f 07be bfaa 713f
000002b0: 8d40 8d3c 073f 39be 62ed d23e f6a0 a4bd
000002c0: a466 e93e 3088 1a3f d5a9 fabe 73c9 c33a
000002d0: a309 1abd 198a 443c 5f4c 433f 6cc7 bfbe
000002e0: a726 4dbf 5679 183f f8b0 a83e f061 993e
000002f0: 2915 853e f872 573e c9ea 3dbd 6839 cb3d
00000300: 2e86 4bbe 2ad7 893e ae23 0bbe fde3 163e
00000310: 7a6f 3ebe 0f16 3c3e 8037 3e3d 2c3d b13d
00000320: a850 ba3e 47ac 5b3e bd16 e0be ad60 a3be
00000330: 139e 80bd 8359 123d 8343 923d 657b 53be
00000340: 034a 613e 0bd2 b1be a671 15ba 48fb 7e3e
00000350: abb2 0fbe 92fc 5ebe 7518 3c3e 5c82 cb3d
00000360: 6a0e d03c 1d42 ecbd 7dc4 f2bd 9f13 9c3e
00000370: dd21 e33d 4a36 8c3d b9bd ae3e 46e7 45bd
00000380: f626 89be 9c4c b93e 600f dcbd 526f 4bbe
00000390: de5a 163b 1dc1 dc3e ab94 0bbd 352a e6be
000003a0: 788e ea3d 62ee 94bd 279c 803e 0fb4 95be
000003b0: a5bf 91bd 896c cebd 0a56 c5bd 7fe6 ec3d
000003c0: ee45 f8bd 35d1 28bf e9e3 a4be 985f 27bc
000003d0: 7d54 483e b0cb 9e3e 256d 113f c3b9 cabe
000003e0: b52d 433e dc07 9dbc 0b20 0e3d 3b0f a0be
000003f0: b0cc a03e f5cb febc e92b 963e ef86 9cbe
0.011539459 0.026470555 0.106042236 -0.048749097 0.052990757 0.24962416 0.12774788 0.51758015
-0.23642726 -0.13029261 -0.06744357 0.4815292 -0.010378834 -0.25431252 0.33645558 -0.10105696
-0.13353325 -0.36865687 0.6874202 -0.25981247 -0.19405323 0.43216592 -0.7211815 0.83136463
0.6601067 -0.34544337 -0.30685726 -0.05348161 -0.035437886 -0.024048742 -0.043153927 0.377188
-0.21343619 0.5839014 0.2910326 0.08664109 -0.20480539 0.48306784 0.11369858 -0.2991656
-0.096629895 -0.31626016 -0.28648758 0.28129125 -0.16593972 -0.56427455 0.37235132 -0.15667541
-0.46648934 0.38805214 0.42405742 -0.039346173 -0.07957911 0.6964676 -0.12768541 -0.42585358
-0.18505815 -0.22903799 0.72362006 -0.05554914 -0.56508034 -0.049349453 -0.28766832 0.011169232
-0.04739815 0.9210814 0.55981565 -0.30508256 0.16973391 -0.071182266 0.13781744 0.31227425
-0.11139077 0.614496 0.036047786 0.20424494 -0.2351264 -0.06785014 -0.094352916 0.36245713
-0.43359652 -0.07085492 -0.11321682 -0.22186372 0.072581604 0.6863552 0.4015775 -0.28579068
0.20709772 -0.48879483 0.29110217 0.56156623 -0.34520483 -0.5293423 0.70036656 0.030631639
-0.16653791 2.7248861e-05 -0.1800232 0.20402509 -0.24529411 -0.039156258 0.13705426 -0.08279527
0.09282037 0.21509857 -0.36691386 0.13639809 -0.20811827 -0.13073619 0.022195635 0.078291796
0.19504817 0.14421543 1.0971652 0.14223666 -0.14401756 -0.5294204 0.0042794463 0.60975474
-0.095183834 -0.18496007 0.76237565 0.031610917 0.04105905 0.11975137 -0.31094468 -0.010312792
-0.2380196 0.62875897 -0.24379642 -0.20214124 -0.13175023 0.312136 0.2806314 0.52880377
0.36977357 -0.17800565 -0.6726211 0.59639686 -0.21189801 -0.30430236 0.3337693 0.047698475
-0.18131416 -0.2370561 -0.0007578166 -0.11735431 -0.09049285 -0.39724335 0.30272427 -0.1276619
0.33402887 0.13246794 -0.16351339 0.31166124 -0.02230071 0.14194088 0.07310463 -0.084180556
-0.19218376 -0.23402989 -0.49303085 0.2909643 0.29250962 0.06539103 0.37594318 0.7815398
-0.1422165 0.11194523 -0.13219905 0.9440116 0.017242694 -0.1809045 0.41196734 -0.08038513
0.4558612 0.60364056 -0.48957697 0.0014937356 -0.037606847 0.011995816 0.7628841 -0.37456834
-0.80137104 0.59560144 0.32947516 0.29957533 0.25992706 0.21039951 -0.046366487 0.09923059
-0.19875404 0.2692197 -0.1358783 0.14735408 -0.18597212 0.1836779 0.046439648 0.08654246
0.3638966 0.21452437 -0.43767348 -0.31909695 -0.0628015 0.035729896 0.07141783 -0.2065254
0.2200089 -0.34730563 -0.0005700834 0.24900544 -0.14033 -0.21776035 0.18368705 0.099369735
0.025397498 -0.115360476 -0.118538834 0.3048372 0.11090443 0.06846292 0.34129122 -0.048316263
-0.26787537 0.3619126 -0.1074512 -0.19866684 0.0022942345 0.43116084 -0.034077328 -0.44954076
0.11452955 -0.072720304 0.25119135 -0.29238936 -0.071166314 -0.10079295 -0.09635551 0.11567401
-0.12122713 -0.65944225 -0.32205132 -0.010215662 0.1956348 0.31014776 0.56807166 -0.3959485
0.19060405 -0.019168787 0.034698527 -0.3126162 0.31406164 -0.031103114 0.29330376 -0.30571696

model.dense2.bias f4 [16]
00000000: f407 43bd e1c7 043f fac9 ffbe ae3d acbe
00000010: 3343 f4be 8de0 1b3d c443 10be bd22 5c3e
00000020: ccd1 5a3e 4c4e 833d f984 a13e 30d8 36be
00000030: 0796 053d 7e68 c5bd 97dd 96be 1b64 933e
-0.047615007 0.5186749 -0.49958783 -0.33640808 -0.4770752 0.038055945 -0.1408835 0.21497627
0.21369094 0.06411418 0.31546763 -0.17855906 0.03261378 -0.09639071 -0.29465935 0.28787312

model.dense3.weight f4 [16, 16]
00000000: 1b44 8e3e 1ff3 ed3e 3ccc a23e 6723 c33c
00000010: 42ee d33d 0a19 4ebd b2ae 0d3c a5fb c9bd
00000020: 1bcf 9d3e cc87 10bd cbd0 3abe b563 ce3d
00000030: 892e 153e f294 d23b b566 853e 6a94 c9be
00000040: 0886 ce3c ef31 6bbc 5765 babe 22fb 0a3f
00000050: 4fc4 debc 7946 2d3e b80e 6c3e 79b9 6f3f
00000060: 456c f9be 4eb8 90bd ff49 843e 8d1a 94bd
00000070: 9578 9cbe 68b8 2e3e b179 e13d 9f45 c8bd
00000080: 68ee 503e 5849 803c 23f9 d0bd be81 e53e
00000090: 055c cbbd 68b0 da3d 3a77 07be c900 e83d
000000a0: e186 b2be 8312 a43d f19d bb3d 0da1 123e
000000b0: 1654 1b3e fc64 a0bd 69f2 323e 1769 4bbd
000000c0: 7b1d 8ebd be80 0d3f 61a9 66bd 385d b33d
000000d0: 2011 cb3d 1e41 46be dfa7 4b3e f020 10be
000000e0: f3a4 bc3e cc0c 56be a0eb 02be b2f2 9ebe
000000f0: f787 ecbd 46a0 07be b2cb e7bb 640b 013e
00000100: e5e7 433c 6c74 7dbf 46a9 0a3f ff56 fd3d
00000110: c5f6 f13e dcb3 763e 2ff6 2cbe 65fe 3b3e
00000120: e1cf 42bf f8b6 a0bd 47ef babe b6f3 983f
00000130: ef1f 6c3e 9f0b 523c 7533 a03e 227e bb3e
00000140: 80fc f83e d0a3 a0be 301c b73e 8053 dd3d
00000150: be58 8e3e aa6e 093f 8b59 433d ad66 e43b
00000160: 673c 893e 6133 1d3d 0d04 b13e 59f7 833e
00000170: 01c9 dbbe e73a 51bd 7709 8cbe d508 3bbd
00000180: 1b27 783e 376b 8f3e 2812 853e dc50 673e
00000190: f400 443f afe4 86be 2122 82be 77e6 133f
000001a0: 5113 c03e e220 7ebe 2420 973d 4f69 d93d
000001b0: 233b debd 23cc b5be 93c1 aabe 2a0e e5be
000001c0: 7844 34be 1013 be3d 9245 943d 6170 3ebe
000001d0: de39 683e c045 c4bd c270 6dbe 7bad 3ebe
000001e0: 1195 c53d 07af 5cbc 4704 9c3d 7b94 10be
000001f0: a027 bbbd a4bc bc3c bec4 333e a3ac 1ebe
00000200: 6062 aa3e 093c 03be b0cd 833e f422 cc3c
00000210: f30a 81be 3bce 2f3f 4d36 ac3d 8224 e93d
00000220: cc7e 873e fca7 28bb 230b c43e 0678 debe
00000230: 0302 b8be 1807 0c3e 2143 b2bd 4782 8f3e
00000240: d846 993e cb70 de3d fd53 6b3e 1537 27bf
00000250: ea54 62be eb58 823e 96bc fc3d 99db dabe
00000260: 37f8 123f 2999 17bb e8bb e13e c794 573e
00000270: c594 8d3d 3ca1 e3bc e542 7abe 0d97 fa3d
00000280: d0c7 603e 7898 163f 6d7c 55be bb78 983c
00000290: 8dd6 8c3e 77c8 b2bd b7cb 36be 0a84 9b3d
000002a0: b2ac 423e 9f57 9fbe 976b 693d 189b 8cbe
000002b0: 6696 003d ff55 153d 5560 a73d 3d40 23be
000002c0: b859 e23a 53f9 1c3f 18bb 143e 05c3 173f
000002d0: 8a90 1c3d 5c0e 8fbd 7d8f eb3d 55f6 083f
000002e0: b80c 80bd 2ac6 f03d 52c2 17bf 2c66 f1be
000002f0: 46ef 273e a48e 26be a6ca 053e 19bf 453e
00000300: bc9c db3d 44de 46be 5039 8cbe b89f 1bbe
00000310: f6fc 3fbf bd1a d03e 3c56 29be edc8 efbd
00000320: 0eec 82be c3aa ef3e dbfb 283e 9b77 883d
00000330: 9dbf 5bbc 376e c23e a253 5bbc 4db2 423f
00000340: 607b d93e 3cab 303d 9250 cabe 518d 5bbf
00000350: 528e e53e 01b1 3cbf 377b 173e 75a3 413f
00000360: 618b ab3d f9cc 2b3e 2dac 693f deda fc3e
00000370: 3b11 743d 9970 be3d 29f7 f1be 7e34 953e
00000380: 05ca 0a3f 2081 db3e 560e ff3e 3025 2c3e
00000390: c82f ca3e 7174 093f 82ef 71be 87a5 e8be
000003a0: d850 a23e f683 31bc cadd 79bd 3672 37be
000003b0: e873 1ebe e9ec f43d 4155 883e adba f03c
000003c0: 48af 62be 6499 6c3e c82b 453e 922d e5bc
000003d0: a777 efbe 6d93 6c3d eca4 b53d eeb4 26bf
000003e0: 27cf e53e 0fa3 9f3e 5860 5bbd cd13 7abe
000003f0: 86a2 7f3e e8f1 e33c b571 5a3d 2ddd 6b3e
0.27786335 0.4647455 0.31796443 0.023820592 0.103481784 -0.050316848 0.008647608 -0.098624505
0.3082207 -0.035285756 -0.1824371 0.10077611 0.14568533 0.006426447 0.26054922 -0.39371043
0.025210395 -0.014355167 -0.3640544 0.5428945 -0.027193217 0.16921414 0.2305249 0.93642384
-0.48715416 -0.07066403 0.25837705 -0.07231627 -0.30560747 0.17062533 0.11009539 -0.09778904
0.20403445 0.015659973 -0.10203769 0.44825548 -0.09929661 0.10678178 -0.13229075 0.11328275
-0.3486853 0.08011343 0.09160984 0.14319248 0.15168795 -0.07831761 0.17475285 -0.04966077
-0.06939217 0.5527457 -0.056313876 0.087580144 0.09915376 -0.19360778 0.19888256 -0.14075065
0.36844596 -0.20903319 -0.12785196 -0.31044537 -0.11549371 -0.13244733 -0.007073843 0.12602001
0.011957143 -0.9900577 0.5416454 0.12370109 0.47258583 0.24092048 -0.16890787 0.18358763
-0.7609845 -0.078473985 -0.3651068 1.1949375 0.23059057 0.0128201535 0.3128926 0.3661967
0.48630142 -0.3137498 0.35763693 0.10806942 0.2780208 0.53684485 0.047692817 0.0069702477
0.26803896 0.038379077 0.34573403 0.2577465 -0.4292679 -0.051081564 -0.2735097 -0.04566272
0.24233668 0.28011486 0.25990415 0.22589439 0.76563954 -0.26346347 -0.25416663 0.57773536
0.37514737 -0.24817231 0.07379177 0.10615789 -0.10851123 -0.35507306 -0.3335081 -0.4473737
-0.17604244 0.0928098 0.07239832 -0.18597557 0.22678325 -0.09583616 -0.23187545 -0.18620865
0.09647573 -0.013469464 0.07618003 -0.14119141 -0.09138417 0.02303917 0.1755552 -0.15495543
0.3327818 -0.1281587 0.25742865 0.02491901 -0.25203666 0.6867406 0.084087946 0.113839164
0.26463926 -0.0025734892 0.38289747 -0.43450946 -0.35939035 0.13674581 -0.0870421 0.2802908
0.29936862 0.10861357 0.22981258 -0.65318424 -0.22102705 0.25458464 0.123406574 -0.42745665
0.57409996 -0.0023132062 0.44088674 0.21052848 0.06913141 -0.027786843 -0.2443958 0.12235842
0.21951222 0.588264 -0.20848246 0.018612256 0.2750744 -0.08729642 -0.17851149 0.07593544
0.1901119 -0.31121537 0.05698737 -0.27462077 0.03139343 0.036458965 0.08172671 -0.15942474
0.001726917 0.6131794 0.14524496 0.5928195 0.03822378 -0.06985161 0.115019776 0.5350087
-0.06252426 0.11756547 -0.59280884 -0.47148263 0.1639987 -0.1626535 0.13065585 0.19311179
0.10723254 -0.19420725 -0.27387476 -0.15197647 -0.7499536 0.406454 -0.16536802 -0.117082454
-0.2557072 0.46809968 0.16502325 0.06663438 -0.013412383 0.37974712 -0.013386639 0.76053315
0.4247694 0.04313205 -0.39514595 -0.85762507 0.44835144 -0.73707587 0.14793096 0.7564004
0.08376194 0.1677741 0.91278344 0.49385732 0.059586745 0.0929882 -0.4725888 0.2914161
0.5421451 0.42871952 0.49815625 0.16811061 0.3948958 0.536933 -0.23626521 -0.45438787
0.31702304 -0.010834685 -0.06100253 -0.17914662 -0.15473902 0.119592495 0.26627544 0.029385889
-0.22137177 0.23105389 0.19254982 -0.027975831 -0.46770975 0.057757784 0.08869347 -0.65119827
0.44884607 0.3117909 -0.053558677 -0.24421616 0.24964342 0.02782531 0.053331096 0.2303359

model.dense3.bias f4 [16]
00000000: f17e acbe fc1a e23e 4871 35be 1851 2abe
00000010: e57a 17bf 50be 6fbe 5787 fc3d ad6b 11be
00000020: 381f 943d 8837 cf3e a92c b9bd 17f7 5c3f
00000030: 0eaa 343f cf21 6d3f 9181 b1bc 1359 013f
-0.336906 0.44161212 -0.17718995 -0.16632497 -0.591719 -0.23412442 0.123305015 -0.14201231
0.07232517 0.40472054 -0.090417214 0.8631453 0.7057198 0.9262971 -0.021668227 0.5052654

model.dense4.weight f4 [16, 16]
00000000: 09cb 893e 9064 11be 2350 c93d 55ea dc3e
00000010: 6aef b73d 7d7c 03bd 22ab ae3c cc0f 873d
00000020: d3ee 62be a6b0 7abe 6be1 3dbd 6e0b 833e
00000030: dca4 1dbe 80bc dfbe 42c4 aa3e e8eb 843e
00000040: 4afe 00bf 80e5 ec3d 0f33 a83c 0ed0 55be
00000050: d844 c13e ca5e b83e 8df9 34bf 95f9 41be
00000060: b9cc 683e cd17 e73d f6f3 c1be 1033 01bf
00000070: d143 343f fbd3 0a3e 579b 4b3e 3537 863d
00000080: fe25 fd3c 4a88 46bf 3de9 85bd 78cf a53d
00000090: 3eb8 43be 3f30 0ebd 6330 02bf 6247 f53d
000000a0: 1700 023e 3b6e 833e 91d5 e73d 43fb b93d
000000b0: f475 603e 086e 06bf 1cb8 2f3f 34d6 f73e
000000c0: 75ca 9ebd ea01 a33e 0c4d cd3d e96a c7bd
000000d0: e896 6e3e 126a 19bf 854d 473e 3d8f 8abd
000000e0: 3b26 1dbf 01ed 29be 4701 e13d 8195 493e
000000f0: c59e 5abd 3f48 1d3e 3671 83bf 2a04 1e3e
00000100: a78d fc3d 7322 303d f9ad e43d 48cf 3e3e
00000110: b1f7 4dbb fa78 4ebe 4cf9 e6bc ecd5 673e
00000120: 88e1 ccbd fa0c ddbd bb17 f63d 261c 02be
00000130: 1558 783e 77fe dfbd 7964 3dbe 135a 52be
00000140: 1183 0bbe 1f89 113d 214d 24be 35fa 273e
00000150: b1ac 9dbd d5cc d23e b3e4 c23e 55e4 983c
00000160: c0a5 963e 3508 d73e 3254 983c edc9 d5be
00000170: f543 20be e3f7 683f 5723 c6bd 17c5 9cbe
00000180: 975f 3ebe 4f84 de3e b16a db3d 4826 b13c
00000190: ddb3 d53e 204a 42be 18e0 a43e c6d5 5d3d
000001a0: b41e 82be ae5a 26be fc15 46be cb00 fc3c
000001b0: fde4 a13d 7805 3b3f 7960 22bf a510 043e
000001c0: 9a06 913e 421f 7ebe adbd 9abd 0124 56bd
000001d0: cbc2 833f 22d5 fd3e 6a3f 1b3f 5418 0539
000001e0: 3d9a 3cbe 8f1a 5abe 8f0b e3bc 7747 cbbe
000001f0: 0e7d 06bf 8e75 fe3d 197e 493d 3f56 0f3e
00000200: 0091 1bbd 4cdb acbe 5c59 bebe e289 51bd
00000210: 3406 91bf 1fee 15bf 548f 353d 6643 7d3e
00000220: 4e33 a33d 04f6 063f 6e25 0c3e 39e8 ce3e
00000230: a8a6 ac3e e2e3 6f3f 3240 213d adab 383f
00000240: 1a7b a7bd cfd8 5bbe 4f6d 123e d48e 653d
00000250: 088f 3dbe 63ae 67be 7f66 2abe 806e fb3b
00000260: 9a05 463e 1f55 febd ad28 edbd 340a 003e
00000270: d3b9 383c 147c 27be a129 a8bd c41e 493d
00000280: 0e83 9ebe 7085 353f 727e 893e e510 a6be
00000290: 2f7c 0a3e 6485 ae3e 5b25 e3be 1cdc 25be
000002a0: f07d fc3e f43c cfbe 56d8 96be 8b55 b53e
000002b0: d1cd 3f3f eee1 633e 0d37 27be f596 823d
000002c0: ed8f 9d3d 56bd 97be f8d5 9ebd a839 98bc
000002d0: f5d9 92be 6273 eb3e d377 463e 0d87 1e3e
000002e0: 72f5 ce3c e924 4f3e a6d7 ab3e b4de 5ebf
000002f0: 9d94 9cbd 3721 523f 9178 8f3e a7b7 4c3e
00000300: 9fb6 90be 2180 c9be 07f6 32bd 8757 7fbe
00000310: eaad 8e3e acd3 133f 0756 26bf 5adb 82bd
00000320: ae0f 973e 7706 883e 4600 e0be 2590 b6be
00000330: 74ea 9d3e 231f a03d 8d9c f13d 3ab8 19be
00000340: 891e d8bd 6c55 c4be 21f4 00be 13c0 223e
00000350: 4e35 20bf 07d5 cd3e 972f c1bd 1990 dc3d
00000360: e97f 1b3f 91ec f53e 63d0 573e fa97 5d3e
00000370: 2e38 24bd 65dd 5fbe 03bb b93e 8b95 863d
00000380: 25a7 3b3e 4d3f e13e 1970 703e 9ad5 98be
00000390: 6c0f 0bbf f63b 373e b6f7 153f 584f 393e
000003a0: fed9 223f 36a5 e1be 93c6 d43e a0b5 113f
000003b0: 6619 0cbe e0a8 9fbe 6861 063f 9541 bfbe
000003c0: 0f8c d83c c832 963e c6a9 8bbd 78d1 743e
000003d0: f5fd febe 29a5 3abf 614a 173f df96 673e
000003e0: c856 76be 3ce9 91be 86f2 823d 3fd0 f63e
000003f0: e88d 8cbd 12a7 073e 479b 89be 16ff 03be
0.26912716 -0.14198518 0.09829738 0.4314753 0.089812115 -0.032101143 0.021321837 0.0659481
-0.22161417 -0.24481449 -0.046357553 0.25594658 -0.1539492 -0.43698502 0.33352858 0.25961232
-0.50388014 0.11567211 0.02053216 -0.20880148 0.37747836 0.36009818 -0.70693284 -0.18942864
0.22734345 0.112838365 -0.3788144 -0.5046854 0.7041598 0.13557427 0.19883476 0.06553499
0.030901905 -0.7755171 -0.06538627 0.08096212 -0.19113252 -0.03471398 -0.5085508 0.11976506
0.12695347 0.25670037 0.113200314 0.090811275 0.21919996 -0.52511644 0.68640304 0.48405612
-0.07753459 0.31837398 0.10024461 -0.09737188 0.23299754 -0.59927475 0.19463165 -0.06765602
-0.6138646 -0.16594316 0.10986572 0.19685937 -0.05337407 0.15359591 -1.0268924 0.15431276
0.123317055 0.043001603 0.11165995 0.18633759 -0.0031428153 -0.20163336 -0.028195046 0.22640198
-0.10003954 -0.10793491 0.12016245 -0.1270605 0.2425235 -0.10937207 -0.18495359 -0.20542173
-0.13624217 0.03553116 -0.16045047 0.1640404 -0.07698954 0.411719 0.3806511 0.018663565
0.29423332 0.4199845 0.018594835 -0.4175562 -0.15650924 0.91003245 -0.09674709 -0.30619118
-0.18591152 0.43460318 0.10713709 0.0216247 0.41738787 -0.18973589 0.3220222 0.05415895
-0.2541405 -0.16245529 -0.19344324 0.030762097 0.07905004 0.7305522 -0.63428456 0.12896974
0.2832535 -0.24816611 -0.07555709 -0.05228043 1.0293821 0.4957667 0.6064364 0.00012692931
-0.18418212 -0.21299194 -0.027715473 -0.3970296 -0.5253457 0.124247655 0.04919252 0.13997744
-0.03798008 -0.3376106 -0.3717755 -0.051156886 -1.1330018 -0.5856647 0.04432614 0.24732742
0.0796877 0.5271914 0.13686153 0.40411547 0.337209 0.93707097 0.039367862 0.72136956
-0.08177777 -0.21469425 0.1429951 0.056044415 -0.18511593 -0.22625117 -0.16640662 0.0076730847
0.19338074 -0.12418579 -0.11580024 0.12503892 0.011274773 -0.16355926 -0.08211065 0.049101606
-0.30959362 0.70906734 0.26854283 -0.32434765 0.13523935 0.34086144 -0.44364437 -0.16197246
0.49314833 -0.4047619 -0.29461926 0.35416827 0.74923426 0.22254154 -0.16329594 0.06376449
0.07693467 -0.2963664 -0.07755655 -0.01858218 -0.28681913 0.45986468 0.19381647 0.15481205
0.025263522 0.20228924 0.33562964 -0.8705857 -0.07645533 0.8208193 0.28021672 0.19991933
-0.2826433 -0.39355567 -0.04369166 -0.24935733 0.2786706 0.5774486 -0.6497502 -0.06389494
0.2950415 0.26567432 -0.4375021 -0.3565685 0.30842936 0.07818439 0.11797438 -0.15011683
-0.10552699 -0.38346422 -0.12593128 0.15893583 -0.62581336 0.4020159 -0.09432905 0.10769672
0.6074205 0.48032048 0.21075587 0.21640006 -0.04009264 -0.21861799 0.3627549 0.06571492
0.1832548 0.43993607 0.23480262 -0.29850465 -0.54320407 0.17893967 0.585811 0.18096673
0.6361388 -0.44071358 0.4155775 0.5691776 -0.13681564 -0.3118353 0.5249238 -0.37354723
0.026433973 0.29335618 -0.06819491 0.23908031 -0.4980313 -0.72908264 0.5909787 0.22616147
-0.24056542 -0.28498256 0.06393914 0.48205754 -0.06863004 0.13247326 -0.2687628 -0.12890276

model.dense4.bias f4 [16]
00000000: d3ad 023c 5ab5 f9bb 152f e43d 1a1d 5c3e
00000010: f428 5b3d 2875 0c3e 5544 fb3e ba84 8fbf
00000020: 8ba0 a13f 0df8 6dbe 26ae 873e 698d a83e
00000030: 248a a1be bb51 493e 32fb 0ebf bc35 263f
0.007976013 -0.0076204957 0.11141793 0.21495476 0.053505853 0.13716567 0.4907557 -1.121238
1.2627119 -0.23239155 0.26500052 0.32920387 -0.31550705 0.19660084 -0.55852044 0.6492574

model.output.weight f4 [10, 16]
00000000: bef6 083d 6132 283f 426e 4f3e 0bec 443e
00000010: a171 f5bd a0aa 9dbf 2b03 2f3d dfff fcbe
00000020: 0710 6dbf 940c 87bd beb7 6f3f b56b d2be
00000030: 7f19 f83d c1b2 d73d d551 753e f3d1 4bbe
00000040: 2662 98bd 43a8 97be 1373 88be b2aa 33be
00000050: 225b 21be fe12 3a3f b99e 943d 157d 263f
00000060: 9d77 3d3f de0d 07be c9a8 87bf 10ff 4b3f
00000070: bb16 dd3c be6b 91bf e693 8fbf ee30 a2bd
00000080: 400f 663e df31 47be e8d4 8e3e 843a e4be
00000090: 466f 2dbd a5e0 a7bd b85d 58bd dce4 5f3f
000000a0: 7949 99be a993 7e3e 8d3e 7d3d bd03 99be
000000b0: 5c0c d5bc 64e9 d1be 26b0 3d3f 114b d5be
000000c0: 3f50 da3d 654d 833e 0bdf 9a3e 9b61 083e
000000d0: b440 ac3d 92c0 a93e f24f 22bf 8cfe 213f
000000e0: bd94 25bf 0e51 0b3d 51d1 ebbe 98a7 6f3e
000000f0: 889a 053f cd5e 093f d676 ac3e 2dff d93d
00000100: fbcd cebe 9940 463e 5216 9ebc 9f25 0c3f
00000110: 260b 71bd 430d 0c3d cbb3 c23e 609b 79bf
00000120: 1a9f 6a3f 2019 753e 1b2e ecbe ca5d ebbe
00000130: e906 0bbe f2ee 60bf b0a9 9ebe e19f 633f
00000140: 8361 aabe 9592 323f 50b0 733e 5c95 b53d
00000150: 9ff2 1b3e b218 d63d 96ed d63e 0e23 3fbe
00000160: 6fab e53e 4568 f23d e26f 0d3e 2139 043f
00000170: 9bfc 173f c3b7 353e a09e 1cbf acc9 34bc
00000180: c4f8 73be fb7d 9f3e e7da 5f3e ad3b 0f3f
00000190: 1acb b73d 2eee 093f 20c5 533f fae8 df3d
000001a0: b65c 15bf 762a 7d3e 46b1 b23e 09d9 78bf
000001b0: 3e41 253d 79e8 b13c abfa 4cbf 3dca 133d
000001c0: e78a e43e 6ff6 3cbf 2dc1 3d3f b258 a8bc
000001d0: 83a3 54bd 7d5b ddbe 5fc9 38be 4e2f d53e
000001e0: 8fcd 3c3f 5538 683e f761 8bbe bc52 e2bd
000001f0: c2d4 60bf 75aa 073f 87a5 9c3d 87aa 2dbf
00000200: 2fb3 bdbe 43f5 f1be 6a95 76be 0dd2 28be
00000210: bc10 193c 53b0 323f 669b 90be bbdc 92bd
00000220: fdca 813e f41d 5abe cfb6 b43d a68f 1a3f
00000230: c441 53be bb7c 5b3e 7a18 0f3f be75 02bf
00000240: 6cbe 633e 701d 843d ad10 47bf 67dd 41bf
00000250: 162f a3bd 168a aebd 960f 2cbf 3d09 7abf
00000260: b6d7 bd3e 9a33 2c3d 8e12 3dbd 2d36 11bd
00000270: 4efd 0b3f 6672 9a3e b1cf 5b3f 4ac1 e23e
0.033438437 0.6570187 0.20256904 0.19230668 -0.119845636 -1.2317696 0.04272763 -0.49413964
-0.9260258 -0.06594196 0.93639743 -0.410978 0.12114238 0.105321415 0.23956998 -0.19904308
-0.07440595 -0.2962056 -0.26650295 -0.17545584 -0.1575742 0.7268523 0.072568364 0.6503461
0.7401064 -0.13188884 -1.0598384 0.7968607 0.026988378 -1.1361005 -1.121701 -0.07919489
0.22466755 -0.19452618 0.2789681 -0.44575894 -0.042342447 -0.081971444 -0.052823752 0.87458587
-0.29938868 0.24861015 0.06182723 -0.29885665 -0.02600687 -0.40998375 0.74096906 -0.41658834
0.10659837 0.25644985 0.30248293 0.13318484 0.08410779 0.33154732 -0.63403237 0.6327903
-0.6468008 0.034012847 -0.46058133 0.23403776 0.5218892 0.5366028 0.33684415 0.10644374
-0.40391526 0.1936058 -0.019297753 0.54744905 -0.058848523 0.034192335 0.38027796 -0.9750271
0.9164902 0.23935366 -0.46128926 -0.45969993 -0.13576855 -0.878646 -0.30988836 0.8891583
-0.3327752 0.69754916 0.23797727 0.08866379 0.15229271 0.10453929 0.4197814 -0.18665716
0.44857356 0.11836294 0.13812211 0.5164967 0.5936982 0.17745881 -0.6117954 -0.01103441
-0.23825365 0.31150803 0.21860848 0.55950433 0.089742854 0.5387906 0.82722664 0.10933109
-0.5834459 0.24723229 0.34900874 -0.9720617 0.040345423 0.021717297 -0.8006999 0.03608154
0.44637224 -0.7381353 0.7412289 -0.020550106 -0.05191375 -0.43233863 -0.18045567 0.41637653
0.7375116 0.22677739 -0.2722318 -0.110509366 -0.8782464 0.5299447 0.07648759 -0.6783833
-0.3705077 -0.47257432 -0.24080434 -0.16486378 0.009342369 0.698003 -0.2824356 -0.07171007
0.2535018 -0.21300489 0.088239305 0.6037544 -0.20630556 0.214343 0.55896723 -0.5096091
0.22240609 0.06450927 -0.7775982 -0.7572846 -0.07967965 -0.085224316 -0.6721128 -0.97670346
0.37078637 0.0420414 -0.046160273 -0.035452057 0.5468339 0.30165404 0.85863787 0.44288093

model.output.bias f4 [10]
00000000: d205 67be cd9f 693e 7bfc 82bf 647a 5abf
00000010: 6268 873e 6f47 143d bc69 53be 118c 663f
00000020: a55b 993c 767b 153f
-0.22560814 0.22814865 -1.0233301 -0.85343003 0.26446825 0.036200937 -0.20645803 0.90057474
0.018720457 0.5839151
