Models/model_optAdam_ep40_neu256_lay3_acc0.9562.pth (torch, 982662 bytes, 10 tensors)

model.input.weight f4 [256, 784]
0.014179528 0.005310364 -0.015659146 0.02131373 -0.025858272 0.00427885 -0.018079605 0.012614824
-0.020710558 -0.022036482 -0.023180405 -0.029518142 -0.041846085 -0.036039647 0.016416933 -0.038724825
-0.034586173 -0.021951953 -0.0074299667 0.024786286 0.010170635 -0.019173738 -0.0065367986 0.0007599667
-0.017082538 0.01522848 0.022938613 -0.020719279 -0.020002801 0.02885465 0.033517394 0.01600688
-0.020412795 -0.004847257 -0.11668452 -0.056016196 -0.046971146 -0.03739321 -0.023533411 0.015352749
-0.035801016 -0.10775071 -0.04779789 -0.08332369 -0.10363559 -0.03196349 0.010664428 -0.12742856
-0.10605391 -0.06325468 -0.0679791 -0.015863061 0.024902236 -0.013436684 -0.00508368 0.0037293695
0.014455456 -0.0043221302 0.034753304 -0.020457873 -0.017976727 -0.08060854 -0.06338925 -0.11168275
-0.12449918 0.10148682 0.13703327 -0.03785646 -0.11546308 -0.052118216 -0.20337906 -0.15950239
-0.019704243 0.04554132 0.0012824982 -0.027586445 0.037194 0.08087439 0.04500492 0.03394284
0.025328934 0.017265094 -0.019773318 -0.031869873 -0.013699187 -0.027589101 0.0045548677 0.05777303
0.039485935 -0.037529398 -0.012319192 0.13846193 -0.05357197 -0.0043678856 0.02592329 0.06241412
-0.09821989 -0.13858284 -0.21966894 -0.12015425 -0.044576284 -0.09478869 0.07406271 0.016641727
0.025811723 0.21057133 0.13098025 0.010363276 0.007325918 -0.004442181 -0.009548193 -0.012008207
-0.00056991354 -0.02144682 0.020420596 0.042504866 -0.09741949 0.19377992 0.21332188 0.16444097
-0.02831012 0.0745121 0.097616635 0.048341915 0.10807198 0.123142704 0.008213512 -0.048595443
-0.0011270592 -0.054431364 0.00556049 0.11281194 0.07794866 -0.079806715 -0.0640592 0.060727626
-0.054842796 0.00036542641 0.024025226 -0.019992864 0.023692783 0.016266204 -0.010974664 0.03468526
0.21645342 0.23609984 0.2126106 0.0755771 0.056090973 0.115460396 0.11605761 0.04272225
0.05289265 -0.064890236 0.0030208135 -0.019073045 0.09204726 0.024409221 -0.015408623 0.0246947
-0.030707069 -0.0488052 -0.093427666 0.091600366 0.09231585 0.109689265 -0.045216393 -0.02561703
-0.02539522 0.03412954 0.05364468 -0.0005969692 0.028028063 0.042873636 0.08985024 -0.06622133
0.004999575 0.11843282 0.05600751 -0.027275352 0.06667828 -0.034685925 -0.039892424 -0.0650475
-0.12535125 -0.10025428 0.004457268 -0.13078013 -0.11872735 -0.18377651 -0.2777468 -0.13149247
-0.06317117 0.08297929 -0.03459045 -0.025420683 -0.031575482 0.015121721 0.15552595 0.0753581
0.079219475 0.019536732 0.032360587 0.06835445 0.18494037 0.040454697 -0.025117118 0.010873309
-0.012834937 0.024545765 -0.048020836 -0.20741251 -0.16341113 -0.054248463 0.05249785 -0.043633103
-0.15745072 -0.07102404 -0.13249929 -0.16614108 -0.0657762 0.08929469 -0.0029273902 -0.04692158
0.0093464805 0.0169707 0.1221188 -0.0054140924 -0.064261444 0.14178358 0.14322165 0.09968901
0.044082586 0.0939958 0.07415954 0.046514068 -0.029078595 -0.032561656 -0.16359714 -0.19528136
-0.1284392 0.026767367 0.0033787214 -0.0049753436 -0.03728047 -0.070605576 -0.009827145 -0.06418093
-0.07741575 0.055715322 0.0142698195 -0.03576406 -0.010786171 0.06806203 -0.14340793 -0.14732143
00000000: 4051 683c 9002 ae3b 9c47 80bc 229a ae3c
00000010: bad4 d3bc 9835 8c3b ae1b 94bc 68ae 4e3c
00000020: 30a9 a9bc da85 b4bc d5e4 bdbc 08d0 f1bc
00000030: cd66 2bbd 4f9e 13bd ce7c 863c ec9d 1ebd
00000040: 3baa 0dbd 95d4 b3bc 1477 f3bb 9c0c cb3c
00000050: bca2 263c 3e12 9dbc a432 d6bb 8038 473a
00000060: aef0 8bbc e080 793c c2e9 bb3c 7abb a9bc
00000070: eadc a3bc 9660 ec3c 8949 093d dc20 833c
00000080: bc38 a7bc bdd5 9ebb 4bf8 eebd 3d71 65bd
00000090: d164 40bd 9f29 19bd 24c9 c0bc 198a 7b3c
000000a0: 16a4 12bd 67ac dcbd b8c7 43bd 9ca5 aabd
000000b0: e53e d4bd 26ec 02bd dab9 2e3c a27c 02be
000000c0: cb32 d9bd ab8b 81bd a038 8bbd 40f3 81bc
000000d0: c6ff cb3c 8a25 5cbc 0095 a6bb 7068 743b
000000e0: 94d6 6c3c a8a0 8dbb 7b59 0e3d 4597 a7bc
000000f0: ee43 93bc 1716 a5bd 39d2 81bd edb9 e4bd
00000100: 6df9 febd 52d8 cf3d 7352 0c3e 600f 1bbd
00000110: e877 ecbd e979 55bd 9a42 50be 9854 23be
00000120: cb6a a1bc 8989 3a3d 8019 a83a f8fc e1bc
00000130: bc58 183d 79a1 a53d 1457 383d a607 0b3d
00000140: a07e cf3c 876f 8d3c a7fb a1bc fc89 02bd
00000150: 8e72 60bc 8a02 e2bc 0041 953b 6aa3 6c3d
00000160: 01bc 213d 6db8 19bd 70d6 49bc f7c8 0d3e
00000170: 486e 5bbd 7b20 8fbb 145d d43c f3a5 7f3d
00000180: 8227 c9bd a9e8 0dbe e5f0 60be 6e13 f6bd
00000190: 9f95 36bd 9320 c2bd 31ae 973d 3b54 883c
000001a0: 1b73 d33c 03a0 573e b01f 063e bbca 293c
000001b0: 410e f03b b78f 91bb 0670 1cbc 12be 44bc
000001c0: 4066 15ba 3eb1 afbc 1849 a73c 9519 2e3d
000001d0: df83 c7bd 3e6e 463e 0d71 5a3e 3763 283e
000001e0: a0ea e7bc cd99 983d 3beb c73d 2c02 463d
000001f0: d854 dd3d 3e32 fc3d f791 063c 040c 47bd
00000200: d5b9 93ba 6cf3 5ebd c534 b63b f209 e73d
00000210: 8ca3 9f3d b471 a3bd 7831 83bd 88bd 783d
00000220: d7a2 60bd b496 bf39 8dd0 c43c 13c8 a3bc
00000230: 5e17 c23c b440 853c 14cf 33bc 2212 0e3d
00000240: f7a5 5d3e 28c4 713e 98b6 593e 2bc8 9a3d
00000250: a6bf 653d 8076 ec3d 9daf ed3d 87fd 2e3d
00000260: f7a5 583d 2ce5 84bd d7f8 453b 133f 9cbc
00000270: 4683 bc3d d9f5 c73c 7374 7cbc 8a4c ca3c
00000280: 648d fbbc f6e7 47bd 0157 bfbd f998 bb3d
00000290: 1810 bd3d c4a4 e03d d334 39bd ceda d1bc
000002a0: a309 d0bc 6bcb 0b3d 86ba 5b3d ed7d 1cba
000002b0: 1c9b e53c 449c 2f3d 6703 b83d 0c9f 87bd
000002c0: 7ad3 a33b e88c f23d 2168 653d 8f70 dfbc
000002d0: 9f8e 883d d412 0ebd 3d66 23bd a037 85bd
000002e0: 145c 00be 1e52 cdbd 460e 923b 3aeb 05be
000002f0: 5327 f3bd e92f 3cbe d434 8ebe f6a5 06be
00000300: e35f 81bd 0cf1 a93d b7ae 0dbd 093f d0bc
00000310: 4b55 01bd 18c1 773c 3242 1f3e 5955 9a3d
00000320: d23d a23d 7f0b a03c 898c 043d 6bfd 8b3d
00000330: 0261 3d3e d3b3 253d 6ac2 cdbc f725 323c
00000340: a149 52bc 3314 c93c 7fb1 44bd f263 54be
00000350: 3f55 27be a333 5ebd fc07 573d a0b8 32bd
00000360: c33a 21be 0d75 91bd e5ad 07be e320 2abe
00000370: acb5 86bd 22e0 b63d 75d9 3fbb d830 40bd
00000380: fb21 193c 2306 8b3c 6c19 fa3d b368 b1bb
00000390: 819b 83bd b72f 113e b2a8 123e c029 cc3d
000003a0: f18f 343d df80 c03d f5e0 973d 8985 3e3d
000003b0: 3c36 eebc 5f5f 05bd 0286 27be d6f7 47be
000003c0: 9185 03be 3d47 db3c 8a6d 5d3b 3508 a3bb
000003d0: 68b3 18bd a899 90bd 0902 21bc 4b71 83bd
000003e0: 268c 9ebd c035 643d f6cb 693c 567d 12bd
000003f0: 7bb8 30bc 1b64 8b3d 87d9 12be 6edb 16be

model.input.bias f4 [256]
0.074698046 -0.114111975 -0.11218308 -0.041228145 -0.14570993 0.016730107 -0.012953886 0.10641404
-0.04833907 -0.0015247889 -0.02065737 -0.020464681 -0.13465546 0.04123818 -0.088593446 -0.012928263
0.053161707 0.012493642 0.11191207 -0.054190174 0.01864506 -0.04063463 0.04227828 0.016126294
0.011789632 0.18290451 -0.034119785 -0.0625058 0.012861039 -0.0665177 -0.032007143 0.054385174
0.08473654 -0.059368916 -0.014863075 0.11391239 0.010815446 -0.011943818 0.07021183 0.06293557
-0.051368695 -0.014310088 0.0043030465 0.098114066 -0.09145173 0.044528387 0.008318377 0.03169082
0.017231721 0.03437613 -0.040244628 -0.0078413775 0.0794704 0.026152175 -0.027704917 -0.084268324
0.059129693 0.039490625 -0.0134449685 0.07847794 0.0524935 -0.014315569 0.0002972976 -0.035410013
-0.057046954 -0.004272806 0.04701999 0.059527386 0.0042711855 0.03832484 -0.05655191 -0.0849135
0.01689323 0.026101358 -0.07274627 0.07829662 0.03521818 -0.15436806 -0.031976346 0.045627303
0.0887882 -0.07176995 -0.065597795 0.059642904 0.077923164 0.07150501 -0.05479794 0.1969281
0.06558941 -0.019349603 0.026129022 0.012553432 -0.032653913 0.14342032 0.075142704 -0.04548525
-0.030027714 -0.06429336 -0.002807443 -0.06427605 -0.0048022037 -0.09634755 0.0111800395 -0.015305899
-0.009794941 0.17073293 0.06047915 -0.098828204 -0.03374626 0.053294618 -0.019479014 -0.037127737
-0.02740243 0.12177456 -0.0083423415 0.15179226 0.045122 0.006157776 0.087109186 0.10836812
0.08467726 -0.058923524 0.063532025 -0.025316224 -0.07813796 -0.057341892 -0.015045105 0.056250013
0.10139456 0.011364074 0.0907696 -0.0246564 -0.0098269945 0.061030705 0.037567604 -0.027335698
0.01693947 -0.021086263 -0.030301552 0.066196926 0.013340833 -0.071342595 -0.12833975 0.119710386
0.1416725 0.04731655 -0.06796184 0.059674297 0.12333937 -0.052076343 0.09462948 0.018338472
0.0023357237 -0.090588436 0.096206516 -0.00632523 0.028172618 -0.101833664 -0.0074504535 -0.003340068
0.01940837 0.06175831 0.028573269 -0.14177115 -0.016019443 0.05596186 0.005197481 0.038362693
-0.09586584 0.04035759 -0.08362811 -0.046188522 0.040352598 0.037267596 -0.055350114 -0.0047270143
-0.037026547 0.11910485 -0.05044043 -0.078876175 0.039370973 -0.101670764 -0.050317015 0.090897925
0.023407372 0.02431483 0.008165877 -0.018125242 -0.034320265 -0.08575648 0.000120713725 0.04964676
-0.0751638 -0.0066301464 -0.012685465 -0.08656902 -0.026642833 0.017706666 0.018679276 0.046302017
0.07361788 -0.15425886 -0.005095696 -0.08235414 -0.007273737 -0.06804584 -0.106766365 -0.016191714
-0.0132358195 -0.05313266 0.06336384 0.010356189 0.169668 -0.042523507 0.045790747 -0.009798172
0.008783994 0.06647015 0.104340956 0.049620423 -0.00530576 0.048732027 -0.06857929 0.026693854
-0.1036332 -0.13771822 -0.015497493 -0.07825934 0.020147113 0.032305334 0.046497926 0.036205843
-0.039333057 0.06584221 -0.0032698223 -0.07787054 0.006116352 -0.04871344 0.022021782 0.027553212
0.038030908 -0.01902291 -0.056447066 -0.09280252 0.026906589 0.07148995 0.12944789 -0.029080868
0.040182654 0.030671014 0.027763134 -0.052483473 0.01119654 0.007959065 -0.011329212 -0.048969623
00000000: 4afb 983d 8ab3 e9bd 3ec0 e5bd d8de 28bd
00000010: fc34 15be 940d 893c 893c 54bc 9bef d93d
00000020: 30ff 45bd 6ddb c7ba a539 a9bc 8ca5 a7bc
00000030: 1fe3 09be 5ee9 283d 7b70 b5bd 11d1 53bc
00000040: 17c0 593d 22b2 4c3c 2832 e53d 84f6 5dbd
00000050: 86bd 983c 7f70 26bd fd2b 2d3d 4a1b 843c
00000060: 4d29 413c 524b 3b3e 30c1 0bbd 0a03 80bd
00000070: 1bb7 523c 6f3a 88bd ec19 03bd fdc2 5e3d
00000080: 5a8a ad3d d22c 73bd 4184 73bc e64a e93d
00000090: 4533 313c 01b0 43bc 38cb 8f3d 5de4 803d
000000a0: fb67 52bd dc74 6abc 9200 8d3b 07f0 c83d
000000b0: 0b4b bbbd 6663 363d cd49 083c 3cce 013d
000000c0: 8a29 8d3c fccd 0c3d 8dd7 24bd 1f79 00bc
000000d0: 61c1 a23d 163d d63c 6cf5 e2bc df94 acbd
000000e0: fa31 723d ecc0 213d 4948 5cbc 0bb9 a03d
000000f0: 6d03 573d d98b 6abc 9cde 9b39 170a 11bd
00000100: 11aa 69bd e502 8cbb 0898 403d fdd2 733d
00000110: 4df5 8b3b 82fa 1c3d faa2 67bd 21e7 adbd
00000120: ac63 8a3c 84d2 d53c fffb 94bd fa59 a03d
00000130: f040 103d a912 1ebe a1f9 02bd b2e3 3a3d
00000140: 96d6 b53d 20fc 92bd 2358 86bd 1e4c 743d
00000150: 2e96 9f3d 3871 923d ce73 60bd 85a7 493e
00000160: be53 863d 0f83 9ebc 880c d63c e9ac 4d3c
00000170: 1cc0 05bd c7dc 123e 6be4 993d be4e 3abd
00000180: aefc f5bc 3dac 83bd 14fd 37bb 29a3 83bd
00000190: ce5b 9dbb dd51 c5bd 7c2c 373c 98c5 7abc
000001a0: f67a 20bc 9dd4 2e3e fcb8 773d 7166 cabd
000001b0: 8539 0abd 754b 5a3d 7492 9fbc 4113 18bd
000001c0: 107b e0bc f164 f93d 51ae 08bc 6e6f 1b3e
000001d0: d9d1 383d 2bc7 c93b 4d66 b23d 1bf0 dd3d
000001e0: 456b ad3d cb59 71bd 141d 823d f863 cfbc
000001f0: cb06 a0bd 55df 6abd be7f 76bc 6a66 663d
00000200: f3a7 cf3d 6230 3a3c 69e5 b93d 38fc c9bc
00000210: 6701 21bc 55fb 793d 7de0 193d 1def dfbc
00000220: a5c4 8a3c 19bd acbc f63a f8bc 4192 873d
00000230: 8293 5a3c 111c 92bd 7f6b 03be b82a f53d
00000240: 9912 113e 00cf 413d 942f 8bbd 096d 743d
00000250: 5a99 fc3d 014e 55bd 1acd c13d 903a 963c
00000260: f112 193b 6e86 b9bd ec07 c53d e043 cfbb
00000270: 43ca e63c 2b8e d0bd ef22 f4bb 0be5 5abb
00000280: 4dfe 9e3c 48f6 7c3d 7d12 ea3c 752c 11be
00000290: 353b 83bc 4338 653d a14f aa3b 3322 1d3d
000002a0: 4f55 c4bd 004e 253d 3745 abbd 2d30 3dbd
000002b0: c448 253d e8a5 183d cdb6 62bd 12e5 9abb
000002c0: 26a9 17bd 3eed f33d a09a 4ebd d589 a1bd
000002d0: 7543 213d c338 d0bd 3719 4ebd b128 ba3d
000002e0: d1c0 bf3c e52f c73c 2cca 053c 637b 94bc
000002f0: 6893 0cbd 18a1 afbd b027 fd38 675a 4b3d
00000300: 7aef 99bd b341 d9bb b2d6 4fbc 194b b1bd
00000310: 1242 dabc 920d 913c 4805 993c 2fa7 3d3d
00000320: f9c4 963d 09f6 1dbe ccf9 a6bb 4aa9 a8bd
00000330: 8758 eebb 9e5b 8bbd 53a8 dabd 7ca4 84bc
00000340: 0ddb 58bc a2a1 59bd e7c4 813d 01ad 293c
00000350: 73bd 2d3e 212d 2ebd 148f 3b3d 8388 20bc
00000360: beea 0f3c 8121 883d b6b0 d53d c93e 4b3d
00000370: f1db adbb 3c9b 473d 4c73 8cbd 12ad da3c
00000380: a53d d4bd 0106 0dbe 32e9 7dbc 6f46 a0bd
00000390: 8f0b a53c 9952 043d 9c74 3e3d 944c 143d
000003a0: b31b 21bd 48d8 863d 844a 56bb 977a 9fbd
000003b0: ae6b c83b be87 47bd 0667 b43c 46b7 e13c
000003c0: 4cc6 1b3d efd5 9bbc 0a35 67bd 3f0f bebd
000003d0: 356b dc3c 5369 923d fd8d 043e 003b eebc
000003e0: 9196 243d c741 fb3c 836f e33c e9f8 56bd
000003f0: b171 373c bd66 023c 299e 39bc 5f94 48bd

model.dense1.weight f4 [128, 256]
0.29099566 -0.14602026 0.12172374 -0.02708739 -0.022699663 -0.005292345 -0.11050085 0.1398322
0.015931407 -0.24942477 0.100677125 -0.004304177 0.01430557 -0.25981516 0.009393283 0.2680628
0.015902394 0.15782751 -0.05475726 -0.038239114 0.034706082 -0.08580655 -0.0215985 0.2412472
0.28272396 0.06093601 0.040737145 0.06633485 0.07325135 -0.024686445 0.036481895 0.29340857
0.062917985 -0.0506399 -0.03779852 0.12436034 -0.08862898 0.055975843 0.033100285 -0.1242596
0.13969615 -0.048229173 -0.09922956 0.0059615253 0.048952132 -0.15310575 -0.051528342 0.15489982
-0.07946473 0.08049276 -0.012884332 0.013527299 -0.10117873 0.10599626 0.15650561 0.07406136
0.31672922 0.022049028 -0.0048720883 0.32307255 0.20558102 0.06812368 0.032640483 0.1175416
0.07991929 -0.017644586 -0.16848145 -0.0050995634 -0.03378789 -0.1244573 -0.19874868 -0.11726988
0.08925167 0.0009687396 0.119703464 0.29583552 0.006574298 -0.03926274 0.0011166682 0.06602331
0.1338991 -0.050496474 0.12645093 0.11590638 0.100554936 0.017375521 0.013088118 -0.0838697
0.005717566 -0.5160417 0.00087556464 0.36528662 -0.12348137 0.10149145 0.021050407 -0.007254296
-0.076763034 -0.05405299 0.021132119 0.029930694 -0.068530664 -0.07079786 -0.090045124 -0.05445822
0.089588955 -0.15067714 0.05071374 -0.15635224 0.095770635 0.23264661 0.21475019 0.0007624436
0.121964924 -0.044958167 0.05888556 0.09783065 -0.1852387 0.10490715 0.1835129 0.20329444
0.02112871 -0.099648006 0.10259218 0.007538791 -0.14464831 0.03380749 0.022328202 -0.1548792
-0.0966189 0.03814494 0.13194585 0.088796474 -0.27781114 0.041731864 -0.019167878 0.10627185
0.067186825 0.03562481 0.027486809 0.18825759 0.13607192 -0.06848988 -0.12975027 0.08844745
-0.07922025 0.05065731 -0.047938444 -0.05904908 0.11027422 0.2934861 0.23869874 -0.13847087
0.06711372 -0.04782459 -0.09627607 -0.085078135 -0.017438315 -0.085425586 0.021304399 0.13208921
-0.13168606 -0.0718137 0.012215258 0.037842583 -0.029276177 -0.3022889 0.27283457 -0.022673849
0.07780763 0.32675937 -0.22226709 -0.07404276 0.010607892 0.10384425 0.03780514 -0.03706059
-0.1506914 -0.029303415 -0.11871446 -0.059512123 0.13970928 0.06588175 0.036337167 0.18417284
0.027080907 0.031294342 0.038111217 -0.15586694 0.19845559 -0.10177581 0.008847379 -0.023245137
-0.114859015 0.033055697 -0.036496155 -0.10633285 0.046458207 -0.0048541143 0.050910603 0.18562332
0.40521273 -0.039871138 -0.018132383 -0.32378623 0.05809205 0.011278201 0.0047661653 0.048167147
-0.03664596 0.007834672 -0.010112136 -0.052696466 -0.09338412 -0.10876328 0.3025639 -0.08055574
0.04577504 0.13370587 0.117480546 -0.036059525 -0.15476584 0.101169944 0.076072 -0.05907722
0.028417323 -0.3416345 -0.048612855 0.21118487 -0.22539102 0.0693005 0.07274879 0.08953974
-0.014595794 -0.010622332 0.0679887 -0.19384646 0.13697162 0.10160676 -0.040239472 0.03364043
-0.0076027364 -0.06896948 0.103913374 0.20167431 0.105994046 0.06679312 -0.06745456 -0.018679978
0.049618103 0.20262526 0.052804194 0.020294663 0.09007086 -0.032491133 0.07552138 0.014002236
00000000: 62fd 943e 5686 15be 4c4a f93d 60e6 ddbc
00000010: a5f4 b9bc 686b adbb 454e e2bd 2c30 0f3e
00000020: 9582 823c 3569 7fbe cf2f ce3d 0e0a 8dbb
00000030: e961 6a3c 7e06 85be 49e6 193c 873f 893e
00000040: bd45 823c 899d 213e 2649 60bd 9ea0 1cbd
00000050: f727 0e3d 58bb afbd 56ef b0bc 8209 773e
00000060: 32c1 903e 0a98 793d fedb 263d 91da 873d
00000070: ce04 963d 3a3b cabc 0a6e 153d a639 963e
00000080: 25db 803d c96b 4fbd 9fd2 1abd a2b0 fe3d
00000090: 1c83 b5bd ed46 653d 2a94 073d d17b febd
000000a0: 820c 0f3e f48b 45bd de38 cbbd e658 c33b
000000b0: 0882 483d c1c7 1cbe 620f 53bd 0f9e 1e3e
000000c0: 68be a2bd 63d9 a43d ce18 53bc 9ba1 5d3c
000000d0: cb36 cfbd 9114 d93d 0243 203e 7bad 973d
000000e0: 552a a23e 2aa0 b43c 0aa6 9fbb c469 a53e
000000f0: d583 523e 6e84 8b3d 07b2 053d a6b9 f03d
00000100: baac a33d 618b 90bc 6786 2cbe 3d1a a7bb
00000110: 2c65 0abd 78e3 febd c684 4bbe 312b f0bd
00000120: 94c9 b63d 04f3 7d3a 1727 f53d c177 973e
00000130: 356d d73b f8d1 20bd 2b5d 923a 3b37 873d
00000140: d81c 093e 64d5 4ebd 5a7c 013e 5360 ed3d
00000150: bfef cd3d 1c57 8e3c 8c6f 563c e1c3 abbd
00000160: 6b5a bb3b 4f1b 04bf 2686 653a d906 bb3e
00000170: cde3 fcbd c0da cf3d e771 ac3c 72b5 edbb
00000180: f035 9dbd ab66 5dbd 441d ad3c 3731 f53c
00000190: ce59 8cbd 78fe 90bd 9469 b8bd 950f 5fbd
000001a0: 6a7a b73d 1c4b 1abe 36b9 4f3d cd1a 20be
000001b0: 6523 c43d ea3a 6e3e 79e7 5b3e b9de 473a
000001c0: bfc8 f93d 0e26 38bd fc31 713d 705b c83d
000001d0: 37af 3dbe 8fd9 d63d ceea 3b3e 6b2c 503e
000001e0: 1e16 ad3c 4114 ccbd d91b d23d f607 f73b
000001f0: b01e 14be b979 0a3d a2e9 b63c a798 1ebe
00000200: 21e0 c5bd de3d 1c3d d01c 073e edda b53d
00000210: 433d 8ebe 08ef 2a3d f405 9dbc 0ea5 d93d
00000220: 3f99 893d 52eb 113d 042c e13c 99c6 403e
00000230: 7056 0b3e 6c44 8cbd 41dd 04be f023 b53d
00000240: 3a3e a2bd 0a7e 4f3d 1a5b 44bd 73dd 71bd
00000250: 73d7 e13d cf43 963e 716d 743e 4fcb 0dbe
00000260: eb72 893d b8e3 43bd 632c c5bd 723d aebd
00000270: ccda 8ebc 9cf3 aebd 9086 ae3c 6542 073e
00000280: b6d8 06be 1013 93bd 8122 483c d300 1b3d
00000290: 98d4 efbc 9cc5 9abe f9b0 8b3e 82be b9bc
000002a0: 9b59 9f3d 014d a73e fc99 63be bba3 97bd
000002b0: b9cc 2d3c 4bac d43d 90d9 1a3d d8cc 17bd
000002c0: d94e 1abe b70d f0bc 9120 f3bd fcc2 73bd
000002d0: f30f 0f3e 03ed 863d 48d6 143d ce97 3c3e
000002e0: c7d8 dd3c 7f2e 003d 821a 1c3d 959b 1fbe
000002f0: f137 4b3e d66f d0bd 99f4 103c 966c bebc
00000300: 343b ebbd 6965 073d fe7c 15bd 0ac5 d9bd
00000310: f64a 3e3d 430f 9fbb a387 503d 0a14 3e3e
00000320: 0b78 cf3e eb4f 23bd 5d8a 94bc 4fc7 a5be
00000330: eef1 6d3d 34c8 383c 7e2d 9c3b ea4a 453d
00000340: 131a 16bd ff5c 003c 5fad 25bc 40d8 57bd
00000350: 2c40 bfbd 48bf debd a8e9 9a3e 68fa a4bd
00000360: 9c7e 3b3d 31ea 083e a499 f03d 27b3 13bd
00000370: f07a 1ebe 3032 cf3d a3cb 9b3d f4fa 71bd
00000380: 72cb e83c b8ea aebe 461e 47bd d940 583e
00000390: e7cc 66be 6ced 8d3d 51fd 943d 9c60 b73d
000003a0: 3223 6fbc 4a09 2ebc a93d 8b3d b07f 46be
000003b0: 4a42 0c3e 3417 d03d 25d2 24bd 8cca 093d
000003c0: 6020 f9bb df3f 8dbd 89d0 d43d b683 4e3e
000003d0: 6813 d93d d5ca 883d 9e25 8abd c106 99bc
000003e0: 5a3c 4b3d ff7c 4f3e 3649 583d fe40 a63c
000003f0: 1277 b83d 6c15 05bd f4aa 9a3d a269 653c

model.dense1.bias f4 [128]
0.078244954 -0.005283391 0.16286564 -0.047150444 0.06468477 0.1246656 0.19148853 0.06854789
0.20270838 0.07073206 0.08077456 -0.004447003 0.07151121 0.10194832 0.009918853 0.22537225
-0.043240167 0.07325079 0.16924524 -0.0115993135 0.16230159 -0.00043103113 -0.004329733 0.010326346
0.05660662 0.26317015 -0.11838753 0.11530242 -0.0804514 -0.16252708 0.04809433 0.18806133
0.13065311 0.00033793712 -0.13477305 0.031916544 -0.019536613 -0.08190534 -0.02611906 -0.036321096
0.18850446 -0.036697794 -0.039472613 0.069793984 0.008947309 -0.02395615 0.0294705 -0.0524652
-0.03999008 0.12456749 0.06407562 0.18438324 0.10705545 -0.025154889 0.11687293 0.21884657
0.04426009 0.08935394 -0.09478866 -0.058093466 -0.07363137 0.10217997 -0.04077088 0.009889531
0.13004875 -0.120905034 -0.07324421 -0.044226054 0.08156203 -0.085242115 0.022305643 -0.040162154
0.09680999 0.0059919776 -0.07114373 0.1938752 -0.00808015 0.111838244 -0.0032649047 0.106874414
0.076625705 0.078328714 0.03438942 -0.006620478 -0.11788623 0.05913172 0.018072685 -0.021250796
-0.040961236 -0.09119881 0.046532113 0.020924222 0.045452707 0.11303504 0.20095302 0.15660648
0.07536773 -0.11064247 -0.011115383 0.039533053 0.06582735 0.013052456 -0.07038693 -0.098077
0.06196367 0.15881048 -0.08495817 -0.0990791 0.025134506 -0.012206039 0.02680393 -0.06545507
0.04834966 -0.057003748 0.10759213 0.1984796 0.027283074 0.21283591 0.23390813 -0.11035745
-0.015246878 0.14974692 0.015359013 0.071316615 -0.17109525 -0.08235929 0.10441626 -0.019822653
00000000: e43e a03d 4c20 adbb 40c6 263e d320 41bd
00000010: 7379 843d ae50 ff3d 9215 443e d662 8c3d
00000020: c992 4f3e f8db 903d 226d a53d 2ab8 91bb
00000030: 7874 923d 48ca d03d af82 223c fcc7 663e
00000040: 9a1c 31bd 8304 963d a04e 2d3e 0c0b 3ebc
00000050: 6332 263e 05fc e1b9 6fe0 8dbb d62f 293c
00000060: 58dc 673d 3dbe 863e 2975 f2bd ad23 ec3d
00000070: b4c3 a4bd 806d 26be 8ffe 443d 2693 403e
00000080: eec9 053e 272d b139 f201 0abe ecba 023d
00000090: 3f0b a0bc fdbd a7bd a4f7 d5bc 6ec5 14bd
000000a0: 5007 413e 6d50 16bd 09ae 21bd 26f0 8e3d
000000b0: bc97 123c b03f c4bc 1e6c f13c c0e5 56bd
000000c0: a3cc 23bd 3d1d ff3d 143a 833d f6ce 3c3e
000000d0: e33f db3d a011 cebc 135b ef3d 5119 603e
000000e0: 114a 353d 33ff b63d 8f20 c2bd 6af3 6dbd
000000f0: 0bcc 96bd bb43 d13d 5eff 26bd b307 223c
00000100: 802b 053e 0f9d f7bd 0f01 96bd 6126 35bd
00000110: fe09 a73d 6b93 aebd 53ba b63c 1281 24bd
00000120: 5144 c63d 5a58 c43b ceb3 91bd 3887 463e
00000130: 9b62 04bc 730b e53d 03f8 55bb f9e0 da3d
00000140: f0ed 9c3d ce6a a03d ecdb 0c3d 98f0 d8bb
00000150: 566e f1bd 1a34 723d 2b0d 943c 2616 aebc
00000160: f8c6 27bd 71c6 babd 7598 3e3d 4669 ab3c
00000170: 9e2c 3a3d ea7e e73d a1c6 4d3e 735d 203e
00000180: 655a 9a3d 8598 e2bd 4c1d 36bc 69ed 213d
00000190: 7dd0 863d f8d9 553c 0627 90bd 98dc c8bd
000001a0: 9ecd 7d3d 379f 223e 8dfe adbd fce9 cabd
000001b0: e1e6 cd3c d7fb 47bc ea93 db3c 4f0d 86bd
000001c0: 4b0a 463d c37c 69bd 4359 dc3d 3c3e 4b3e
000001d0: c180 df3c a8f1 593e 9d85 6f3e 1603 e2bd
000001e0: 0bce 79bc 4257 193e 5fa4 7b3c 720e 923d
000001f0: 9833 2fbe fdab a8bd 31d8 d53d 1e63 a2bc

model.dense2.weight f4 [64, 128]
0.030395465 0.08077926 -0.03397201 -0.06158307 -0.06242624 -0.03367949 0.07734515 0.11603142
0.10335156 -0.09829395 -0.00018092337 0.049546804 0.31837025 0.07005987 -0.06791222 -0.068684906
-0.013661139 -0.013693628 0.053811233 0.026547998 0.08765781 0.16059163 0.025947405 0.19236742
-0.021428915 -0.0863787 -0.14029495 -0.23912992 -0.075120814 0.01870464 -0.054132175 -0.054440495
0.007286547 -0.07990353 0.15571173 0.076686755 -0.04967572 0.050027184 -0.015755095 -0.071155
0.067648925 -0.009671613 0.07047315 -0.057357166 0.22584236 0.05670317 -0.056386657 0.015385287
-0.06418111 -0.0682552 0.05869517 0.023433417 -0.042567074 0.006445693 0.102774255 0.042173993
-0.02662752 0.036759827 0.18460259 -0.05556232 0.065269135 0.05078378 -0.02618544 -0.057769593
-0.058310904 0.00012111822 0.070998155 -0.0003580895 -0.042796798 0.33029738 -0.050734263 -0.06960865
0.13284339 0.022065043 0.049647655 -0.004791115 -0.08514095 -0.025729155 0.06453328 -0.061560683
0.039017957 0.1124429 0.06687918 0.07225238 0.16656981 0.12840588 0.00014552436 -0.010187477
-0.007851844 -0.02950539 -0.3089089 0.0531518 0.04253338 0.17795187 -0.18412252 0.023932295
0.04227158 0.29899427 0.016282182 0.029452343 0.12559941 -0.028654423 0.13212906 -0.0717758
-0.03975767 0.053258356 -0.046050023 0.037762616 0.090784386 0.023937237 0.0619986 0.1778073
0.26699573 0.049140148 0.28228354 -0.010552964 -0.21354538 -0.04840895 0.012323214 -0.04789926
-0.07633501 0.13803953 0.05203744 -0.10691402 -0.08881588 0.08749535 0.07490177 -0.2872182
-0.089800805 -0.080548294 0.058314674 0.0626824 0.03939732 -0.0647077 -0.013365417 -0.03243047
0.06432246 -0.051217902 -0.014546461 -0.040956747 -0.065123595 -0.07674015 -0.10070191 -0.043112844
0.006560039 -0.0793701 -0.06898658 0.011570573 0.02226032 0.036656044 -0.05323951 -0.07374919
-0.06833579 0.03502794 -0.055364165 -0.019380637 -0.053331293 -0.08537678 0.013688453 -0.097309284
-0.093857355 0.07358057 -0.086564906 0.011571705 -0.003063822 0.028796792 -0.030452061 -0.011178732
-0.07005855 0.008714102 -0.0007102922 -0.071068384 -0.07182806 0.055240087 -0.044878535 -0.0036386847
-0.040546596 0.05860345 -0.047371287 -0.028793233 -0.039446823 0.044110782 0.025595315 -0.08498707
-0.1115198 0.017851532 0.03086004 0.08509726 -0.00063304644 0.08382394 -0.068022504 0.07001605
-0.06926133 -0.042901866 -0.08965559 0.046757407 -0.024847096 -0.048067257 0.04487849 -0.047843844
0.042751238 -0.10241265 -0.059579752 0.023348637 -0.036478803 -0.09995773 -0.0100667775 -0.04314514
-0.038946014 0.048955668 0.022309123 -0.08671451 -0.047618866 0.008301213 -0.02199018 0.007489741
-0.05270944 -0.054509234 0.07623156 -0.0420949 -0.10804172 -0.017779462 -0.08492611 0.03696236
-0.09848041 0.021093234 0.048793487 -0.049082913 0.06459656 -0.00962197 -0.09687527 -0.0818411
0.031468358 -0.08747767 -0.021535402 -0.03183383 -0.029856743 -0.031517074 -0.029711505 0.02196825
0.0521153 0.015999913 -0.002453824 -0.090376124 -0.005829459 -0.0047915275 0.00041098148 0.052031897
-0.022458727 -0.04756102 0.048362765 0.051628754 -0.08832303 0.0038693547 -0.04471704 -0.05426143
00000000: e9ff f83c 996f a53d 3c26 0bbd 873e 7cbd
00000010: a8b2 7fbd 81f3 09bd 2267 9e3d e2a1 ed3d
00000020: fca9 d33d 574e c9bd 3fb6 3db9 97f1 4a3d
00000030: 6d01 a33e 8d7b 8f3d 9015 8bbd acaa 8cbd
00000040: f8d2 5fbc 3d5b 60bc 2b69 5c3d 307b d93c
00000050: f085 b33d 2272 243e a78f d43c f7fb 443e
00000060: b18b afbc 51e7 b0bd 7ba9 0fbe 79de 74be
00000070: f1d8 99bd 793a 993c b3b9 5dbd fffc 5ebd
00000080: fdc3 ee3b 76a4 a3bd e572 1f3e f20d 9d3d
00000090: c578 4bbd 4ee9 4c3d d410 81bc b6b9 91bd
000000a0: 858b 8a3d af75 1ebc 3a54 903d 59ef 6abd
000000b0: 3843 673e 9541 683d b2f5 66bd 9212 7c3c
000000c0: 6371 83bd 62c9 8bbd 596a 703d 70f7 bf3c
000000d0: d05a 2ebd 6436 d33b 4f7b d23d a3be 2c3d
000000e0: f521 dabc 7991 163d 7608 3d3e 5195 63bd
000000f0: d3ab 853d a702 503d d982 d6bc cf9f 6cbd
00000100: 6ad7 6ebd d900 fe38 7b67 913d f6bd bbb9
00000110: b24b 2fbd bd1c a93e bbce 4fbd fb8e 8ebd
00000120: 1908 083e c0c1 b43c 575b 4b3d c9fe 9cbb
00000130: 615e aebd f3c5 d2bc 062a 843d 0e27 7cbd
00000140: 4bd1 1f3d 7748 e63d f4f7 883d 0ef9 933d
00000150: 4791 2a3e d57c 033e e697 1839 60e9 26bc
00000160: 05a5 00bc 4ab5 f1bc 4f29 9ebe b4b5 593d
00000170: 7b37 2e3d 0439 363e 9d8a 3cbe a90d c43c
00000180: f724 2d3d c715 993e 3662 853c 0a46 f13c
00000190: 229d 003e aebc eabc d74c 073e 31ff 92bd
000001a0: f0d8 22bd 6f25 5a3d f39e 3cbd f9ac 1a3d
000001b0: 2aed b93d 0618 c43c 3ef2 7d3d 1e13 363e
000001c0: aab3 883e 2e47 493d 7887 903e 57e6 2cbc
000001d0: a4ab 5abe 7748 46bd 4ee7 493c 0432 44bd
000001e0: 8855 9cbd 3c5a 0d3e 3625 553d bdf5 dabd
000001f0: 1ae5 b5bd c330 b33d 1966 993d 440e 93be
00000200: 7ce9 b7bd 81f6 a4bd 5edb 6e3d a15f 803d
00000210: 165f 213d 7885 84bd 9ffa 5abc d0d5 04bd
00000220: 7ebb 833d ddc9 51bd 4854 6ebc 43c2 27bd
00000230: 855f 85bd f129 9dbd ce3c cebd 1897 30bd
00000240: 98f5 d63b ca8c a2bd d648 8dbd 8092 3d3c
00000250: 465b b63c a624 163d ac11 5abd d109 97bd
00000260: a2f3 8bbd 7579 0f3d 89c5 62bd 24c4 9ebc
00000270: ea71 5abd 05da aebd 8845 603c 174a c7bd
00000280: 4938 c0bd 69b1 963d f148 b1bd 4097 3d3c
00000290: 67ca 48bb 40e7 eb3c 9a76 f9bc 0027 37bc
000002a0: db7a 8fbd 98c5 0e3c e732 3aba 4d8c 91bd
000002b0: 971a 93bd 6e43 623d 8ed2 37bd 0077 6ebb
000002c0: 3014 26bd 2c0a 703d 6508 42bd c9df ebbc
000002d0: fe92 21bd 82ad 343d 44ad d13c b30d aebd
000002e0: 7e64 e4bd 603d 923c 32ce fc3c 7947 ae3d
000002f0: 07f3 25ba e3ab ab3d 624f 8bbd 9364 8f3d
00000300: e2d8 8dbd deb9 2fbd 5a9d b7bd b284 3f3d
00000310: 238c cbbc 2ce2 44bd 82d2 373d e8f7 43bd
00000320: ec1b 2f3d b9bd d1bd e609 74bd a445 bf3c
00000330: cc6a 15bd a3b6 ccbd 20ef 24bc f5b8 30bd
00000340: db85 1fbd bd85 483d 9fc1 b63c 6197 b1bd
00000350: 000c 43bd d001 083c c024 b4bc 806c f53b
00000360: dbe5 57bd 1345 5fbd 4b1f 9c3d b46b 2cbd
00000370: fa44 ddbd 3ca6 91bc beed adbd d865 173d
00000380: 19b0 c9bd b8cb ac3c aedb 473d 2a0b 49bd
00000390: 344b 843d 78a5 1dbc 8b66 c6bd 4e9c a7bd
000003a0: f7e4 003d 7e27 b3bd 036b b0bc 3164 02bd
000003b0: 2196 f4bc 0c18 01bd 8b65 f3bc c2f6 b33c
000003c0: da76 553d 4012 833c 56d0 20bb 1e17 b9bd
000003d0: 0c05 bfbb 3f02 9dbb 0079 d739 661f 553d
000003e0: 5dfb b7bc 58cf 42bd 0918 463d ac78 533d
000003f0: b4e2 b4bd 0095 7d3b 3729 37bd 3c41 5ebd

model.dense2.bias f4 [64]
0.093939595 -0.06474361 0.1490509 -0.11486344 0.09126033 0.118765846 0.11163125 -0.10598323
0.105117716 -0.028609911 -0.049022157 -0.0797211 -0.07028007 0.06449997 0.2103133 -0.13551474
0.0626202 -0.13592893 0.23957402 -0.14330691 0.2273596 -0.0005884856 -0.14710736 0.07041205
-0.043282278 -0.0251224 0.026271788 0.052741848 -0.038379833 -0.06628309 0.062316608 0.06504028
-0.04032725 0.011787668 0.12690607 0.26411057 0.16603917 -0.056412943 -0.098127775 -0.08736729
0.05567975 -0.054964013 0.1262757 0.058990356 0.113060236 0.13072857 0.10296835 -0.03537779
0.021417007 -0.026441379 -0.030661771 0.161252 0.019544197 0.18668446 -0.06580434 0.03883744
0.04666037 0.051770814 0.16278864 0.008188652 -0.047845136 0.112246394 0.0441204 -0.073689535
00000000: 6763 c03d 4c98 84bd cda0 183e 863d ebbd
00000010: b2e6 ba3d 823b f33d ed9e e43d bc0d d9bd
00000020: f547 d73d 555f eabc 75cb 48bd d144 a3bd
00000030: ffee 8fbd 8f18 843d 5f5c 573e 60c4 0abe
00000040: 053f 803d f430 0bbe e452 753e 0cbf 12be
00000050: f4d0 683e 9a44 1aba 50a3 16be 3134 903d
00000060: c248 31bd 7ecd cdbc ef37 d73c d607 583d
00000070: 2c34 1dbd 6ebf 87bd b33f 7f3d d733 853d
00000080: 302e 25bd 1021 413c aaf3 013e 8039 873e
00000090: 2c06 2a3e 4211 67bd 37f7 c8bd 9fed b2bd
000000a0: 7310 643d f221 61bd 6b4e 013e df9f 713d
000000b0: 208c e73d b6dd 053e 12e1 d23d 4de8 10bd
000000c0: b872 af3c 979b d8bc 652e fbbc 3f1f 253e
000000d0: 271b a03c 362a 3f3e 6dc4 86bd 0214 1f3d
000000e0: f21e 3f3d a20d 543d 11b2 263e b229 063c
000000f0: 43f9 43bd 70e1 e53d 98b7 343d 8aea 96bd

model.dense3.weight f4 [32, 64]
0.061399184 -0.05478479 0.05385156 -0.05985287 -0.04835345 -0.01048319 -0.12622266 -0.024080291
0.07001528 -0.029601112 -0.018961083 0.11136185 0.007925808 0.01390462 0.043249577 0.07479213
-0.0656666 -0.13300893 -0.004944086 -0.13702214 0.08927852 -0.05873546 -0.11148685 -0.0655233
0.07359401 0.06330989 0.018607747 -0.038521703 -0.064989656 -0.08006805 -0.05007644 -0.042739704
0.022052065 -0.12072518 -0.1240262 -0.09909181 -0.057262763 -0.11607829 0.06211074 -0.0036486206
-0.0067926343 -0.11290613 -0.11039482 0.013717885 0.0024512708 -0.10493745 0.034829732 0.09736216
0.065583035 0.011121765 -0.056414757 -0.1406468 -0.04675451 -0.106949866 -0.124682635 0.106377706
-0.0022302805 -0.038331687 -0.049014956 -0.071553186 -0.105088696 -0.13173154 -0.078922495 -0.089943215
-0.11148461 0.10787995 -0.059030354 0.045074377 0.027832981 -0.081003465 -0.13562897 0.11235765
0.042694006 0.18235995 0.0027164712 0.10883078 0.18860811 0.16421108 0.064119525 0.18195741
0.28441116 -0.09690704 0.026685733 0.09150386 -0.06600188 -0.031183774 0.0060505494 -0.06892043
0.030661538 -0.17059696 -0.19108906 0.05748504 -0.08967992 0.29936734 -0.09281441 -0.14294612
-0.08536436 -0.09942639 -0.028640104 -0.13767824 -0.14655794 -0.02234597 -0.07423967 -0.22399826
-0.18611133 0.039977107 0.02419209 0.12927072 -0.09469781 -0.048611075 0.047398403 0.049496457
0.15418501 0.19634773 -0.051654674 0.08124618 -0.01618325 -0.08626612 -0.12175943 -0.17111158
0.14993161 0.20477164 0.054391406 0.06279665 0.22683696 -0.059049975 0.015409029 0.10869861
0.07441802 -0.049607612 0.080798686 -0.061875556 -0.119725525 0.028905608 0.005846386 -0.15296018
0.009125513 0.10501024 -0.05617109 0.51499873 0.26289615 0.034930397 -0.1903537 0.11629286
-0.024497634 -0.1521978 -0.25753424 -0.05956012 0.13705584 -0.0717476 0.17680737 0.027878076
-0.032712385 0.12416074 0.21238355 0.026368847 0.05376408 0.15415147 -0.13254108 0.14759694
-0.0018935994 -0.20749357 -0.13624312 0.03281836 0.039130546 0.008280936 -0.018728895 -0.0022725929
-0.04281441 -0.038402196 0.086919196 -0.08549013 -0.06838241 0.13787265 0.059176255 -0.092230365
0.16291633 0.09157086 -0.014671704 0.13693506 0.20860422 0.15346083 -0.07888487 0.11880275
-0.039513655 -0.071959645 0.04307948 0.000691049 0.07351844 0.06989598 0.17617282 -0.03217066
-0.012983286 0.0639102 0.0154773295 0.106896885 -0.24191768 0.058406495 0.19394013 0.14166354
0.2868186 -0.12619372 -0.17039464 0.1336785 -0.33911383 0.19308087 -0.29332152 0.067545064
-0.23775168 0.024632141 -0.14434315 0.027815098 -0.14607103 0.039907135 0.1094709 0.3001443
0.024838604 0.16598497 -0.032030683 0.238199 -0.051110975 0.058893923 0.14233737 -0.041443456
0.07670249 0.096290804 -0.0492836 0.117541365 -0.33007053 -0.050441325 0.0045290687 0.09714856
-0.13789831 0.007870119 -0.003982711 -0.07291023 -0.0351854 0.1097086 0.20265533 0.018945547
0.16984323 0.10490244 0.33146963 0.24886464 -0.21625732 -0.005137755 0.08225292 0.17259744
0.12870839 -0.1964234 -0.11025505 0.05160501 0.032169152 0.15370731 -0.26617005 0.022085162
00000000: b67d 7b3d 0466 60bd 7493 5c3d 4828 75bd
00000010: 440e 46bd b0c1 2bbc 8340 01be 0844 c5bc
00000020: 2c64 8f3d 087e f2bc 4654 9bbc ae11 e43d
00000030: 40db 013c 34d0 633c 7826 313d 9e2c 993d
00000040: 367c 86bd 7e33 08be 0002 a2bb 884f 0cbe
00000050: a8d7 b63d 9894 70bd 3853 e4bd 1431 86bd
00000060: 75b8 963d 9ea8 813d 466f 983c efc8 1dbd
00000070: 4c19 85bd b8fa a3bd f41c 4dbd d40f 2fbd
00000080: 88a6 b43c c33e f7bd 7301 febd a6f0 cabd
00000090: 5c8c 6abd 74ba edbd d567 7e3d b21d 6fbb
000000a0: bf94 debb 543b e7bd ae16 e2bd fbc0 603c
000000b0: 80a5 203b 72e9 d6bd 9fa9 0e3d d065 c73d
000000c0: 6650 863d 1038 363c 2913 67bd b705 10be
000000d0: a881 3fbd 8808 dbbd 9c59 ffbd 8edc d93d
000000e0: e629 12bb b001 1dbd e8c3 48bd 7a8a 92bd
000000f0: be38 d7bd a2e4 06be 1ea2 a1bd 2634 b8bd
00000100: 0b52 e4bd 2af0 dc3d d0c9 71bd e99f 383d
00000110: fe01 e43c 25e5 a5bd 52e2 0abe c51b e63d
00000120: e9df 2e3d 91bc 3a3e d306 323b ace2 de3d
00000130: 7c22 413e f326 283e 1951 833d 0b53 3a3e
00000140: 579e 913e 3377 c6bd 0a9c da3c 6066 bb3d
00000150: fe2b 87bd 1d75 ffbc b043 c63b 2826 8dbd
00000160: e82d fb3c f8b0 2ebe daac 43be 6f75 6b3d
00000170: 1baa b7bd ad46 993e 7b15 bebd 7860 12be
00000180: 82d3 aebd 10a0 cbbd a79e eabc 86fb 0cbe
00000190: 4913 16be e50e b7bc f80a 98bd cd5f 65be
000001a0: f893 3ebe 09bf 233d 7d2e c63c 8b5f 043e
000001b0: edf0 c1bd 681c 47bd d424 423d ccbc 4a3d
000001c0: ade2 1d3e 610f 493e da93 53bd 6664 a63d
000001d0: bc92 84bc 4bac b0bd 025d f9bd e037 2fbe
000001e0: ac87 193e a8af 513e 86c9 5e3d 889b 803d
000001f0: f347 683e 63de 71bd 2776 7c3c 609d de3d
00000200: 7a68 983d 5a31 4bbd c879 a53d 3971 7dbd
00000210: a832 f5bd 74cb ec3c 0a93 bf3b 98a1 1cbe
00000220: 2d83 153c 9c0f d73d a813 66bd f5d6 033f
00000230: 539a 863e 2d13 0f3d 15ec 42be f32a ee3d
00000240: 43af c8bc bdd9 1bbe 87db 83be 50f5 73bd
00000250: 5e58 0c3e 68f0 92bd fe0c 353e 9060 e43c
00000260: 6cfd 05bd fc47 fe3d 137b 593e 7b03 d83c
00000270: b937 5c3d e2d9 1d3e d9b8 07be a723 173e
00000280: a732 f8ba 3279 54be 5183 0bbe 8b6c 063d
00000290: 5a47 203d c3ac 073c 576d 99bc c8ef 14bb
000002a0: 2a5e 2fbd 9f4b 1dbd b102 b23d 7315 afbd
000002b0: 140c 8cbd 7d2e 0d3e cd62 723d 46e3 bcbd
000002c0: 8ad3 263e 8189 bb3d 9661 70bc b438 0c3e
000002d0: 589c 553e d624 1d3e 648e a1bd db4e f33d
000002e0: 12d9 21bd 945f 93bd 1c74 303d 8327 353a
000002f0: d690 963d a025 8f3d a666 343e 62c5 03bd
00000300: d9b7 54bc 5ae3 823d a094 7d3c c1ec da3d
00000310: 45b9 77be a63b 6f3d 3e98 463e 3f10 113e
00000320: e3d9 923e ed38 01be ef7b 2ebe 04e3 083e
00000330: 54a0 adbe feb6 453e 3d2e 96be 1155 8a3d
00000340: 2d75 73be 58c9 c93c b1ce 13be 7ddc e33c
00000350: a593 15be aa75 233d 4732 e03d 84ac 993e
00000360: 547a cb3c f7f7 293e 9b32 03bd 70ea 733e
00000370: be59 51bd c13a 713d e3c0 113e 9dc0 29bd
00000380: 3216 9d3d 1d34 c53d 9add 49bd 87b9 f03d
00000390: 01ff a8be 909b 4ebd 9568 943b d3f5 c63d
000003a0: 3735 0dbe acf1 003c 6781 82bb f551 95bd
000003b0: 911e 10bd e7ae e03d e184 4f3e b133 9b3c
000003c0: 62eb 2d3e 17d7 d63d 63b6 a93e 5fd6 7e3e
000003d0: 8f72 5dbe 9d5a a8bb 3874 a83d 62bd 303e
000003e0: 22cc 033e 3723 49be 66cd e1bd c65f 533d
000003f0: cdc3 033d 7365 1d3e 7147 88be f1eb b43c

model.dense3.bias f4 [32]
-0.021425715 -0.1859588 -0.028403647 0.10581715 0.15032965 -0.1089916 0.11955074 0.06399779
0.1820874 0.089678034 0.004937282 -0.07511969 -0.06718582 -0.09998865 -0.060633074 0.018360665
-0.0019506696 -0.036964603 -0.011875532 -0.10015245 0.076806284 0.057859603 0.04463617 0.08345354
-0.11974974 0.043823995 0.08513551 -0.1036504 0.27094668 0.13986555 -0.1527405 0.06673061
00000000: fb84 afbc fc6b 3ebe c4ae e8bc a9b6 d83d
00000010: 04f0 193e fd36 dfbd 05d7 f43d 4611 833d
00000020: 1f75 3a3e 1ea9 b73d ecc8 a13b 5ad8 99bd
00000030: b898 89bd d9c6 ccbd 635a 78bd 1b69 963c
00000040: 9cad ffba 3268 17bd 9791 42bc ba1c cdbd
00000050: 9d4c 9d3d 31fe 6c3d 6bd4 363d b1e9 aa3d
00000060: 5a3f f5bd ca80 333d 875b ae3d a946 d4bd
00000070: 86b9 8a3e ea38 0f3e 0168 1cbe 0faa 883d

model.output.weight f4 [10, 32]
-0.10094537 -0.067643076 -0.22645822 -0.11731434 0.081754744 -0.22833382 -0.20061615 0.27416936
-0.15606049 -0.057690673 -0.2510599 0.043953713 0.054985236 -0.34774435 -0.15734333 -0.3628353
-0.06740481 -0.10697929 0.078895144 0.29567572 -0.30687916 0.15462568 0.1860654 -0.13076578
0.07315041 0.09853547 -0.09189741 0.1284738 -0.31661528 0.1420315 -0.010729324 0.19005232
0.08497543 -0.009075149 -0.08679765 0.15321091 0.23764892 -0.13153881 0.25883764 -0.31166232
0.14528665 0.078464724 -0.35318932 0.12757456 -0.042622276 -0.17411292 0.24169078 0.05351793
-0.23740457 -0.09303698 -0.2661938 0.39776158 0.041079134 -0.45454794 -0.14438851 -0.15285623
-0.21874568 0.113070376 -0.2404599 -0.09612196 0.049255975 -0.21559726 0.05604805 -0.020025112
-0.017166689 0.019236159 0.00039948188 -0.31375173 0.12147996 0.0140596405 -0.045110174 -0.16135482
0.14536385 -0.15302111 -0.010529089 0.006842757 -0.24769501 0.20679688 0.026485542 -0.005228308
0.017980728 0.06824155 0.0025942372 -0.0052521853 0.14970888 0.20650025 0.103018835 -0.18793613
-0.10682028 0.08039218 0.14143308 0.12032753 -0.34816378 -0.08583912 -0.12964806 -0.12221611
0.108080484 -0.16726069 0.14576437 0.022076415 0.18832201 -0.040571317 0.108892515 0.09483669
0.062814675 -0.20113887 0.13315085 -0.015087049 -0.13864014 0.23958679 -0.0059440103 -0.13162133
-0.0057464526 0.08987997 0.21267371 -0.25343168 -0.15539035 -0.097911 0.09225389 -0.09255577
-0.30180016 -0.14785373 -0.11208317 0.15158689 0.093807444 0.21966812 0.0962193 -0.30662596
0.08500365 -0.00672429 -0.09521813 0.08699506 -0.31751767 0.21020883 0.004236146 -0.16718836
-0.31090173 -0.13945325 0.18022873 -0.12773588 -0.11233383 0.05338517 0.22906426 0.058347497
-0.12965184 0.041417755 0.21101595 -0.1484038 -0.18978192 -0.14254606 -0.27185953 -0.2559015
-0.27856115 0.15367608 0.022572296 0.10320347 0.118035115 -0.44704273 -0.1336464 0.11415375
0.05593787 -0.06810938 0.28144866 -0.03649748 0.21713464 0.11394872 0.17230088 -0.11426193
-0.35312945 -0.22120525 -0.23368599 -0.19036332 -0.108182795 0.039281715 -0.33737496 -0.080369286
0.006465194 -0.051582024 -0.034879744 -0.14471877 -0.093110524 0.23796901 0.07075983 0.22903208
0.1543616 -0.17835718 -0.36823633 -0.13824107 0.20734815 -0.042547934 -0.19491431 0.05666522
-0.08158389 0.008078639 0.24722503 -0.45304224 0.16859335 0.23816536 -0.10366464 -0.26903903
-0.39165393 0.06214979 -0.3214962 -0.008363211 -0.058631428 -0.3077316 0.01247583 -0.2816533
-0.1923318 0.1296209 0.08350214 0.12112694 0.026804227 -0.06359203 0.21277833 -0.32864982
0.097114556 0.26346174 -0.00072286185 -0.16891141 -0.11217096 -0.038544565 0.07344197 0.10761272
0.04291154 -0.30618748 -0.25540903 0.274509 -0.2495938 -0.04134215 -0.23923518 -0.054405026
0.18547165 0.001470516 0.10002524 -0.18309063 0.17970507 -0.025089687 0.17050467 0.026063822
-0.18151987 -0.061796185 -0.13122012 -0.306773 -0.1797608 0.071362495 -0.02772064 -0.11453352
-0.41679847 0.12201163 -0.17242754 -0.049053915 -0.33464348 0.047597125 0.12204559 -0.2832953
00000000: 72bc cebd 7488 8abd aae4 67be 8042 f0bd
00000010: 086f a73d 57d0 69be 526e 4dbe ed5f 8c3e
00000020: 52ce 1fbe 0e4d 6cbd ec8a 80be cf08 343d
00000030: 3338 613d 8c0b b2be 9c1e 21be 8cc5 b9be
00000040: 880b 8abd f517 dbbd c793 a13d cf62 973e
00000050: 441f 9dbe 3256 1e3e ee87 3e3e 77e7 05be
00000060: e2cf 953d f7cc c93d b634 bcbd a38e 033e
00000070: 661b a2be b570 113e 0cca 2fbc 139d 423e
00000080: 9907 ae3d efaf 14bc f7c2 b1bd 52e3 1c3e
00000090: 3d5a 733e 1cb2 06be 5e86 843e 3492 9fbe
000000a0: 06c6 143e 1db2 a03d 3bd5 b4be e8a2 023e
000000b0: b294 2ebd a84a 32be ca7d 773e 9e35 5b3d
000000c0: 2f1a 73be 2c8a bebd 8e4a 88be 68a7 cb3e
000000d0: 9842 283d 82ba e8be 95da 13be 5886 1cbe
000000e0: defe 5fbe 7191 e73d 1f3b 76be 97db c4bd
000000f0: a2c0 493d 87c5 5cbe a492 653d b40b a4bc
00000100: 28a1 8cbc 2695 9d3c 8d71 d139 11a4 a0be
00000110: 7cca f83d 685a 663c 72c5 38bd 333a 25be
00000120: 43da 143e 91b1 1cbe 3382 2cbc 3539 e03b
00000130: c3a3 7dbe 90c2 533e 35f8 d83c 3a52 abbb
00000140: 524c 933c 3ac2 8b3d 1404 2a3b 861a acbb
00000150: 494d 193e cd74 533e 8afb d23d 5472 40be
00000160: 97c4 dabd a8a4 a43d d5d3 103e 486e f63d
00000170: 8642 b2be 6ccc afbd 76c2 04be 714c fabd
00000180: 4d59 dd3d 6346 2bbe 4143 153e 99d9 b43c
00000190: 7cd7 403e 1c2e 26bd 0a03 df3d bd39 c23d
000001a0: fba4 803d 59f7 4dbe b258 083e ac2f 77bc
000001b0: aef7 0dbe 3d56 753e f9c5 c2bb bec7 06be
000001c0: bd4c bcbb fd12 b83d 23c7 593e ccc1 81be
000001d0: a61e 1fbe 9085 c8bd 9cef bc3d e18d bdbd
000001e0: 8d85 9abe f866 17be dc8b e5bd 9839 1b3e
000001f0: 1e1e c03d aef0 603e a00e c53d 14fe 9cbe
00000200: 6516 ae3d 6f57 dcbb b901 c3bd 772a b23d
00000210: ad91 a2be fc40 573e 5ecf 8a3b 6d33 2bbe
00000220: 832e 9fbe d5cc 0ebe e18d 383e 32cd 02be
00000230: 470f e6bd 68aa 5a3d d28f 6a3e c9fd 6e3d
00000240: 74c3 04be aaa5 293d 9114 583e 2af7 17be
00000250: 3156 42be 98f7 11be 2c31 8bbe 8505 83be
00000260: 919f 8ebe 435d 1d3e 89e9 b83c 575c d33d
00000270: 65bc f13d c9e2 e4be 9ada 08be 71c9 e93d
00000280: 1c1f 653d ee7c 8bbd 0a1a 903e 627e 15bd
00000290: 8b58 5e3e f25d e93d a46f 303e 2902 eabd
000002a0: 62cd b4be a183 62be 614b 6fbe 9aee 42be
000002b0: f18e ddbd dde5 203d 69bc acbe a798 a4bd
000002c0: fad9 d33b ac47 53bd 10de 0ebd 2831 14be
000002d0: bbb0 bebd 26ae 733e 88ea 903d 6387 6a3e
000002e0: f810 1e3e 44a3 36be 7989 bcbe 118f 0dbe
000002f0: 1353 543e be46 2ebd 9e97 47be ca19 683d
00000300: 7415 a7bd 455c 043c 8f28 7d3e 27f5 e7be
00000310: bca3 2c3e 9fe1 733e 204e d4bd 7cbf 89be
00000320: dd86 c8be c790 7e3d 269b a4be d905 09bc
00000330: 8227 70bd ff8e 9dbe 6c67 4c3c dd34 90be
00000340: a1f2 44be 57bb 043e 2c03 ab3d 6711 f83d
00000350: 8a94 db3c 8a3c 82bd 90e2 593e ca44 a8be
00000360: ffe3 c63d 75e4 863e 707e 3dba 1df7 2cbe
00000370: e3b9 e5bd e8e0 1dbd be68 963d 0f64 dc3d
00000380: 03c4 2f3d 9bc4 9cbe f9c4 82be 728c 8c3e
00000390: 8495 7fbe 6356 29bd 11fa 74be ced7 5ebd
000003a0: 48ec 3d3e 54be c03a 08da cc3d 1c7c 3bbe
000003b0: 9b04 383e e388 cdbc c798 2e3e cc83 d53c
000003c0: 58e0 39be ff1d 7dbd 915e 06be 5a11 9dbe
000003d0: 3713 38be 8026 923d 6516 e3bc 8d90 eabd
000003e0: 9c66 d5be 3ce1 f93d d890 30be c2ec 48bd
000003f0: 6456 abbe 34f5 423d 0af3 f93d 150c 91be

model.output.bias f4 [10]
0.017503692 -0.08756329 -0.14112273 -0.011546659 0.049196947 0.14643474 0.083472274 0.020728415
0.007998646 -0.03537041
00000000: e763 8f3c 6254 b3bd 7a82 10be 332e 3dbc
00000010: bd82 493d fdf2 153e 83f3 aa3d a3ce a93c
00000020: c10c 033c 90e0 10bd
