Models/model_optRMSprop_ep5_neu256_lay4_acc0.9304.pth (torch, 984866 bytes, 12 tensors)

model.input.weight f4 [256, 784]
00000000: ee3d e23c 0eac 8bbc ba61 8d3c fef0 e3bc
00000010: 7056 d43b 1806 45bc 9efb 9cbc 40f3 20bc
00000020: 0a3d 0ebd 2057 e1bc cb76 043d 1071 da3b
00000030: 4920 8b3d 6e0e 133d 1db8 dabc 00af df3b
00000040: c297 08bd 0e69 30bc 2050 193b c064 bb3b
00000050: 157a 8bbc 6178 013d 5a16 fa3c 4070 e03b
00000060: 3a4c a5bc 2582 8abc ef52 0c3d e063 d23c
00000070: 205b 42bb d3ab 063d feef df3c 40ee 353a
00000080: 00a8 aa39 7224 d9bc 08b2 87bd 0f1f 283b
00000090: 1e99 7ebc ac27 dfbc e291 4bbc 19d8 0bbb
000000a0: edb3 003d 1d77 7e3c 74e5 013d 57f2 c03a
000000b0: 2f9a 1e3d 0b1a 3e3c cfaf d83c e80f 073c
000000c0: 0422 01bc 80bd 39bc 83d1 cebc fc3c 07bd
000000d0: a3d6 91bc f31a d3bc 3692 11bd 3618 9a3c
000000e0: 4057 36ba 54ce d5bb a632 d93c 4571 01bd
000000f0: 86b3 c13c 249f c03a cfb2 85bd 7241 a0bd
00000100: 7060 bfbd 2b90 9abd 8c9b 77bd f486 57bd
00000110: 65bb e8bd d4fc 093c b941 983d 413b 133d
00000120: adb1 3c3b 51ed a13c ae46 e1bc 68a1 42bd
00000130: 7f7e 1dbd d5ed f1bc 6212 8ebd 3453 74bc
00000140: 3982 13bd 4c9e ecbc 9025 133b 7015 8cbb
00000150: 1a26 913c d811 06bc 67ff 00bd 76b5 0cbd
00000160: 541d a93c dbf6 aabb f152 e9bc 23b1 2fbd
00000170: c2a4 13bd 3c18 acbc 7b02 a7bd 3723 023c
00000180: 7f98 413d 1763 9c3d ecec 843d ec1f 673d
00000190: 114a 273d 4f62 01bc f366 d8bc f33a 343d
000001a0: 5b4f 9bba bb72 26bd 8d3e 0f3d 2ef5 843c
000001b0: 0534 5b3c eea4 913c a0b2 223c bc16 0cbc
000001c0: b69c a33c 70fb 89bc ee6e eabc 0d74 6b3d
000001d0: a456 f63c e5b1 c3bc 7176 00bd d081 3a3c
000001e0: b09b e63c 681b 9b3d 4412 5d3d 8b18 bc3d
000001f0: 411f a23d 5517 d2bb 14e1 393d fb6e a63d
00000200: 1657 de3c 3464 8ebc 1ce6 68bc 4a12 c93c
00000210: ccb3 aebc 6381 39bb cab2 9a3c 7a1b cf3c
00000220: 5e2f 7cbb 5b22 283d 3b06 253d 5acf 00bd
00000230: ecc7 dfbc 908f 38bb 7a6a 6abc 64be cfbd
00000240: 4ddf fabc 4cde 45bc 63de 3e3d c350 523d
00000250: f0ef 1d3d ad85 de3d d326 db3d 7be9 8c3d
00000260: 3430 ae3d e231 c73c ae04 993c 88c1 b53c
00000270: a134 92bc 1350 c8bb f34e 55bd cd14 98bd
00000280: 1953 bdbd 1b26 56bc 497e 923b bc51 c3bc
00000290: c40d c03c 60b8 873d e796 e03d 283c 25bc
000002a0: 8157 f5bc 2e7f 953c c0be 2f3d 5dc4 afbc
000002b0: 6894 40bc eb5a 933d 6433 a83d 490e 873d
000002c0: 9746 ae3d 2ff5 073e aff0 1d3e 99c8 953d
000002d0: 97df 373d f6f4 863c 39c6 283d e282 19bc
000002e0: 0c72 57bd de68 e83b cac8 1fbd 7aac 21bd
000002f0: 7fbe c9bd acd1 18bd d533 4ebc 1a40 0b3d
00000300: 25c4 793d 861a a53d 6b11 cd3d 3530 933c
00000310: 2f30 0a3d 3551 063b efaf 4d3d 2e25 82bd
00000320: 7e47 92bd e6cb 02bc 9f16 ba3d 5524 dd3d
00000330: 3dc3 fa3d 9f5b ea3d abe7 a23d 93b9 a13d
00000340: a38c ca3c bc5c 0abd 6c49 3ebd dcb5 f7bc
00000350: 18cf e5bb 352a 5cbc 95f1 96bc e379 74bd
00000360: 3a7b 71bd c618 83bd 9d76 523b 91f9 2ebb
00000370: cd1f 54bd d77a f23c 82aa 9e3d b47f 463c
00000380: acff bd3c f6be 1e3c f238 d33b 4bb4 48bd
00000390: a932 d53c cf11 1d3d 465e 08bc 51e8 3d3d
000003a0: 66c6 053e 0389 0b3e a731 9d3d c007 443d
000003b0: 0562 acbc dc92 60bd 7df7 45bd f3b6 a2bd
000003c0: 2934 b7bd 674e 50bd 0b59 16bd 4130 95bd
000003d0: 0462 82bd afce 39bd bccf 39bd 62bc 6bbc
000003e0: 6cf6 373a 4d26 583d ec92 ed3c cca2 7b3c
000003f0: 6e91 833c bff4 cebb 9583 2dbd 7c52 13bd
0.027617421 -0.017049816 0.017258514 -0.027824875 0.0064800307 -0.012025379 -0.01916295 -0.00982362
-0.03472618 -0.027507365 0.032339852 0.00666631 0.06793267 0.035902433 -0.02669912 0.0068262815
-0.033347853 -0.0107672345 0.0023393705 0.0057187974 -0.017025987 0.031608943 0.030528236 0.0068493187
-0.02017795 -0.01690776 0.03425878 0.02568239 -0.0029656366 0.032878708 0.027336117 0.0006940104
0.00032550097 -0.026506636 -0.06625754 0.0025653278 -0.015539436 -0.027240597 -0.012424918 -0.002133852
0.03142159 0.0155313285 0.031712964 0.001472066 0.03872126 0.011602889 0.02645102 0.008243538
-0.007881645 -0.011336684 -0.025246387 -0.033017144 -0.017802542 -0.025769686 -0.03553983 0.018810373
-0.000695575 -0.0065248404 0.026513409 -0.031602163 0.023645174 0.0014695865 -0.06528246 -0.07824983
-0.09344566 -0.07547029 -0.060451075 -0.052618936 -0.11363868 0.008422095 0.074344106 0.03594518
0.0028792426 0.019766482 -0.027499523 -0.04751721 -0.038450714 -0.029532352 -0.069371 -0.014912415
-0.036012862 -0.028884076 0.002245281 -0.0042750165 0.017718364 -0.008182965 -0.03149357 -0.034352742
0.020643868 -0.0052174157 -0.028481932 -0.04289354 -0.036045797 -0.02100765 -0.0815477 0.007942966
0.047264572 0.076360874 0.06490502 0.056426927 0.04084212 -0.007896974 -0.026416278 0.04400153
-0.0011849211 -0.04063676 0.034971762 0.016230192 0.013379102 0.01777884 0.009930283 -0.008550342
0.019972187 -0.016843528 -0.028617349 0.05748372 0.03007061 -0.023888538 -0.031362955 0.011383489
0.02815041 0.07573587 0.053972498 0.09184369 0.079161175 -0.006411473 0.045380667 0.081266366
0.027141135 -0.017381765 -0.014215019 0.024544854 -0.021325968 -0.002830588 0.018884081 0.025281657
-0.0038480381 0.04104839 0.040289145 -0.031447746 -0.02731701 -0.0028161742 -0.014307613 -0.10143736
-0.030624056 -0.0120769255 0.046598803 0.05134655 0.0385589 0.108653404 0.107007645 0.0688047
0.08505288 0.024315778 0.01867899 0.02218701 -0.017847361 -0.006113061 -0.052077245 -0.074258424
-0.09244365 -0.0130706085 0.004470621 -0.023842685 0.023444064 0.066269636 0.10966282 -0.010085143
-0.029948952 0.01824912 0.042906523 -0.021455938 -0.011754133 0.071950756 0.08212927 0.065945216
0.08509558 0.13277124 0.15423845 0.073136516 0.044890966 0.016474228 0.041204665 -0.009369584
-0.052598998 0.0070925793 -0.039009847 -0.039471127 -0.09850787 -0.037309334 -0.0125856 0.03399668
0.060978074 0.080616996 0.10013088 0.017967323 0.033737358 0.002049518 0.05021661 -0.06354748
-0.07142542 -0.0079831835 0.09086346 0.107979454 0.1224427 0.114432566 0.079543434 0.078967236
0.024725264 -0.033779845 -0.04645674 -0.030238084 -0.007013213 -0.013437797 -0.018425742 -0.059686553
-0.05895541 -0.064012095 0.0032114156 -0.0026699046 -0.05178814 0.02959959 0.077473655 0.012115408
0.023193203 0.009689083 0.0064459974 -0.049000066 0.026025133 0.03834706 -0.008323258 0.046364132
0.13063964 0.13626485 0.07675486 0.047858953 -0.021042833 -0.054827556 -0.048331726 -0.07945051
-0.08945496 -0.05085602 -0.03670601 -0.07284594 -0.06366351 -0.045363124 -0.045364127 -0.014388176
0.0007017616 0.0527709 0.029000722 0.015358638 0.016060557 -0.006315797 -0.042361815 -0.035967335

model.input.bias f4 [256]
00000000: 60d8 4cbd 5575 9cbd ef27 f0bc 4688 e03c
00000010: 52bd 11bc 7942 a5bc 45a2 eb3c afc5 5c3d
00000020: 93df 1fbb 5b4e 50bd 3276 94bd 331c 0bbc
00000030: d558 223d e74d 0d3c 4932 ae3a ee30 84bc
00000040: a3be 9f3d 12ea 13bd e6ff d0bc 238e 853c
00000050: 5c87 6b3c 8edc d7bc 4d36 5dbd af1e 73bc
00000060: 55ad 52bd 7bf5 41bc f239 a2bb c3f1 00bd
00000070: 5a50 b73d 2395 783b 721b c43c 9488 18bd
00000080: 2d27 6fbd 46f9 6c3c e00e 553d 4523 2dbd
00000090: 20c9 4a3d 68bd 2fbd 0a63 cbba 60e5 d3bb
000000a0: 25db ab3c 00bf 15bc 884f 1cbc c4bc 5039
000000b0: 5e88 1d3b c193 b13c 3af3 153d 3e57 d6bb
000000c0: 42f1 8cbc 07c4 d0bb e23e 603d e735 833d
000000d0: 2876 1bbd de2a 853d 1879 42bd 6897 c73c
000000e0: a7f7 173d 4d94 723c ccb9 913d 15e5 0c3c
000000f0: c62b eb39 d99c 33bc 4c6c 063d 32c7 703d
00000100: aa4d 543d 5a57 fdbc 6828 20bd acb4 af3b
00000110: d0a9 093d b5a2 83bc 2010 4cbd fcd1 213d
00000120: e3bf 49bd 8eb3 0fbc f130 5ebd 80f9 2d3c
00000130: 8116 193b d051 5b3c 720b 67bd 4961 763c
00000140: b158 313d 1c62 2abc 8745 3b3d 3c83 153b
00000150: 7396 ed3b 8ad6 ed3c e347 0d3b ef19 84bc
00000160: ca8e cd3c 1a4c dabc 95ee 39bd 799d 7dbc
00000170: 2b31 343d dc16 92bc de9c adbb 5049 cf3c
00000180: 1c73 fdbb 9010 273d 5779 2dbd d5b3 53bc
00000190: 4092 0cbb 28cb d43a e00b a6bc f4e8 12bd
000001a0: e289 58bd 58e4 043c 24c7 8e3c 4480 8a3c
000001b0: 15ae 0b3d d1af 86bb e0d9 25bd 5f45 df3c
000001c0: 243c 60bc b25f a0bc 50c2 f83d 281a 7fba
000001d0: 4a39 fb3c 15b9 6c3c 8850 23bc 707f 893c
000001e0: bd19 36bd 548f 2cbd 0df5 3aba 8f8f a13b
000001f0: e66b 51b9 133c 84bb ee17 b93b 3c18 4f3d
00000200: 3323 3f3d 5ec5 973d 53fd 133c d435 74bc
00000210: 61d2 513b e5b2 143c fb92 2cbd fed9 693b
00000220: 38fb 0a3d be23 d53b cb71 823b 1549 d53c
00000230: b63c f6bc 624a 97ba 010e a53d d1e3 a83b
00000240: 60ad 32ba a3ec e2bc 0eea 1cbd 0376 913d
00000250: cc67 323d 5070 84bb 511a cfbc 4796 0e3d
00000260: 8f09 21bc f20b 1f3d 5ac8 fc3c c17d 1b3d
00000270: c7e1 6a3d 33ed 863b a6f0 96bd 42d9 29bc
00000280: eaa3 86bc 586c 483c 3555 e7bb 022f e93c
00000290: 26ab cbbc a027 783b c94e b03d ce34 433d
000002a0: 807a a0bc 92c7 dd3c a3ce 283d e9cd 223d
000002b0: b121 37bd f440 c83c 8681 11bd b561 293d
000002c0: e0fb 623d 00ff 0f3b b472 e03b b47e 9abc
000002d0: d7c8 a3bc 2ab5 9a3d df6c 3e3d f37a c33c
000002e0: 9a53 c5bc 932e 6fbd c6fe 31bd 2531 a53c
000002f0: c9b3 35bc 099f a73c 7ff6 473c 6ac5 043d
00000300: 6a05 adbc 2161 873d 56db 1ebd cd9a 12bd
00000310: dc75 283c b2d0 9b3c 0d99 43bd 02cc e4bc
00000320: 0cfa d2bc ae3f d1bb fcb4 2a3b d2de 523c
00000330: 3e1d 40bd 0c5a 0b3d e6cc bebc afb1 0abd
00000340: 0f2b c0bb 5172 403d d4e9 2bbd 4391 36bd
00000350: c033 f1bb b759 2abd 75ab cd3c ac19 60bd
00000360: e0dc aa3c 1886 6d3c 00be 2bbd e44d 2bbc
00000370: 764f 10bc c942 2abd 90f7 163c 1bab 27bd
00000380: 5efb 1abd e1c2 b9bc 71f2 a4bc d23d a6bc
00000390: b0a2 42bc 3338 f1bc 7efb 8f3c 31ec 0d3c
000003a0: f2a5 003c 3d3c 123d c3d4 e63c ce60 07bd
000003b0: ef7d 42bc 7e7b c43a d744 433d 2be2 8fbc
000003c0: c330 b03c 6e14 2f3c 5432 f0ba 8532 333c
000003d0: 6da0 b5bc 903a 283b 00a2 eabc c95a 73bc
000003e0: 4025 d63c b14c 513d e4f6 bb3a e6a5 463b
000003f0: a4e7 70bb 2f2a 883d e020 7b3d 332a 4c3d
-0.05001104 -0.07639567 -0.029315917 0.02740873 -0.008895235 -0.020173298 0.0287639 0.053899463
-0.0024394735 -0.050855976 -0.072491065 -0.00849061 0.039635498 0.00862453 0.0013290133 -0.016136613
0.07800033 -0.0361119 -0.025512647 0.016303128 0.014375534 -0.026350286 -0.054006863 -0.0148388585
-0.051434834 -0.011838312 -0.0049507553 -0.031480562 0.08950873 0.003793069 0.023938868 -0.037239626
-0.05838697 0.014463728 0.05201614 -0.042269964 0.049508214 -0.04290524 -0.0015517187 -0.0064665526
0.02097852 -0.009139776 -0.009540446 0.00019906746 0.002403758 0.0216769 0.036608912 -0.006541162
-0.017204884 -0.0063710245 0.05474747 0.064067654 -0.03795448 0.06502317 -0.047478765 0.024364188
0.037101414 0.0148058655 0.07115516 0.008599539 0.00044855307 -0.010962688 0.032818124 0.058783717
0.05183188 -0.030925442 -0.039101034 0.005362114 0.03360921 -0.016068796 -0.049820065 0.039506897
-0.049255263 -0.0087708365 -0.054245893 0.0106185675 0.002335936 0.013386205 -0.0564074 0.015037843
0.043297473 -0.010399368 0.045720603 0.0022813817 0.007250601 0.029032964 0.002155774 -0.016125647
0.025092501 -0.026647616 -0.045393545 -0.015479439 0.043992203 -0.017833166 -0.005298241 0.025303513
-0.0077346694 0.04078728 -0.042352047 -0.012921293 -0.0021449476 0.0016234862 -0.020269334 -0.035866693
-0.05286587 0.008111082 0.017428942 0.016906865 0.034101564 -0.0041103144 -0.040490985 0.027254758
-0.013686214 -0.019576881 0.12146437 -0.00097313756 0.030666966 0.014448424 -0.009967931 0.0167844
-0.04445814 -0.042128876 -0.00071318523 0.0049304436 -0.00019971989 -0.0040354817 0.0056486046 0.05056022
0.046664428 0.07410692 0.009032565 -0.014905412 0.0032016265 0.009075855 -0.04213236 0.0035682912
0.033930987 0.006504505 0.0039808503 0.026035825 -0.030058246 -0.0011542554 0.08059312 0.005154111
-0.0006815996 -0.027700728 -0.03830915 0.07102587 0.04355602 -0.004041709 -0.025281103 0.034811284
-0.009828939 0.03882975 0.030857254 0.037961725 0.057344224 0.004117632 -0.07370119 -0.01036674
-0.016435582 0.012232862 -0.007059718 0.028464798 -0.024861883 0.0037865415 0.08608777 0.04765778
-0.019589663 0.027072702 0.04121269 0.039747152 -0.044709865 0.024445035 -0.035523914 0.041352946
0.055415988 0.002197206 0.006849611 -0.018859245 -0.019993229 0.075540856 0.046490546 0.023862338
-0.024087716 -0.058394026 -0.04345586 0.020165036 -0.011090227 0.020461576 0.012204765 0.03241483
-0.021120746 0.06610323 -0.038783394 -0.03579216 0.010282006 0.019020412 -0.047753382 -0.02792931
-0.025753997 -0.006385765 0.0026047817 0.012870507 -0.046902888 0.034021422 -0.023291063 -0.03386086
-0.005864508 0.04698402 -0.041971043 -0.044572126 -0.0073609054 -0.041589465 0.025106171 -0.054711983
0.020857275 0.0144973025 -0.041929245 -0.010455582 -0.008808007 -0.041567598 0.009214297 -0.040934663
-0.03783738 -0.022675933 -0.020135136 -0.02029315 -0.011879608 -0.029445743 0.017575976 0.008662269
0.007852064 0.03570198 0.028177625 -0.033051305 -0.011870845 0.0014990417 0.047673073 -0.0175639
0.021507626 0.010686023 -0.0018325546 0.010937338 -0.022171224 0.0025669672 -0.0286417 -0.014853188
0.026140809 0.05109853 0.0014340547 0.0030311286 -0.0036759162 0.06648671 0.06131065 0.04984493

model.dense1.weight f4 [128, 256]
00000000: 8a77 f33d 7276 633d ed1b b33c bd83 b83d
00000010: 07ee 8c3d 5aa4 303c ae40 303e 9ed6 473d
00000020: e0b1 12bd 16ae 983d 1177 173e 4778 d43d
00000030: e67e 5fbc ce8b 7bbd c8ff 673d 3b8b 34bd
00000040: 7134 66bc 023c c93c dc17 4c3d c1cd 6dbc
00000050: 801d 7d3d e749 21bd c910 82bc 04e9 bcbc
00000060: 00b3 b93c 23f6 173d 8da0 7a3d 6ca6 ca3c
00000070: 2360 cd3d ccc3 413e 00ae ab3e d176 a6ba
00000080: 043c 7f3c b831 5fbc 6f6e b83c 90b8 dbbd
00000090: acdf 433d c4ee 223c 2a3d 583d 8214 66bd
000000a0: a479 62bd 05af 6f3b 24df 833d e11c 1d3e
000000b0: 2a0d 563d 0ed7 193d a62a 743c 238e 35bd
000000c0: 93a2 babd 1f1a 59be a938 933e b799 efbb
000000d0: f4ca f03b b87f 8c3b e55c 033e 2547 023d
000000e0: c646 a6bd 0943 59bd 1bf5 48bc a7f1 5d3c
000000f0: aade bf3c 5ee6 cc3d e1b1 a3bd 58cf 08be
00000100: 0471 5abc fb2a 423d 5586 8c3d 272b 853e
00000110: 077e 8abd 34c1 263e 8ad5 323d a739 86bd
00000120: 240e 0e3d 334b 243c 6d4e 323d f23c 4e3c
00000130: ac42 89bd a8fe 2cbd d8dd 06bc fcf2 5cbc
00000140: 7c58 4cbe cfa5 88bc a830 2cbd 702c a5bc
00000150: 724a a1bc 27af 423d e8d0 5e3e 9440 383d
00000160: 239d e5bc 12f6 783d f1cc bebc 322b 02be
00000170: 4b96 d23c 9aee 7f3d 8658 adbc 7406 863c
00000180: f7eb d1bc ed06 473c 9089 143d d3fd a0bc
00000190: f0e0 3b3d 067e 543d 4e4f 48bd ad51 c83c
000001a0: 75a2 963d d25e c2bc 5a63 533d bafa 253d
000001b0: 21d8 a7b9 49cd 823c 0a4d adbc b23a 123d
000001c0: f680 113d d835 373d f74a 32bb 7708 2e3d
000001d0: b631 053d 86b3 9dbd e55e 9abd 7583 3f3e
000001e0: 982b 6f3c 03c5 263d 7dd6 3f3d 6cfb b43d
000001f0: 716c 3d3d ec19 c1bb ecb9 3abc 8091 0c3e
00000200: 697c 1b3c b80b a13b 724e bebc e128 863c
00000210: 6eb0 ba3b 3f99 3cbd 2a4f dc3c 3907 0d3d
00000220: 1d23 0ebd daa9 183c 3085 873d fcaf eb3d
00000230: cd27 a8bb c8b0 f33c 55cc 633d e039 6dbd
00000240: 2fb1 173d 51e4 da3d c3e8 41bd 534f 90bd
00000250: 762a f53c f4b2 87bb 97ae 453e e174 07be
00000260: c411 343d 5639 9e3c 4c3c 893d bf57 163d
00000270: 9ccb 3a3c 04de e43b 5c80 e8bc c728 d13d
00000280: 9893 b63d 9143 253d 3e16 9c3d 7666 b73c
00000290: 090b b3bd f1fd f63c f0a8 493d bea0 fdb8
000002a0: 09db 0abd cd7a b1bb 04ad 1b3e f0c1 573d
000002b0: f5a0 7dbd 8375 96bc e43e 30bd 9d22 7cbc
000002c0: daab d8bc db85 ae3d 84fa 873d a6b7 e939
000002d0: 49d6 a13d 44e7 60bc 8d18 c63d 066e 023d
000002e0: 78ee 893b 8676 e0bc bdcd 37bd 488e 98bc
000002f0: dfb6 d33c a32a dabd 772a 4ebc 86de e63c
00000300: 8548 463d 335e ab3c bfaf 77bd 3402 93bc
00000310: f349 1bbd 62a6 473d da82 54bd f275 3e3e
00000320: 4a6b 043d fae0 dbbd 39f2 69bc 3487 fa3d
00000330: f007 8bbd a56c ecbd 83a1 aa3d dc92 a0bd
00000340: 6ee9 963c 936e 173d e29c 853b 4195 953d
00000350: 6ff0 36be 27f9 c33d 4bcb 8bbb f4cc ff3c
00000360: 9a18 4a3c ddab edbb aad0 b43d edd9 283d
00000370: 8b6b 893c 99e5 7a3e 5352 473d 5062 a03d
00000380: 29eb fc3b 085b 3fbd aee1 49be df71 19bd
00000390: 07af ce3c 7d44 423d e480 7e3c 2769 12bd
000003a0: 9bfc ebbd 23c1 013b 344e 68bd 545a f5bb
000003b0: d7ba a83c 0632 a43d 9725 6c3e aa96 0e3c
000003c0: c775 b1bd 10a9 b4bd 0972 c2bc 3db3 903d
000003d0: d3ac 48bd aee5 383d 6d71 223e b6d1 cdbc
000003e0: 259e c6bd 8c28 2dbd 242f a9bc 8d89 013c
000003f0: 39ba e23b 2d76 b03d 6f5b 893c afba bcbc
0.11888035 0.05553288 0.021863902 0.09009502 0.068813376 0.010781372 0.17212173 0.04878866
-0.035814166 0.07455079 0.14791514 0.103745036 -0.013641095 -0.061412625 0.056640416 -0.044078093
-0.014050589 0.024564747 0.04982744 -0.014514388 0.06179571 -0.03937712 -0.015877144 -0.02306033
0.022668362 0.03709997 0.06118827 0.02473756 0.10028102 0.18922347 0.3353119 -0.0012700205
0.015578274 -0.013622694 0.022513596 -0.10728562 0.047820732 0.0099446215 0.052792706 -0.0561719
-0.055291787 0.0036572826 0.06439045 0.15343048 0.052258648 0.037558608 0.014902746 -0.044325005
-0.0911304 -0.2120137 0.28754166 -0.0073120254 0.0073484126 0.004287686 0.12828405 0.03180613
-0.08118968 -0.053042445 -0.012265469 0.013546384 0.023421604 0.100048766 -0.07992912 -0.13360345
-0.013332609 0.04740427 0.06861559 0.26009485 -0.06762319 0.16284639 0.043660678 -0.06553965
0.034681454 0.0100276945 0.043531824 0.012587773 -0.0670217 -0.042235047 -0.008231603 -0.013485666
-0.19955629 -0.016680626 -0.04203859 -0.020162791 -0.019688819 0.04753032 0.21759379 0.04498346
-0.02802903 0.060781546 -0.023291083 -0.1271179 0.02570643 0.062483408 -0.021160375 0.016360499
-0.025625212 0.012147647 0.036264002 -0.019652283 0.045868814 0.051877998 -0.048903756 0.024453009
0.07355205 -0.023726854 0.05160842 0.040522315 -0.0003201375 0.015967028 -0.0211549 0.035700507
0.035523377 0.044729084 -0.0027205327 0.04248854 0.03251811 -0.07700257 -0.07537631 0.1870249
0.014597796 0.04071523 0.04683541 0.088370174 0.046245996 -0.0058929827 -0.011396866 0.13727379
0.009490111 0.004914727 -0.023230765 0.016376914 0.0056973016 -0.046044584 0.026893217 0.034430716
-0.034701455 0.0093178395 0.066172004 0.11508176 -0.0051316977 0.029747382 0.055614788 -0.057916522
0.03703421 0.10688079 -0.04734112 -0.0704638 0.029927474 -0.004141206 0.19304882 -0.1322818
0.043962255 0.01931445 0.06700954 0.036704775 0.011401083 0.006984474 -0.028381519 0.10212856
0.0891487 0.04034764 0.0762143 0.022387724 -0.08742339 0.030150386 0.049233377 -0.00012093921
-0.033900294 -0.0054162503 0.15202719 0.052675188 -0.06192108 -0.01836658 -0.043028727 -0.015389112
-0.026449133 0.08521625 0.06639579 0.00044578052 0.079022 -0.013727013 0.096726514 0.031843208
0.004209336 -0.027400266 -0.04487394 -0.018622532 0.025844036 -0.106526636 -0.012583367 0.02818228
0.048409004 0.020918941 -0.06047034 -0.017945386 -0.03791232 0.04874266 -0.051882602 0.1859968
0.03232888 -0.1073627 -0.014278942 0.12232819 -0.06788623 -0.1154416 0.08331587 -0.07840511
0.018421855 0.036970686 0.00407754 0.073038585 -0.17865156 0.095690064 -0.004266178 0.031225659
0.012334967 -0.0072531537 0.08828862 0.041223455 0.016774913 0.24501647 0.048662495 0.078312516
0.007718463 -0.046717674 -0.19714996 -0.03746211 0.025229944 0.047428597 0.01553366 -0.035744812
-0.1152279 0.0019798956 -0.056715205 -0.0074875746 0.020596905 0.08017354 0.23061214 0.008702913
-0.08665042 -0.088213086 -0.023736017 0.07065437 -0.048992943 0.045140915 0.15863581 -0.025124412
-0.096981324 -0.042274997 -0.020652361 0.00790633 0.006919172 0.0861629 0.016767232 -0.023038236

model.dense1.bias f4 [128]
00000000: 4d00 943b e3bc 973b 7246 1a3d d620 a23d
00000010: d3bb df3d 0bd4 a83d 90e7 3c3d 521c c63c
00000020: db05 f5bb b7df 22bd 6aa5 843d c990 85bc
00000030: e384 293e 75bf e93d f06b 1e3d a601 823d
00000040: a312 e4ba 32ef 15bd 990e ec3c ffb2 e7bc
00000050: 42fd 993d 5c00 bb3d 1c3a a03d 8a23 dd3d
00000060: eb97 283d 14e1 623c c74e b53c 7fd6 20bd
00000070: 85e9 ad3d 61ba c33c 0ab4 53bc a579 dc3d
00000080: 294c f63c 55ba 033b ddff 963d 5e5c 87bd
00000090: c3c5 ed3d 3fd6 ffbb b3d3 283c 6179 b33d
000000a0: 1bea 9e3d 7c83 42bd c5d4 96bd fe38 78bb
000000b0: fd7f 1b3c c235 553c 9719 e63a 1f35 303d
000000c0: ee5f 0d3c fcc6 fd3d c5cf 29bd 909c 34bc
000000d0: a96a 183d d51a 96bd 3464 6cbd 2d9c 723d
000000e0: adb7 96bc 490e 9f3d 674f 043e ed04 db3d
000000f0: f9a2 8a3c ba3f 9b3a d75a cf3b 1b57 2c3d
00000100: b206 343d ac61 ac3d b14d 353c 986b b43d
00000110: fd67 c73d 51e3 f23b 2cb9 8dbc eb50 49bd
00000120: 78c1 3f3c 7ec4 493c 4047 fa3c 7eca 483d
00000130: f01a 1f3d f852 94bd eb98 bf3b 0324 013d
00000140: 7985 813d 6efa 053e d6d4 353c 93a0 133e
00000150: ce17 123d 431c 20bd 6af0 d63d e766 813c
00000160: 0a23 9f3d 9bff 093d 4c1a 6fbd 7e97 703d
00000170: 78b0 75bd 1790 cc3c 8f63 0c3e bb7f 463d
00000180: c95e 0dbd 43be 583c f093 f03c ea60 b53d
00000190: e7d2 7f3d 80a3 5ebc b491 f93c 053a 06bd
000001a0: 8c2b c23d 58cf e5bc 5849 da3d f1b6 2abd
000001b0: 06f2 1c3d 51cc e2bc a2e6 333d b4d2 09bd
000001c0: ee7e 58bc 6427 af3d a6fc 5f3d 7b4d 723d
000001d0: 6ed9 d33d e56d 653d 58bc efbc db95 1ebd
000001e0: be1d 693d 8c86 35bd 0dc2 643d bbe7 aa3c
000001f0: 9f21 4f3d 40ce 2b3d 7447 273c 1cf9 dc3d
0.0045166374 0.0046306713 0.037664838 0.07916419 0.109244965 0.08243569 0.046119273 0.024183426
-0.0074775047 -0.039764132 0.06476863 -0.01630439 0.16554599 0.11413471 0.038677156 0.06347971
-0.0017400574 -0.036605068 0.028815554 -0.028283594 0.07519008 0.09130928 0.078235835 0.10797794
0.041160505 0.013847608 0.02213229 -0.03926706 0.08491806 0.023892583 -0.012921343 0.10765389
0.030065613 0.0020100076 0.07373021 -0.066094145 0.11609986 -0.0078075225 0.010304379 0.087633856
0.07759496 -0.047488675 -0.07364801 -0.0037875767 0.009490964 0.013013305 0.0017555234 0.04301941
0.008628828 0.12391469 -0.04145791 -0.0110236555 0.037211094 -0.073293366 -0.05771275 0.059230972
-0.01839813 0.077663966 0.12920915 0.10694299 0.016923415 0.0011844554 0.0063279676 0.042075258
0.043951698 0.08417067 0.011065886 0.088095844 0.09736631 0.007412352 -0.01730021 -0.049149435
0.011703841 0.012314914 0.030551553 0.049021237 0.03884405 -0.072423875 0.0058470867 0.031528484
0.06324286 0.13083813 0.011098107 0.14416723 0.035667233 -0.039089452 0.10495074 0.015796138
0.07770355 0.03369103 -0.058374688 0.058738224 -0.059982747 0.024971051 0.13709854 0.048461657
-0.034514222 0.013228956 0.029367417 0.088563755 0.06245699 -0.013588786 0.030464984 -0.032770175
0.09480962 -0.02805297 0.106585205 -0.041678373 0.03831675 -0.027685316 0.04392112 -0.033648208
-0.013213856 0.08552435 0.054684304 0.059155922 0.10344206 0.056013007 -0.029264614 -0.038717132
0.05691313 -0.044317767 0.055849124 0.02086245 0.050569173 0.041944742 0.010209907 0.10789701

model.dense2.weight f4 [64, 128]
00000000: 3a42 babd a405 aabd 421e 413e 570d e33d
00000010: 1fd4 613e e81c f1bd 6208 033d 0e69 273d
00000020: 038d 393e 4ab4 c43d b3c1 b83d 6c16 0bbd
00000030: 46e8 2bbe c553 fd3d 7206 633d 9e5e af3d
00000040: 97ba ef3c 7cc0 853d bedc adbb efe9 6eba
00000050: 1a20 363d 8b4c 1f3d 547c f53d ec62 60bd
00000060: 0571 3fbc 67f5 133d 33ee bcbd 4412 c2bd
00000070: cdc0 0d3d c71f 35bd 49d9 453c bdbd 9d3d
00000080: f20a 3c3d 6834 c33b 53f3 393e 3bd8 d1bd
00000090: 6add 283d ebdb 91bd 1606 e5bc 54d0 6c3d
000000a0: d8b3 423d 8f93 94bd ad0c 9c3c ab28 75bc
000000b0: 272a d0ba f103 bc3d 6cb2 d1bc 901a 2c3e
000000c0: e26a 9e3d 6121 503e 69a0 603e f7e3 c8bd
000000d0: b985 33bd 442d 1c3d 0148 c4bd cbfe 92bd
000000e0: 4b9b ca3d f43b b2bd 7192 603e 2ff5 073e
000000f0: 1222 e8bd 7c01 c33d c7ce 7f3d 16ed 4a3d
00000100: 8953 3b3d b11e 253e 5e6d 153e ffdc 01bc
00000110: b8ec 303e d75f c7bd 30aa 573e 4efb 11be
00000120: e139 d6bd df1a 1ebe cf14 143e f5ea 7b3d
00000130: cd6e 913d a373 4fbd 185b 22bc c2a1 c43d
00000140: 9f7b cb3d 0fd6 913c 7989 803e e849 903c
00000150: 1374 cfbd 64f7 cdbc c9cd b23d 4eca 9f3d
00000160: 1a86 66be ac9f 473d 67bf 553d 3e62 673d
00000170: 9f53 873d 9883 5cbd 66a7 2a3e aa16 403d
00000180: a841 7b3d 5c79 3d3e c90a 8c3d c77b e2bc
00000190: 8a34 333d a9d0 9f3d 4a7f 9b3d 53bc 113d
000001a0: 29c5 273e ddb7 b6bd bea1 873d fad9 95bd
000001b0: 0f19 22bb 08ee 7b3c c980 49bd 7ad1 6fbc
000001c0: b1b1 633c eac6 a63d 2a37 91bd b9d6 9fbd
000001d0: f59c 033e e315 103d 3feb 623d 1083 61bd
000001e0: aa90 5d3e 4aca 0f3d 20cd 80bc 7602 00be
000001f0: 0fc7 cebc 78c5 52bc 77b7 c33d 2bc6 023e
00000200: db30 263e 440a 1bbc 3af4 8ebd 91b9 a3bd
00000210: 1d8e 3dbd 3e6d 293e 5f03 253e 7931 3bbd
00000220: 1df3 abbd a248 9abd 647c ccbd 720e 6f3d
00000230: 441c c43c be08 5abd 6f67 da3d 09bb 76bb
00000240: e42a 473b 4161 c1bd e326 6e3d 0881 08bc
00000250: 80c5 5cbd 8d03 cabc 5469 0bbd b172 503c
00000260: e302 c4bd f883 8abb 779d a63d aa7a ed3d
00000270: a020 e63d 6c7b 1bbe 8760 12be 9a54 85bd
00000280: 9f66 ff3d bf43 f03d 5a95 f9bd 9a1e 323e
00000290: 81c8 573c 0b83 8a3e 6a05 523b eb8c 7b3d
000002a0: e1f0 87bd 72c5 ddbc d6dc a8bc e777 213e
000002b0: ff34 0d3e 6722 6d3d 9eb5 853d 7c78 dd3c
000002c0: 4d55 403e 94e4 153d 0fee b9bd 5887 55bd
000002d0: c6d6 543d a613 c73c 84fa 803d d554 fc3d
000002e0: d207 3a3d 526e 053d 60c3 2e3c 425f 00bd
000002f0: 06bd 253e 40ac 17bc e424 033e 98c3 083e
00000300: 674b 05bd f207 7fbc bea3 e9bd fb87 ca3c
00000310: d92e 0cbd 2e96 42bc b56a 70bd 07c9 67bb
00000320: 438c b1bc da99 5a3e 232e d7bd aafb a23b
00000330: 70bb 2d3d 8fe5 cb3d 3af2 a23d 7700 0ebe
00000340: 155d 80bc 71c7 9d3d 0796 cdbd aedc 5e3c
00000350: 96ad 283e 3313 103e 6658 863d 1a25 d53d
00000360: d957 3f3e e660 0b3e adfe f43d a008 6fbd
00000370: 1567 103c 2642 3ebd 6d78 383c 8f5a 903d
00000380: a822 9fba b175 56bd 7ae9 653d 97ec f33d
00000390: 6b92 073d 7e76 e03b 657c 3fbd 6104 03bc
000003a0: ad6f 443d c143 f73c 8760 663d e093 d63c
000003b0: 2922 7c3d 4145 4ebc 83bb 8e3d c5cf 3ebe
000003c0: d66d 093d b5cc 333b 27eb 1c3e 66ac 41bd
000003d0: e141 e13c cb37 863d 2cfa 11bd 7ac7 f43c
000003e0: 4d14 8d3d 9dea 2d3e 5b13 bd3c 0840 083d
000003f0: f9f2 58bc b97a 1f3e 91a7 003e cdeb 75bd
-0.09094663 -0.08301857 0.18859199 0.11086529 0.22053574 -0.117730916 0.031990416 0.040871672
0.18120198 0.096047 0.0902132 -0.03395693 -0.16787824 0.123694934 0.05542607 0.08562969
0.029263778 0.06530854 -0.0053058555 -0.00091138383 0.04446421 0.038891356 0.11986604 -0.05478184
-0.011684661 0.036122706 -0.092251204 -0.0947614 0.034607697 -0.04421976 0.012075731 0.07702205
0.045908876 0.005957175 0.18159227 -0.10246321 0.041226782 -0.07122024 -0.027957004 0.057815865
0.047534794 -0.07254707 0.019049013 -0.014963309 -0.0015881703 0.09180439 -0.025597773 0.16807008
0.0773523 0.20325233 0.21936192 -0.09809106 -0.0438287 0.038129106 -0.09584046 -0.07177504
0.09892901 -0.087028414 0.21930863 0.13277124 -0.113346234 0.095217675 0.062453058 0.04954251
0.045733962 0.16124989 0.14592502 -0.007926225 0.17277801 -0.09735077 0.21061015 -0.14256021
-0.10460258 -0.15439938 0.14461063 0.06150337 0.07101212 -0.05064739 -0.009909414 0.09601165
0.09935688 0.017802266 0.25104883 0.017613366 -0.10129561 -0.02514238 0.08730657 0.078022584
-0.22512093 0.04873626 0.05218449 0.056490175 0.06607746 -0.053836435 0.1666542 0.046896614
0.06134191 0.18503326 0.068379946 -0.027646912 0.043751277 0.07803471 0.07592638 0.03557999
0.16383804 -0.08921788 0.06622647 -0.07316966 -0.0024734174 0.015376575 -0.049195085 -0.014637345
0.013897345 0.081434086 -0.070906 -0.07804627 0.12852843 0.035177123 0.05540013 -0.05505663
0.21637216 0.035105027 -0.015722811 -0.12500939 -0.025241403 -0.012864463 0.095564775 0.12770908
0.16229574 -0.009462897 -0.06980176 -0.07994378 -0.046278108 0.16545579 0.16114567 -0.045701478
-0.083959796 -0.07533385 -0.09984663 0.058363385 0.02393926 -0.053230993 0.1066426 -0.0037648103
0.0030390555 -0.09442378 0.058142554 -0.008331545 -0.05389929 -0.024659896 -0.034035996 0.012722657
-0.09570863 -0.0042271577 0.08135503 0.11595662 0.112366915 -0.151838 -0.14294635 -0.06510277
0.12470745 0.117316715 -0.1218669 0.17394486 0.013170362 0.27053103 0.0032046684 0.061413687
-0.06637741 -0.027071688 -0.020613115 0.15768395 0.13789748 0.057894137 0.06528781 0.02703499
0.1878254 0.036594942 -0.09078609 -0.052131027 0.051962636 0.024301361 0.06297782 0.12320868
0.045417614 0.032575913 0.010666698 -0.031340845 0.16185388 -0.009257376 0.12807041 0.13355863
-0.032542612 -0.015565859 -0.114081845 0.024723044 -0.034224365 -0.011876626 -0.058695514 -0.0035367624
-0.021673327 0.21347752 -0.10506847 0.0049738484 0.042415082 0.09955894 0.07956357 -0.13867365
-0.015669385 0.07704056 -0.10038381 0.013602419 0.16472468 0.14069824 0.065598294 0.10407467
0.18685855 0.13611183 0.11962638 -0.058357835 0.008813639 -0.046449803 0.0112591805 0.07048523
-0.0012141066 -0.052358333 0.056130864 0.1191036 0.03309862 0.006850063 -0.04674949 -0.0079966495
0.047958065 0.030183675 0.0562444 0.02619356 0.061556015 -0.012589754 0.06969359 -0.18633945
0.033552013 0.0027435247 0.15324079 -0.047283553 0.027497234 0.065536104 -0.035638973 0.029880274
0.06888638 0.16984029 0.023080518 0.03326419 -0.013241523 0.15574159 0.12563922 -0.06003933

model.dense2.bias f4 [64]
00000000: cd65 e33d 3512 4bbd e663 63bd 4e97 9b3d
00000010: 3f65 db3c a6b6 e0bd b5ad 293e b479 043e
00000020: d7ba bcbd 4ae7 0039 81ca 783d b97c bebc
00000030: b135 4e3d 398c d93c 327c 9fbd dc0b b03d
00000040: f123 053d f462 143e c180 e43c d701 1d3e
00000050: fe1b 27bd 9d4e 463d 664a 7bbd bbc3 653d
00000060: 9200 07bd 0288 673d 2369 34bd 5369 3cbd
00000070: 72d4 703b 9850 4cbd ad04 9f3c 7135 aabb
00000080: 72a5 f93d 50db 783d f714 e3bc e8e1 0a3d
00000090: 90f6 d63c fc25 a33c 6779 8abd 9ef0 2abd
000000a0: fb21 903d 386e 8ebc 50ae 083e 9ad1 1e3e
000000b0: de60 e23d d6de 2f3e bd1f 883c b199 c33d
000000c0: 8277 e4bd a259 f63d 6dd5 efbc f560 3fbd
000000d0: 626e ea3d 6faf 913d 2ccb 92bc 903c ef3d
000000e0: f6c0 23bd 6eba 923d 68e7 a73d c0af 993d
000000f0: 227d b8bd b3f0 493d 1a77 783d 9081 103e
0.11103401 -0.04957791 -0.055515192 0.075972185 0.026781676 -0.109723374 0.1657017 0.12937051
-0.09215324 0.00012293193 0.060739998 -0.023252832 0.050344173 0.026556121 -0.0778736 0.08596012
0.03250498 0.14490873 0.027893426 0.15332733 -0.04079818 0.048414815 -0.06135025 0.056094866
-0.03295953 0.05652619 -0.04404558 -0.045998883 0.003674772 -0.049881548 0.01941141 -0.005194359
0.12189759 0.060756028 -0.027719958 0.033906847 0.026240617 0.019915573 -0.06761437 -0.041733377
0.07037731 -0.01738654 0.13347745 0.15509644 0.11053632 0.17174849 0.016616696 0.09550799
-0.11155607 0.12028815 -0.029276574 -0.046723325 0.11446835 0.071135394 -0.017919146 0.11681473
-0.039978944 0.07164465 0.08198434 0.07504225 -0.09008242 0.049301814 0.06066046 0.14111924

model.dense3.weight f4 [32, 64]
00000000: a526 86bd 5280 8fbd 0e0d d9bd 4f5b 18be
00000010: 9214 a8bd 84a1 b33d 13f3 19be 8399 9ebc
00000020: 9a51 e63d 526c 963d 5cbf b7bd 0251 0bbe
00000030: 7f9c dfbd 25d7 bf3d bacf ff3d b99d 873c
00000040: 98e9 823c a8dc 0fbd 263a 0f3d 85ae f9bd
00000050: c9a1 11be 2648 c23d e8fa cd3c 609a e83c
00000060: 3abc bb3d 57a8 87bd ea21 ec3c 4d1f e6bd
00000070: 0535 b6bc 917f bf3d c877 033d e630 36bd
00000080: 9c1a b93d 255c a53d ad5e a4bd f2fb 3e3c
00000090: cedc 823d 4cfd 893b 00c0 fb3d c0cc 66bb
000000a0: 475f 82bd 25be b83d 1b77 aebd ccf8 91bd
000000b0: 9077 e2bd 29ec 4b3d ed07 d23c e82b dfbc
000000c0: f405 eebd 9d37 efbd 9792 d6bd 8088 523c
000000d0: 2295 debd ae7c ce3d e061 253d 32fb 01be
000000e0: 3823 ed3d 9ca9 6e3d eced b83d 32d1 a9bd
000000f0: 08ce 9f3d 2045 d03c 10c9 56bc 7253 aebc
00000100: 8396 423d 431a 9e3d 3698 bdbd 57b3 c53d
00000110: 448a a03d f808 34bd fe70 04be d37d ed3c
00000120: 8dcb f0bd 0ae0 4d3d 6ccc 3e3d 072a 85bb
00000130: 35ba 063e cb48 dfbc efe4 313d ee36 153d
00000140: e4d6 71bd b956 c5bd 1bd4 f53d a23c cfbd
00000150: 2b92 e23d a88d 8e3d dcc1 c23d 5032 f23c
00000160: 687a 40bd cd0d 103e 9236 2d3d 5298 94bc
00000170: ec8d f23c 79ab 153e 53a4 d43d a218 a93d
00000180: e87c d1b9 be73 bebc 699a 803c c2ac adbc
00000190: 45f1 25bd 8a7e 71be ebe4 37bd 3524 443d
000001a0: c2f3 2cbe 2b3c 2d3c 0e5b 423d ccba 1fbe
000001b0: 2626 3d3e 3ea5 da3c 276b 98bd 2045 e9bd
000001c0: 7d37 39ba 8ce4 173e f935 25bd 9121 85be
000001d0: c769 cbbd 4010 12be d8a9 f13d 8fca 2abe
000001e0: c84f c03d 315f 59bd f2be 82bd da7c 10be
000001f0: 16a8 e93d b896 8cbd b285 5c3d 8248 313e
00000200: 81a8 9d3d 416f ea3c d0fc c9bc 1130 b33d
00000210: e259 b3bd 6412 1fbd e229 fbbd a409 a4bd
00000220: c420 f13d 80e1 e03d b29b bd3d 0242 d6bd
00000230: d2df 91bd 450c abbd fee1 a6bd e0fb 113c
00000240: 70fa e33c 1e65 85bd 8394 b8bb 6091 fdbc
00000250: 97d2 3abc 0574 e43d 4884 933c 1044 0bbd
00000260: 08f8 cb3d 2b9e e43d 5135 993d 5ced 09be
00000270: ce74 f43d 9f88 e7bd eff4 30bb 34bf 2fbd
00000280: e3b5 5fbd d8cc 2a3d 4a54 b4bd f8bf fabd
00000290: ef44 eabd 5cdd 15bd e408 65bd f6e2 f3bd
000002a0: 650d 093d 07bf 323c 8896 a5bc 5270 e6bd
000002b0: a8b8 753c 432a c0bd 2c47 ae3d 1c0b 9e3d
000002c0: 5a43 e1bd 5469 02be 8b46 f73c 58dd 153d
000002d0: c8d2 9c3c c866 95bc f67b ff3d 7521 8a3d
000002e0: 24ee 243d 2bf8 b43d 6237 04be 9850 be3d
000002f0: fea2 823d 6476 093d f047 52bc b98d c83d
00000300: 5a9a 203e 3e04 2a3d 6187 0cbc 0c65 2dbe
00000310: edf5 b63d f672 493d 4885 e2bd 317a 30be
00000320: 5375 183c 3b5a a4bd a080 f0bc 2989 4a3d
00000330: 8893 233e 17e7 243e a65c a2bd fc1c 01bd
00000340: 493f b0bc ce18 2bbe 9493 9b3d da4b 933d
00000350: 7db8 133e 21a1 463d ea18 033e 2f96 2e3d
00000360: 3514 5d3e a04b 28bd 0c62 b73d bb71 f6bc
00000370: c45c fcbd 88ea acbd 4c0a 2f3e 7e8d 0b3e
00000380: 4201 2e3e 5954 583e 0fca 973d 97ac 303e
00000390: 118a 9d3d c702 a33c 2817 d7bd 71fd 07bd
000003a0: 1c1a 303e 5aea 9a3d a154 00be cd3c 6a3a
000003b0: b27e d9bd f53a 9bbc f5ec 8c3c 235a 893c
000003c0: f8fa 5ebd 0aa9 aebe 547c 303d 2ed2 dfbd
000003d0: 7b9f 263e 49fb 013e 76af d03d c12d 0b3e
000003e0: 9435 18bc 3119 df3d d8b5 173e eadb 01bd
000003f0: 7573 523c de85 f7bd 4341 42be 1715 7a3d
-0.065503396 -0.07006897 -0.10598193 -0.14878581 -0.082070485 0.08771041 -0.15034132 -0.01936031
0.11246033 0.07344879 -0.08972046 -0.13605121 -0.10918521 0.093672074 0.124907926 0.0165547
0.015980527 -0.035122544 0.034967564 -0.1219149 -0.14221872 0.094864175 0.025144055 0.028393924
0.09166761 -0.06623905 0.028824765 -0.11236439 -0.022242079 0.09350503 0.032096654 -0.044480227
0.090382785 0.08074216 -0.080258705 0.011656748 0.063897714 0.0042111035 0.122924805 -0.0035217255
-0.06365829 0.09020642 -0.08518811 -0.07127532 -0.11057961 0.049785767 0.025638545 -0.027242616
-0.11622229 -0.11680529 -0.104771785 0.012849927 -0.108682886 0.100823745 0.040376544 -0.1269348
0.11578983 0.05826722 0.09029755 -0.08291854 0.07802969 0.025423586 -0.0131094605 -0.021280024
0.04750682 0.07719853 -0.092575476 0.09653347 0.07838872 -0.043953866 -0.12933728 0.028990662
-0.11757574 0.05026249 0.04658167 -0.004063848 0.1315697 -0.02725639 0.04343122 0.03642934
-0.059042826 -0.09635682 0.120033465 -0.10118987 0.110630356 0.069606125 0.09509632 0.029565006
-0.046991736 0.14067765 0.04228837 -0.018139038 0.02960869 0.14616193 0.10382905 0.082566515
-0.0003995665 -0.02324855 0.015698629 -0.021200541 -0.040513296 -0.23583427 -0.044896048 0.047886092
-0.16889861 0.010573427 0.047450118 -0.15598601 0.18471584 0.026690122 -0.07442313 -0.11390138
-0.00070654583 0.14833277 -0.040334675 -0.26002172 -0.09932285 -0.14264011 0.11799973 -0.16678832
0.09390217 -0.053069297 -0.06384076 -0.14110127 0.11409013 -0.06864685 0.05383844 0.17312816
0.07698155 0.028617503 -0.024656683 0.08749402 -0.08757378 -0.038835898 -0.12263848 -0.08009651
0.11773828 0.10980511 0.09258212 -0.10461809 -0.071227685 -0.083519496 -0.08148573 0.008910149
0.027829379 -0.06513427 -0.0056329384 -0.03095311 -0.011402748 0.111549415 0.018007413 -0.034000456
0.099594176 0.11162981 0.074808724 -0.13469452 0.11936341 -0.11305355 -0.002700146 -0.042906955
-0.05461682 0.04169926 -0.08805139 -0.122436464 -0.11438929 -0.036588058 -0.055916682 -0.11908524
0.03346004 0.010909802 -0.02021338 -0.11251892 0.014997639 -0.09383061 0.08509669 0.07716963
-0.109991744 -0.12735492 0.030185005 0.036588043 0.019143477 -0.018237486 0.124748155 0.06744663
0.04026617 0.08836397 -0.12911752 0.09292716 0.063787445 0.03356017 -0.012834534 0.097926565
0.1568388 0.041507952 -0.008577199 -0.16933078 0.08933625 0.0491819 -0.11060578 -0.17234112
0.009305316 -0.080250226 -0.029358208 0.049447212 0.15974247 0.16103779 -0.079278275 -0.031521782
-0.021514552 -0.16708681 0.07596508 0.07192202 0.14425845 0.04849351 0.12802473 0.042623695
0.2158974 -0.041087747 0.08954248 -0.030083528 -0.12322381 -0.08443171 0.17093772 0.13628194
0.16992667 0.21125926 0.074115865 0.17253338 0.0769235 0.019898785 -0.105024636 -0.033200685
0.1719746 0.0756423 -0.12532283 0.00089354516 -0.10619868 -0.018949011 0.017202834 0.016766613
-0.05443856 -0.34113342 0.04308732 -0.109287605 0.16271774 0.12693514 0.101897165 0.13591672
-0.009290118 0.10893477 0.14815462 -0.031703867 0.01284491 -0.1208608 -0.18970208 0.06105527

model.dense3.bias f4 [32]
00000000: 112a 0cbe 6ff5 22bd 995b f5bd d0db 523d
00000010: c157 1b3d 79e6 9abc 990e a03d cbf7 c4bd
00000020: 8c11 e6bc c004 5bbd 41bf 34bd 7e36 2f3e
00000030: 9f58 453d 9693 393e 472a 663e be96 43bd
00000040: d2b3 bdbb a4c4 353d e6f5 573b 054e 79bd
00000050: 1032 2b3e ae05 483d f3ff 6d3d 8341 4f3d
00000060: 9299 303d d4bd 9e3d c1c5 e13d 9df8 01bd
00000070: 7b72 593c f994 c4bd 472e da3c 8367 d3bd
-0.13687922 -0.039784845 -0.119803615 0.05147916 0.037925486 -0.018908726 0.07815284 -0.09617575
-0.028084539 -0.053471327 -0.044127706 0.17110631 0.04818022 0.18122706 0.22477065 -0.04775118
-0.0057892585 0.044376984 0.0032952963 -0.06086542 0.16718316 0.04883354 0.05810542 0.050599586
0.043115206 0.077510506 0.11024047 -0.031731237 0.013271923 -0.09598727 0.026633395 -0.10322478

model.dense4.weight f4 [16, 32]
00000000: 497b dd3d 3ba9 1c3e 394d b8ba eca0 0bbd
00000010: a365 0b3d 904d 91bd f6c1 b2bd d7fa 473e
00000020: d42d 13bd 9e06 98be d259 5a3e 81f6 683b
00000030: 7771 373e f5e5 c43c db22 353e 4157 d13e
00000040: 6941 0d3d e0a4 8d3c 53a4 133e e6ce 4fbc
00000050: ac6e 4cbb e322 56bc a42d 00be 8011 e93d
00000060: 60a4 a8bc 8ee2 9fbd 8d41 813e eb2c b4be
00000070: c6a4 853d 2bc3 0e3e df40 a53d 2dc4 9cba
00000080: baa4 0cbe d172 5b3e 26a6 d2bd c318 243e
00000090: 33c0 97bc 424a ed3c f13f 783e cf77 d7bc
000000a0: 9785 1fbe e437 6b3d 70eb 2bbe e3db 3f3e
000000b0: e6e9 593e cb97 0b3e a444 4d3d 3b02 d53d
000000c0: f72d 083d 4310 5bbd 8eb8 1cbd 4314 123e
000000d0: f54e 253d 1f55 f43b d42c 193d 19d7 5bbe
000000e0: 0909 073d 835b 19bc 0e8c c0bc d6a9 3a3e
000000f0: 5feb 6b3d 0e3a c4bd af87 b2bd baec c13d
00000100: 5f55 8f3d 747b f3bd 929e d03d 07f2 c0bd
00000110: 3f0c 323e 3413 793e ebcd 323e 06d8 da3b
00000120: 36e1 6cbd aa51 0cbe 3152 4ebc 4389 9abd
00000130: 696b 2bbc cc5c 573e 283a 6b3e ce1f 313e
00000140: d81e f03c b47f 943d 21da 1ebe 02f1 373d
00000150: 5a1d 1d3e f731 35be 3342 6c3e e199 12be
00000160: 17fd bbbd de80 a03c 7904 1b3d e207 513d
00000170: 948c 1c3e de16 d6bc ec83 4a3d 98e8 123d
00000180: 1a04 d23d e6cf 7dbc 528f 6cbd c9fb 24be
00000190: eceb 4dbd d02e 19be b53a e63d fa00 c03d
000001a0: ed9d ee3c 5034 02bd 7ede 00be e9b8 a9bd
000001b0: 1151 1b3d 05fc 1dbe c00c f33c fe3b a0bd
000001c0: 9647 503d 7b0c d23d ed0e d7bd bd8c 86bd
000001d0: 470a d7bd 89ff 1fbd 27f7 0c3e a60f 833d
000001e0: 9db7 153e a8b9 1b3e 28fb e93d 0536 84bd
000001f0: e439 1cbe 2a70 963d 3e03 903d 6ff4 253e
00000200: 446a b0bd 5eef 71bc 818c f63d 2268 fd3d
00000210: 05f8 1cbe ca10 2dbe 5dc3 a5be 4ff8 91bc
00000220: a3b2 733d 45f2 d63d c4d5 013e a208 033e
00000230: 527f 193e c5a5 6d3d 58ca df3d 7110 213e
00000240: b3a6 5d3c c41d 9cbd 16fd e03d 0e24 0a3e
00000250: 8ba9 66be 5e48 b23d 5797 0a3e b71d 1bbe
00000260: 1a35 f73c 9ce2 7f3c bba7 33bd 3045 4fbe
00000270: b77f 0d3e c279 973d 0b68 d1bc 322c 313c
00000280: 8884 913d 4e23 0c3e 1860 73bb bddc 01be
00000290: 515b c6bd 8da6 cf3d 76dc 203e ccbe c3bd
000002a0: 4387 1a3e 9abb 3b3e 0cf5 16bc 14ac 483c
000002b0: eaac de3d 5c6b 15be 2cc6 24be 8747 82be
000002c0: 5bc0 b63c 8143 2bbe b1af 153d 3223 003d
000002d0: 03d8 313e 2f48 b73c eb35 00bd 40d6 663e
000002e0: 4240 d4bd a2c2 1dbe 8bfd 283e d9f4 e4bb
000002f0: 3d6b a13d fba4 d13d f6e8 453d 9fd4 2abe
00000300: 300f 85bc d1ba bbbc beae 11be aa39 bcbd
00000310: dc00 59be 422e ec3d 3040 503e ff97 2ebe
00000320: 3074 4dbe 7d09 513e 6a31 5bbd 090c 453e
00000330: 025f 03be 8ede 6b3e 3fe5 153d bb99 c93d
00000340: 2459 10be e30e 48be 1cd9 aebc 981e a3bc
00000350: 9da1 973d 0082 223e 26b7 a73e d534 b4bb
00000360: ee7a 113d 40c2 203c 8537 f03c 5091 a6bc
00000370: 3812 d9b9 1773 25be e231 a23d 502f 933d
00000380: f3e4 2ebe e6e7 2c3c 4757 153e 352f 543e
00000390: cf21 85bd bef9 2b3e 7819 06bd 482c 993c
000003a0: 0567 e33d 16d4 833d e3b8 413d 1d69 aabd
000003b0: 8069 4f3e a4d4 73be e4ac efbd 58c5 8d3e
000003c0: 92d7 c2bc 92e1 c9bd 48fc d43d 5220 b6bd
000003d0: 7977 bfbc 3e10 13bd 53d7 b3bd c42e 0ebe
000003e0: 2491 91bd caf2 93bc d6c5 15bc fd9f d63d
000003f0: be59 033d 4a5a e03d dd47 80bd 1ecb a73d
0.108145304 0.15298931 -0.00140611 -0.034089014 0.034032475 -0.07094872 -0.08728401 0.19529282
-0.035932377 -0.2969255 0.21323326 0.0035547318 0.17914377 0.024035433 0.17689078 0.40886882
0.034486208 0.017290533 0.14418153 -0.012683606 -0.0031193895 -0.013069841 -0.1251741 0.11380291
-0.020586193 -0.07806884 0.25245324 -0.3519052 0.06525569 0.13941638 0.08069014 -0.001196032
-0.13734713 0.21430518 -0.102855965 0.16025071 -0.018524265 0.028966073 0.24243142 -0.026302246
-0.15578304 0.05742635 -0.16789031 0.18736224 0.21280631 0.13632123 0.05011429 0.10400816
0.03324696 -0.053482305 -0.038261943 0.14265542 0.040358502 0.0074564363 0.037396267 -0.21468772
0.0329676 -0.009360197 -0.023504283 0.1822885 0.057597514 -0.095813856 -0.08717286 0.0946898
0.06998705 -0.11888781 0.10186495 -0.09421163 0.17387484 0.24323732 0.17461364 0.006678584
-0.057831965 -0.13703027 -0.012592838 -0.07545712 -0.01046262 0.21031493 0.22971404 0.17297289
0.029311582 0.0725092 -0.15512897 0.044907577 0.15343228 -0.17694841 0.23072128 -0.14316513
-0.091791324 0.019592699 0.037846062 0.05103291 0.15288001 -0.02613395 0.049442217 0.03586635
0.102546886 -0.015491461 -0.05775387 -0.16111673 -0.05027382 -0.14959264 0.11241666 0.09375186
0.02912804 -0.03178817 -0.12584874 -0.08287222 0.037919108 -0.15428169 0.029669166 -0.078239426
0.05084952 0.10256287 -0.10500894 -0.065698124 -0.10500007 -0.039062057 0.13766156 0.06399469
0.14620824 0.15207541 0.114248574 -0.06455616 -0.15256459 0.07345612 0.070318684 0.16206525
-0.086140186 -0.014766542 0.12038518 0.123733774 -0.15328987 -0.16900936 -0.32375613 -0.017818598
0.059496533 0.10495428 0.12679201 0.12796262 0.14989975 0.05801942 0.10927266 0.15728928
0.013528514 -0.07622865 0.10985772 0.13490316 -0.22525613 0.08705209 0.13534294 -0.15148054
0.030176688 0.015617993 -0.043861132 -0.20241237 0.1381825 0.0739627 -0.025562307 0.01081376
0.071053565 0.13685343 -0.0037136134 -0.12681861 -0.09685386 0.10139189 0.15709099 -0.09557876
0.15090661 0.18333283 -0.009213697 0.012248058 0.108728245 -0.14591736 -0.16091222 -0.25445196
0.02230852 -0.1672497 0.036544506 0.031283565 0.17367558 0.022373287 -0.03130142 0.22542667
-0.10363819 -0.15406278 0.16502969 -0.006987196 0.07881782 0.10236546 0.048317872 -0.16682671
-0.016242594 -0.02291623 -0.14226815 -0.09190686 -0.21191734 0.115322605 0.20336986 -0.1705017
-0.20063853 0.20413776 -0.05351392 0.19242872 -0.12829211 0.23034117 0.03659558 0.09843775
-0.14096504 -0.19536929 -0.02134376 -0.01991205 0.07403872 0.15869904 0.3275692 -0.005499462
0.035517626 0.009811938 0.029323349 -0.020332962 -0.0004140304 -0.16157185 0.07919671 0.071867585
-0.17079525 0.010553336 0.14584075 0.20721133 -0.06500589 0.16794488 -0.032739133 0.018697873
0.11103634 0.064369366 0.047295462 -0.0832083 0.20255089 -0.23811585 -0.11702898 0.27689624
-0.023784433 -0.09857477 0.10399681 -0.08892883 -0.023372399 -0.03590416 -0.08781304 -0.13885027
-0.071077615 -0.018060107 -0.009141406 0.10479734 0.032068007 0.10954721 -0.06263707 0.081930384

model.dense4.bias f4 [16]
00000000: 88f0 fbbd 320d e63d eb1d dfbc 9269 b7bd
00000010: 213f 19be 4c1b bbbc 0323 f3bd fbaf aabd
00000020: 87e1 6c3c 401f 0abe dee7 4fbe 6205 ab3d
00000030: ac5b 753e 5fce fe3d 101c 0bbe ea17 293e
-0.12301737 0.112329856 -0.027235946 -0.08955683 -0.14965488 -0.022840165 -0.11871912 -0.08334347
0.014458067 -0.13488483 -0.20303294 0.08350636 0.23960751 0.12441706 -0.13584924 0.16513029

model.output.weight f4 [10, 16]
00000000: 5dc9 bbbe ff91 873e 559b cfbe c1e1 1a3d
00000010: df2f 27be 387f 763e 289f db3b f7e7 503e
00000020: a4f6 86be 6492 fabe faa1 413e 5b60 d13c
00000030: c84c 0dbd 8590 253e fad1 2c3d 7b52 863d
00000040: aca3 7dbe 6e25 a43d 0713 4c3d c74f f7bb
00000050: 13d4 a0be 90a7 edbd c445 a1be fb1d 953e
00000060: de14 4cbe fadb b53d bdd3 85be 3614 82bd
00000070: 0c3c b03e 212c 53be 8f49 63be a4ad 363e
00000080: e8aa 173e cbbf f63d dffd 093e f493 bd3c
00000090: 0d5c 3cbe e1bf 9ebd 24fa 9abe 3a3c 3d3e
000000a0: 5dd1 bf3d d5d0 b4be e846 b13d 7e17 61be
000000b0: a151 863d 5ebc a93e 1379 9abd 0099 12be
000000c0: 7ea4 843e 7a7a 093e deb6 efbc e118 15be
000000d0: 69d2 ccbc 87ad 773e 8c41 f9bd 03d1 273e
000000e0: a2d1 84bd 58bb 35bd c019 a9bd dca0 a3be
000000f0: 3b6c abbe b1b5 a73d 53fc cd3d b52f 2cbe
00000100: bb83 bd3d 913b 86be 38cf a63d e069 1abe
00000110: 267a 5abe ac89 a0bc b371 993d 0fe3 6ebe
00000120: 07b5 87bd 8340 bbbb 1b31 a03d 0a4d d03a
00000130: d2c2 0fbe c979 ad3d c6fe acbe 300a bc3e
00000140: 6497 42be abb7 e73c 0ff8 4dbe 27e0 54be
00000150: 2c7c a13d ff75 543e c91c 1d3e ab0d 613d
00000160: f9e5 01be 1fde b4bc b796 4fbe cd4c 80bd
00000170: 82c6 febd 44c9 97be 01ac 5b3e e26c d6bd
00000180: 06b1 4bbc b41e 063e a150 a13e 8a00 433e
00000190: b4f0 9f3b c4fe 8e3d d66b a13e ecda 773a
000001a0: 6310 013e 6cbb 99bd 4fa3 c9be ba81 64bd
000001b0: 1340 103e af63 1fbe ab50 02be b9bd 91be
000001c0: ec97 d53b bb48 07be 9fea 303e f75e 2dbd
000001d0: e6da 703e d32b 0dbe 064e d2be a6d2 9c3e
000001e0: b14a 87bd 94f2 32be 15f2 a63d 60e5 963e
000001f0: 3f62 a4be e406 52bd ab4a b13c 49e4 85bd
00000200: ea1b c5bd dbf4 abbd a4df dabe cd67 67be
00000210: 8a07 9bbc ccb8 633e 96f1 93be e104 5f3c
00000220: 509e 05be 8a97 3f3e 87fd df3d 3d3c 2bbe
00000230: 921d 523e 83fd 383e e6cd bcbd 0752 5dbd
00000240: 6eee a33c 29f1 63be f42e 87be e474 62bd
00000250: 37f4 56be 9d41 2d3e 68a8 45be 58cf 47bd
00000260: 3ee5 0fbe a2eb 8b3e ea2e 8d3d 12a4 6e3e
00000270: 6b25 b4be 1e9a c7bd 5b50 88bb ed72 673d
-0.36677065 0.26478574 -0.40548196 0.037812952 -0.16326855 0.24071968 0.0067023225 0.20400988
-0.26360047 -0.48939812 0.18909445 0.025558641 -0.034497052 0.16168411 0.042192437 0.06558701
-0.24769467 0.08014952 0.049822833 -0.007547352 -0.314118 -0.11604226 -0.3149854 0.29124436
-0.19929835 0.08879848 -0.26138106 -0.06351511 0.34420812 -0.20622303 -0.22196029 0.17839676
0.1481129 0.120483 0.1347575 0.023141839 -0.1839449 -0.07751442 -0.30268967 0.18480006
0.09366105 -0.35315576 0.086561024 -0.21981618 0.06558538 0.33151525 -0.07542624 -0.14316177
0.25906748 0.13425627 -0.029262003 -0.14560272 -0.025002675 0.24187289 -0.12170705 0.16388325
-0.06485297 -0.044368118 -0.082568645 -0.31958663 -0.3348101 0.08188952 0.10057893 -0.16815074
0.09253641 -0.2621732 0.081449926 -0.1507945 -0.21335658 -0.019596897 0.074923895 -0.23328803
-0.06626325 -0.0057144775 0.07821866 0.00158921 -0.14039162 0.08470494 -0.33788127 0.36726522
-0.19003063 0.028285822 -0.20114158 -0.20788632 0.07885012 0.20748137 0.15343012 0.054944675
-0.12685384 -0.022078572 -0.20272337 -0.062646486 -0.12440206 -0.2964574 0.21452333 -0.104699865
-0.012432342 0.1309765 0.31506827 0.19043174 0.004880989 0.069821864 0.31527585 0.0009454924
0.12603907 -0.07506451 -0.39382407 -0.05578778 0.14086942 -0.1556537 -0.12726085 -0.2846506
0.0065183546 -0.13211338 0.17277001 -0.042326894 0.23521003 -0.13786249 -0.41075152 0.30629462
-0.06606043 -0.17475349 0.08151642 0.29471874 -0.32106206 -0.051276103 0.02164205 -0.065376826
-0.09624465 -0.08396312 -0.4274875 -0.2259819 -0.018924493 0.22238463 -0.28895253 0.013612003
-0.13048673 0.18710151 0.109370284 -0.16722198 0.20519093 0.18065457 -0.092189595 -0.054033305
0.020011153 -0.22259964 -0.2640301 -0.055287257 -0.20991598 0.1691956 -0.19302523 -0.048781723
-0.14052293 0.2732821 0.06893714 0.23304775 -0.35184798 -0.097461924 -0.0041599697 0.056506086

model.output.bias f4 [10]
00000000: 280f 1abd 8844 4f3e 88ec f33d 8f66 30be
00000010: ff53 50bd 89a2 36be 6a04 61bd 528f 03be
00000020: a71a 93be 7980 3bbe
-0.03761211 0.20240986 0.11910349 -0.17226623 -0.050861355 -0.1783544 -0.05493585 -0.12847641
-0.28731272 -0.18310727
