Models/model_optSGD_ep40_neu64_lay4_acc0.9524.pth (torch, 219490 bytes, 12 tensors)

model.input.weight f4 [64, 784]
00000000: 00fb 343b 3049 623c d088 19bb 5c65 763c
00000010: b0fc c4bc 004c 8fb9 fb2e 123d 32ae df3c
00000020: 90a0 5c3c e888 b5bc 9373 97bc 601e 8c3a
00000030: 1e0f 8b3c 40b6 7eba 9c6a d9bb 6885 ccbc
00000040: 1035 883c 0257 9f3c d49b c9bb a07b 38bb
00000050: 1bec 11bd 8401 0c3c 2ede 05bd a26f e83c
00000060: 5ed6 cabc c0ff d1bc 40cc adbb e017 77bb
00000070: f0dc c9bc 421a a43c f8a7 cd3c 105d 62bb
00000080: 0822 dd3b 6d8c 3f3c f504 743b b4b3 143d
00000090: d5d5 8d3c e9be f33a de1f 5cbc 405e edbc
000000a0: 9215 e43b 2561 47bc 4301 c6b9 9424 543c
000000b0: e692 903c 03ad e5bc 058b 1bbb 5d55 063d
000000c0: 7919 b3bb f293 ad3c 8aa0 a43c ac76 d1bc
000000d0: b3a7 0b3d 8e64 36bc 60ba c2bc 1b4b 0a3d
000000e0: 02f4 fc3c 0830 8b3c 93e0 b4bc 704c 0d3b
000000f0: f085 0f3b a4eb 0dbd 9499 0cbd 17cc 1d3c
00000100: ebd0 04bd 07e0 073d 4c0f db3c 313b 7c3c
00000110: ba1d 073d 79ca 36bc c8d7 b43c 87d5 a33c
00000120: 8daf 00bd dcec a43c e215 c13b 9d0d 03bd
00000130: 08f7 093d 9ab8 cc3b 5ccd ca3c 45cb 62bb
00000140: e10d 063c 4e0c 7fbc 0f4a 023d 6a26 01bc
00000150: 55ab abbc e0fb 9a3a 14af f4bb d348 e1bc
00000160: b4dd 36bc 6a81 9b3c 5fdc ab3c 976a 853a
00000170: a326 603c 541a a33b 15fb c8bc 4fa2 243d
00000180: 2bc8 733c 9a7d a2bc c485 b6bb c1f8 673d
00000190: d4ae 493d f2fa 943c ef82 a63c a67b 343d
000001a0: 290b 983b 0e18 af3a 29fd 39bc db2f 51ba
000001b0: 5d3a b9bc 1bf7 003d 06ec 06bd 60fc b63c
000001c0: bbd8 07bd e68d 15bc c2e7 e53c 304c b53c
000001d0: 3d5d 833c f3e6 0c3d 8176 1fbb 6026 1cbc
000001e0: b4ee 043d fff0 b53c e3e2 213d 5857 9b3d
000001f0: 5ab2 773d 0dfc af3c 859f 3e3d 252f 203d
00000200: e617 a33c 2439 2d3d 7063 963d 7b63 d83c
00000210: 059f e23c 5429 90bc f009 53bd 4300 0dbd
00000220: 6cc2 993c 9fd6 203c bb83 9a3b 3650 ec3c
00000230: 08bc 343c a0f8 1e3c 7adb 383c ee60 b2bc
00000240: 1ad6 6fbc ed2d 0dbd 07b2 0cbb 225d 593c
00000250: fa3a 1d3d 4a02 eeba 7931 053d dec8 e33d
00000260: 4571 1a3e 032a 013e 14c1 913c ec03 103d
00000270: 029b 893d 9fb1 b33d d15f 2b3d d665 6dbd
00000280: 41c0 06bd 8e8e 043d b1cd b93c 127d b83c
00000290: 9518 053d 157f db3c cf9e f43c 8611 9a3c
000002a0: 80a0 18bc b0d0 443b 0235 a83c b046 e0bc
000002b0: fb76 0cbc 7aec 62bd fde2 48bc f341 533d
000002c0: 7b47 88bc 3e0c 6c3d 1f62 6e3d 5b9e 583d
000002d0: fc62 5a3d 8451 f83c 6fe4 293c b2d0 633d
000002e0: 6603 fa3d b410 e03d 8b36 5ebc 5db6 1a3d
000002f0: 59f9 dd3a 2f55 e93d abce b33d ca00 d63b
00000300: 86f4 d43c e921 7fbc 8147 8abb 2f0e 853c
00000310: 92a2 fd3c 56be ef3c a8e8 0f3c db9c 37bc
00000320: 5072 92bb cc0d 283c 7241 893d 52b7 c83c
00000330: 43f6 5abc 0d32 983c 22ac cbbc fdfb c0bd
00000340: 453a b1bc b8ae 0f3d 79af 943d 0ee9 9f3c
00000350: ba78 d83d 22f1 883d 33d3 bc3d a62f d73d
00000360: 7f77 0d3e f50e 053e 3b04 633d c584 08bc
00000370: 908e 093d f600 af3c 1855 d73c 42e9 a43b
00000380: 20ea ae3c 7484 d0bc 0391 0d3d ce68 d539
00000390: 3f76 003c 4e5d bcbc 8f73 2b3d 2774 7abd
000003a0: e267 17bd 502b 833d 19ce 1abd 673a f7bd
000003b0: 1587 5bbd 1fc8 cd3c 8b76 bd3b 14ca 08bc
000003c0: ad8b 27bd 6cb0 9bbd f5b1 693b 29e2 7a3b
000003d0: 2bbd 353d acbc 253d d4e5 4dbd f853 a93c
000003e0: 7a32 9aba 8156 3d3d 9d96 4d3c 77c0 0dbc
000003f0: 3e04 cc3c 0743 e0bb 4aa2 45bc 7de0 93bc
0.0027615428 0.013811395 -0.0023427494 0.015038814 -0.024046272 -0.0002733171 0.035689335 0.027304742
0.013466015 -0.022160009 -0.018487727 0.0010690205 0.016974982 -0.00097164884 -0.0066350233 -0.024965957
0.016626865 0.019450668 -0.0061526094 -0.0028149858 -0.03562556 0.008545283 -0.03268259 0.028373543
-0.024760421 -0.025634646 -0.0053038895 -0.003770344 -0.024641484 0.020032052 0.025104508 -0.0034540333
0.0067484416 0.011691195 0.00372344 0.03630419 0.017313877 0.0018596324 -0.013435332 -0.028975606
0.006960579 -0.012169157 -0.00037766443 0.012948174 0.017648172 -0.0280366 -0.0023733985 0.032796253
-0.005465683 0.02118871 0.020096082 -0.025569282 0.034095477 -0.011132373 -0.023770511 0.033763032
0.03087807 0.016990677 -0.022079742 0.0021560453 0.0021899901 -0.034648553 -0.03432615 0.009631178
-0.032425802 0.033172633 0.026740693 0.015394972 0.032987334 -0.011156672 0.022075549 0.019999279
-0.03141742 0.020132475 0.005892501 -0.031995405 0.033682853 0.006247592 0.024756126 -0.0034606021
0.00818202 -0.0155668985 0.03180891 -0.007882694 -0.02095572 0.0011824332 -0.00746716 -0.027500546
-0.011161257 0.018982608 0.020979105 0.0010178861 0.013681087 0.004977504 -0.024533788 0.040193852
0.014879267 -0.019835282 -0.0055701453 0.056633715 0.049238995 0.018186066 0.020326106 0.044063233
0.0046400023 0.0013358609 -0.011351862 -0.00079798483 -0.022610838 0.03148566 -0.032939933 0.022337139
-0.033165675 -0.0091280695 0.028064612 0.022131056 0.01603567 0.034399938 -0.0024332108 -0.009530634
0.032454208 0.022209642 0.039523017 0.07585019 0.060472824 0.021482492 0.04653885 0.03910746
0.019908857 0.04229082 0.07343185 0.026414623 0.027663717 -0.017597832 -0.05152315 -0.034424078
0.018769465 0.009816795 0.0047154105 0.028846841 0.011031158 0.0097028315 0.011282796 -0.021774735
-0.014638448 -0.034467626 -0.0021468417 0.0132668335 0.038386323 -0.0018158641 0.032517884 0.11122297
0.15082271 0.12613682 0.017792262 0.03515999 0.067190185 0.08774113 0.041839425 -0.057958446
-0.03289819 0.032362513 0.02268109 0.022520576 0.032494146 0.026793996 0.029860882 0.018807184
-0.00931561 0.0030031614 0.020533089 -0.027377456 -0.008573289 -0.055401303 -0.0122611495 0.051576566
-0.016635647 0.057628863 0.058199044 0.052885395 0.053317055 0.030312307 0.010369404 0.05561895
0.122076795 0.10940686 -0.013562809 0.03777157 0.0016935273 0.113932006 0.08779653 0.006530856
0.025995504 -0.01557205 -0.0042199497 0.016242115 0.030961309 0.029265564 0.008783497 -0.011206831
-0.0044691935 0.010257196 0.06701936 0.024501476 -0.013364377 0.018578554 -0.024862353 -0.09423063
-0.02163423 0.035078734 0.07260031 0.019520309 0.10569902 0.066866174 0.092199706 0.10507135
0.13815115 0.12993987 0.055423956 -0.008332436 0.033583224 0.021362763 0.026285693 0.0050326893
0.021351874 -0.025453784 0.034562122 0.00040704611 0.007840692 -0.02299371 0.041858252 -0.061145928
-0.036964305 0.064047456 -0.037794206 -0.12071686 -0.05359562 0.02511984 0.0057819537 -0.00834896
-0.04090469 -0.07602009 0.003565905 0.0038281775 0.044369858 0.040463135 -0.05026801 0.020669922
-0.0011764311 0.046225075 0.012548116 -0.008651844 0.024904367 -0.006843928 -0.0120626185 -0.01805138

model.input.bias f4 [64]
00000000: 9a42 bbbb 7cf3 17bd ee83 e8bd 1595 223e
00000010: acee c73c 27e2 c6ba 5fd9 81bc 89b4 5cbd
00000020: 2384 5dbd 4e3f 8fbd da05 33be e775 98bc
00000030: 0f1d 4fbd 23b8 2d3e 3b03 7f3c a9cd 38be
00000040: cbfa ffbc 96a8 84be 29a3 d03a 4160 683d
00000050: 932d cfbd 66c0 56be 93c1 8abd 969f fb3c
00000060: f3ca de3d 7f85 b8bd 8143 393d 4b2a 1cbd
00000070: d2df 77bd b8ce 6c3d 5b88 80bd 6bc4 16be
00000080: 019d fd3d a86b 42bd 6503 44bd 3248 eebc
00000090: dec4 56bd 8a35 423d 6437 743a a4de f5bd
000000a0: 300d 333e 6b49 e0b9 1754 dbbd 331f ccbd
000000b0: 242a 1a3e ab9e 32be 6e21 4e3d 8f26 3e3d
000000c0: af81 223e 371a 98be e1ab 373e c806 ee3d
000000d0: f785 913d 30a2 873d e693 953c 8d36 8b3c
000000e0: ca85 0b3e d08e 18bc e028 bbbd 807a 733d
000000f0: 71da 50be 0b8e cdbd fa96 dc3d 0c36 3b3c
-0.0057147266 -0.03709744 -0.113532886 0.15877183 0.0244058 -0.00151736 -0.01585072 -0.05388311
-0.054081094 -0.06994496 -0.17482701 -0.018610908 -0.05056482 0.16964774 0.015564735 -0.18047203
-0.031247517 -0.2590987 0.0015917766 0.05673242 -0.101161145 -0.20971832 -0.067752026 0.030715745
0.10878553 -0.09009837 0.045230392 -0.03812627 -0.060516186 0.05781433 -0.06276008 -0.14723365
0.12383462 -0.04746595 -0.0478548 -0.02908716 -0.05243384 0.04741434 0.0009316115 -0.12005356
0.174855 -0.0004277931 -0.10709398 -0.09966888 0.15055138 -0.1744334 0.05032485 0.04642349
0.15869783 -0.297075 0.1793666 0.11622387 0.0710563 0.06622732 0.018259 0.016993785
0.13625255 -0.009311393 -0.09138656 0.059442997 -0.20395829 -0.10036858 0.10770984 0.01142646

model.dense1.weight f4 [32, 64]
00000000: 5e36 8a3d 9190 1cbe 824a af3d 5522 5bbe
00000010: b881 13be 3131 903d 7299 933d 2e75 063d
00000020: 3212 5abd ea49 0dbe 3c42 19bc ffa5 b63d
00000030: 697c 073e 9cec ee3c ebe4 ae3c cd49 f1bd
00000040: b2fd 4fbd 156e b7bd 74ce 14be 005e 863d
00000050: 8347 b2bc 8cd1 793e 1d13 fabd ba76 8cbd
00000060: 599c 0ebe d340 213e 3091 24bd 7fe7 b2bd
00000070: a3d3 81bd 1703 353e 18d5 43bd dc39 8a3d
00000080: 8e87 c5bd 0c23 513e 6359 52be f03a 95bd
00000090: bc99 7cbd 4f62 8ebd b0ee 313d 8ff8 6ebc
000000a0: 4ea0 2d3e ab30 4e3c 2337 5f3d dd7e 22bd
000000b0: 3e23 ae3d 8888 83bc d122 113d 9cc0 63bc
000000c0: dc7d a4bd 5062 143e 27ec be3d 3450 81bd
000000d0: af45 3e3d 6d73 94be 7783 8bba ca85 c3bb
000000e0: c59a b73c ace6 6c3d ffc2 6c3e cddb c23d
000000f0: 7daa 303b dfa4 853a 7321 653e 40ae 953e
00000100: 7c12 a3be e189 0cbe ebe2 22bd 2af4 bfbd
00000110: 803d 79bd fd96 f6bc 2094 0f3e dbe8 0c3e
00000120: 8c00 843e 347f ffbb 7a69 a5bd 9827 ffbb
00000130: d73f 053d 1a2d 123e 4eb6 96bd 1c0f f2bc
00000140: d4e2 05bd 439c 9dbd b09c 1a3e 4ad4 9e3d
00000150: 3099 5fbe c399 e8bd a592 eebd 1548 6fbb
00000160: 25cc d23e c92d 5d3d ae9a c63c 9a48 0f3e
00000170: 7989 193e 8e1e b23d aea5 d4bd b790 3f3c
00000180: c025 34bd 84f9 9dbd e8af b33d 1a9a 79bd
00000190: 9935 ce3c 6104 203e 19ba 0b3d 521c 02be
000001a0: f5c2 90bd 1e89 743e 4dc8 56be 752c 4f3e
000001b0: a39c 9dbe 199e 983e fcb3 93bd 56b8 47bd
000001c0: 6e0b c43e ad1f 93be 5146 f13d 6990 a7bd
000001d0: 2afa f03d 0625 613e fb92 aebd 13c6 2c3a
000001e0: c128 98bd 5038 a0bc 6e9c 57bd 423a ad3c
000001f0: 4535 dcbd 2e17 26bd 4c2b 533d 9901 c93d
00000200: 4a48 98be f0c5 48be 752c 5b3e d2ab 15bd
00000210: 310a 1fbe 27d9 6b3d 9fa6 b83c 969c d73d
00000220: eb19 5fbd fc2a e33d 34f9 31bc 44be 7e3e
00000230: b873 363e 1624 753e 1dea cc3e cbe4 82be
00000240: 7ce7 a63d 060b 5cbe be03 a3bd 6510 9b3d
00000250: d083 03bd 4e3b 423e 9caa 97be c88d b1bc
00000260: cd22 07be 4ed6 6d3d 5650 5c3d 0585 9ebe
00000270: f7a9 9e3d f532 abbd 296a 68be fdd4 203e
00000280: b74e fbbe ae81 643e 6729 773e 4855 243e
00000290: dd2c 16be 7bd8 6cbe b673 38bd e433 5ebe
000002a0: d21e adbd 3017 51bd 0f99 393e 1fab ddbb
000002b0: ca70 363d a38b 793e 33bf b13d 5e02 7dbe
000002c0: db79 bebe c38f 23bc 5624 023e 2568 cfbe
000002d0: ec48 063e 2220 9b3c 0ebd a8be d9df 673e
000002e0: b6cc afbe 7687 253e b289 cf3d 69a6 96be
000002f0: fb4a 3a3d 413c 3f3e 3a7f a3be e3b8 1b3e
00000300: 0009 a1bd 4348 10be cc20 053d 178a 1cbd
00000310: 9988 39be b3d7 a93d f01e 5e3e bb85 953e
00000320: 7bc1 d53d c445 eb3d f0a7 393e af47 873d
00000330: 8599 693e f17c 41be 8bd5 c93d 3270 62bc
00000340: a35d 0dbc a2a7 0b3e 3a15 cebd bb3f 293e
00000350: 961e 27be 3771 8a3c 7b49 e43c b8dd 0fbe
00000360: 38f7 323e cc6f 583e 604e 9fbc fcb4 84be
00000370: 63d1 993e c53f 6ebe 719f 75be 4bd3 19bd
00000380: 7eec b33c b6fe 12bc a64e fd3d 52e1 94b9
00000390: cd8d 893e a75f 9bbe 430b c9bc fe7b 6bbe
000003a0: 1e1c 2dbd ee22 a83c 5b7b ea3c 6684 19be
000003b0: 5d17 b13e a701 073d ef4d 6dbe 31ed b6bd
000003c0: e8d5 2cbc c768 1ebe 0068 43be efd7 9c3e
000003d0: ef4e 143e 004c 69bd 0ecf 30bd f4f7 963d
000003e0: 845e bd3c 190f d9bc 29f5 9b3d 0ec3 80be
000003f0: 904a 19bc eca1 483e 2a3d 9a3e 5a4c 1b3e
0.06748651 -0.15289523 0.08559133 -0.21399815 -0.14404953 0.070406325 0.07207002 0.032826595
-0.05324001 -0.13797727 -0.00935417 0.0891838 0.13231052 0.029165559 0.021349391 -0.117816545
-0.050779052 -0.08956543 -0.1453188 0.06560898 -0.021762615 0.24396342 -0.12210677 -0.06858583
-0.1392683 0.15747385 -0.040177524 -0.087355606 -0.063391946 0.1767696 -0.047810644 0.06749317
-0.09644996 0.20423526 -0.20541911 -0.07286632 -0.06167005 -0.069523446 0.04344052 -0.014585628
0.16955683 0.012584846 0.05449594 -0.039671768 0.08502816 -0.016056314 0.035433594 -0.013900902
-0.08031818 0.14490628 0.09322386 -0.06314126 0.046453174 -0.28994313 -0.0010644038 -0.0059668766
0.022412667 0.057837173 0.2312126 0.0951458 0.0026957088 0.001019623 0.22376041 0.29234505
-0.3185004 -0.13724472 -0.039767187 -0.093727425 -0.060849667 -0.030101294 0.14021349 0.13760702
0.25781667 -0.007797146 -0.08076759 -0.0077867024 0.032531586 0.14275017 -0.073589906 -0.02954822
-0.032687023 -0.0769582 0.15098834 0.07755335 -0.2183578 -0.11357453 -0.11649064 -0.003651147
0.41171375 0.053998742 0.024243679 0.13992539 0.14993848 0.08697234 -0.103831634 0.011692218
-0.043981314 -0.07713607 0.08773786 -0.06093798 0.025172042 0.1562667 0.034113023 -0.12706116
-0.07068435 0.23880431 -0.20974846 0.20231803 -0.30783567 0.2980812 -0.07212064 -0.04875978
0.3828997 -0.28735104 0.1178099 -0.08181841 0.11766465 0.2198678 -0.08524128 0.00065907947
-0.07429648 -0.019558102 -0.052639417 0.021145944 -0.10752348 -0.04054945 0.051554963 0.09814758
-0.29742652 -0.19606757 0.21403678 -0.036540814 -0.15531231 0.05758014 0.022540389 0.10527913
-0.054468077 0.11092183 -0.010862637 0.24877268 0.1781758 0.23939547 0.40022364 -0.2556518
0.08149621 -0.2148858 -0.07959698 0.075714864 -0.032108128 0.18967935 -0.29622352 -0.021674052
-0.13196869 0.058065705 0.05378755 -0.3096086 0.07747262 -0.08359329 -0.22696747 0.15706249
-0.49083492 0.22315094 0.24136887 0.16048157 -0.14665551 -0.23129456 -0.045032226 -0.21699482
-0.08453144 -0.051047504 0.18124793 -0.006764784 0.044541158 0.24369673 0.086790465 -0.24707934
-0.37202343 -0.009983006 0.12709174 -0.40509143 0.13113755 0.01893622 -0.32956737 0.22643985
-0.3433587 0.16164955 0.10133685 -0.29423836 0.045481663 0.18675329 -0.31933004 0.15207247
-0.07863045 -0.14090066 0.03250198 -0.03821763 -0.18118514 0.082930945 0.21691489 0.2920359
0.10437294 0.11487916 0.1813047 0.066054694 0.2281247 -0.18895318 0.09855183 -0.013820695
-0.008628282 0.13638166 -0.100626424 0.16528217 -0.16320261 0.016899688 0.02786707 -0.14049423
0.17477119 0.21136397 -0.019446552 -0.2591933 0.30042562 -0.23266514 -0.23986603 -0.03755502
0.021963354 -0.008971861 0.123685166 -0.00028396636 0.26865998 -0.30346414 -0.024541503 -0.22996518
-0.042263143 0.020524468 0.028623274 -0.14991912 0.34588137 0.03296056 -0.2317426 -0.089319594
-0.010549046 -0.15469657 -0.19082642 0.30633494 0.14483236 -0.056957245 -0.043166213 0.07371512
0.023116358 -0.026496457 0.0761512 -0.25148815 -0.009356156 0.19593018 0.3012479 0.15165845

model.dense1.bias f4 [32]
00000000: 5471 f53c 1503 a13d f620 1f3e 69e5 f63d
00000010: dedd a03d e65d 693e fa12 82bd fd0d 383e
00000020: d8c5 5c3e f4b2 e33d 5e02 763e c931 3b3e
00000030: 338d 5e3e 1242 ad3e f9ed 093e 70b8 c43d
00000040: e531 a03e 244b 083e 999d f83d 6809 b13e
00000050: eaa5 aa3c 4d03 673b 0f2a a93b c9f1 c0bd
00000060: 0f5e e4bb e2c8 013e dbc1 a6bb 4394 0b3d
00000070: 826b c4bd d541 06be c25f a03e b4fa d63d
0.029961266 0.07861916 0.15539917 0.12055475 0.07854818 0.22789726 -0.06351276 0.17974086
0.21559846 0.11118117 0.2402434 0.1828071 0.2173355 0.3383947 0.13469686 0.09605491
0.31288067 0.13309914 0.12139434 0.3457749 0.020831067 0.003524977 0.0051624845 -0.09421117
-0.0069692205 0.12674287 -0.0050890273 0.03407694 -0.09590818 -0.1311105 0.31323057 0.104970366

model.dense2.weight f4 [16, 32]
00000000: b365 7dbe b756 c33e 0167 a9be 2ddb 4ebe
00000010: de56 113e 1dd0 773d fd6d 9d3e 3193 0bbe
00000020: 6982 f0bd ef12 833e 1d7f 2bbe 311c bebe
00000030: 9f9c 8c3c fcb8 3b3e 8efe 0c3e 748e 22bd
00000040: 692e 05bd c569 973d afc4 383c 20c2 673e
00000050: 0f58 85be 1183 0dbd ba93 d83d 7683 ec3d
00000060: 2500 2bbe 798f 173e 2d79 b73d 856e 53bb
00000070: 7361 92bd b7ef 753e 5002 d03d c48b 513e
00000080: 0602 cd3d f1f8 e33d ae82 933e 5910 90bd
00000090: ca84 9a3e 707b ae3e 7d4d b9bd a6f4 53be
000000a0: 33cb 5abe 0d8b 7e3d 7470 a43e d9e0 0a3e
000000b0: 9146 30be f140 803d e694 3b3d dcd2 b33e
000000c0: 9a6a 0c3e aeaf 953e 7e94 ac3e c8e2 c53d
000000d0: cb28 a83e eb1b c3bc c60c 323e bb13 3bbe
000000e0: 23a7 3a3e b600 abbd d640 aebe fe32 84bd
000000f0: 1079 fdbd 6874 7fbd b82d c43d 1f18 9f3c
00000100: 8fbd 3bbe 1509 ae3c 07d4 103f 51e9 8fbe
00000110: 94e3 33be efc8 2f3f dffd 7b3e 61c0 d6bd
00000120: 8bed fb3d a06e 94be 30f3 d73e 26f7 14bf
00000130: 2c19 253d 0c08 22bf cebd 82be 48fc fdbd
00000140: 3c23 893e d596 4fbe e553 933e 4f4a d2be
00000150: 9d41 ab3d c103 3d3e 627e 9ebd f25f 2abe
00000160: 796a c4bd 5811 703e 0721 d4be db3f 9f3e
00000170: 6300 423e 1bf3 613e 735d 14bf ff9f 9c3e
00000180: b399 50be b4fb 003f e591 fb3d 6faa b23e
00000190: 9ad0 e0bd 3049 ebbd d301 45bd 8b0a 5d3e
000001a0: 0136 4c3e 01d7 ca3e f3b4 563e 37ca 5f3e
000001b0: a19a ca3e 1ee7 083d 9813 1ebd 1cff 35bd
000001c0: 637c 17bc fd4d 6abd 2990 553e d954 5c3e
000001d0: ef30 bebd 98ff 08be 98a9 c7bd 55ab 0f3e
000001e0: e998 69be df22 123f 8393 f63e 339a 373a
000001f0: 6964 d4bd 5c3d c63d df2a c83d e4d9 adbe
00000200: acae 25be 7fbd 113e f72b 8dbe 0999 1fbe
00000210: ca02 b0bd 0d13 1cbd 1d7c 843e 87bf 333c
00000220: 16f4 a13b c7f1 e8bd 1980 f8bc 2942 5ebd
00000230: fa56 1abd 3270 b0bd 9093 0bbe 623a 9b3d
00000240: 8605 88bd 424c 31be 91c7 953d a575 f43d
00000250: 5f34 9fba a2de fc3d b4c2 65bd 26d9 d2bd
00000260: b5c6 eabd d95c 26be e945 24bc 850d 263e
00000270: 2e07 c4bd b58a 7ebc 3c85 463e eaab a83e
00000280: 5418 0f3e 44aa 033e 36c3 b4bd 6d48 753d
00000290: 3334 793e 2ad1 8a3b 8c7c 8cbd 20fd 82bd
000002a0: 2279 fdbd 8a2a 42bd bc3f da3d 8022 823e
000002b0: 8560 4fbd 762b a73e e7fb 593e ac32 b73e
000002c0: 446a 133e 3805 13be aa8c f9bd 9374 b93e
000002d0: b112 bfb9 83dc f6bd 0181 093e 0798 60bb
000002e0: 7cfd be3d c2bb 1abe 1fc1 aa3d b144 28be
000002f0: b731 e83d e77a 61be c267 883e 804a bb3e
00000300: f13e 983e e846 a3be d78c 563e def6 133e
00000310: 1bb8 aabe 1ad2 763e 18de 92be 7614 df3e
00000320: 9bec b43d a3a0 d7be 857f 1c3e 44d8 413f
00000330: 1f16 59be 1515 b23d aae7 3c3c 7c64 db3e
00000340: 9fc6 893e 533f 70be 9ec7 71be ce36 403e
00000350: 1602 e23e cda9 a8be 776b 0dbd e0c9 80bc
00000360: b36e 7cbe 5a20 283e bc52 323e 2c9e b1be
00000370: e763 3cbe 8af1 04bf 9322 313d 4270 1b3f
00000380: d515 d83c f0e4 603e 68ca 46be 605f 1ebe
00000390: 0436 d93e f804 33bd f74f 8c3e 827e acbd
000003a0: 3b2c e2bc 6641 a23e 9e3f e1bd 7d84 b93d
000003b0: 88cf 4d3b df34 ee3e 9d01 b73e d992 e53d
000003c0: 1fac c53d beea d4bc 3223 6e3e d733 ad3e
000003d0: 0f9f 2f3e 9f5e 27be 5286 063e d504 433d
000003e0: 3757 653d 8d0b acbd 9cef 963e f958 a2bd
000003f0: 7b42 be3d 7446 15be 129b e43e a548 fa3e
-0.24745826 0.38152096 -0.33086398 -0.20200796 0.14193293 0.060501207 0.30747977 -0.13630368
-0.11743624 0.25600383 -0.16747709 -0.37130883 0.017164527 0.18332285 0.1376898 -0.039686635
-0.032514963 0.07393221 0.011277362 0.22632647 -0.26043746 -0.034548823 0.105750516 0.11548512
-0.16699274 0.14800824 0.08958659 -0.003226192 -0.07147493 0.24017225 0.10156691 0.20463473
0.100101516 0.11131466 0.28810638 -0.07034368 0.30179435 0.3407855 -0.09047983 -0.20698795
-0.21366577 0.062144328 0.32117045 0.13562335 -0.17214419 0.062623866 0.045796297 0.3512181
0.1371254 0.29235595 0.3370704 0.09662396 0.32843623 -0.023817023 0.17387685 -0.18269245
0.1822782 -0.08349745 -0.3403384 -0.064550385 -0.123766065 -0.062366873 0.09579033 0.019420682
-0.1833403 0.021244565 0.5657353 -0.28107694 -0.17567283 0.68665975 0.24608563 -0.10485912
0.12301167 -0.2899065 0.42177725 -0.5818962 0.04030721 -0.6329353 -0.25535434 -0.124016345
0.26784694 -0.20272382 0.28774944 -0.41072318 0.08362124 0.18458463 -0.07738949 -0.16638163
-0.095906205 0.23444116 -0.41431448 0.31103405 0.1894546 0.22065394 -0.5795509 0.30590817
-0.20371132 0.5038407 0.122836865 0.34895656 -0.109772876 -0.11488569 -0.048097443 0.21586053
0.19942476 0.3961716 0.20967464 0.21854483 0.39571097 0.033423536 -0.038592905 -0.044432744
-0.009245965 -0.05720328 0.20855774 0.21516742 -0.09286677 -0.13378751 -0.09749144 0.14030202
-0.22812237 0.5708446 0.48159418 0.00070038735 -0.10370714 0.09679672 0.09773802 -0.339553
-0.16179913 0.14232443 -0.27572605 -0.15585722 -0.08594282 -0.038104106 0.2587594 0.010970957
0.0049424274 -0.1137424 -0.03033452 -0.054262314 -0.037680604 -0.086151496 -0.1363051 0.07579495
-0.066416785 -0.17314246 0.07313455 0.119365014 -0.0012146345 0.12347151 -0.056093886 -0.10295324
-0.114636816 -0.16246356 -0.0100264335 0.16216095 -0.09571682 -0.015536 0.19386762 0.3294366
0.13974124 0.1285792 -0.08826296 0.059883524 0.24336319 0.00423636 -0.06859693 -0.06395936
-0.1237662 -0.04740385 0.106566876 0.25416946 -0.050629158 0.32650346 0.212875 0.35780847
0.14396006 -0.1435746 -0.12185033 0.36221752 -0.00036444285 -0.12053778 0.13428117 -0.0034270303
0.09325692 -0.15110686 0.08337616 -0.16432454 0.11337607 -0.2201954 0.2664166 0.36580276
0.2973552 -0.31890035 0.20952164 0.14449641 -0.33343586 0.24103585 -0.2868507 0.43570298
0.088341914 -0.42114744 0.1528302 0.7572062 -0.21199845 0.08695427 0.011529842 0.428501
0.26909348 -0.23461656 -0.23611304 0.18770906 0.44142216 -0.32942048 -0.034526315 -0.015721262
-0.24651603 0.16418591 0.17414373 -0.34690988 -0.18397485 -0.5193106 0.043245863 0.60718167
0.026377598 0.21962333 -0.1941315 -0.1546607 0.42424023 -0.04370591 0.27404758 -0.08422567
-0.027608981 0.3169052 -0.10998462 0.09058473 0.0031404216 0.46524712 0.35743418 0.112096496
0.0965197 -0.02599084 0.23255613 0.33828613 0.1715052 -0.16344689 0.13137177 0.04761203
0.055991378 -0.08400641 0.29479682 -0.079271264 0.09290024 -0.14577657 0.4464956 0.48883548

model.dense2.bias f4 [16]
00000000: f40a bb3d 7cb3 643c dc8e a63e 166e 183e
00000010: 9e40 203e f8e2 8f3e d043 663e efe4 753e
00000020: 1f97 413e 2f22 403e 44c3 b83d db19 1fbe
00000030: 3e46 3b3d 0bf2 8f3e 8e34 cf3e 39b2 6cbd
0.091329485 0.013958808 0.32530868 0.14885744 0.1564965 0.2810285 0.22486806 0.24013112
0.18905304 0.1876304 0.09021619 -0.15537207 0.045721285 0.28114352 0.40469784 -0.057787154

model.dense3.weight f4 [16, 16]
00000000: 7911 28bc 8c4d 6d3f 1561 e13d c019 8bbe
00000010: b7b1 36be e642 a73d cc4a 9dbe a3b8 623e
00000020: b8d4 afbe d525 92be 1e17 373f 2896 73be
00000030: cd02 453f 1d73 853f d037 22bf 59c5 873d
00000040: e829 c93d 5ce6 9c3e ad10 cd3b bedb 13be
00000050: b1b4 663e 9a90 13be 87ea 45be a8f3 353e
00000060: 3f9e 86be 3fbb 403d 885b 6abe d962 123d
00000070: 1052 4c3e 85c5 663e ae4c 12be 9ce7 683d
00000080: 9694 bd3e ffa0 ed3d 96da a8bc 01ce 1bbe
00000090: f063 9d3e 0885 d33d eecb 01bf 8dd8 f53e
000000a0: c7b8 c5be 42c0 dfbd 0ad6 abbe 13f9 463e
000000b0: e884 f13e a809 813d e361 243e 0ec2 03bd
000000c0: 39aa 1cbe 8fd3 223b 6c43 f23e c427 b03e
000000d0: 8f08 8ebe e773 6ebe cc4e 273e 84fd ccbe
000000e0: 51d7 063f 0eae 053e a8e0 3d3f 3dbe 6cbd
000000f0: b2a3 bfbe 679e 653e d46d b13e 0acb c93b
00000100: 95ee c3bd 7f99 003e 91a3 57be 709a 423e
00000110: 9494 11be 1457 c03e 0e82 7d3f 8288 ce3e
00000120: 374c 0a3f cc46 53be 0fbe 1abe 00cf 5ebd
00000130: 17fc 14bf fa73 ae3e 35f1 c1be 2a42 7d3e
00000140: df54 c03d 15e9 8bbc dc6c 553e 5acf cf3d
00000150: 900b 7a3e a09f 01bd c15c c83c a9d8 6cbe
00000160: a251 9e3d 73b3 203e 7918 1dbc 01ac 37bc
00000170: 8cbf cabc b53d 8ebe eba7 d5bd 88aa 6fbe
00000180: b28e 013f dd8a 803d 7a49 86bd 94fa b63d
00000190: 7122 aa3e 87cb cb3e 8397 0fbf 3510 243f
000001a0: 9636 38bf 3b63 8c3d 3e6c fd3d 48ca 39be
000001b0: 5ded c43e bf1d 0e3e 014e 5abe 5823 2d3e
000001c0: 96af a83e f688 8fbe 25d8 59bd 36ec 6d3f
000001d0: 1ba8 e6bd e0d1 60bd 7a32 d4be b0dd 1f3f
000001e0: 1902 e43d 2e2a 5dbe c1c6 963f 7e73 68be
000001f0: 51a4 c3bd 0ff9 12bf fa03 9fbd 4cfe 0d3d
00000200: 0b06 6cbe e826 f1bc d2c6 36be d021 25be
00000210: 9fe4 eabd b40e cd3d 2ab1 fcbd 9fd9 ce3d
00000220: e765 72bc b4b0 013e 893b dd3a f8ae c63d
00000230: d5a9 57be 1bee a83d ba70 40bc 3444 72be
00000240: 8d55 0ebe 7bd5 483d 1ec0 413f bf7d 8dbe
00000250: eab7 c93d af47 d3be 387d 8bbd ce39 9bbe
00000260: 5707 67be d900 543e 3f1e 493e ca79 94bd
00000270: 869a adbd 649b cf3e 791d 6c3f 93dd 173e
00000280: 8e51 5abe d96e ffbc 8528 f93e d6da 9a3c
00000290: a63f 1b3e 57e3 7dbd ccb7 bf3e f478 17be
000002a0: b47d ba3e efb9 13be b2e8 543e 605b 0c3e
000002b0: a2d8 733d 3cdd 9e3e ff9f 9fbe 9f33 f0bd
000002c0: 583a f83e 64e5 f73d 92f3 293f 5a9a 093f
000002d0: e918 513e 2324 c63d e097 6ebe 9da9 42bd
000002e0: a537 953e 47f2 76be 3add 95be d756 4fbe
000002f0: f533 bb3d 4d96 a3bc bad0 95be 68c0 de3c
00000300: 25d3 3bbe 2df0 dcbc 4465 ccbd 5cee bf3e
00000310: ea01 b4bd 569b 133e 9dbc ab3d 21d4 d1bd
00000320: dd1d 923e c927 b8bc b291 333f e241 5c3e
00000330: a1a4 39be 5dc4 0d3e 3247 f03d b4c3 133e
00000340: 2cf2 4c3e a12e a2bd c225 8a3f 489e 2bbd
00000350: 13f8 0fbd fcb6 95be 4e1f 803e e671 99bd
00000360: 1d74 513e 14e9 043e fdde f7be 5087 26be
00000370: ecaa 163e 2a74 003f b075 e2bd acd3 373d
00000380: 8f52 5d3e 7ae3 fb3d b4e3 853d 4644 89be
00000390: 938e 73bc d957 663e 5760 9d3c 8f65 ab3e
000003a0: 8898 76bd c0a2 e9bc 7624 a3be 8f62 853e
000003b0: c171 c0bd 1dda 703d e542 eebc 1bd1 5abe
000003c0: 6cb7 143e b6de 543e 9891 0abf 6f30 3cba
000003d0: 237d 65be 6623 2a3f 4cf4 333f bd90 303f
000003e0: db44 173e 71f5 7e3d eafe 0f3c e4fb a03c
000003f0: 1ae1 bebd c2e4 943d 1492 78be dbe5 033e
-0.010258072 0.9269645 0.11004845 -0.27168083 -0.1784123 0.08167057 -0.30721128 0.22140746
-0.3434198 -0.2854449 0.7151965 -0.23787749 0.769574 1.0425755 -0.63366413 0.06629438
0.09822446 0.306445 0.0062580914 -0.14439294 0.22529866 -0.1441063 -0.19327746 0.17768729
-0.26292607 0.04705357 -0.22886479 0.0357388 0.1995318 0.22536285 -0.14287063 0.056861505
0.37027425 0.11602973 -0.020612042 -0.15215303 0.3074031 0.10328108 -0.50701797 0.48016778
-0.38617536 -0.10925342 -0.33561736 0.19430952 0.47171712 0.0630067 0.16052966 -0.032167487
-0.1529931 0.0024845337 0.47317064 0.3440534 -0.27740905 -0.232864 0.16338652 -0.40037167
0.52672297 0.13054678 0.74170923 -0.057798613 -0.37429577 0.22423707 0.34654105 0.0061582373
-0.0956699 0.12558554 -0.2105849 0.19004226 -0.14216834 0.37566435 0.9902657 0.40338522
0.54022545 -0.20632476 -0.15111564 -0.05439663 -0.5819716 0.34072858 -0.3787934 0.24732271
0.09391188 -0.017078916 0.20842308 0.10146971 0.24418473 -0.03164637 0.024458291 -0.23129524
0.07730414 0.15693454 -0.009588354 -0.0112104425 -0.02474954 -0.27781454 -0.104324184 -0.23404896
0.5060836 0.06276486 -0.06556983 0.08934513 0.33229402 0.39803717 -0.56090564 0.6408723
-0.7195829 0.06854864 0.12374161 -0.1814357 0.38462344 0.13878535 -0.21318819 0.16908014
0.3294646 -0.2803418 -0.053184647 0.92938554 -0.11262532 -0.054887652 -0.4144476 0.62447643
0.111332126 -0.21598122 1.1779405 -0.22700307 -0.09552825 -0.57411283 -0.0776443 0.034666345
-0.2304918 -0.029437497 -0.17849281 -0.1612618 -0.11469387 0.1001257 -0.12338479 0.10100102
-0.014794803 0.12665063 0.0016878705 0.097013414 -0.2106088 0.0824854 -0.011745626 -0.2365883
-0.13899823 0.049031716 0.7568377 -0.27635 0.09849532 -0.41265628 -0.06810993 -0.3031754
-0.22561394 0.20703448 0.19640444 -0.07249792 -0.08476739 0.4054824 0.9223247 0.14830618
-0.21320173 -0.031180786 0.48663726 0.018903177 0.15160999 -0.061984386 0.37444913 -0.14792234
0.3642403 -0.14426397 0.20791891 0.13706732 0.05953277 0.31028163 -0.31176755 -0.11728596
0.48482013 0.121043 0.66387284 0.53751147 0.20419659 0.09674861 -0.23300123 -0.047525037
0.29144016 -0.24115859 -0.29270345 -0.2024797 0.091407694 -0.01996913 -0.29260808 0.027191356
-0.18342264 -0.026969993 -0.099802524 0.3748654 -0.087894276 0.14414725 0.083855845 -0.102455385
0.2853841 -0.022479909 0.7014419 0.21509507 -0.18129207 0.13844438 0.117323294 0.14430124
0.20014256 -0.0791905 1.0792773 -0.041898996 -0.03514869 -0.29241168 0.25023884 -0.074924275
0.2045445 0.12979537 -0.48412314 -0.16262555 0.14713639 0.5017725 -0.11057603 0.0448796
0.21613525 0.12299247 0.065375715 -0.268099 -0.014865535 0.22494449 0.019210977 0.3347592
-0.06020406 -0.028519988 -0.31863755 0.26051757 -0.09396697 0.05880176 -0.029084632 -0.2136883
0.14523095 0.20788082 -0.5412841 -0.0007178848 -0.22411017 0.66460264 0.7029464 0.68970853
0.1477236 0.06224579 0.008788804 0.01965136 -0.093202785 0.072701946 -0.24274474 0.12880652

model.dense3.bias f4 [16]
00000000: 2623 2bbe 6f53 7abd d260 1e3d f496 c33e
00000010: 01e1 9d3e 32be 7fbe 5e7c 0abe a405 163f
00000020: 0685 d6bd d78d 113f 5768 97be 17d4 6c3e
00000030: b56f 043e 42ae 9d3d 8284 4abe 041c f33e
-0.16712627 -0.061114725 0.038666554 0.38201106 0.30835727 -0.24974898 -0.13524005 0.58602357
-0.10474591 0.56857055 -0.29571792 0.23127781 0.12933238 0.07699253 -0.1977711 0.47482312

model.dense4.weight f4 [16, 16]
00000000: 9158 8bbf 28d4 c7bd 7f02 4dbe 41f6 47be
00000010: ef49 113f ac5f 02be eb61 733e bd12 633f
00000020: 94ef a7bd 7c1b e5be 26dd 4abe 757d a73e
00000030: 2092 f03d 0da1 41be 2132 993e 8e37 253f
00000040: 7dfd e6be a10f 163e 03db 74bd af6d 4d3f
00000050: 5a35 d7be 0c08 92bd 4d69 bdbe df9c 0d3e
00000060: 60a3 de3c d67d 743f f5e8 2dbe dade f9be
00000070: cf30 953e d501 6dbe 5578 8b3c 6732 fabe
00000080: ff86 483e ae33 5a3e 2682 b53e 0093 17be
00000090: d6d8 1ebe 8862 3b3e 5675 613e 1012 04bf
000000a0: 07ec 8fbd f47f d33d 53d7 433d 3901 db3e
000000b0: ad38 cbbd 40a8 0a3f cc21 1c3e a2f0 e9be
000000c0: 1c02 653f c6cb 49be b51b bb3c 87f5 4a3e
000000d0: 7c8c 1ebe 9452 3dbe ea5e 943e f83b d4bb
000000e0: 8a6d 933d c730 edbe b21f c83e 7d64 ed3e
000000f0: 60d9 653c b85f abbd bc6d 243e d8f3 b4be
00000100: 45d6 3cbe 3bc5 c1bd 215c 013c 29e3 6dbe
00000110: 02f1 e73d a04c 76bc f805 833d 1968 f93c
00000120: 6e08 013e d62e 473e 143e dfbd 14a3 82be
00000130: e29e 24bc 165a 25be b9c1 10bd 1034 86bd
00000140: e063 47be a83c 61bd fa88 06be b040 3fbe
00000150: c0f5 60bd e845 c8bd b835 8cbd 9098 eabd
00000160: 241a 84bd 2413 37be 2cc2 563e 5a61 733e
00000170: a01b 5cbc 1865 13be 8056 29be 7a26 69be
00000180: 913b 763f 9c24 d53d e890 913e 7fa7 89be
00000190: 1c28 13be 68dc bf3d 7290 303f 7bfe 3d3d
000001a0: ecef 103e 51fd d9be 5310 b6be d3fe 9ebe
000001b0: e957 f73d 5a45 f1be 4f6c 483e cd84 ec3e
000001c0: ff5b f9bd 9516 eebd 89d0 adbd 6b61 203d
000001d0: 6441 203e a226 9bbd 5ebb 03be a990 0b3d
000001e0: fef5 45bc 7734 ef3c 4cb4 f03d a81a fbbd
000001f0: 2918 1fbe cfc2 10be 44a2 303e d63a f2bd
00000200: a2e8 3d3f aeeb 903d 8e76 b3be 1076 f93e
00000210: 31dd be3d 4db0 243d 9bfd a5be 4084 aebd
00000220: 313d 04bd 181e 00be 2d7e 983e 9b75 543d
00000230: d9ab ac3e 1e44 4fbe da9b 52bd 466d bc3c
00000240: 07c0 103f c826 983d 2970 11be b50d 4cbe
00000250: 87fb 5d3f 74a0 763d 595f b83c 8dd3 04bf
00000260: ce93 0cbd abb5 dcbd 71ab 273e 92e5 98be
00000270: c4ac f3bc cf43 8abe 87d7 e9bd ff59 793f
00000280: cba4 c4bd ac3f 0dbe 79b3 2ebf a207 333f
00000290: b3fe 493f 74d0 583e b7e6 32bf 5aea c53d
000002a0: 1934 ddbd d0c4 96bd c3a6 033f 375e c1bd
000002b0: b3b4 f53e 500c 6d3e 56a1 bbbe 78ad 633e
000002c0: b154 11bf c20e bd3d 70e2 753e 8ba2 dcbe
000002d0: afd1 0b3f 5121 8cbd 4da4 d0bd 26a4 8bbe
000002e0: d027 e6bd d397 193d 348c adbe 9617 7e3e
000002f0: c7de 8a3c dee2 bf3d ef78 113e dbb6 063f
00000300: 9575 833c 0edd 343e 622b a13e 53d1 19bd
00000310: 652e c5be cd8c 7d3e 811c ed3e 44d9 0c3f
00000320: 02e9 a53c f283 793d 76b7 583d 607a 993e
00000330: c2b6 56be 3375 bb3e 5ade 60be c6c1 cbbc
00000340: f392 193e 3ef3 e8bd da0a ccbc 803b 013f
00000350: b323 a6be fb40 173e 3e9e c13d e0f9 573f
00000360: 745b 12be f383 043f 9478 3b3e 43ad 6ebd
00000370: 3451 073f b5cb 3a3e fb8a 93b9 788a 96be
00000380: a408 0abe ed56 9cbd 0b22 c83d e05c 7fbe
00000390: 7f3a 90bd 38c7 3ebe ccef 323d c1a6 ce3d
000003a0: 506d cbbc 5d8c be3c 40ce a13d 89cc 32be
000003b0: 0cf0 723c ecf6 ba3d ab93 423e 88a5 63bd
000003c0: df87 c03e b440 843e eeb7 143d 5848 9c3e
000003d0: 4bc9 503e 23d6 56be bf57 39be 484b 73bf
000003e0: 0f95 92bd a8a3 2c3f 0bf5 c33e 6b1c 053f
000003f0: e2ee c5be 476f 623f e335 753e 54ed 95bd
-1.0886403 -0.097572625 -0.20020483 -0.19527532 0.5675344 -0.12731808 0.23767821 0.8870047
-0.08199993 -0.4474753 -0.19810924 0.32712904 0.11746621 -0.18909092 0.29921058 0.64537895
-0.4511527 0.146544 -0.05977918 0.8024549 -0.42032892 -0.07130441 -0.369944 0.13829373
0.027177513 0.9550451 -0.16983397 -0.48802835 0.291388 -0.2314523 0.017025152 -0.4886658
0.19582747 0.21308777 0.35450858 -0.1480217 -0.15512404 0.18299305 0.22017416 -0.5159006
-0.070274405 0.103271395 0.04781277 0.4277437 -0.099229194 0.5416298 0.15247267 -0.456914
0.89456344 -0.1970664 0.02284036 0.19820224 -0.15483278 -0.18488532 0.28978664 -0.0064768754
0.07198627 -0.46326277 0.39086682 0.4636573 0.014028877 -0.08367866 0.16057485 -0.35342288
-0.18441112 -0.09461447 0.0078955 -0.23231186 0.113252655 -0.015032917 0.06397623 0.030445145
0.12600872 0.1945146 -0.10900512 -0.25515044 -0.010047646 -0.16147646 -0.035341 -0.06552899
-0.19471693 -0.054989487 -0.1313819 -0.1867702 -0.054921865 -0.097789586 -0.068461835 -0.1145488
-0.064502984 -0.17878395 0.20972508 0.23767605 -0.013434321 -0.14394033 -0.16536903 -0.22768584
0.9618464 0.10407373 0.28430867 -0.26885602 -0.1437077 0.09368211 0.68970406 0.04638527
0.14154023 -0.42576078 -0.3555933 -0.3105379 0.120773144 -0.47123224 0.19572566 0.4619507
-0.1217575 -0.11625401 -0.084870405 0.039155405 0.15649945 -0.07575728 -0.12864444 0.034073506
-0.012082575 0.029199822 0.11753139 -0.12260944 -0.1553656 -0.14136814 0.172494 -0.11827628
0.74183095 0.07076202 -0.35051388 0.48722887 0.09319533 0.040207196 -0.32420048 -0.085213184
-0.03228492 -0.1251148 0.29783764 0.05186997 0.3372486 -0.20240828 -0.051418163 0.023001324
0.5654301 0.07429272 -0.14202942 -0.19927104 0.86711925 0.060211614 0.022506403 -0.518853
-0.034320645 -0.10776838 0.16373993 -0.29862648 -0.029745467 -0.2700486 -0.11418062 0.9740295
-0.09601744 -0.1379382 -0.68242604 0.6993352 0.78904265 0.21173269 -0.6988329 0.0966384
-0.108009525 -0.07361758 0.51426333 -0.09441798 0.47989425 0.23149228 -0.36646527 0.22234142
-0.56769854 0.092313305 0.2401216 -0.4309276 0.54616827 -0.06842292 -0.10187588 -0.27273673
-0.112380624 0.037498306 -0.3389603 0.24813685 0.016951932 0.09369443 0.14206289 0.52622765
0.016047278 0.1766245 0.3147841 -0.037553143 -0.3851196 0.24760742 0.4631081 0.5501902
0.020252708 0.06091685 0.052909337 0.29976177 -0.20968154 0.36612853 -0.2195982 -0.024872672
0.14997463 -0.1137452 -0.024907518 0.50481415 -0.3244911 0.14770882 0.094540104 0.84365654
-0.14292699 0.5176384 0.18307716 -0.058270704 0.5285828 0.1824177 -0.00028141573 -0.29402518
-0.13479859 -0.07633767 0.09772118 -0.24937773 -0.07042407 -0.18630683 0.04368572 0.100903995
-0.024832398 0.02326029 0.07900667 -0.17460836 0.014827739 0.09129128 0.19001643 -0.055577785
0.3760366 0.25830615 0.03630822 0.30523944 0.20389287 -0.20980124 -0.18099879 -0.95036745
-0.07157337 0.6743722 0.3827289 0.5199649 -0.38658816 0.88451046 0.23946337 -0.07320657

model.dense4.bias f4 [16]
00000000: a52e b33e fb52 d23e 61df 99bc e245 a9be
00000010: 0237 8fbd 8666 7fbe f1cf 15be 2745 21bd
00000020: b915 d03d e969 d83e 8fe3 8dbe f8f9 6b3d
00000030: 6ab4 bcbc df0d 413e 35dd d1bb 90ca ab3e
0.34996524 0.41078934 -0.018783273 -0.3306113 -0.06992914 -0.24941453 -0.14630105 -0.03937259
0.10160393 0.42268303 -0.27712676 0.057611436 -0.023035247 0.18852948 -0.0064045438 0.3355298

model.output.weight f4 [10, 16]
00000000: 333b a93f 0a82 30be 2ba3 3dbe b197 e2bd
00000010: 8016 d43d 740c 3ebe 6a30 40bc c178 583d
00000020: 53f7 bebf 2a01 843e 07ca 0abf ebd0 ab3e
00000030: cadb 723e 309b b6bd 3c3e 123e 2c76 fcbe
00000040: 0c9c 8abe c89f ad3f b82e 353e bf9f 8bbf
00000050: b523 1ebc 0060 f43c cfe1 ed3e 59c7 56be
00000060: a19f 563e 446a 703e 0f16 ebbd 9301 6c3d
00000070: f9d5 38bd 2e23 4d3f 6889 92bd ae6f 0ebf
00000080: af03 7abd e8cf 01be 45e9 16be 3c7e 1d3f
00000090: d61d 61be 2811 923d 0b43 3b3f cb4c 6b3e
000000a0: 603c 1e3e 9e38 8dbd 3476 3abf cec6 e33e
000000b0: 0aaf 8e3e 0c20 8b3e 77e8 273e 3508 00bf
000000c0: 294b 02bf f04f 59be 81e7 a2be 9392 6f3e
000000d0: 4f1e a23c f02c 6dbe 610e d73e 0496 4f3e
000000e0: 70ac 3f3e 3cf6 673f 20f6 5fbe a49c efbc
000000f0: 68c6 d8be 43ef 4cbf 40c1 7d3e 2ce9 463e
00000100: 1cfa bebe ec51 903d 59a2 51be 02eb b43e
00000110: 15a1 09be 5c42 8a3d 5c0b eabe 4610 98bc
00000120: aa88 4a3f a570 9cbf bf6b b23e 034c d3bd
00000130: 2702 793e 64ea e63e 8670 cf3c 1a73 c03e
00000140: df08 c93e 2eb3 323e 3671 c1bc ea84 01bf
00000150: 02e7 6c3e a846 203e 739f 36bf 1d07 f73b
00000160: b366 c2be b565 2c3f cd9e 363f 931d ea3e
00000170: 6a80 63be 683c 2dbf 017b 693e 21b4 603e
00000180: e75a 963f 6c14 c0be dc45 97bd 24c0 31bf
00000190: 8a33 37bd 20f4 843d 99d1 16bf c0ce be3d
000001a0: d6e5 37be 9a0a 67bf 466f b63e db36 a93d
000001b0: 57fc a33d d0b1 e53e 080a 1d3e 86b3 18bf
000001c0: ac4d 3ebf 650f 5e3e 162f 4c3f a291 d93e
000001d0: 90b5 393e 248f a5bd 62af 433e 0006 cebc
000001e0: 477b f43d 8ad6 04be 09d9 5dbf e1bc 60be
000001f0: 501c 0c3f 2538 8dbe 9923 873d c785 6b3f
00000200: bbf9 e8bc bc46 6d3e 053c b9bd bee0 3c3e
00000210: 371f 1dbe 4eb4 6fbe 5440 7f3e 380a 30be
00000220: efe7 213f 2c38 d63e cbc2 1e3f 478e 37bf
00000230: f08a c9be 91b6 04be ebb8 a0bc 7742 48bf
00000240: 4d18 8abe a245 2bbf 9154 133e 5d33 993d
00000250: c520 0d3d bcb0 80bd 19dd 09bf c7bb 023e
00000260: a653 c93e 50c0 8a3e a35a e83e 80ef 533e
00000270: 6ba4 1d3d 6d0e 76bd 5090 993d e77c 6a3f
1.3221191 -0.17237106 -0.18519275 -0.11064089 0.10355854 -0.18559438 -0.011730293 0.052849535
-1.4919227 0.25782138 -0.5421452 0.3355783 0.23716655 -0.089163184 0.14281553 -0.49308908
-0.2707218 1.3564386 0.17693603 -1.0908126 -0.009652068 0.029830933 0.4646134 -0.20974483
0.20959331 0.23478037 -0.11478817 0.05761869 -0.045125935 0.80131805 -0.071551144 -0.5563916
-0.06103867 -0.12676966 -0.14737423 0.61520743 -0.21984038 0.071321785 0.73149174 0.22978513
0.15452719 -0.068955645 -0.72836614 0.44487613 0.2786792 0.27172887 0.16397272 -0.5001252
-0.50895935 -0.212219 -0.31817248 0.23395757 0.019789843 -0.23161674 0.42003158 0.2027207
0.18718123 0.906101 -0.21871233 -0.029249497 -0.42338872 -0.80052584 0.2478075 0.19424886
-0.37300193 0.07046875 -0.20472087 0.35335547 -0.13440354 0.06750938 -0.45711792 -0.018562447
0.7911478 -1.2221876 0.3484783 -0.103172325 0.24317227 0.451007 0.02532221 0.37587816
0.3926458 0.17451164 -0.023613553 -0.50593436 0.23134997 0.15651953 -0.7133705 0.0075386898
-0.37968978 0.6734269 0.7133606 0.45725688 -0.22216955 -0.676703 0.22800829 0.21943714
1.1746491 -0.3751558 -0.073863715 -0.6943381 -0.044726886 0.06491876 -0.5891357 0.09316778
-0.17958769 -0.9025055 0.3563177 0.08262416 0.080071144 0.44862223 0.15335858 -0.5964893
-0.7433727 0.2168556 0.7975935 0.42493922 0.18135667 -0.080839425 0.19109872 -0.025149345
0.11937576 -0.12972465 -0.86659294 -0.21947052 0.547307 -0.27581897 0.065985866 0.92001003
-0.028439393 0.23171514 -0.09044651 0.18445107 -0.15343939 -0.23408625 0.24926883 -0.17191398
0.6324453 0.4183973 0.6201598 -0.71701473 -0.39363813 -0.12960269 -0.019619426 -0.7822642
-0.26971665 -0.66903126 0.14387728 0.074805 0.03445508 -0.062837094 -0.53852993 0.12766944
0.3932163 0.27099848 0.4538165 0.20696831 0.03848688 -0.06007235 0.074982285 0.91596836

model.output.bias f4 [10]
00000000: 2e55 65be afd8 803f fee0 1abe 89e5 94be
00000010: 345c e5be 2701 6c3e 28ff e83c d38c 023e
00000020: 1c0f b6bd b0c3 dbbe
-0.22395775 1.0066127 -0.1512489 -0.2908137 -0.44796908 0.23047315 0.02844198 0.12749033
-0.08889601 -0.42922735
