Models/model_optRMSprop_ep70_neu64_lay3_acc0.9390.pth (torch, 217762 bytes, 10 tensors)

model.input.weight f4 [64, 784]
00000000: 18fd b93c 1586 f6bc ea8d 11bc a6fe 60bc
00000010: 4cdb b3bc e611 ee3c 5628 05bd 3c09 0fbc
00000020: e5ae e8bc c0d8 a53a 864d ca3c 00c8 a037
00000030: a0d7 5abc e015 59bc 9913 e43d 5e75 c03c
00000040: c0a3 f9ba 0017 883b e0b3 74bc acbc 04bd
00000050: 8794 98bc 996c 113d e03f 003b f8cc 06bc
00000060: 64bd 053c f3a9 c3bc 184f 30bc 3731 0e3d
00000070: 12fa 03bc 50b2 5d3c 441c 303c c84c eebb
00000080: 739c 87bc f128 e83c 8033 603e cb70 6d3e
00000090: f269 9c3d 92a2 82ba 88bb a5bd cd6e 0cbd
000000a0: 5b96 87bd be5b 00be 7f34 813e a380 253f
000000b0: a4d5 293f 362b 0e3f 6196 48be ce65 5cbe
000000c0: be91 6abe 907d 87bd 11c7 c93d c141 c83d
000000d0: e299 8f3c dc9f 9ebb 78da 9f3c c2cd e13c
000000e0: 8038 363c d7a6 053d 40db e8ba aac5 02bd
000000f0: 0863 50bc c74c 45bd 4d88 e73d 5f72 cb3d
00000100: 8e08 11bf bfb7 bebe 2ed9 68be 3cc8 a6be
00000110: 44f3 efbd fe1d a9be 2be3 15be 2976 1cbe
00000120: 0d12 0f3c dcd1 843d efb3 a43e 2a00 f5bc
00000130: b320 33be ca0f b1be b997 f2be 402b 1cbe
00000140: 3f20 16be 8dd2 80bb 781c 663c c09f 0d3c
00000150: 60a1 88bc a44d 493c 4e31 3bbc 323c 05be
00000160: 7297 443e 8a54 df3e 0512 603e 30d4 d0be
00000170: dd99 f1be e2f8 00bd 01e4 bb3c a141 11be
00000180: ed29 7bbc e511 b43c ce45 99bd 2e95 163e
00000190: 1797 143e 5cde c93e 8d48 023e 6fcd 593d
000001a0: e7da 8b3e 9d8a e6bd 5b3b 9fbd a8e7 b43b
000001b0: 2baf 503e 1978 73be b0e7 29bb f008 003b
000001c0: 6a4b cd3c 780c ad3c 200b 5b3c e877 4e3e
000001d0: 449a 15bd d949 ad3d fefa 063d dedb 86be
000001e0: d8d8 96be c89b d9bd d192 5ebd 448e 5a3e
000001f0: b58f 423e 14b5 26be d460 15bd c89f 173e
00000200: e49d 753e 3312 b53d cdcc a83e 102d f83c
00000210: 8435 17be f29f b3bd 776f 2bbd 4219 0b3e
00000220: 909a 3f3f 9a24 4c3f 6e7e 19bd b6b5 b93c
00000230: a0c1 1dbc 8a42 993c e434 7b3d b86f 243f
00000240: 7a1d 403d 7016 11bd a0c3 39be d47a 66bd
00000250: 7649 b6bc d43e d3bd d0cc a13c 87e2 ff3c
00000260: 21ea c0bd 7878 2cbb faed ea3c 84f4 96bd
00000270: fef4 983d 1396 a23d 8eeb fd3c 3d22 943d
00000280: af92 113e 3510 a1bd 0863 59be f0d9 8abe
00000290: 1992 9a3d 9876 493e 1288 3bbe 8a1d b33d
000002a0: 34f0 0b3c e030 47bb bdae 38bc 486a e03e
000002b0: 0695 093d f885 68bc 1745 a0bd c522 f23d
000002c0: 7b92 8e3e a408 093e e9d2 d63d f769 923d
000002d0: 9def 07bd f59f 523b af9a 8bbd 6248 24be
000002e0: 1baa 5b3d 195a 32bc ae5e 7e3d 7b5f 543e
000002f0: 9025 e43d 9507 4d3d d5ae 19bc d353 61be
00000300: aaa8 82be 750c 233e 1852 6a3d 9470 6cbe
00000310: 1e4f ffbb d722 fd3e cae3 1f3d ec7a a63e
00000320: 752a 813e 861e a43d 1a1c 123e 7592 af3e
00000330: 5370 a53e 76e3 423e e01a f63c 27de d33d
00000340: e0c8 4b3e bc62 a93d 3103 fbbc 5903 8cbd
00000350: e8c3 113d bbbd b8bc 3508 293d d501 cd3d
00000360: 1d5c 373d a84e 75bd 7c81 67bd ca48 403b
00000370: 52ff 053e e882 963e 4175 903e f5e0 8dbe
00000380: b40c d33a de6d e13e 61d6 8e3e 5f39 a73e
00000390: 9857 023e add9 403e e047 683e f3a1 3a3e
000003a0: 5a0c 733d 4c98 033e 47f8 f43d 7868 6c3e
000003b0: 3549 863e 1978 0c3e 4e50 8c3c bead 93bd
000003c0: fea4 8fbd a059 2d3e 9f51 763e abf7 343d
000003d0: f19f 0d3b b4ee 1e3b 829d 87bc bed7 283e
000003e0: 0740 b53e f18d 2d3e 6688 103e 65d4 953d
000003f0: 04ab f7bc 57a6 a43e be26 d03e 2cc4 6b3e
0.022703692 -0.030093232 -0.008883933 -0.013732588 -0.021955155 0.029061269 -0.03250917 -0.008730229
-0.028403709 0.0012653098 0.02469517 1.9166619e-05 -0.013357073 -0.013249844 0.111365505 0.023493465
-0.0019045994 0.0041531324 -0.014935464 -0.032406494 -0.01862551 0.035503957 0.0019569322 -0.008227579
0.00816283 -0.023884749 -0.010761045 0.034714904 -0.008055227 0.013531283 0.010748927 -0.0072723366
-0.016554093 0.028339835 0.21894646 0.23187558 0.07637395 -0.0009966663 -0.08092409 -0.034285355
-0.06620475 -0.12534997 0.25235364 0.6464941 0.66341615 0.55534685 -0.19588615 -0.2152321
-0.22907159 -0.06615746 0.09852422 0.097781666 0.017529432 -0.004840834 0.019513354 0.027563933
0.011121869 0.032629814 -0.0017765537 -0.03192679 -0.012718923 -0.048168924 0.11305294 0.09933924
-0.5665368 -0.37249562 -0.22739097 -0.32574642 -0.11716321 -0.33030695 -0.14637439 -0.1527945
0.008732331 0.0648534 0.32168528 -0.029907305 -0.17492943 -0.3458236 -0.4738138 -0.15250874
-0.14660738 -0.0039313496 0.014044873 0.008644044 -0.016678512 0.012286577 -0.011425329 -0.13011244
0.19198397 0.43619186 0.21881874 -0.40786886 -0.471877 -0.031487353 0.02293587 -0.14185192
-0.01532982 0.021981189 -0.07484017 0.14705345 0.14510761 0.3942746 0.12722988 0.053174432
0.27315447 -0.11256907 -0.07774993 0.0055207796 0.20379321 -0.23776282 -0.002592545 0.0019536577
0.025060374 0.02112411 0.013369352 0.20162928 -0.036524072 0.08461351 0.03295421 -0.2633962
-0.29462314 -0.10625416 -0.054339234 0.21343333 0.19000132 -0.16280013 -0.036469296 0.14807045
0.23986012 0.08841362 0.3296875 0.030294925 -0.14766508 -0.087707415 -0.041854348 0.13583854
0.7484522 0.7974335 -0.03747409 0.022669654 -0.009628683 0.018708486 0.061329737 0.6423297
0.04690311 -0.03542179 -0.18141031 -0.05626948 -0.022251826 -0.10314718 0.019750983 0.031235946
-0.094196565 -0.0026316922 0.02867793 -0.073708564 0.074686036 0.07938781 0.03099611 0.07233093
0.14216112 -0.07864419 -0.21229184 -0.27119398 0.07547397 0.19674146 -0.18313625 0.087458685
0.008541156 -0.0030394122 -0.01127213 0.43831086 0.033589385 -0.014192097 -0.07825678 0.11823038
0.2784613 0.13382202 0.10489447 0.071491174 -0.033187497 0.00321388 -0.06816613 -0.16043237
0.053629022 -0.010885739 0.062102012 0.20739548 0.11139977 0.05005606 -0.009380062 -0.22004633
-0.25519305 0.1592272 0.057207197 -0.2308982 -0.007791414 0.49440643 0.039035596 0.32515657
0.25227705 0.080136344 0.14268532 0.34291425 0.3231226 0.19032082 0.030042112 0.103451066
0.19900846 0.08270785 -0.03064117 -0.06836576 0.03558722 -0.022551408 0.041267592 0.10010115
0.04476558 -0.059889466 -0.05651997 0.002934026 0.13085678 0.2939675 0.28214458 -0.2771069
0.0016101808 0.44029135 0.27897933 0.32660958 0.12728727 0.18833037 0.22683668 0.18225841
0.05933795 0.12851065 0.11961418 0.23086727 0.26227728 0.13717689 0.017128136 -0.07210873
-0.07013892 0.1692872 0.24054573 0.044181507 0.0021610225 0.0024251165 -0.016554598 0.16488549
0.3540041 0.16948678 0.14114532 0.07315902 -0.030232914 0.32158157 0.40654558 0.23024052

model.input.bias f4 [64]
00000000: 1a7a 06bd 8f93 b8bc b7c7 94bd 3146 b33d
00000010: 83d4 39bd 4797 a3bd d37b b23d 1f7b e33d
00000020: 456e 3b3e 42e3 44bd 5fc5 923c 31e7 1e3e
00000030: e2cc 483d b470 10be 0c04 50bc 0249 233d
00000040: eebb f8bc f690 0d3e b468 36bd 3276 e33d
00000050: 8623 453d 76ec 613c da0b 19be 1e65 66bc
00000060: 476d 7c3d 7285 733b ef56 c6bc 710b 43bd
00000070: 9215 f23b 649b d1bd 32c3 02bd 446a febc
00000080: f352 27be 8488 c0bc 6173 843e 5100 403e
00000090: a8e4 c23d 6490 2e3e 28c9 b13c 1354 2ebe
000000a0: 8f8d fdbd dce7 abbd 3d63 fbbc 7303 863b
000000b0: 1054 e53d 45e4 29be 4cb6 9a3d e968 d33c
000000c0: bd53 c0bd 5fde 323e f315 253d f7d2 513d
000000d0: ca59 8fbc a18d da3d 9589 a2bd 6b9a 103d
000000e0: e406 0f3e 7a98 4c3c 959d 973e 674b 543d
000000f0: 7cf9 d93c 6ae2 0fbe e5d8 863c 2245 ce3d
-0.03283129 -0.022531299 -0.07264655 0.08753622 -0.045368683 -0.07987838 0.08715024 0.11107468
0.18303783 -0.048068292 0.01791638 0.1551788 0.049023516 -0.14105493 -0.012696277 0.039864548
-0.03036305 0.1382483 -0.044533446 0.11106528 0.04812958 0.013789287 -0.14945927 -0.014062194
0.061627652 0.0037158397 -0.024211375 -0.047618333 0.0073878253 -0.102347165 -0.031924434 -0.03105653
-0.16340236 -0.023502596 0.25869277 0.1875012 0.09516269 0.17047268 0.021702364 -0.1702426
-0.12380516 -0.08393833 -0.030686969 0.0040897666 0.11197674 -0.16590984 0.075543016 0.025806861
-0.09390972 0.1746764 0.040304136 0.051226582 -0.01749887 0.10671545 -0.07936398 0.035303514
0.13967472 0.012487525 0.29612413 0.05182972 0.026608221 -0.14051214 0.016460845 0.1007178

model.dense1.weight f4 [32, 64]
00000000: 6654 d1bb c76a 833e 3edf 1b3f 4374 153c
00000010: 2517 e2bd 67cd 1abe 9845 303d cd55 823e
00000020: f1d6 9e3e 228b 2d3e 4602 dfbe a750 f63d
00000030: d010 203e 3947 083e 5797 643c 9efa bc3e
00000040: 827c c7bd 2c3c d7be 8c31 263f a3e2 abbe
00000050: e8a3 7dbe 1a46 63be bc34 7dbe 75ff e0bd
00000060: c9ee 523e 770c 793d 538f 1fbd 12b9 a3bd
00000070: dfcc 0e3e 75e2 873d f931 5f3e 24b5 0cbe
00000080: f20e fb3e 0331 5d3d 627c c8be b694 863e
00000090: 0615 c6bd d995 0dbf cde2 26bf 2f27 1ebe
000000a0: 474d 043e 22e9 513e e344 dc3d 1ac7 78be
000000b0: afc5 11be d5c2 063d 8e2e c33c 1ea6 6abd
000000c0: fc9d 2cbe 00c6 203e 1029 b73d bdab 88be
000000d0: 29bf 3e3e d978 73be 7d98 6c3e 9362 373d
000000e0: da71 c5be 35ad f5be 4f87 77bd 7172 d83d
000000f0: b93c 3f3e ac0c 41bd 6464 0b3f 2786 42bd
00000100: 2daf 1abe 813b e1bd fe16 9d3e 905f 2a3e
00000110: 8212 d93d 72c5 893e bd0f ad3c ef4e 413e
00000120: 0dcc f03e 0278 963d 9868 81bf e771 a53e
00000130: 0771 fc3d e1c9 943d 0cf8 cfbd 71ed 93be
00000140: f14e 353d 3370 42be 42a4 a93e d499 5cbd
00000150: 2a4f 873e 5044 33be f391 08bf 60f5 e7bd
00000160: 5b5b 203e f177 b83a 8b2d de3d a82f 053d
00000170: e4c8 c7bc 81ca 49bc 1a03 82be 50a3 0fbd
00000180: c0a7 843e 39d7 c939 26e2 673e c648 653e
00000190: 87fa 02bf e251 9a3d a16c debe 1a9e 2cbe
000001a0: 34d0 ea3c 5dc3 90bd eda7 f03c 8bc6 31be
000001b0: 2162 1bbd 44c4 1cbe bd2a 97be 7767 113e
000001c0: eaae 1ebe 7f80 1c3e 6a96 3dbd db9d 49be
000001d0: 12ac 083d ef60 7c3e 9234 823e 57d0 4e3e
000001e0: 7578 69bc cf54 663e 1f01 15bd e72a bdba
000001f0: ce92 9e3e d55e 56be e0f8 693d 4e33 bc3e
00000200: 4d5e d0bd 40ba 03be aade 89bd 6b3d ff3c
00000210: 38e4 e03c 6834 c4bd 48ce 403d 9938 d7bd
00000220: 655d 4f3d 9ae0 b6bd 2dad 8e3d d1b4 d8bd
00000230: 63d7 9abd 638f 973d 4831 8e3c fa38 45bd
00000240: 71fe abbd 4c6a 623d 6183 b3bd b4d2 273c
00000250: e13c b4bd 2f7b 20bd 3051 203d bbae 7fbc
00000260: d948 833d 1755 1ebe 42b0 0c3d bebe 8b3c
00000270: 3d84 2f3d d584 8dbd acf2 d33d 04ee e7bd
00000280: f6ef 21bd 8b09 02be c5c9 a73c 8c49 763d
00000290: 275d e7bd aad0 e83d bde3 acbc 1c68 153d
000002a0: e3c6 c8bd 1bd2 20be 67a6 b1bd 0f8b 6bbd
000002b0: 5668 d6bd fc4f b23a 914f 17bd 1b72 c63d
000002c0: 96db 22bd 694f 0fbe 6bbf f7bd d2d7 59bd
000002d0: 3976 acbd 9da7 ae3d 269c dcbd 7538 a4bd
000002e0: dc64 683d 52c8 8fbc 2721 973d da24 31bc
000002f0: ca1d e3bd 42cc 843a d794 443d ca9a 9b3d
00000300: 7327 853d ce6e 133d 9fb8 e5be 27b7 9bbd
00000310: 1ca1 cd3d ff95 ad3e 9b5b 2e3e 0a73 25bd
00000320: 05d0 08bf c097 883c a129 c5bd 4ad0 003e
00000330: 2d45 053d 111b f03d cd97 bcbd 230b 99be
00000340: ad54 f53d 8d9b f13e 262d 82bd c44f c3be
00000350: 5f00 80be 2084 363e 4b39 0f3e f1c5 d73d
00000360: 4e32 29bb 0c27 553e e91b 47bc 93a3 a3bd
00000370: 49ba 72be aa5a 45bc 5524 8ebd 09c4 aabc
00000380: c34b 8ebe 5c91 2b3e 39eb a23d 8b3f 023e
00000390: 3d2c 3dbe 9e08 debd b9e0 6ebe a23d 96be
000003a0: 086e 563d 9e96 b73e 6bf3 ee3c dd73 82be
000003b0: b93e 243f 07ae 0b3e 4216 433e 7cf6 b9bc
000003c0: bb2b 00bf 7ee5 91be 6f01 a83e 22fd 1a3f
000003d0: d713 903e ce6f a7be 5130 a73c 8d6f 3e3e
000003e0: 5410 14bd 66dc b73e 261f 523e e23a 753e
000003f0: 3fc0 9abd 4157 373e 42bf bdbe e136 633e
-0.006388235 0.25667402 0.60887516 0.009121957 -0.11039571 -0.15117417 0.04303512 0.25456086
0.31023362 0.16947606 -0.43556422 0.12027102 0.15631413 0.1330842 0.013952098 0.36909956
-0.09740545 -0.42038095 0.6491935 -0.33571348 -0.24769557 -0.2219471 -0.24727148 -0.109862246
0.20598902 0.060802903 -0.038955044 -0.07994284 0.1394534 0.0663499 0.21796407 -0.13740975
0.4903484 0.05400182 -0.39157397 0.26285332 -0.09671979 -0.55306774 -0.6518982 -0.15444635
0.12920104 0.2049909 0.107553266 -0.24294701 -0.14235567 0.03290065 0.02382591 -0.057287328
-0.16857141 0.15700531 0.08943379 -0.26693526 0.1862761 -0.23776568 0.23105045 0.044771742
-0.38563424 -0.4798371 -0.060431775 0.10568703 0.18675508 -0.047131225 0.5445006 -0.04749122
-0.15105887 -0.109976776 0.30681604 0.16638017 0.10599233 0.2690845 0.021125669 0.18877767
0.47030678 0.073471084 -1.0110044 0.32313463 0.12326246 0.07265068 -0.10154733 -0.2889209
0.044264738 -0.18988113 0.3313313 -0.05385764 0.26427585 -0.17506528 -0.533477 -0.113260984
0.1565985 0.0014073831 0.108485304 0.03251615 -0.024387784 -0.012316347 -0.2539299 -0.035067856
0.25909233 0.0003849806 0.22644863 0.22391042 -0.51163524 0.07535149 -0.43442252 -0.16857186
0.028663732 -0.070685126 0.029376948 -0.17360894 -0.03793538 -0.15309244 -0.29524794 0.14199625
-0.15496412 0.15283392 -0.046286024 -0.19689123 0.033367224 0.24646352 0.25430733 0.20196663
-0.014249911 0.2249329 -0.036378022 -0.0014432342 0.30971378 -0.20934613 0.05712211 0.36757892
-0.101742364 -0.12864017 -0.06731923 0.031157216 0.027452573 -0.09580308 0.047071725 -0.10508842
0.050626177 -0.08929558 0.069666244 -0.10581363 -0.07560613 0.07400396 0.017357484 -0.04815004
-0.0839814 0.055277154 -0.08765293 0.010243107 -0.08800674 -0.039179977 0.039139926 -0.015605624
0.06410379 -0.15462147 0.03434778 0.017058726 0.04285072 -0.06910101 0.1034902 -0.11324695
-0.039535485 -0.12698953 0.020481953 0.060128734 -0.11297064 0.113679245 -0.021104688 0.03647624
-0.0980356 -0.15705149 -0.08674317 -0.057505663 -0.10469119 0.001360416 -0.036941115 0.09689733
-0.039760195 -0.13995136 -0.12097057 -0.053184338 -0.08420987 0.085280634 -0.107719705 -0.08018581
0.056736812 -0.017551575 0.0737937 -0.010812009 -0.11089666 0.0010131674 0.047993507 0.07597883
0.06501665 0.035994343 -0.44867417 -0.07603293 0.10040495 0.339035 0.17027132 -0.040392913
-0.5344241 0.016673923 -0.09627081 0.12579456 0.032536674 0.117239125 -0.09208641 -0.2989131
0.11979041 0.47188988 -0.06356268 -0.38146794 -0.25000283 0.17823839 0.139867 0.10535801
-0.0025817337 0.20815676 -0.01215265 -0.07990184 -0.23703875 -0.012045542 -0.069405235 -0.02084543
-0.27792177 0.16754669 0.079550214 0.12719552 -0.18473907 -0.10841487 -0.23327912 -0.29343897
0.052351028 0.358571 0.029168805 -0.25479022 0.6415821 0.13640605 0.1905146 -0.02270054
-0.5006673 -0.284954 0.32813594 0.605425 0.28140137 -0.32702488 0.020408781 0.18597241
-0.036148384 0.35910338 0.20519695 0.23948243 -0.07556199 0.17904378 -0.3705998 0.22188903

model.dense1.bias f4 [32]
00000000: 8c4c 2d3e cf4f 693d 5e3a 5cbd 28b5 8a3d
00000010: dced 603d 6348 a03d f9bc 6abd 7db1 3bbc
00000020: 85a5 d13c 9eb9 82bd 31be 573e ae10 223b
00000030: 12e4 793e 893e a1bd eea9 db3d 52bd 1a3e
00000040: cd06 53bd a2ff 09be e255 813e 1677 bebd
00000050: 882c 9a3d 3ec6 873d 1bad 2ebd 7885 d43d
00000060: 064c 783e 2987 373e ac27 39bc cdc7 f4bd
00000070: 5375 42bc ef12 1a3e cae6 a13d 350d c73d
0.16923732 0.056960877 -0.0537666 0.06772834 0.05491434 0.07826307 -0.057309125 -0.011455891
0.025591621 -0.0638306 0.21068646 0.002472918 0.24403408 -0.07873256 0.10725771 0.15111282
-0.051520158 -0.13476422 0.25260836 -0.093000576 0.07528025 0.066296086 -0.042645555 0.1037702
0.2424775 0.17922653 -0.011300962 -0.119521715 -0.011868793 0.15046285 0.07905348 0.09719316

model.dense2.weight f4 [16, 32]
00000000: 1e0c 05be 1ab4 cb3d 59f3 e53d cdba 993e
00000010: 958d 483e c3cb 22be be99 9b3e fd22 a2be
00000020: 90bc 2b3d fead 3a3e 9e24 4f3c e17d a6be
00000030: f7c8 633e d7c5 473e 9c91 48be f387 913e
00000040: d4a8 d4bd 3c84 7d3e b006 90bc 1256 15be
00000050: 251b 4b3f 6414 8bbc 4105 c03e 99b9 a0be
00000060: 8fee 89be f813 993e 5d72 e4be c974 443f
00000070: 8b1a 64bd 22a4 373e 13c5 e5be 935a 673d
00000080: ec9e b9be 099c 2abe 2c40 273e 0917 873e
00000090: d04c cf3e 84d5 b53e 60bd b23e 830f 84bd
000000a0: a43f d33e a3ff de3d 9eba e53e 7be5 5cbd
000000b0: 2135 babd 5e39 163e 8eb8 8b3d 8e99 41be
000000c0: c051 493e 1aff 273e 1d6a bbbd 7024 ff3e
000000d0: d9dd ba3c 2837 3dbd 9969 b83e cb97 35bb
000000e0: 451c 16bd 2c6e e63d 9b14 963b 6348 143f
000000f0: aa31 523e 5f5c 413e 8bfa 55be c791 64be
00000100: 3bf2 ec3e ff79 a83d d3a8 003d e9f1 343e
00000110: 4679 f83d 11cb 9b3d 79b5 83bc d902 f53e
00000120: b03a 0dbe b3f8 af3d 5690 1dbf 42fd e3be
00000130: 8874 283c 3cc2 d2bd 918d c33e de7f 573e
00000140: c56a 4bbd e186 143e c0aa 4d3e 14c5 43be
00000150: b942 b8be 1cd9 083d 9adc 99bd df43 9ebe
00000160: 2f10 e03e e69c 383e 579f 33bd 932a 8b3e
00000170: ba94 ebbd 67dc 843d 470c c13e eda3 0e3f
00000180: 6cfc 9bbe becf be3d 59ee f73d e1da 9bbe
00000190: 6b03 1d3f 3809 f83d b68e da3e 8b48 53be
000001a0: 4eb7 953e 9d00 413e 9d29 c13e 230e d63d
000001b0: 0f3a c1be c745 b13e 2ffa 843e 0f23 04bf
000001c0: d1ae 82bb c855 363d 1046 0f3c e20c 143d
000001d0: 62c1 19bf dc40 12bb 940b 32be 3905 ab3b
000001e0: f86b 2f3e f48d 73be 3bed e13e 21c1 913e
000001f0: 0326 dc3a f8ea 8e3e 1d85 5c3f b4e9 a53e
00000200: fe09 3e3e cd66 693e 143c 373e 8b8a 5a3e
00000210: efc0 84be 3cda 803d 9c02 a1be d9b1 15bd
00000220: a21a 2b3e 7f16 debe affa c63e 77e8 b73e
00000230: 2088 c73e 8d23 cebe ae9f c8bd 4872 42be
00000240: 38d7 98bd 5ab7 113e a6e1 843e 1483 af3e
00000250: 342c e0be 5d19 953e 3846 933e b962 613f
00000260: 66b7 b23e 45fd fd3e 836b 8b3e fedc 89be
00000270: f1aa c43e 84d6 d43d 8f64 83be 7020 e2bc
00000280: e718 32be 8f1f 76bd 0c40 00bd 9ab1 26bd
00000290: b0b9 a9bd 0c47 703d cc9c a43d 3f19 93bd
000002a0: 7d71 3fbe bdac 6bbd c008 1f3e 02f0 f8bd
000002b0: 5770 d6bd 556f 36bd 072b 053e 350a 26be
000002c0: 0621 063e 809a 573d a72a 1bbe fc42 39be
000002d0: 35ab f43c 86ae 69bd 3383 15be dfd4 0b3c
000002e0: ffc5 00be 3549 0a3e 1af7 1abe 4ee2 1ebe
000002f0: d8c1 c83c a96b 2cbe a0b5 0bbe e995 053e
00000300: da95 053d 8d22 96be 8a64 793d a60b 0d3e
00000310: 5f19 193e 538a 673e df6b 243e b703 3f3e
00000320: 6794 943e f7f8 083f cd1a 0fbf 982e c9be
00000330: 078f 6abd 7890 27be 2b5c 743e bc8a c23e
00000340: e2e8 c23e 5c32 88bc dfdc 0c3e 3672 663d
00000350: 29b9 373f bb1b 883e 2d92 583e db9e 72be
00000360: 9331 45bd de85 3b3d 236f d9be fabf a4be
00000370: f27d 72bd d6f2 32be 52c6 f9be 1e0f 69be
00000380: fe44 d4be ff13 debd 47a7 ea3d fc88 393e
00000390: 518f b8bd e35f 3cbb 1dfb 763d bc85 50be
000003a0: 84c8 4fbd 28f0 4fbe cb11 9f3e edcf 1ebe
000003b0: 3f2e 273e 330c cb3d 0d87 8fbe 2556 1c3e
000003c0: bc82 1abf 73aa 26be 1c13 083e 9440 c73d
000003d0: 68c6 bcbe a4d4 023e bdf9 013d 0667 b13e
000003e0: 0172 1dbe 0f18 61bc 807d 213e f3c7 c63e
000003f0: 4e2a a63e 5f05 243d 9308 6cbe f8f2 613d
-0.12992904 0.09946461 0.112280555 0.3002533 0.1958526 -0.15898041 0.30390733 -0.3166732
0.041927874 0.18230435 0.012643008 -0.32517913 0.22244631 0.19509064 -0.19586796 0.28424034
-0.10383764 0.24757475 -0.017581314 -0.14583614 0.79338294 -0.016977496 0.37504008 -0.313916
-0.26939818 0.29898047 -0.44618502 0.767407 -0.055689376 0.17933705 -0.44876918 0.056482863
-0.3625406 -0.16661085 0.16333073 0.26384762 0.4048829 0.35514462 0.34910107 -0.06448271
0.4125949 0.108886026 0.4486894 -0.053929787 -0.09092165 0.14670321 0.068223104 -0.18906233
0.19660091 0.16405907 -0.09151099 0.49832487 0.022810863 -0.04619518 0.36018065 -0.0027708884
-0.036648054 0.11251482 0.004580093 0.57922953 0.20526758 0.18882893 -0.20896356 -0.22321235
0.46278557 0.08226394 0.031411003 0.17670406 0.12132506 0.07607091 -0.016077744 0.47853735
-0.13791919 0.085923575 -0.61548364 -0.44529158 0.010281689 -0.102909535 0.38193944 0.21044871
-0.04966237 0.14504577 0.20084667 -0.19118148 -0.35988405 0.033410177 -0.075127795 -0.30911157
0.43762347 0.18028602 -0.04385313 0.2718092 -0.11502977 0.06487351 0.3770468 0.5571888
-0.3046602 0.093169674 0.12106008 -0.3044043 0.6133334 0.12111133 0.42687005 -0.20633142
0.29241413 0.1884789 0.3772706 0.10451915 -0.37739608 0.34623548 0.25972125 -0.51615995
-0.003988125 0.0445154 0.008744732 0.0361451 -0.60060704 -0.0022316491 -0.17387229 0.0052191284
0.1713103 -0.2378462 0.44126305 0.28467658 0.0016795996 0.27913642 0.86140615 0.32404864
0.18558499 0.22793122 0.17894012 0.21341912 -0.25928447 0.06291625 -0.31447303 -0.036546562
0.16709378 -0.43376538 0.3886313 0.35919544 0.38971043 -0.40261498 -0.097960815 -0.18988907
-0.07462925 0.142301 0.25953406 0.34279692 -0.43783724 0.29120913 0.2876451 0.88041264
0.34905547 0.49607292 0.27230462 -0.26926416 0.38411668 0.10392478 -0.25662658 -0.027603358
-0.17392312 -0.06008869 -0.03131108 -0.040696718 -0.0828737 0.058661506 0.08037719 -0.0718255
-0.18695636 -0.057537783 0.15530682 -0.12155153 -0.10470646 -0.04453977 0.13004695 -0.16214831
0.13098535 0.052637577 -0.1515299 -0.18091959 0.029866794 -0.057051204 -0.1460083 0.008534639
-0.1257553 0.13504489 -0.15133324 -0.15516016 0.024506494 -0.16837944 -0.13643503 0.13045467
0.032613613 -0.29323235 0.060886897 0.13773975 0.14951085 0.2261136 0.16056775 0.18653761
0.29019472 0.5350489 -0.5590027 -0.3929336 -0.057265308 -0.16363704 0.23863284 0.3799647
0.380683 -0.016625576 0.1375613 0.056261264 0.71766907 0.26583657 0.21149512 -0.23693411
-0.04814298 0.045781963 -0.42467603 -0.32177716 -0.059202142 -0.17475447 -0.4878412 -0.22759673
-0.41458887 -0.10843658 0.11457687 0.18118662 -0.090117104 -0.0028743676 0.060298074 -0.20363516
-0.050728336 -0.20306456 0.31068262 -0.15509005 0.16326235 0.09914436 -0.28032723 0.15267237
-0.60355735 -0.16275959 0.1328854 0.09729114 -0.36870122 0.12776428 0.03173231 0.34648913
-0.1537552 -0.013738646 0.1577053 0.38824424 0.3245415 0.040044185 -0.23050146 0.055163354

model.dense2.bias f4 [16]
00000000: cabe 1d3e 050f cdbd 800f 853d 4489 8f3d
00000010: 7963 b73e bffa efbd b875 bc3d 818a b6bc
00000020: 9c18 e43d 485d d93d 27d6 2d3e 267f c03d
00000030: f870 093e 412c a33e 9d0a b53d 695a a53c
0.15404812 -0.100126304 0.06497097 0.07008603 0.3581808 -0.11717748 0.092021406 -0.02228284
0.11137506 0.10613495 0.16976224 0.09399252 0.13422 0.318697 0.08839915 0.020184712

model.dense3.weight f4 [16, 16]
00000000: 27b0 38be 78f3 11be f049 66bd 2796 bebd
00000010: 4408 42be b0c6 153e ed66 71bc 9ca0 3bbe
00000020: 746b 25be 17dd 603d 8994 f73c 28a3 32bd
00000030: c8fc 7fbe 9d93 933d fe12 063d e1d6 52be
00000040: b705 d53e 5d8a ab3e 8755 003e 83cd da3d
00000050: b22d 9fbe 10ee 913d 16d1 6a3f c3ef eabe
00000060: 26ea 35be b850 ae3d 80a8 a43e 1a2f 2abf
00000070: d281 0ebe c44f e5bb 8931 153c db54 063f
00000080: daf6 d93e 36b8 7e3e 26f4 633e 1294 2bbe
00000090: a10b 113e 2816 32be 0ee8 7a3d 7ba5 c93e
000000a0: 4925 c93b a245 673d dce3 be3e e253 423f
000000b0: 7190 eabe 6689 a9be dd34 d03d e6bb bcbe
000000c0: c743 873e ffb9 f43e be79 85be a1c8 493e
000000d0: 5372 54bd 41ac aa3d d5b7 c73e 0b77 28be
000000e0: eeb7 50be 2c4e 27be 6c79 a9be 9dcc a1be
000000f0: 27d6 d6bd 0545 843e da53 703e bafe d03e
00000100: 467b 03bf c921 c93c 44d1 ce3e da7a d93e
00000110: 031b fbbc 0025 373b 952c 87be bc81 cf3e
00000120: c87b 4dbe 8ea6 483e e6ee 763e 5f2a dfbe
00000130: a786 c73d f054 69bc 6ac5 0fbf ab02 c13e
00000140: 4786 233d c402 7f3e 363f babe ebd2 b63e
00000150: 74f0 ad3e 4d28 65be 4e25 2b3e a592 c53e
00000160: f511 8abd cc32 d9bd e976 033f 474b ae3f
00000170: 31f6 3a3c 4c96 b9be d7ec b43b eed9 efbd
00000180: 2376 40bd 933f b33d 4225 d13e f46d b7be
00000190: 8d25 2f3e ed2b 00be 4db5 be3e 3b0b ad3c
000001a0: 002c f33e 290e 05bd f065 ae3e d3e9 2dbf
000001b0: 41a3 e73d 6a30 7fbe bdec b73d 209a 8abe
000001c0: 76e7 88bd c0a1 59be 36a2 263e 5b4d 20be
000001d0: 7840 213f 0c93 e2bd 796e b3bd 355a c93d
000001e0: 8bcc 1abe 520b 41be 353d 0a3f 568e ea3e
000001f0: 6d0d 7a3e 19ee 793e 1f95 16be f49f b53c
00000200: 69e1 0c3d 76bd 773d 4571 783e 1b26 ec3e
00000210: c197 0abf 0fbf 44bd 95e6 7c3e 7816 82be
00000220: da69 80be 0000 f738 cc5a 553e 29c1 c03e
00000230: 80d9 a13d e34e 25bf 7c30 383e bb51 93be
00000240: 813b 94be 454b 45be 23bf d83e cb1b a63e
00000250: ed3e aa3e 3ca2 e53b 36f8 21be 3cbc 08be
00000260: 98b1 003f fadd 4cbe dc71 0e3e 3c6b d5be
00000270: b487 873e 4756 d13e ebdf 78be 4ef1 973d
00000280: f117 aabd 1c0e f93e da16 1b3e 986c 293f
00000290: 25df 1fbe 0514 0ebe 46b0 b1be 4e86 843e
000002a0: 262c a83e 4b10 2a3d 148d 04be 3d07 e3bd
000002b0: e127 e9bd 357c b4be 39b7 d13e db45 7abe
000002c0: e394 053e 3aaa 353e 1e91 93bd f798 a0be
000002d0: 43f0 83be 24c5 0b3e bfb6 dcbd f208 563e
000002e0: f6ae 76be dc62 c0bd 994a 513e ebc7 263d
000002f0: 527d 073e f88b 5c3e 7691 69be cd02 a4bd
00000300: 7f2f e7be b255 b93e 119f 72be db31 a33b
00000310: e879 bc3e 0628 30be 8591 693e 325b 973c
00000320: af83 9dbe 1c9a 26be 2d19 d03e 710d 22be
00000330: 9b6b bdbe ac1a e93e 09da c33e c570 953e
00000340: 0342 ea3c 2192 0f3c 17df ffbd a8a0 a9be
00000350: df5a 24bd 2c99 e8bd bdbf bdbd 9bb7 673b
00000360: 4941 743d a290 423e 65f7 2bbe 5d94 9c3e
00000370: 2ab1 4bbe cc68 a83d e20b 7b3c 86b6 983e
00000380: e1b2 103f 3bc9 a13e 4763 1dbe 72d0 84be
00000390: 509e b83e 98cf 353e e433 04bf d9e3 253f
000003a0: 7bbb ed3e d30f 623e 4a97 cabe 4e5e 803d
000003b0: ff56 77bd 5621 a03e 8bf8 643e 2acb ddbd
000003c0: 3506 aa3e 3a83 743c ad38 df3e 26da 313e
000003d0: 7eac 6cbd 5231 163e 3a46 6f3e 495f 66be
000003e0: 449a 943e ac0f 6cbe 8076 763e 620d 8c3f
000003f0: d157 3a3e 7943 cdbd 7b4b debe d086 30be
-0.18035947 -0.14253032 -0.056222856 -0.09305983 -0.18948466 0.14626575 -0.014734012 -0.18322986
-0.16154271 0.054898348 0.030222194 -0.04361263 -0.24998772 0.072058894 0.032732956 -0.20589782
0.41605923 0.33504 0.12532626 0.106837295 -0.3108955 0.07125485 0.9172529 -0.4588605
-0.17765102 0.0851149 0.32159805 -0.6647812 -0.1391671 -0.006998034 0.009106048 0.5247323
0.42571145 0.24874958 0.22261104 -0.16755703 0.14164592 -0.17391264 0.06125646 0.39384064
0.006138478 0.05646289 0.37283218 0.75909245 -0.45813325 -0.3311264 0.10166333 -0.36862105
0.26418898 0.47798154 -0.26069444 0.1970544 -0.05186684 0.08333636 0.3900744 -0.16451661
-0.20382664 -0.16338414 -0.3310045 -0.3160142 -0.10490065 0.25833908 0.23469487 0.4081934
-0.51359975 0.024552243 0.40394032 0.4247654 -0.030652529 0.0027945638 -0.264012 0.40528667
-0.2006675 0.19594786 0.2411457 -0.43587014 0.0974248 -0.014241442 -0.56160605 0.37697348
0.03992298 0.24903399 -0.3637635 0.35707793 0.33972514 -0.22378655 0.1671345 0.38588443
-0.06741706 -0.10605392 0.5135332 1.3616723 0.011411236 -0.3624748 0.0055213976 -0.11711489
-0.046987664 0.0875236 0.40848738 -0.35826075 0.17104168 -0.12516756 0.37247697 0.02112352
0.47494507 -0.032484207 0.34062147 -0.6793491 0.11310435 -0.24920812 0.08980701 -0.27070713
-0.06684773 -0.21253109 0.16272816 -0.15654509 0.62988997 -0.11063203 -0.08761305 0.09831659
-0.1511709 -0.18851975 0.53999645 0.4581172 0.24419184 0.24407233 -0.14705323 0.022170998
0.034394655 0.06048342 0.24261959 0.46122822 -0.5413781 -0.04803377 0.24697335 -0.25407767
-0.25080758 0.00011777878 0.20835418 0.3764737 0.07902813 -0.64573497 0.17987245 -0.28773293
-0.28951648 -0.19266994 0.42333326 0.3244308 0.33251134 0.0070078652 -0.15817341 -0.13353056
0.50270987 -0.20006552 0.13910621 -0.41683376 0.2647072 0.40886137 -0.24304168 0.07419072
-0.08305348 0.48643577 0.15145436 0.66181326 -0.15612467 -0.13874824 -0.34704798 0.25883716
0.32846183 0.041519444 -0.12944442 -0.11085365 -0.113845594 -0.35251012 0.409601 -0.2444071
0.13045077 0.17740718 -0.07205413 -0.31366703 -0.25769243 0.13649422 -0.107770436 0.2090185
-0.2409018 -0.09393856 0.20438613 0.040718 0.132314 0.21537769 -0.22809395 -0.08008347
-0.45153424 0.36198193 -0.23693492 0.0049803085 0.36811757 -0.17202768 0.22809418 0.018476103
-0.3076453 -0.16269726 0.40644208 -0.1582544 -0.3699616 0.45528162 0.38252285 0.291876
0.02859593 0.008762867 -0.12493723 -0.33130383 -0.040125724 -0.1135734 -0.09265087 0.003535724
0.059632573 0.19000486 -0.16793592 0.30581942 -0.19891801 0.082231134 0.015322657 0.29826754
0.5652295 0.3159884 -0.15369903 -0.2594028 0.36058283 0.17754972 -0.5164168 0.6480079
0.464321 0.22076349 -0.3956855 0.06267987 -0.0603857 0.31275433 0.22360437 -0.10829766
0.3320786 0.014923865 0.43597928 0.17368373 -0.05778169 0.14667252 0.23366633 -0.22497286
0.29023945 -0.23052853 0.24068642 1.0941584 0.18197562 -0.10022635 -0.43416962 -0.17238927

model.dense3.bias f4 [16]
00000000: 92a9 1e3e 3bc5 16bf fe3d 8dbd 8123 8a3e
00000010: 4934 7c3e ab68 943e 4e52 2fbe 2f04 f03d
00000020: 24fe b3bd 643c 643e 035c a9bd 7338 a1bd
00000030: 351f 7bbb 8d34 27be 6f33 473e 935f 313f
0.15494373 -0.588947 -0.0689659 0.26980212 0.2462932 0.28986105 -0.1712124 0.11719548
-0.08788708 0.22288662 -0.08269503 -0.07872095 -0.0038318161 -0.1632864 0.19453214 0.6928646

model.output.weight f4 [10, 16]
00000000: daf5 613e a2aa edbc a048 7abe 7891 493e
00000010: 71d7 c6be 941c 78bf f2f7 b23d 19d3 5ebf
00000020: 413a 10bf 469b a93e c59a ea3e 914d 183d
00000030: 737a 38bf 8a13 ebbe f8e7 d63a 6464 9b3e
00000040: 063a 123d 897c 373e 12e3 ac3d 5910 bb3d
00000050: cf93 24bf d8c5 cf3e 9404 f0be 0498 0dbd
00000060: 4b68 a33d 3aea 62bf 315e 48bf a77b c13d
00000070: 5b09 3f3d 7311 6d3c 7af4 adbe 5b90 913e
00000080: 7c8e 7bbe e0bb a73e cf9d c73d d743 073e
00000090: 083b 35be 41d5 4bbe 9b76 673e 9a6c 60bf
000000a0: 7483 d93e 3a34 abbe 7fb7 9c3e 0b2e 0d3d
000000b0: a905 16be 0913 57bf f527 aebe e332 0dbe
000000c0: 6eaf 38bc 8fa0 b03e ce3a e3be 4b69 143d
000000d0: e9fe 173f 201c 4fbe 3aeb ebbe dc20 943d
000000e0: bbda ddbd 4453 24bc 0a6e 6e3d cd5b 61bd
000000f0: 688a 083e cac8 afbe fcad 1fbf e364 23bd
00000100: 5ec4 a03c 7b6f 2dbf f5f5 aebd a1c2 2a3e
00000110: 1976 37bf 9862 8b3e 02c7 2ebf c0a0 7fbe
00000120: 1b75 40bf 2af9 61bc d194 143f b566 9dbe
00000130: 65ad 9f3e 5a6d 2d3c 1c6f 263e 6a30 2cbf
00000140: fb91 03bd 4548 eabe 48d8 92be d78a 37bf
00000150: 05ba bf3e b8f0 96be 019d 403b 235f a43e
00000160: 3556 373f dec8 d73e 49e9 66be 6e38 acbe
00000170: 6536 d0be e018 603e 6ec7 9cbe 6702 a33e
00000180: 7d4d 3bbd cd6c 90be fce8 043f c9f9 f0be
00000190: 0a3c edbe f9be 6b3e 0b7f 4b3e d91d f1bc
000001a0: 77ff 87be b637 c4be 78c6 773e a941 04be
000001b0: 3d26 42bf 61f8 dfbe ddbb 563e bd34 4d3e
000001c0: 511e 143e 8f80 a73e 7d18 ebbe 5f64 0a3f
000001d0: 6533 b7be 145d 7cbe d398 c5be fd68 2bbf
000001e0: 8e6a c6be fc7a 73bf 12e1 7cbe 3a49 cdbc
000001f0: a1ef ba3d e24e 333d aa2c 84be b0e2 5dbf
00000200: 1991 b0bd 13f0 733e 7892 263e eaaf 8abe
00000210: c8c0 42bf 7e8b 92be 7864 cc3e 0813 253e
00000220: 6a76 a7be 6891 89bd 1d53 eebd b235 5bbd
00000230: be77 8e3e bdf9 94be 5650 c4be c514 8f3d
00000240: 5d60 20be 406b 33bb 2004 dbbe f27c 2d3e
00000250: aacb 2e3e 6588 75bf 9039 dfbd a5d4 f03d
00000260: d46a a0bf f02d 083d 1fcf 1dbf 61a9 a0be
00000270: 6193 b93d 2a11 5a3d a21f e73e d377 adbe
0.22066441 -0.029012028 -0.24441767 0.19684398 -0.38836244 -0.96918607 0.08738698 -0.8704086
-0.5633889 0.33126277 0.45821205 0.037183348 -0.7206184 -0.45913345 0.0016396036 0.3035003
0.035699867 0.179186 0.08441748 0.091339774 -0.6428804 0.4058063 -0.46878493 -0.0345688
0.07978877 -0.8863865 -0.78268725 0.09447413 0.04663978 0.014469492 -0.33975583 0.28430447
-0.24566072 0.32760525 0.097468965 0.13209473 -0.176983 -0.19905569 0.22603838 -0.8766571
0.42483103 -0.33438283 0.30608746 0.034467738 -0.14650597 -0.8401342 -0.3401486 -0.13788943
-0.011272294 0.34497496 -0.44380802 0.036233228 0.5937334 -0.20225573 -0.460779 0.0723283
-0.10832735 -0.010029618 0.05821041 -0.05501919 0.13334048 -0.34332877 -0.62374854 -0.039891135
0.019624885 -0.6774823 -0.08543006 0.16675808 -0.7166458 0.2722366 -0.6827241 -0.24963665
-0.7517869 -0.0137923155 0.58039576 -0.30742422 0.31186977 0.0105851535 0.16253322 -0.67261374
-0.03212164 -0.45758262 -0.28680634 -0.7169623 0.3744661 -0.2948053 0.0029390457 0.32103834
0.71615916 0.42145437 -0.22549929 -0.33636802 -0.406665 0.21884489 -0.30620903 0.3183777
-0.045728195 -0.28208008 0.51918006 -0.4706557 -0.4633487 0.23022069 0.19872682 -0.029433178
-0.26562092 -0.38323754 0.24196804 -0.12915672 -0.75839597 -0.43744186 0.20970102 0.2003965
0.1446469 0.3271527 -0.4591712 0.54059404 -0.35781398 -0.24644881 -0.38593158 -0.66957074
-0.3875317 -0.95109534 -0.24695233 -0.025059331 0.09127737 0.0437764 -0.25815326 -0.8667402
-0.08621425 0.2382205 0.16266811 -0.27087337 -0.7607541 -0.2862205 0.39920402 0.16120541
-0.3270753 -0.06717187 -0.11636946 -0.053518005 0.2782573 -0.29096785 -0.3834254 0.06986383
-0.1566176 -0.0027377158 -0.42776585 0.16942194 0.17069879 -0.95911247 -0.10899651 0.11759309
-1.2532601 0.033246934 -0.61644167 -0.31379226 0.090613134 0.053239025 0.4514132 -0.3388048

model.output.bias f4 [10]
00000000: 323a 90be a512 aa3e 1330 31bf 3f27 b5be
00000010: 41ef ab3d c08f 473f 2bf4 7bbd 158b 653e
00000020: d9e4 a6be a8a9 49be
-0.281694 0.3321735 -0.6921398 -0.35381505 0.083952434 0.7795372 -0.061512154 0.22416337
-0.32596472 -0.19693625
