Models/model_optSGD_ep10_neu64_lay2_acc0.9486.pth (torch, 215988 bytes, 8 tensors)

model.input.weight f4 [64, 784]
0	0x3b1ed8e0	0.0024238154
1	0x3cd7db70	0.026349753
2	0x3d0ec4bb	0.034855586
3	0x3d09f409	0.033679996
4	0x3d106563	0.03525294
5	0xbc202f20	-0.0097768605
6	0xbc93f565	-0.01806135
7	0x3acab320	0.001546476
8	0x3cb81b78	0.022474036
9	0x3c9b230e	0.018937614
10	0x3cfc543a	0.030801881
11	0x3c356784	0.011072043
12	0xbcb91e1a	-0.022597361
13	0x3cef7b10	0.029233485
14	0x3ccd4d50	0.02506128
15	0xbcac52ba	-0.02103554
16	0x3cab6232	0.020920847
17	0x3cc316e2	0.023814622
18	0x3c884538	0.016634569
19	0xbc5857d2	-0.013204532
20	0xbd064ec2	-0.032789953
21	0xbc29872e	-0.010347171
22	0x3ce75ca2	0.028242413
23	0x3c8f3120	0.01747948
24	0x3c64bf7c	0.013961669
25	0x3c3dd734	0.011586953
26	0x3c3d8730	0.011567876
27	0x3c3982b0	0.011322662
28	0x3ce6feb6	0.028197628
29	0x3cef1122	0.029182974
30	0x3c8c0c00	0.017095566
31	0x3ced007e	0.028930899
32	0x3c5e5118	0.013569139
33	0xbc227d76	-0.0099176075
34	0xbcab4a15	-0.020909349
35	0x3c96de63	0.01841659
36	0x3c97698f	0.018482951
37	0x3cb0abee	0.021566357
38	0xbc195b02	-0.009360077
39	0x3c37ee71	0.011226282
40	0xbcd73e2e	-0.026274767
41	0x3d076a80	0.03306055
42	0xbc948c70	-0.018133372
43	0x3c17ca1c	0.009264495
44	0xbd0c2409	-0.034214053
45	0xbc0e5885	-0.008688097
46	0xbbf09707	-0.0073422226
47	0xbcdbaafc	-0.02681493
48	0xbc1a06fc	-0.009401079
49	0xbc68a207	-0.014198787
50	0x3c837f58	0.016051933
51	0xbb01db3a	-0.0019814507
52	0x3d01e5df	0.031713363
53	0xbc87a415	-0.016557733
54	0x3c80f34c	0.015741013
55	0x3ccc4ad8	0.024938032
56	0xbb338060	-0.002738975
57	0xbc359b12	-0.011084335
58	0xbc0a7880	-0.008451581
59	0x3c89874e	0.016788151
60	0x3cc271df	0.023735939
61	0xbc0ba451	-0.008523063
62	0x3cb85bab	0.022504648
63	0x399590ee	0.00028527476
64	0xbd2280b9	-0.03967354
65	0x3c1bd4e8	0.00951121
66	0xbcbf5695	-0.023356715
67	0xbb9d7e9c	-0.004806353
68	0xbbb96776	-0.0056580855
69	0xbd0f44a8	-0.034977585
70	0x3c32dc4c	0.010916781
71	0x3b8c066b	0.004273226
72	0xbd28fe6f	-0.04125827
73	0x3c8be097	0.017074866
74	0xbcc71aca	-0.024304766
75	0x3c3b5898	0.011434697
76	0xbcfec27f	-0.031098602
77	0xbd066f2c	-0.032820866
78	0x3d056344	0.03256537
79	0x3c779bf2	0.015112864
80	0x3bd41d60	0.0064732283
81	0xbbf0ef46	-0.0073527424
82	0xbc82ed40	-0.01598227
83	0xbc18b70e	-0.009320987
84	0x3ca482ce	0.020081904
85	0x3c7ecdd8	0.015552007
86	0xbcb2f263	-0.021844095
87	0xbcb2f8e9	-0.021847205
88	0xbd03f306	-0.032214187
89	0x3b266b12	0.0025393409
90	0xbc82fe5b	-0.015990427
91	0xbcc87cbf	-0.024473546
92	0x3c71e29a	0.014763499
93	0x3c4a5470	0.012349233
94	0xbccb3486	-0.024805319
95	0xbd139451	-0.036030117
96	0x3c82274c	0.015887879
97	0xbc193510	-0.00935103
98	0xbca00ced	-0.019537413
99	0x3bc36e14	0.00596405
100	0x39095323	0.00013096309
101	0x3cd80e20	0.026373923
102	0x3d4beec0	0.049788237
103	0x3bf22776	0.007389958
104	0x3d2d8d0b	0.042370837
105	0x3cd2e342	0.02574313
106	0x3cfc0fe1	0.03076929
107	0x3c77b43c	0.015118655
108	0x3cd3ff08	0.025878444
109	0x3bcb7ae8	0.00620972
110	0xbd0e34ce	-0.034718327
111	0x3c435adc	0.011923518
112	0xb98f3100	-0.00027311593
113	0x3c3e2b98	0.011607073
114	0xbcc8a1a3	-0.024491137
115	0xbcfcdb0d	-0.03086617
116	0xbc6376cd	-0.013883305
117	0x3d05a4aa	0.03262774
118	0xbc92448f	-0.017854957
119	0x3d027d20	0.03185761
120	0x3c8bf134	0.017082788
121	0x3c0fa766	0.008767938
122	0xb86ec97a	-5.693126e-05
123	0xbac1245c	-0.0014735567
124	0xbd15c3f7	-0.03656384
125	0xbd551afa	-0.05202768
126	0xbc91d7b9	-0.01780306
127	0x3d5227d4	0.051307514
128	0xbc33ab74	-0.010966171
129	0x3cfe1824	0.03101737
130	0x3d37651f	0.04477417
131	0x3ccb575d	0.024821931
132	0xbb3105b2	-0.0027011451
133	0x3cbb9663	0.022898858
134	0xbc77c42f	-0.015122457
135	0xbc5f4574	-0.013627399
136	0x3c3b9db5	0.0114511745
137	0x3ced01eb	0.028931579
138	0xbc99ab38	-0.018758401
139	0x3c8ac412	0.016939197
140	0xbbb093c8	-0.0053887106
141	0x3cd64948	0.02615799
142	0xbcf6959c	-0.030100636
143	0x3d192a0a	0.037393607
144	0x3d4c9108	0.049943
145	0x3a039199	0.0005018949
146	0x3d137c79	0.03600738
147	0x3ba1e815	0.0049409964
148	0x3a801e1a	0.0009774596
149	0xbb737455	-0.0037148197
150	0xbc905296	-0.017617505
151	0xbcbbe5c7	-0.022936715
152	0xbd45c36f	-0.048282083
153	0xbccb767b	-0.02483677
154	0xbd48b7d4	-0.049003437
155	0x3c20c083	0.009811523
156	0xbaf547b7	-0.0018713389
157	0xbc8c868a	-0.017153997
158	0x3c239886	0.009985095
159	0xbca01926	-0.019543242
160	0xbd677705	-0.05650999
161	0xbdae971e	-0.08524917
162	0xbbbc64e7	-0.005749333
163	0x3cd64827	0.026157452
164	0x3d01a617	0.031652536
165	0x3cbba105	0.022903929
166	0xbcc67e04	-0.02423001
167	0xb9d6eaae	-0.0004099211
168	0x3ce7e26e	0.028306212
169	0xbd0412eb	-0.032244604
170	0x3cf047c1	0.02933109
171	0x3d1615bd	0.036641825
172	0x3d491ee0	0.04910171
173	0x3ccc69ba	0.024952758
174	0x3d324963	0.04352702
175	0x3d02cef2	0.03193564
176	0x3d9cf5ce	0.07664071
177	0x3ce254c9	0.02762832
178	0x3c5cbe55	0.013473113
179	0xbc7ff05f	-0.015621274
180	0xbd0f19d4	-0.03493674
181	0xbc12feee	-0.008971913
182	0x3cb36d90	0.02190283
183	0x3cb97299	0.022637652
184	0x3af91c8d	0.0019005701
185	0x3c49bef3	0.012313592
186	0x3d4a3013	0.049362253
187	0xbc5fbab2	-0.0136553515
188	0xbd2ba29a	-0.041903116
189	0xbd0ef742	-0.034903772
190	0xbc712d16	-0.014720222
191	0x3c0c5ba3	0.00856677
192	0xbbb375bc	-0.0054766815
193	0x3c7d0abe	0.015444456
194	0x3bacc025	0.005271929
195	0x3bcb8b93	0.006211707
196	0xbcee49a7	-0.029087855
197	0xbcfcd939	-0.030865299
198	0x3ce9b90d	0.028530622
199	0x3d4f7a81	0.05065394
200	0x3cc55e9c	0.024092965
201	0x3d4a71c7	0.049424913
202	0x3d89cb87	0.06728273
203	0x3d6be84c	0.057594582
204	0x3cc62771	0.024188729
205	0x3d44e776	0.0480723
206	0xbd474e11	-0.048658434
207	0xbd3a8e15	-0.045545656
208	0xbd84a4d0	-0.06476748
209	0x3c196bbc	0.009364065
210	0xbce23cd6	-0.0276169
211	0xbcf11296	-0.029427808
212	0xbd244612	-0.040105887
213	0x3c9be191	0.019028457
214	0x3c905b89	0.017621772
215	0xbd845514	-0.0646154
216	0xbc03d1f5	-0.008045663
217	0xbdc3e3fe	-0.095649704
218	0xbd07ce48	-0.03315571
219	0xbd28a039	-0.041168425
220	0x3bd73772	0.006567889
221	0x3cd82cfd	0.02638864
222	0x3d111633	0.03542156
223	0x3c81f5a9	0.01586421
224	0xb8fe3e28	-0.00012123241
225	0x3b7cab9f	0.0038554443
226	0xbcf06d68	-0.029349044
227	0x3d0cbfed	0.034362722
228	0x3d7c421e	0.06158649
229	0x3d243087	0.04008534
230	0x3c01a038	0.007911734
231	0x3c417626	0.011807954
232	0xbcf4e3b0	-0.029893726
233	0xbce21516	-0.027597945
234	0xbd25424e	-0.040346436
235	0xbd001498	-0.03126964
236	0x3a0b9092	0.0005323972
237	0xbd593a18	-0.05303392
238	0xbd83fe8f	-0.064450376
239	0xbd648e20	-0.055799603
240	0xbd4dd7cd	-0.05025463
241	0xbc42a68e	-0.01188053
242	0xbcbc68fe	-0.022999283
243	0xbd4808c5	-0.04883649
244	0xbcd17dcc	-0.02557268
245	0xbd11917c	-0.035539135
246	0xbc81f222	-0.015862528
247	0xbd77fe24	-0.0605451
248	0xbd141dbb	-0.036161166
249	0xbc804b06	-0.015660774
250	0xbcb70c11	-0.02234462
251	0xbc170d9a	-0.009219551
252	0x3cb55b46	0.02213825
253	0x3c152aa3	0.009104404
254	0xbcb55862	-0.02213687
255	0x3ce07c58	0.027403042

model.input.bias f4 [64]
0	0x3ce2846b	0.027651032
1	0xbd558998	-0.052133173
2	0x3df06e40	0.117397785
3	0xbd41b9d0	-0.047296345
4	0x3e0c672c	0.13711232
5	0x3d8b1b96	0.06792371
6	0x3d053ca1	0.032528523
7	0xbd838f83	-0.06423857
8	0x3cd99944	0.02656234
9	0x3d8a6a0a	0.067585066
10	0xb9f7eb4a	-0.00047286815
11	0x3ba3dbbf	0.005000561
12	0x3c8841ab	0.016632875
13	0x3d00e837	0.031471457
14	0xbc0999e4	-0.008398507
15	0x3d371dfb	0.044706326
16	0xbbf5c797	-0.0075005996
17	0x3d230de8	0.039808184
18	0xbc225279	-0.009907358
19	0xbcc80dda	-0.024420667
20	0x3c98de0f	0.018660573
21	0x3d851c23	0.06499507
22	0xbcb559e9	-0.022137599
23	0x3cee37d3	0.029079353
24	0xbc9ab69c	-0.018885903
25	0x3c2a62d3	0.010399538
26	0x3b2b4d0c	0.0026138453
27	0xbca8fb76	-0.020627718
28	0x3d923c0c	0.07140359
29	0xbcd462f5	-0.025926093
30	0xbd046798	-0.032325357
31	0xbc0fe1c1	-0.008781851
32	0xb88937be	-6.543052e-05
33	0x3c5b3979	0.013380402
34	0xba98622f	-0.0011625941
35	0xbd16b2c1	-0.036791567
36	0xbb026877	-0.0019898692
37	0xbcd8ccc6	-0.026464831
38	0x3da11e3a	0.078670934
39	0xbd5d50a2	-0.054031976
40	0xbd5aec51	-0.053448025
41	0x3cd35105	0.025795469
42	0x3d7e20b7	0.062042918
43	0x3d83d860	0.06437755
44	0xbd8f90bd	-0.070100285
45	0x3cf9a876	0.030475836
46	0x3b842836	0.004033114
47	0x3c59e88a	0.013300071
48	0xbd320caa	-0.04346911
49	0xbe2035f7	-0.15645586
50	0x3d83e81a	0.06440754
51	0xbda9f789	-0.08299167
52	0x3bf82f6d	0.007574013
53	0x3d7d6690	0.06186539
54	0xbac3cc5a	-0.0014938221
55	0x3de5b450	0.112160325
56	0x3cc2c975	0.023777703
57	0x3c3aec6f	0.011408909
58	0xbd87f6d5	-0.06638876
59	0x3d65db33	0.056117248
60	0x3d29e4e4	0.041478053
61	0x3c8f8934	0.017521478
62	0x3d36bf18	0.044615835
63	0xbc2c24f7	-0.01050686

model.dense1.weight f4 [32, 64]
0	0x3c28b387	0.010296709
1	0x3cfe8528	0.031069353
2	0x3d8c0be2	0.06838204
3	0x3d81caee	0.06337534
4	0x3c8a31ce	0.016869452
5	0xbe2e0179	-0.1699275
6	0xbe61e1dc	-0.22058815
7	0xbe1616d5	-0.14657147
8	0x3de4d47a	0.11173339
9	0x3e1a4e63	0.15068965
10	0x3da9fdb7	0.083003454
11	0xbd12a2e5	-0.03579988
12	0x3e3f15f5	0.1866072
13	0x3e2e4321	0.17017795
14	0x3d87dfc9	0.066344805
15	0xbdd64cb4	-0.10463849
16	0xbe008c0e	-0.12553427
17	0x3c6acd37	0.014331154
18	0x3df06910	0.11738789
19	0xbe2fd31a	-0.17170373
20	0xbdb87fa9	-0.09008724
21	0x3e35cc47	0.17753707
22	0x3d85711a	0.06515713
23	0x3da10c09	0.07863624
24	0xbdcef477	-0.10105222
25	0xbc84b626	-0.016200136
26	0xbbf59180	-0.0074941516
27	0x3e1db08e	0.15399382
28	0xbdc7f923	-0.09764316
29	0xbd117ef0	-0.035521448
30	0xbe08bf3b	-0.13354199
31	0xbc891839	-0.016735183
32	0x3d4df8d1	0.050286118
33	0xbc5f69c3	-0.013636055
34	0x3aeb15b9	0.0017935551
35	0x3c246d2c	0.010035794
36	0x3e025dbd	0.12731071
37	0xbd0a3fb2	-0.03375215
38	0x3cbea017	0.023269696
39	0xbdbd1fe6	-0.092346
40	0x3df6d928	0.12053138
41	0x3e683f82	0.22680476
42	0xbdb2fa0a	-0.087390974
43	0x3d060c16	0.03272637
44	0x3d8ba2c7	0.06818157
45	0x3e2e90a2	0.1704736
46	0xbd7021bc	-0.05862592
47	0xbda24bf8	-0.07924646
48	0xbd5d6db2	-0.05405969
49	0xbc9b7184	-0.018975027
50	0xbe213427	-0.15742551
51	0x3d3aebd0	0.045635045
52	0xbd8a41d3	-0.06750836
53	0xbdbc745c	-0.09201881
54	0xbde005e7	-0.10938626
55	0xbd02dd2a	-0.0319492
56	0xbcd00ce9	-0.025396781
57	0x3d1c3f88	0.038146526
58	0x3d641d4f	0.055692013
59	0x3d28a043	0.041168462
60	0x3dedf863	0.11619642
61	0xbafece6c	-0.0019440181
62	0x3d39ae5a	0.04533229
63	0x3db7af35	0.08968965
64	0xbd8bb37e	-0.06821345
65	0xbe310705	-0.17287834
66	0xbe98a4a2	-0.29813105
67	0x3ee638c0	0.44965172
68	0xbd921df2	-0.07134618
69	0xbc966812	-0.018360171
70	0x3de681b1	0.112552054
71	0x3e3311df	0.17487286
72	0xbe29a325	-0.16566141
73	0xbe84ef60	-0.2596388
74	0x3d60a83a	0.054847933
75	0x3e29e797	0.16592251
76	0x3e9f96b2	0.3116966
77	0x3e866543	0.26249132
78	0x3d13686d	0.03598826
79	0x3da0e70b	0.07856568
80	0x3e12ecaf	0.143481
81	0xbd7161ea	-0.05893127
82	0x3dd5eeed	0.10445962
83	0x3d8ebbad	0.0696939
84	0x3c8bb312	0.01705316
85	0x3e579845	0.2105418
86	0xbe0e8954	-0.13919574
87	0x3e30919d	0.17243047
88	0x3d918eb0	0.071072936
89	0x3dff8b18	0.12477702
90	0x3c084c73	0.008319008
91	0xbd0825f8	-0.033239335
92	0xbd64b43f	-0.05583596
93	0x3d25a3b5	0.040439326
94	0xbe8516fd	-0.259941
95	0xbdcd9394	-0.10037914
96	0xbde51b81	-0.111868866
97	0x3ebaf487	0.36514685
98	0x3e8ff75e	0.28118414
99	0x3e706047	0.23474227
100	0x3e33afea	0.17547575
101	0x3e7d98ed	0.24765368
102	0x3ca78821	0.020450654
103	0xbe2a9c63	-0.1666122
104	0x3d3e3ca2	0.046444543
105	0x3e0b624b	0.13611715
106	0x3ecbb5fb	0.39787278
107	0xbe2dac11	-0.1696017
108	0x3d0a1fa8	0.033721596
109	0x3e6077f3	0.21920757
110	0xbd45e35c	-0.04831253
111	0x3dbc966c	0.09208378
112	0x3ba7933e	0.005113988
113	0x3daf2001	0.08551026
114	0xbe984de5	-0.2974693
115	0xbeaa3ce4	-0.3324958
116	0x3d0ab835	0.03386708
117	0x3e6a0cfd	0.22856517
118	0x3de56574	0.11200991
119	0xbe268989	-0.16263403
120	0x3e5cfa40	0.21579838
121	0x3c736235	0.014854957
122	0x3e1ba060	0.15197897
123	0x3d49528c	0.04915099
124	0x3d7372ef	0.05943578
125	0x3dbebe1c	0.09313604
126	0x3ebfb236	0.37440652
127	0x3ddcbea6	0.10778551
128	0xbd3a08ca	-0.04541854
129	0x3ec492f8	0.38393378
130	0xbec4139e	-0.38296217
131	0xbc8e381b	-0.017360738
132	0x3d85e00d	0.06536875
133	0x3e5ac026	0.21362361
134	0x3c8b813e	0.0170294
135	0x3df0c5f7	0.11756509
136	0xbc4cc073	-0.012497055
137	0xbd8a6191	-0.067568906
138	0x3e9cf7e5	0.3065788
139	0x3e515f29	0.20446457
140	0x3e21ecca	0.15812984
141	0x3ca572c4	0.020196326
142	0xbbbfdb6d	-0.005855015
143	0xbe21a2af	-0.15784715
144	0x3ebf4dd2	0.3736406
145	0x3e2a4f94	0.16631919
146	0x3dfdda83	0.123951934
147	0xbe5371e4	-0.20648915
148	0x3e766ccd	0.24064942
149	0x3e2dfff7	0.16992174
150	0xbe61ce53	-0.22051363
151	0xbccd2cf0	-0.025045842
152	0xbde62858	-0.11238164
153	0x3e8483b7	0.2588174
154	0xbd79ee29	-0.061018143
155	0x3dbee574	0.093211085
156	0xbdb2db11	-0.0873319
157	0x3c30f0a7	0.0107995635
158	0x3e2884b5	0.16456874
159	0x3e681e62	0.2266784
160	0xbe63a093	-0.22229223
161	0xbd1cd4a2	-0.03828872
162	0xbe012345	-0.1261111
163	0x3e265420	0.16243029
164	0xbd2653a5	-0.040607113
165	0xbe6d9ad6	-0.23203596
166	0xbe7db70e	-0.24776861
167	0xbe59b790	-0.2126143
168	0xbe31ddac	-0.17369717
169	0xbc8a8b33	-0.016912078
170	0x3e554d74	0.20830327
171	0xbde0ed5d	-0.109827735
172	0x3df90185	0.12158493
173	0xbd02f428	-0.031971127
174	0xbcfbb0f7	-0.030724032
175	0x3d265533	0.040608596
176	0x3ba8a3ee	0.005146495
177	0x3d9cf088	0.07663065
178	0xbdc4e2b1	-0.096135505
179	0xbe5d576a	-0.21615377
180	0x3e115ed5	0.14196332
181	0x3e50499b	0.20340578
182	0x3e015771	0.12631012
183	0xbba012e7	-0.004885066
184	0xbe2eb82c	-0.17062443
185	0xbdd8138a	-0.10550602
186	0x3ea33beb	0.3188165
187	0x3d8aae7e	0.06771563
188	0xbd7402c5	-0.059572954
189	0x3ec1a0e8	0.37818074
190	0xbc9ca6ea	-0.01912256
191	0xbdad6086	-0.08465676
192	0xbcb8c781	-0.022556068
193	0x3e977910	0.2958455
194	0x3e085401	0.13313295
195	0xbe69cada	-0.22831288
196	0x3e3d18f6	0.18466553
197	0xbd63fb88	-0.0556598
198	0x3e091adf	0.13389157
199	0xbe44d428	-0.19221556
200	0x3e48ea01	0.19620515
201	0x3eab42b1	0.3344932
202	0x3e78fefd	0.2431602
203	0xbde6dea3	-0.11272933
204	0xbe8348a3	-0.25641355
205	0x3dc9daac	0.098561615
206	0x3d1f49c5	0.03888871
207	0xbcb5e4be	-0.0222038
208	0x3d8d8ebb	0.06911989
209	0x3d55d7e1	0.05220783
210	0x3e3775ca	0.17916027
211	0xbe92aef7	-0.28649113
212	0xbc07719e	-0.008266835
213	0x3d232e1d	0.0398389
214	0xbd7be606	-0.061498664
215	0xbe405b74	-0.18784887
216	0xbdd0087e	-0.1015787
217	0xbe01b9af	-0.12668489
218	0x3e221a12	0.15830258
219	0xbe1bc345	-0.15211208
220	0x3e1f9664	0.15584713
221	0xbe2f3a4d	-0.17112084
222	0x3e431307	0.19050227
223	0xbc89ea24	-0.01683528
224	0x3c844753	0.016147291
225	0xbe566253	-0.20935945
226	0xbe50ee05	-0.20403297
227	0xbc81a612	-0.015826259
228	0x3dcb0d2d	0.099146225
229	0xbe5134a2	-0.20430234
230	0x3d9034aa	0.07041295
231	0xbdd4ff30	-0.10400236
232	0x3e115c70	0.14195418
233	0xbe0a98fb	-0.1353492
234	0xbc971bea	-0.018445928
235	0xbc4ddd5a	-0.012564981
236	0xbe230a70	-0.1592195
237	0x3b01810e	0.001976076
238	0x3e7db924	0.24777657
239	0xbe647172	-0.22308901
240	0xbe481487	-0.1953908
241	0x3d4be32f	0.049777206
242	0x3e396de0	0.1810832
243	0x3e5949fe	0.21219632
244	0x3e18fd02	0.14940265
245	0xbd2fd6ff	-0.042929646
246	0x3b41a2db	0.0029546532
247	0x3da87814	0.08226028
248	0xbe8827ea	-0.26592952
249	0xbd83d1a6	-0.06436472
250	0xbe013d70	-0.12621093
251	0x3e3967b8	0.18105972
252	0x3d4a2a01	0.049356464
253	0x3e4964f1	0.19667412
254	0xbdc8e4f1	-0.09809292
255	0x3def85e7	0.11695462

model.dense1.bias f4 [32]
0	0x3e4e112e	0.20123741
1	0x3da67123	0.08127048
2	0x3e02eb44	0.12785059
3	0x3e95001c	0.29101646
4	0x3e215178	0.15753734
5	0x3ca4d015	0.020118752
6	0xbca016bc	-0.01954209
7	0xbe1d3716	-0.15353045
8	0xbd8c6d60	-0.06856799
9	0x3e21114c	0.15729254
10	0xbd236255	-0.0398887
11	0x3e21cc3b	0.15800564
12	0x3e8d5833	0.27606353
13	0x3e42ec89	0.19035544
14	0x3e5aeb7c	0.21378893
15	0xbd6481f8	-0.05578801
16	0xbdc25ce1	-0.094903715
17	0x3e120504	0.14259726
18	0x3def7447	0.116921
19	0x3cd9628e	0.026536252
20	0x3e21d7a7	0.15804921
21	0x3e09b15c	0.13446563
22	0xbde565cf	-0.11201059
23	0x3e3afe56	0.18261084
24	0x3c71604c	0.014732432
25	0xbd439cf1	-0.047757093
26	0x3da8a976	0.08235447
27	0x3dfd3f8b	0.123656355
28	0x3e636f80	0.22210503
29	0x3e047ce1	0.12938263
30	0x3e57b290	0.2106421
31	0x3d972726	0.07380514

model.dense2.weight f4 [16, 32]
0	0x3deeef1e	0.11666702
1	0x3d052d20	0.032513738
2	0x3effa4fa	0.49930555
3	0x3f090fef	0.5353994
4	0xbe1f0625	-0.15529688
5	0xbeda050d	-0.42581978
6	0x3e38f8d0	0.18063664
7	0x3d04eaa2	0.032450326
8	0x3dd9edc6	0.10641055
9	0x3eeacb27	0.45858118
10	0xbd12bd9c	-0.035825357
11	0xbe9875cc	-0.29777372
12	0x3f118c91	0.5685511
13	0xbe9e0e17	-0.30870125
14	0x3ce413f2	0.027841542
15	0xbdb2863d	-0.0871701
16	0xbdbf30e0	-0.09335494
17	0xbeb5af72	-0.35485417
18	0xbe4538e8	-0.1925999
19	0xbede9d1f	-0.4347925
20	0xbe8fe383	-0.28103265
21	0x3e13f99a	0.14450684
22	0xbd97c1d2	-0.07410015
23	0xbedd6045	-0.4323751
24	0x3ecf2e9d	0.4046525
25	0x3e435d35	0.19078524
26	0xbf160301	-0.58598334
27	0xbdb98be2	-0.09059884
28	0x3eb806e1	0.35942748
29	0xbed28c3b	-0.41122612
30	0x3ecbbb08	0.3979113
31	0x3dd8a016	0.10577409
32	0x3dfdc2ba	0.12390657
33	0x3e364b8b	0.17802255
34	0x3e1010e6	0.14068946
35	0x3e217570	0.15767455
36	0x3d85a895	0.06526295
37	0x3df97dc9	0.12182195
38	0xbe146d0a	-0.1449472
39	0xbe0d5860	-0.13803244
40	0xbe194c7e	-0.14970586
41	0x3de01be4	0.1094282
42	0x3cf3f128	0.029778078
43	0xbdfc569e	-0.123212084
44	0x3f08cedd	0.5344065
45	0xbd193bc2	-0.037410505
46	0xbcef51aa	-0.029213745
47	0x3de5d243	0.11221745
48	0x3d77dd5a	0.06051383
49	0xbe958130	-0.29200125
50	0xbd3e37bc	-0.04643987
51	0xbdafeb65	-0.0858982
52	0x3e409435	0.18806536
53	0xbdeeb5b3	-0.1165575
54	0xbdf36dfd	-0.11886213
55	0xbe85c490	-0.26126528
56	0x3e61b1d3	0.22040491
57	0x3e930649	0.28715733
58	0xbd903518	-0.07041377
59	0x3dac1892	0.08403124
60	0x3ef59501	0.47965243
61	0x3eab9802	0.3351441
62	0x3efb69df	0.4910421
63	0x3e7fdaeb	0.24985854
64	0xbeba373b	-0.36370263
65	0xbeddfade	-0.4335546
66	0x3f1d96ce	0.61558235
67	0x3ef2c351	0.4741464
68	0x3de95386	0.11392884
69	0xbe8a01e1	-0.26954558
70	0x3eb6814d	0.35645524
71	0xbec3bf9a	-0.38232118
72	0x3e349fe0	0.17639112
73	0xbe167512	-0.14693096
74	0xbe5921d5	-0.21204312
75	0xbe63c8cc	-0.22244567
76	0x3f11286b	0.567023
77	0x3e44e535	0.1922806
78	0xbeae4b01	-0.34041598
79	0x3e2ae86e	0.16690227
80	0x3da9adb3	0.082850836
81	0x3e5551cf	0.20831989
82	0x3ec677bc	0.38763225
83	0xbe507ddb	-0.2036051
84	0x3e5f5ee0	0.21813536
85	0xbe170461	-0.14747764
86	0x3d376a9c	0.044779405
87	0xbe12d9f6	-0.14340958
88	0xbe9bdf34	-0.30443728
89	0x3ee9129b	0.45522007
90	0x3ee5ca05	0.4488069
91	0x3ebf05e1	0.37309173
92	0x3da7fb98	0.082022846
93	0x3e52a2b0	0.20569873
94	0xbef0866f	-0.46977565
95	0x3e1cc919	0.15311088
96	0xbda67607	-0.08127981
97	0x3cbe3aca	0.023221392
98	0x3dfa2f00	0.12215996
99	0xbc91ee68	-0.017813876
100	0xbe363a39	-0.17795648
101	0xbe2c6a09	-0.16837324
102	0xbdef7bb2	-0.11693515
103	0x3ce41824	0.027843542
104	0x3e2a9511	0.16658427
105	0xbd8f730b	-0.070043646
106	0x3e1e290e	0.15445349
107	0xbe08e3bf	-0.13368128
108	0x3b642f90	0.0034818389
109	0xbe30d7f1	-0.17269875
110	0x3e31797b	0.17331497
111	0x3d10110a	0.0351725
112	0x3dbe34ac	0.0928739
113	0x3d413fdc	0.04718004
114	0xbde7f5c6	-0.113261744
115	0xbe32f488	-0.17476094
116	0x3e01b8bc	0.12668127
117	0xbdc41b5e	-0.095755324
118	0x3e092f08	0.13396847
119	0x3d0b3712	0.033988066
120	0x3d52d402	0.051471718
121	0x3c8cb85c	0.017177753
122	0xbdc7d952	-0.097582474
123	0xbe064d38	-0.13115394
124	0x3deed967	0.1166256
125	0xbdde0ffe	-0.10842894
126	0xbe2ac00c	-0.16674823
127	0x3c1f9827	0.009740866
128	0xbd9a656d	-0.07538877
129	0x3de151f4	0.110019594
130	0x3dbe8742	0.09303142
131	0x3d3b5394	0.045734003
132	0x3ec21e59	0.37913778
133	0xbe805bcd	-0.25070038
134	0x3dcb5ec4	0.099301845
135	0xbd96bf45	-0.073607005
136	0x3ece1fee	0.40258735
137	0xbc63c50b	-0.013901959
138	0xbe220c74	-0.15825063
139	0x3e5ebf0f	0.2175257
140	0xbf44a954	-0.76820874
141	0x3f3cdce9	0.7377458
142	0x3e5d37e1	0.21603347
143	0xbc99e1ed	-0.018784488
144	0x3e0afa3b	0.13572018
145	0x3e7d01f3	0.24707775
146	0x3e3b6c4a	0.18303028
147	0x3d42a455	0.04752
148	0x3e8a156e	0.26969475
149	0xbeb5b77c	-0.3549155
150	0xbde3a262	-0.111149564
151	0x3ecaa92a	0.39582187
152	0x3e3a7d52	0.18211868
153	0xbeef1b53	-0.46700534
154	0xbe777750	-0.24166608
155	0xbe999cd4	-0.30002463
156	0xbb13324a	-0.0022460395
157	0x3f152093	0.5825283
158	0xbe855e7f	-0.26048657
159	0xbe95f2ec	-0.29286897
160	0x3db94efa	0.09048267
161	0x3d18ba2f	0.037286934
162	0x3d8103ac	0.062995285
163	0xbd3c7586	-0.046010517
164	0xbc82b256	-0.015954178
165	0x3d153abf	0.036432978
166	0xbe0eb230	-0.1393516
167	0x3e218689	0.15773977
168	0x3d214a68	0.0393776
169	0xbe43999b	-0.19101565
170	0xbe0b74c0	-0.13618755
171	0xbde72ac1	-0.112874515
172	0x3dcc9744	0.09989789
173	0x3e66186c	0.22470254
174	0x3ddd43af	0.10803925
175	0x3dadeb8f	0.08492195
176	0x3d079196	0.033097826
177	0xbe498d1d	-0.19682737
178	0xbcefac30	-0.02925691
179	0xbe210aa4	-0.15726715
180	0xbdbcb018	-0.09213275
181	0x3dc8589b	0.09782525
182	0x3da998d8	0.08281106
183	0xbd416be6	-0.04722204
184	0x3e9a51a8	0.30140424
185	0x3d03f5ec	0.03221695
186	0xbe6ce1d2	-0.23133019
187	0xbd7536a9	-0.05986658
188	0x3e82ad16	0.2552268
189	0x3ae866dc	0.001773085
190	0x3ea0ca89	0.31404522
191	0x3c8a79c9	0.016903775
192	0x3da902f1	0.08252514
193	0xbf06f45b	-0.52716607
194	0xbf199b4c	-0.6000259
195	0x3eb377c8	0.35052323
196	0x3e0b1279	0.13581266
197	0x3f0347ad	0.51281244
198	0xbe7e7e70	-0.2485292
199	0xbeca9e5b	-0.3957394
200	0xbd932888	-0.07185465
201	0xb7e4c651	-2.7272066e-05
202	0x3e217a85	0.15769394
203	0x3f07123b	0.5276219
204	0xbe1bffd2	-0.15234306
205	0x3f80e701	1.0070497
206	0xbefa556f	-0.48893306
207	0x3c19e0d3	0.009391981
208	0x3def27d7	0.11677521
209	0xbee94d3f	-0.45566747
210	0x3ec528c2	0.38507658
211	0xbe6ae278	-0.22937953
212	0x3e4e932d	0.2017333
213	0x3e8e5514	0.27799284
214	0xbda629b9	-0.08113427
215	0x3ebb9ca3	0.36642942
216	0xbeaadcc7	-0.33371565
217	0xbc3467f4	-0.0110111125
218	0x3ef84cfc	0.48496234
219	0xbe983909	-0.29731014
220	0x3d4993fe	0.049213402
221	0x3ebd2cdc	0.36948287
222	0x3f1b6fe6	0.6071762
223	0x3e9b9e9d	0.3039445
224	0x3e202226	0.15638027
225	0xbe856859	-0.26056173
226	0x3e905e67	0.28197023
227	0x3e83c33d	0.25734892
228	0xbe1b392c	-0.15158528
229	0xbd874329	-0.06604607
230	0xbdea9466	-0.11454086
231	0x3de73a60	0.11290431
232	0xbde390ab	-0.111115776
233	0x3d420d78	0.047376126
234	0xbe37ed65	-0.17961653
235	0x3ea20161	0.31641677
236	0x3d944b86	0.072409675
237	0x3d89b531	0.06724013
238	0xbe91ed0d	-0.28501168
239	0x3d26d70a	0.04073242
240	0x3d8670c9	0.06564481
241	0xbd89075a	-0.06690855
242	0xbd729c18	-0.059230894
243	0xbccf4e77	-0.02530597
244	0xbdc1aafc	-0.09456441
245	0x3d0a6ccf	0.033795174
246	0xbcf576dc	-0.029963903
247	0x3d0fe6b0	0.03513211
248	0xbe0b01d5	-0.13574918
249	0x3d9e1bf6	0.07720177
250	0x3e794242	0.24341682
251	0x3e4fecd3	0.20305185
252	0xbdaf3fd5	-0.08557097
253	0xbe20c92b	-0.1570174
254	0x3d66b6b3	0.05632658
255	0x3ba18d23	0.004930155

model.dense2.bias f4 [16]
0	0x3ef636ea	0.4808877
1	0x3e9138e5	0.2836372
2	0x3e721fb7	0.23644911
3	0xbdb211fc	-0.086948365
4	0x3eb3c965	0.3511459
5	0xbdf8a740	-0.121412754
6	0x3e3649ba	0.17801562
7	0x3dba20bf	0.09088277
8	0xbdded668	-0.108807385
9	0x3e630375	0.22169288
10	0x3e8e7609	0.2782443
11	0xbdcf4bd0	-0.10121882
12	0x3e4f7d18	0.20262563
13	0xbe278dd9	-0.16362704
14	0x3e8a7e58	0.27049518
15	0xbdd9111d	-0.10598967

model.output.weight f4 [10, 16]
0	0xbe958ad2	-0.29207474
1	0xbef0694d	-0.46955338
2	0xbeef63e5	-0.467559
3	0x3da51c58	0.08062047
4	0x3c8e5101	0.01737261
5	0x3a12c578	0.0005598883
6	0xbf321a2e	-0.695712
7	0x3df42ebf	0.119229786
8	0x3f4a6ccd	0.79072267
9	0xbf39c9a9	-0.72573334
10	0xbe305dea	-0.17223325
11	0x3e463772	0.19357088
12	0x3f1b4e1a	0.6066605
13	0x3d8b0fbb	0.0679011
14	0x3f0c5db7	0.548305
15	0xbc2e16fd	-0.010625598
16	0x3f1f4543	0.6221506
17	0xbe5ba15b	-0.21448271
18	0x3f8a8c70	1.0824108
19	0xbdd824c0	-0.105538845
20	0x3c678003	0.0141296415
21	0x3e31522e	0.17316505
22	0xbefafc14	-0.49020445
23	0x3f092634	0.5357392
24	0x3ed09ab7	0.40743038
25	0xbe1f6ef7	-0.15569673
26	0xbdfefa0c	-0.124500364
27	0xbc2cd24a	-0.010548184
28	0xbf35e61d	-0.7105425
29	0xbeb166b3	-0.34648666
30	0x3e5e5322	0.217114
31	0x3ea649a6	0.32478064
32	0x3f068b10	0.5255594
33	0x3e5f2dae	0.21794769
34	0xbf1281d8	-0.57229376
35	0x3dd97233	0.10617485
36	0xbefa338b	-0.4886745
37	0x3e3fb16b	0.18720023
38	0xbeeedc54	-0.46652472
39	0x3bf3c729	0.007439513
40	0x3e52280b	0.20523088
41	0x3f33e2c1	0.70267874
42	0xbf3d22d4	-0.7388127
43	0x3da4ad9d	0.080409266
44	0x3d6f60b7	0.058441844
45	0x3e410724	0.1885038
46	0x3f00d58e	0.5032586
47	0x3eecf51f	0.46280763
48	0xbee2620f	-0.44215438
49	0x3e0e00b2	0.13867453
50	0xbef1a243	-0.47194108
51	0xbb9f2555	-0.0048567452
52	0x3f521db3	0.8207657
53	0x3e35adc5	0.17742069
54	0x3e8d3b80	0.27584457
55	0x3e5e7b1d	0.21726651
56	0xbe935ca5	-0.2878162
57	0x3f908cba	1.1292946
58	0x3e389b45	0.1802798
59	0xbd707c83	-0.058712494
60	0xbe77324b	-0.24140279
61	0xbda426f5	-0.08015243
62	0xbf0f76e9	-0.5604082
63	0x3e730dbd	0.2373571
64	0x3f9082d4	1.1289926
65	0x3f3fa3e3	0.74859446
66	0xbec2a795	-0.3801848
67	0xbe70d076	-0.23517022
68	0xbf022852	-0.50842774
69	0x3e31b2f4	0.17353421
70	0xbe2a201e	-0.16613814
71	0xbdbd6afe	-0.09248923
72	0xbedb5b87	-0.42843267
73	0xbeb054c2	-0.34439665
74	0x3f39418c	0.7236564
75	0x3e54d7c6	0.20785436
76	0xbe56b254	-0.20966464
77	0x3e05c627	0.1306387
78	0xbf29f911	-0.6639567
79	0xbe8fa33a	-0.2805422
80	0xbe258764	-0.16164929
81	0xbf0a0d4f	-0.5392656
82	0x3d809b67	0.06279641
83	0xbe2c2c75	-0.16813834
84	0x3f68d65e	0.909521
85	0xbd919980	-0.07109356
86	0x3f40c614	0.75302243
87	0xbda52e75	-0.080655016
88	0xbe0e54c3	-0.13899522
89	0xbf0a822e	-0.5410489
90	0xbdce96f0	-0.10087383
91	0xbe4e0471	-0.20118882
92	0x3f415689	0.7552267
93	0x3e527857	0.20553719
94	0xbf5002de	-0.81254375
95	0xbea73a0a	-0.32661468
96	0xbd15be96	-0.03655871
97	0x3ee0d383	0.4391137
98	0x3f53a1fe	0.82669055
99	0xbe252cb5	-0.16130336
100	0xbe550db0	-0.20806003
101	0xbeb3330e	-0.3499989
102	0xbf207b0c	-0.62687755
103	0xbe8f5865	-0.27997127
104	0xbf240f93	-0.64086264
105	0xbf220b4e	-0.632985
106	0xbf3f5e87	-0.7475361
107	0xbe160e01	-0.1465378
108	0x3f840a6d	1.0315682
109	0x3e8f188d	0.27948418
110	0x3be1a269	0.006885816
111	0xbd4ba558	-0.04971823
112	0xbea2ea4a	-0.31819373
113	0xbed22158	-0.41041064
114	0xbe035baf	-0.12827943
115	0x3e05fdd6	0.13085112
116	0x3d9200de	0.07129072
117	0x3e31b084	0.17352492
118	0xbf7d9038	-0.99048185
119	0xbe2fd2eb	-0.17170303
120	0xbed6663a	-0.41874868
121	0x3eede83c	0.46466243
122	0x3f5e899f	0.86928743
123	0xbb39e1b3	-0.0028363287
124	0xbf503cdd	-0.8134287
125	0x3dfc3653	0.12315049
126	0x3f3b219b	0.7309815
127	0x3f127eea	0.57224905
128	0xbf03028a	-0.5117575
129	0x3e2d1b52	0.16904953
130	0x3ebdac8b	0.37045702
131	0xbe538081	-0.20654489
132	0xbf5ea87d	-0.8697584
133	0xbbe5cbab	-0.0070128045
134	0x3f90141f	1.125614
135	0x3ee674d4	0.45011008
136	0x3ebb4ecc	0.36583555
137	0x3e0e6a3a	0.1390771
138	0xbe36435a	-0.1779913
139	0x3df40510	0.11915028
140	0xbdd3cf8b	-0.1034232
141	0x3d1ff13d	0.039048422
142	0xbd907434	-0.07053414
143	0xbe8137e0	-0.25237942
144	0xbf1a1d42	-0.60200894
145	0x3e24ff72	0.1611307
146	0xbe940745	-0.28911796
147	0x3e78e41c	0.24305767
148	0xbe850914	-0.2598349
149	0xbedbc600	-0.429245
150	0x3f06950d	0.52571183
151	0xbd9b4a41	-0.07582522
152	0x3df060eb	0.11737236
153	0xbf457aa2	-0.7714025
154	0x3f91074f	1.1330355
155	0xbe6647a9	-0.22488274
156	0xbeb7af90	-0.3587613
157	0xbe827d19	-0.25486067
158	0xbe238696	-0.15969309
159	0xbe3a941f	-0.18220566

model.output.bias f4 [10]
0	0xbe3d7af4	-0.18503934
1	0xbcbe3aa0	-0.023221314
2	0xbcab2fdf	-0.02089685
3	0xbe07b493	-0.13252477
4	0x3e9402d5	0.2890841
5	0x3e482f05	0.19549187
6	0xbe10c798	-0.14138639
7	0x3e9b4d3d	0.30332366
8	0xbeaa0f47	-0.3321478
9	0xbe59a9aa	-0.21256128
