Models/model_optSGD_ep10_neu64_lay3_acc0.9416.pth (torch, 217706 bytes, 10 tensors)

model.input.weight f4 [64, 784]
0	0xbd0ff13d	-0.035142172
1	0x3ceba422	0.028764788
2	0xbcac4e50	-0.021033436
3	0x3c9c6126	0.019089293
4	0xbc2c95e6	-0.010533785
5	0x3c90f540	0.01769507
6	0xbb2c4100	-0.002628386
7	0xbbc628f8	-0.0060473643
8	0x3c8d50ec	0.0172505
9	0xbd055fba	-0.032561995
10	0xbc747a1c	-0.014921691
11	0xbcbac2ea	-0.02279802
12	0x3d034e66	0.03205719
13	0xbc9929de	-0.018696722
14	0x3cf52fa2	0.02992994
15	0x3cdf367d	0.027247662
16	0x3d06dd25	0.032925744
17	0x3c92c0ca	0.017914195
18	0x3ce0f996	0.027462762
19	0x3cd898d0	0.026440054
20	0x3cc74e40	0.024329305
21	0xbcdacae8	-0.026708081
22	0x3cbdb598	0.02315788
23	0x3c8820c2	0.016617183
24	0xbc9f5d4e	-0.01945367
25	0x3c980128	0.018555239
26	0x3d0805cb	0.03320865
27	0x3c932148	0.017960206
28	0x3c69cdb8	0.014270239
29	0xbd03db67	-0.03219166
30	0x3a05f1c0	0.0005109571
31	0xbcd1fd4a	-0.025633473
32	0xbca07665	-0.019587705
33	0xbb9ae438	-0.004726913
34	0xbc544cb8	-0.012957744
35	0x3c94b10a	0.018150825
36	0x3c08f7f0	0.008359894
37	0x3c9fb996	0.019497674
38	0x3a74d57b	0.00093396724
39	0xbc8b9818	-0.017040297
40	0x3b907aed	0.004409185
41	0x3c90e4bb	0.017687192
42	0xbc8cf5f6	-0.017207127
43	0xbcb7b86d	-0.022426808
44	0xbcc21eef	-0.02369639
45	0xbcb7f0a2	-0.02245361
46	0x3c496bb0	0.012293741
47	0xbd04847f	-0.03235292
48	0xbbca8734	-0.0061806682
49	0xbc1ba3c0	-0.00949949
50	0xbcde2fab	-0.02712234
51	0x3ca83f30	0.020537943
52	0xbc0dc0f2	-0.008651959
53	0x3d06da2d	0.032922912
54	0xbc8f696a	-0.01750632
55	0x3c740ca0	0.014895588
56	0xbd04b6ab	-0.03240077
57	0xbc2f05ce	-0.010682536
58	0xbbbc8530	-0.005753182
59	0x3ce0ddfa	0.027449597
60	0xbc85ef5c	-0.016349487
61	0x3cd13d2c	0.025541864
62	0x3cef3495	0.029199878
63	0xbcedf6f3	-0.029048419
64	0x3c838dcb	0.016058823
65	0xbd06fd2f	-0.0329563
66	0x3cf71215	0.03015999
67	0xbcea46d1	-0.028598221
68	0xbcc61d96	-0.02418403
69	0xbbf4d12c	-0.0074712243
70	0x3bce4a0b	0.0062954477
71	0xbc65a658	-0.01401671
72	0x3cddd454	0.027078785
73	0x3cef59db	0.029217651
74	0x3c9b27e2	0.018939916
75	0x3ccdc1b9	0.025116788
76	0x3b34988d	0.0027556748
77	0xbbff8aab	-0.007798513
78	0xbbda7e26	-0.00666787
79	0x3cb873a9	0.022516089
80	0x3cc042ef	0.023469416
81	0x3c25dc4c	0.010123324
82	0x3d07e181	0.03317404
83	0xbc65d6b8	-0.014028244
84	0xbc5cb9ea	-0.01347206
85	0x3d0a5251	0.03376991
86	0x39ffc000	0.0004878044
87	0xbcfefa4e	-0.031125214
88	0x3b65c520	0.0035060123
89	0x3c3f0265	0.011658286
90	0x3c0e7c3e	0.008696614
91	0xbc4db340	-0.012554944
92	0xbcfc389c	-0.030788712
93	0xbcb19d94	-0.021681584
94	0x3b171dda	0.0023058564
95	0xbc994295	-0.018708507
96	0xbba51022	-0.0050373236
97	0xbd2ce6be	-0.04221224
98	0xbd15335d	-0.036425937
99	0xbd3cbbca	-0.046077527
100	0xbcb18fd0	-0.02167502
101	0xbd7985b6	-0.060918532
102	0xbc8a5797	-0.01688747
103	0xbd1f009a	-0.038818933
104	0xbd2dc35a	-0.04242263
105	0xbd04449e	-0.032292
106	0xbd15d9bf	-0.036584612
107	0xbcf891cb	-0.030342957
108	0x3c709998	0.014685057
109	0xbcc58502	-0.024111275
110	0xbcaf6cb5	-0.02141414
111	0x3cd45a10	0.025921851
112	0xbd030563	-0.03198756
113	0xbd028b02	-0.03187085
114	0x3cfe6e72	0.031058524
115	0xbb3a47e4	-0.0028424198
116	0x3d0343b6	0.032046996
117	0xbcefd248	-0.029275075
118	0x3c9a098b	0.018803379
119	0xbd0bab93	-0.034099173
120	0x3c80761f	0.015681325
121	0xbc869624	-0.016429015
122	0xbd118e6e	-0.035536222
123	0xbd00da7a	-0.031458355
124	0xbb972347	-0.0046123597
125	0xbbb14290	-0.005409546
126	0x3c80b29a	0.015710164
127	0xbd13af12	-0.036055632
128	0xbc420078	-0.011840932
129	0xbd9dab69	-0.076987095
130	0xbd83d070	-0.06436241
131	0xbc878c6e	-0.016546454
132	0xbcba58cf	-0.022747425
133	0x3cee35e8	0.029078439
134	0xbc8f521b	-0.017495206
135	0xbc87a542	-0.016558293
136	0x3c528990	0.01285018
137	0xbae5f392	-0.0017543903
138	0x3c5e4f5e	0.013568727
139	0xbcaa521e	-0.02079111
140	0x3cac0c40	0.021001935
141	0xbc245d4a	-0.0100320075
142	0xbbbc206f	-0.005741171
143	0x3c9d9cc0	0.019239783
144	0xbc1a162a	-0.009404698
145	0xbca7009a	-0.020386029
146	0xbc0a55d7	-0.008443317
147	0xb880d6ef	-6.14355e-05
148	0xbcc05de7	-0.023482276
149	0xbda8933b	-0.08231207
150	0xbd9305a7	-0.071788125
151	0xbd0f0b65	-0.034922976
152	0xbca5a9c1	-0.020222547
153	0x3ca565c3	0.020190125
154	0xbcf2a5f0	-0.02962014
155	0xbbde9558	-0.0067927055
156	0xbb9dd801	-0.0048170094
157	0xbc97bb6a	-0.018521983
158	0xbdb9458b	-0.090464674
159	0xbd9c62b9	-0.07636017
160	0xbd841afe	-0.06450461
161	0x3cc0da2e	0.023541536
162	0x3d10e99e	0.035379045
163	0x3d201063	0.039078128
164	0x3c01e634	0.00792842
165	0x3c752ae6	0.014963841
166	0x3ca8b0be	0.02059209
167	0x3cfb705a	0.030693222
168	0x3c8cd610	0.017191917
169	0xbd0cc5bf	-0.034368273
170	0xbc87e1d0	-0.016587168
171	0xbc99613d	-0.018723125
172	0xbd1382b6	-0.036013328
173	0x3ce22488	0.02760531
174	0xbc002791	-0.007821933
175	0xbcff5980	-0.031170607
176	0xbda0f425	-0.07859067
177	0xbdda4769	-0.10658152
178	0xbda9315a	-0.08261366
179	0xbd90db11	-0.070730336
180	0xbd82f5eb	-0.063945614
181	0xbd208e4e	-0.039198212
182	0x3c6df6f3	0.014524209
183	0xbc99310e	-0.018700149
184	0xbd3a7570	-0.045522153
185	0xbd4db5de	-0.05022227
186	0xbc4a617a	-0.012352342
187	0xbd948b77	-0.07253163
188	0xbd8ac55e	-0.06775926
189	0xbc626fbd	-0.013820586
190	0x3c40d85b	0.011770333
191	0x3c96ac17	0.018392606
192	0x3c048702	0.008088829
193	0xbd5fef51	-0.05467159
194	0x3cebeeb3	0.028800344
195	0xbc11d04c	-0.0088997595
196	0x3cefca1a	0.029271174
197	0xbca07f00	-0.019591808
198	0xbd055d92	-0.03255994
199	0xbcae2830	-0.021259397
200	0x3ca91f80	0.020644903
201	0xbd1f0b26	-0.03882899
202	0xbd4d868e	-0.05017715
203	0xbd4f905e	-0.05067479
204	0xbd55dd24	-0.05221285
205	0xbd63b099	-0.05558834
206	0xbdd03828	-0.10166961
207	0xbdd18314	-0.10230079
208	0xbd30c8f4	-0.043160394
209	0xbd0c3ca4	-0.03423752
210	0xbd5d2fad	-0.054000545
211	0xbde11e66	-0.10992126
212	0xbdbf2631	-0.09333456
213	0xbd7a6379	-0.06113002
214	0x3d2b3604	0.04179956
215	0xbb2eee5f	-0.0026692373
216	0xbcb4b65b	-0.02205961
217	0xbcb6587b	-0.022258988
218	0xbc479f29	-0.012183943
219	0xbccb6660	-0.02482909
220	0xbc965835	-0.018352607
221	0xbd10dc57	-0.035366382
222	0xbd127962	-0.03576029
223	0x3d045b64	0.03231372
224	0x3cf747a2	0.030185524
225	0x3b6c883e	0.003609195
226	0xb933268f	-0.00017085134
227	0xbcc2bf98	-0.023773
228	0x3c5d8f20	0.013522893
229	0xbcafd09d	-0.02146178
230	0xbc40d9fd	-0.011770722
231	0xbd85ab2c	-0.06526789
232	0xbd5cf73b	-0.053946715
233	0xbd84f8d8	-0.06492776
234	0xbddb7cf7	-0.107171945
235	0xbdd877a1	-0.105696924
236	0xbdb64142	-0.08899166
237	0xbc40fdb8	-0.011779241
238	0x3d3c4695	0.04596575
239	0xbce9ed1a	-0.028555442
240	0xbd80d393	-0.062903546
241	0x3b9d9abd	0.004809706
242	0x3d233ee4	0.0398549
243	0xbc8eafa5	-0.017417738
244	0xbd52cc7c	-0.051464543
245	0xbdaa5185	-0.0831633
246	0xbd9b39b2	-0.07579364
247	0xbda9e433	-0.08295479
248	0xbd9a423d	-0.07532165
249	0xbd07f1a2	-0.033189423
250	0xbceb9c6e	-0.028761115
251	0xbcd420ec	-0.025894605
252	0x3c9ea2da	0.019364763
253	0x3ce71836	0.028209787
254	0x3b8cbd36	0.0042950166
255	0x3c9764aa	0.018480618

model.input.bias f4 [64]
0	0xbe056ab2	-0.13028982
1	0x3d1715b7	0.036885943
2	0xbdc7e83a	-0.097610906
3	0xbc4c1318	-0.012455724
4	0xbd890cf6	-0.06691925
5	0x3db0e84d	0.08638058
6	0xbb421a82	-0.002961785
7	0x3d9f06f7	0.07765
8	0xbcbaef43	-0.022819167
9	0x3c94ac0a	0.01814844
10	0xbcc7c35e	-0.02438515
11	0x3d8baba1	0.06819845
12	0xbd4b5f62	-0.04965151
13	0x3bf3d021	0.0074405824
14	0xbd3800b6	-0.044922553
15	0xbdaff7b5	-0.08592168
16	0x3ce33cfb	0.027739039
17	0x3bc55540	0.0060221255
18	0x3d90de10	0.07073605
19	0x3e1f215a	0.15540066
20	0xbd7c5832	-0.061607547
21	0x3cbf3181	0.023339035
22	0x3d734760	0.05939424
23	0x3ded469a	0.11585732
24	0x3d886c88	0.06661326
25	0x3d30ae23	0.04313482
26	0xbd8be968	-0.06831628
27	0xbbef2d31	-0.0072990884
28	0x3ce4752f	0.027887909
29	0xbc476ff6	-0.01217269
30	0xbcb6e3a5	-0.022325346
31	0x3b5437e7	0.0032381953
32	0x3c8f73f3	0.017511344
33	0x3bf879f2	0.0075828964
34	0xbcc8ba4c	-0.024502896
35	0x3e04b9ba	0.12961474
36	0x3d484ca6	0.048901223
37	0x3c48fda0	0.0122675
38	0x3d9acbc5	0.07558397
39	0xbcc0ccfc	-0.023535244
40	0xbca24b74	-0.01981137
41	0xbaf3ddbf	-0.0018605514
42	0x3c62854d	0.013825727
43	0x3da0c224	0.078495294
44	0x3c67d196	0.01414909
45	0x3b031ef8	0.0020007472
46	0x3db4e1e2	0.08832146
47	0x3bdf4e03	0.0068147196
48	0x3d81beea	0.06335242
49	0x3d6aa36e	0.057284765
50	0x3c2e0033	0.010620165
51	0x3e19942c	0.1499793
52	0xbe1f473f	-0.15554522
53	0x3c9f8892	0.019474301
54	0x3cb511fd	0.022103304
55	0xbc7e7aa7	-0.015532172
56	0xbcfab7e0	-0.030605257
57	0x3cbdd46d	0.023172582
58	0x3d4c423e	0.04986786
59	0xbde5765c	-0.11204216
60	0x3dbf69a2	0.0934632
61	0xbd995561	-0.07486988
62	0x3ca2b7d4	0.019863047
63	0xbd7f12ee	-0.062273912

model.dense1.weight f4 [32, 64]
0	0xbe2aeb24	-0.16691262
1	0x3cdb6639	0.026782142
2	0x3e192c3e	0.14958283
3	0xbd21599d	-0.039392103
4	0xbe3d05e2	-0.18459275
5	0x3e677f8e	0.22607252
6	0xbe010796	-0.1260055
7	0xbe12a55d	-0.14320894
8	0xbde073b5	-0.10959569
9	0xbdd5bbac	-0.10436186
10	0x3e0c19b1	0.13681675
11	0xbb96676e	-0.0045899665
12	0x3e985a0d	0.29756203
13	0x3d684882	0.056709774
14	0xbcda7510	-0.026667148
15	0xbc797bda	-0.015227282
16	0xbd56bfc5	-0.05242898
17	0x3e036fe2	0.12835649
18	0x3e26691e	0.16251037
19	0x3e690185	0.22754486
20	0x3d311ab7	0.043238368
21	0x3e359dbc	0.17735952
22	0xbecaeeb7	-0.3963525
23	0x3de58a65	0.11208037
24	0x3e93a564	0.2883712
25	0x3e1eb668	0.1549927
26	0xbe676ed3	-0.2260087
27	0xbd94c551	-0.072641976
28	0x3c44b77f	0.0120066395
29	0xbe1f13aa	-0.15534845
30	0xbe4e1a71	-0.20127274
31	0xbdb8fcab	-0.090325676
32	0x3db304b2	0.0874113
33	0xbd959492	-0.07303728
34	0xbce2245b	-0.027605226
35	0x3e6d18f0	0.23154044
36	0xbdd301f3	-0.10303106
37	0xbde29045	-0.110626735
38	0xbddd0309	-0.107915945
39	0xbe46dfa3	-0.19421248
40	0xbe29673d	-0.16543289
41	0xbc46309e	-0.012096552
42	0xbdfdc6b7	-0.123914175
43	0xbe001350	-0.12507367
44	0xbdfcffe0	-0.12353492
45	0x3d2687de	0.040656917
46	0x3d99b63c	0.075054616
47	0x3e3f247a	0.18666258
48	0x3d2ecf69	0.04267827
49	0xbe8906f2	-0.2676311
50	0x3e5ced8a	0.21574989
51	0x3e46060c	0.19338244
52	0xbdc355d8	-0.09537858
53	0x3cad0e40	0.021124959
54	0x3de8a9aa	0.11360486
55	0x3da6d161	0.081454046
56	0xbd0cf52f	-0.034413513
57	0x3ba49f9b	0.0050239093
58	0x3e2d6a0d	0.16934986
59	0xbeb9bb25	-0.36275592
60	0xbe4a745e	-0.19770953
61	0x3d20f302	0.03929425
62	0x3cb31d12	0.021864448
63	0xbd604445	-0.054752607
64	0xbe26a31a	-0.16273156
65	0x3dd4e883	0.103959106
66	0x3df2f7a3	0.11863639
67	0xbd8425d1	-0.064525254
68	0xbe45ad57	-0.19304405
69	0x3d8be43d	0.06830642
70	0xbe593dd6	-0.21214995
71	0xbeae3009	-0.34021023
72	0x3d036218	0.03207597
73	0xbe981058	-0.2969997
74	0x3df45c6c	0.119316906
75	0x3e8fcc26	0.2808544
76	0xbcfa6f42	-0.03057063
77	0x3da04942	0.07826473
78	0x3e43de28	0.19127715
79	0x3cd96a00	0.026539803
80	0x3e114057	0.141847
81	0x3e114f46	0.14190397
82	0xbd1c34c2	-0.03813625
83	0x3e0648e3	0.13113742
84	0xbcd8a500	-0.026445866
85	0xbdfb6d72	-0.122767344
86	0x3deaf454	0.11472383
87	0x3d556935	0.052102286
88	0xbd88d978	-0.06682104
89	0x3dda4be4	0.10659006
90	0xbe58d899	-0.21176375
91	0xbd806f4d	-0.06271229
92	0x3de9307c	0.11386201
93	0xbd777896	-0.060417734
94	0xbd084059	-0.03326449
95	0x3da75adf	0.08171629
96	0x3bc52022	0.0060157934
97	0xbc9751d1	-0.01847163
98	0x3e1e687a	0.15469542
99	0xbe046276	-0.12928185
100	0xbd3e247c	-0.046421513
101	0xbec7026d	-0.38869038
102	0xbd0b4246	-0.03399875
103	0xbe865646	-0.26237696
104	0xbda1db7c	-0.079031914
105	0x3b917618	0.0044391267
106	0xbe1b5cf2	-0.15172175
107	0x3e4ca52f	0.19984888
108	0xbd9cddfe	-0.07659529
109	0x3e917a8f	0.28413817
110	0x3de64503	0.11243632
111	0x3d94da50	0.07268202
112	0xbe1e395e	-0.15451571
113	0xbe681299	-0.22663344
114	0x3db80ce6	0.08986835
115	0x3e33b216	0.17548403
116	0xbe56a28d	-0.20960446
117	0x3d7662fe	0.060153
118	0x3e16f6ea	0.14742628
119	0x3e0e3d00	0.13890457
120	0xbbb0c9b8	-0.0053951405
121	0x3d36e670	0.044653356
122	0x3e2c9908	0.16855252
123	0xbe87b864	-0.26507866
124	0x3dc3db81	0.095633514
125	0xbe4d3dea	-0.2004315
126	0xbe0d09f7	-0.13773333
127	0xbd3f7443	-0.046741735
128	0xbe2cd360	-0.16877508
129	0xbe772f28	-0.24139082
130	0xbd1cbe7b	-0.038267594
131	0xbc9b14c3	-0.018930798
132	0x3eb1d1fe	0.34730524
133	0x3d30ab65	0.043132205
134	0x3dad3713	0.0845777
135	0x3e494c8d	0.19658108
136	0xbdfb699c	-0.12276003
137	0xbd3806fc	-0.044928536
138	0x3e36b82f	0.17843698
139	0xbe4a6568	-0.19765246
140	0x3e751a59	0.23935832
141	0xbe43a4c6	-0.19105825
142	0x3d99e7db	0.07514926
143	0xbe1aeeaa	-0.15130106
144	0xbbaacb81	-0.005212248
145	0x3d6ae762	0.05734957
146	0xbd22f65c	-0.039785728
147	0xbe343c93	-0.17601232
148	0x3d816b50	0.06319296
149	0xbdc493f5	-0.09598533
150	0xbdc1b331	-0.09458006
151	0xbd72409a	-0.05914364
152	0x3d944e56	0.07241504
153	0x3dab82cf	0.08374559
154	0x3cc67e96	0.024230283
155	0x3e046dbe	0.12932488
156	0xbdbe1883	-0.09282019
157	0xbdb87f81	-0.090086944
158	0x3db8c70e	0.09022342
159	0x3c5cd576	0.013478627
160	0x3dcf0772	0.10108842
161	0xbdba5875	-0.09098903
162	0x3e5f227c	0.21790498
163	0x3e352b07	0.17692195
164	0x3e20da2b	0.15708224
165	0x3e51c952	0.20486954
166	0xbe362215	-0.17786439
167	0x3b07270a	0.0020622634
168	0x3c151d79	0.009101265
169	0x3d9848a2	0.074357286
170	0xbdbf138e	-0.09329902
171	0xbe3975b0	-0.181113
172	0x3e107ef5	0.1411093
173	0xbcd46f29	-0.025931912
174	0xbda327f8	-0.07966608
175	0x3e265ac0	0.16245556
176	0xba486449	-0.0007644338
177	0x3d4b763b	0.0496733
178	0x3e306b1b	0.17228357
179	0xbd442aa6	-0.047892235
180	0x3e2ad4d4	0.1668275
181	0xbdbb074d	-0.09132252
182	0xbd4e6b74	-0.050395444
183	0xbe0dfc74	-0.13865834
184	0x3d0448ef	0.032296117
185	0xbe2fb6c1	-0.17159559
186	0xbe31ab65	-0.17350538
187	0x3c81c9ee	0.015843358
188	0xbd757570	-0.05992645
189	0x3e2f3de5	0.17113455
190	0x3e17f1d6	0.14838347
191	0xbd6753ca	-0.05647639
192	0xbe8cd38d	-0.2750515
193	0x3c3d5c45	0.011557643
194	0xbe3661e3	-0.17810778
195	0xbd1e3cd1	-0.038632218
196	0xbd97505a	-0.07388373
197	0xbe27f3ff	-0.16401671
198	0xbbdc9171	-0.006731205
199	0xbe07b120	-0.13251162
200	0xbe6954b3	-0.22786216
201	0x3b47aa94	0.0030466663
202	0x3e6971ed	0.22797365
203	0xbe2f0918	-0.17093313
204	0x3d0ec067	0.034851458
205	0xbdc6e34d	-0.09711323
206	0x3cb3a902	0.021931175
207	0x3b9dad96	0.004811953
208	0x3df356e8	0.118818104
209	0xbc7520c0	-0.0149614215
210	0xbd957f87	-0.072997145
211	0x3e0bc8e7	0.13650857
212	0x3c731c3b	0.014838274
213	0x3da196e7	0.078901105
214	0x3d8aedcc	0.067836374
215	0xbdfa1057	-0.12210148
216	0xbdfcd164	-0.123446256
217	0x3cc78ed0	0.02436009
218	0xbdb8af50	-0.09017813
219	0x3d8ce744	0.06880048
220	0x3cd9e62e	0.026599016
221	0xbe4a97e2	-0.19784501
222	0x3dff6733	0.124708556
223	0xbcb454ec	-0.02201315
224	0x3e05f31b	0.13081019
225	0x3e2745cd	0.1633522
226	0x3e75022f	0.23926614
227	0xbe625cf7	-0.22105776
228	0x3e51b511	0.20479228
229	0xb9994c7f	-0.00029239428
230	0xbdfc4d63	-0.12319448
231	0xbe3e96a6	-0.18612155
232	0xbe1efd22	-0.1552625
233	0xbddd61b4	-0.10809651
234	0xbe181a40	-0.14853764
235	0xbd5306e1	-0.051520232
236	0xbe293b93	-0.16526632
237	0x3e0f580d	0.13998432
238	0x3de5720c	0.11203393
239	0x3d8d5226	0.06900434
240	0xbe1bd6dd	-0.15218683
241	0x3d7ca5d7	0.061681595
242	0x3e0dd872	0.13852099
243	0xbd27478d	-0.04083972
244	0xbda526b7	-0.08064025
245	0xbca935ae	-0.02065548
246	0x3e1463fa	0.14491263
247	0xbc7a3d87	-0.015273458
248	0x3e0fc000	0.14038086
249	0xbe0fd507	-0.14046107
250	0x3ddf9c43	0.109184764
251	0xbd052419	-0.03250513
252	0x3d8cc74e	0.06873952
253	0xbd5a7c58	-0.05334124
254	0x3dbd474d	0.09242115
255	0xbc3e4283	-0.011612537

model.dense1.bias f4 [32]
0	0x3e58b128	0.2116133
1	0x3e2a503e	0.16632172
2	0xbdd5c40a	-0.10437782
3	0x3e55ef33	0.20892029
4	0x3e17f7a2	0.14840558
5	0x3dd4704d	0.10372982
6	0x3d27c914	0.040963247
7	0x3d6ffa9a	0.0585886
8	0xbe01d4bc	-0.12678808
9	0x3dd9bcb9	0.10631699
10	0x3d9aa4de	0.07550977
11	0x3e0b6a88	0.13614857
12	0x3e08c513	0.13356428
13	0x3e28cabc	0.16483587
14	0x3e11a3c9	0.14222635
15	0x3d96830c	0.07349214
16	0x3dea666d	0.114453174
17	0x3b83d76b	0.0040234826
18	0xbd83b00e	-0.06430064
19	0x3a51e760	0.0008007195
20	0x3c9a1244	0.018807538
21	0x3e22b355	0.15888722
22	0x3e05034d	0.1298954
23	0x3d3dd755	0.046347935
24	0xbd7d7ab9	-0.061884616
25	0x3e24be99	0.16088332
26	0x3de82548	0.11335236
27	0x3c4ac0d3	0.012375074
28	0x3da9b77d	0.08286951
29	0xbd7b0687	-0.06128552
30	0x3cb8e859	0.02257173
31	0xbc8f87cb	-0.017520806

model.dense2.weight f4 [16, 32]
0	0x3f1318b0	0.57459545
1	0x3eed7347	0.46377012
2	0xbe318aba	-0.17338076
3	0x3b237208	0.0024939794
4	0x3e1253ab	0.1428973
5	0x3ebf3fa2	0.37353235
6	0xbdb9c863	-0.09071424
7	0x3eabffc7	0.3359358
8	0x3e1e1347	0.15437041
9	0xbd8725e6	-0.065990254
10	0x3e664c72	0.22490099
11	0xbd9e1f6c	-0.07720837
12	0x3d489212	0.04896743
13	0x3ece3830	0.40277243
14	0xbe96a52e	-0.29422897
15	0xbcc80678	-0.024417147
16	0x3c706de6	0.014674639
17	0x3d6b1fa4	0.05740322
18	0xbe585d06	-0.21129236
19	0x3c17e466	0.009270763
20	0x3cfa7747	0.030574454
21	0x3e65e60e	0.2245104
22	0xbe48042e	-0.19532844
23	0xbd469f86	-0.048491977
24	0x3da02142	0.078188434
25	0x3ed867bd	0.42266646
26	0xbdf70116	-0.12060754
27	0xbe95f10d	-0.2928547
28	0x3e5a1d90	0.2130034
29	0xbd10456b	-0.035222452
30	0xba9056f1	-0.0011012239
31	0x3de3b1c2	0.11117889
32	0x3dccc052	0.0999762
33	0xbe0eae69	-0.1393372
34	0x3e0a8c4c	0.13530082
35	0x3df34f8d	0.118804075
36	0xbde61b3c	-0.11235663
37	0x3d38ae31	0.045087997
38	0xbe12ad8e	-0.14324018
39	0xbe3ce892	-0.18448094
40	0xbd1ba63e	-0.038000338
41	0xbe246d31	-0.16057278
42	0x3dcab59c	0.098979205
43	0xbd7f56fc	-0.062338814
44	0x3c53e5f2	0.012933241
45	0x3e29d798	0.16586149
46	0x3ca2ef47	0.019889487
47	0x3e11164a	0.14168659
48	0x3d39da91	0.045374457
49	0x3d5c3be9	0.053768072
50	0x3db34572	0.0875348
51	0x3ca75221	0.020424904
52	0x3dae4176	0.085085794
53	0xbbf8ce2f	-0.0075929384
54	0x3d66c29f	0.05633795
55	0xbd240e7b	-0.040052872
56	0xbdc9568d	-0.098309614
57	0x3d7c4fc6	0.061599515
58	0xbe190c94	-0.14946204
59	0x3e2b5d7e	0.16734883
60	0xbe3737bb	-0.17892353
61	0xbd12033d	-0.03564762
62	0xbd8af44b	-0.067848764
63	0xbe31904a	-0.17340198
64	0x3dd80de4	0.105495244
65	0x3d875ed5	0.06609885
66	0xbd977dc3	-0.07397034
67	0xbe22273b	-0.15835278
68	0xbd4b92f8	-0.049700707
69	0x3ec96534	0.39335024
70	0xbe103bfa	-0.14085379
71	0x3d3c9de9	0.046049032
72	0xbdcdfa93	-0.10057559
73	0x3a0be96e	0.0005337213
74	0x3e94adee	0.29038948
75	0xbcc74215	-0.024323503
76	0x3d817785	0.06321625
77	0xbde76c1a	-0.112999156
78	0x3e038d7f	0.12846945
79	0xbe8f23c3	-0.27956972
80	0x3db54d94	0.088526875
81	0xbd0e1c08	-0.0346947
82	0x3c03f7f4	0.008054722
83	0xbe0af8ee	-0.13571522
84	0xbde4c1df	-0.111697905
85	0xbdede69e	-0.11616252
86	0x3d4868f1	0.048928205
87	0x3e71c2fb	0.23609535
88	0x3df870ff	0.12130927
89	0x3e884d73	0.2662159
90	0x3e191522	0.14949468
91	0xbe12d668	-0.14339602
92	0x3e32e29b	0.17469256
93	0xbe17fc91	-0.1484244
94	0x3e05e154	0.13074237
95	0xbe08b3aa	-0.13349786
96	0xbdea198b	-0.11430653
97	0xbe22523e	-0.15851685
98	0xbe5573a3	-0.20844893
99	0x3e266e15	0.1625293
100	0xbdaab8d3	-0.08336034
101	0x3e1e7e66	0.15477905
102	0xbdea8877	-0.1145181
103	0x3ca87763	0.02056474
104	0x3ce1cac3	0.027562505
105	0x3e589e02	0.21154025
106	0x3e12a1fb	0.14319603
107	0x3eacc7a4	0.33746064
108	0x3da16adf	0.07881712
109	0x3ab0f814	0.0013501667
110	0x3efbdf3f	0.4919376
111	0xbe256682	-0.16152385
112	0x3e097c27	0.13426267
113	0x3e1b32ac	0.15156049
114	0xbd895dc2	-0.06707336
115	0xbdeb063a	-0.11475797
116	0xbd61c0c4	-0.055115476
117	0x3e1f1d97	0.15538631
118	0x3f081e36	0.531711
119	0x3eccc952	0.39997345
120	0x3e1943fc	0.1496734
121	0x3d1b8bf3	0.037975263
122	0x3e13444b	0.1438152
123	0xbdba82fa	-0.09107013
124	0xbe79f54c	-0.2440998
125	0x3d8fd6a9	0.07023365
126	0xbc88501a	-0.016639758
127	0xbd9fdeab	-0.078061424
128	0x3e8bbe8a	0.27293807
129	0x3f324cee	0.69648635
130	0xbebd37db	-0.36956677
131	0x3e746cab	0.23869579
132	0x3e164cc2	0.14677718
133	0xbe4c162c	-0.19930333
134	0xbd89a582	-0.06721021
135	0x3e9b3b7c	0.3031882
136	0xbe19ce82	-0.15020183
137	0x3ea6c501	0.32572177
138	0x3f3736e0	0.7156811
139	0x3d4286f0	0.047491968
140	0xbeda277d	-0.42608252
141	0xbe43a524	-0.19105965
142	0xbebd39a3	-0.36958036
143	0x3ef2cd16	0.47422093
144	0xbab1a507	-0.001355321
145	0x3e316d72	0.17326906
146	0xbd319272	-0.04335255
147	0xbde64e52	-0.11245407
148	0xbe5da53a	-0.2164506
149	0x3e1e0c4b	0.15434377
150	0x3ee028e3	0.43781194
151	0x3df66296	0.120305225
152	0x3d55a4dc	0.052159175
153	0x3ed539d7	0.4164569
154	0xbeb21a3b	-0.34785637
155	0xbd040a19	-0.032236192
156	0x3f07fdff	0.5312194
157	0x3e00d985	0.12582977
158	0x3e977f39	0.2958925
159	0xbd3787c6	-0.044807218
160	0xbd9a3307	-0.07529264
161	0xbe7d18ad	-0.24716444
162	0x3e0ffd18	0.14061391
163	0x3d8d42f8	0.06897539
164	0x3db98174	0.09057894
165	0xbe67e432	-0.22645643
166	0x3e741ee3	0.23839907
167	0x3ec7ae45	0.39000145
168	0x3ddd6e9a	0.10812111
169	0xbe2a0783	-0.16604428
170	0x3edbccf4	0.42929804
171	0x3f000b7c	0.50017524
172	0x3e10fe2c	0.14159459
173	0xbda3f13c	-0.08004996
174	0x3ddfa050	0.10919249
175	0x3f375511	0.71614176
176	0xbe9a1a6d	-0.30098286
177	0xbe5a09e7	-0.2129284
178	0xbc415d4e	-0.011802031
179	0xbe2ba305	-0.16761406
180	0x3d110243	0.035402548
181	0x3f434e33	0.762912
182	0x3ecba56d	0.39774647
183	0x3f01a34a	0.50639784
184	0xbe04b6b8	-0.12960327
185	0xbf049889	-0.5179525
186	0x3df73771	0.120711215
187	0x3ea72661	0.32646468
188	0x3d037a5a	0.032099105
189	0xbd7166cc	-0.058935925
190	0xbda62a7e	-0.081135735
191	0x3c1160e7	0.008873201
192	0x3e1c3f67	0.15258561
193	0x3d77fe39	0.06054518
194	0x3e04cbe1	0.12968399
195	0x3e1d3d8a	0.15355507
196	0x3c78559e	0.0151571315
197	0x3d9f9cee	0.07793604
198	0xbe3ac7c7	-0.18240272
199	0x3cfe6682	0.031054739
200	0x3e1a4a68	0.15067446
201	0xbce1b5a5	-0.027552435
202	0xbe9e9944	-0.30976307
203	0x3e937e61	0.28807357
204	0x3e8ca07c	0.2746619
205	0xbd6d59df	-0.057947036
206	0x3efbc882	0.49176413
207	0x3bb05e58	0.0053823404
208	0x3e329b8e	0.17442152
209	0x3d451c2e	0.048122577
210	0xbd277159	-0.04087958
211	0xbd5cb7cb	-0.053886216
212	0x3dcb455c	0.099253386
213	0x3ddb1fb4	0.10699406
214	0x3ee7b055	0.45251718
215	0x3ec47e43	0.3837758
216	0x3e266d48	0.16252625
217	0xbebc0d6d	-0.36728993
218	0xbccd29ae	-0.025044288
219	0xbdc11be3	-0.09429147
220	0xbeb92646	-0.36162013
221	0x3db49c35	0.088188566
222	0xbe38604d	-0.18005486
223	0x3e6cbd0a	0.23118988
224	0xbec707d0	-0.38873148
225	0xbd8e9d78	-0.069636285
226	0xbe446265	-0.1917816
227	0xbb709e64	-0.0036715502
228	0xbd2efca8	-0.04272142
229	0x3de24069	0.110474415
230	0x3d0f6d28	0.03501621
231	0x3cca530e	0.024697807
232	0x3de43488	0.11142832
233	0x3cfaf2ad	0.030633295
234	0x3eaf8b4a	0.34285957
235	0xbb85f40a	-0.0040879296
236	0xbe87af6b	-0.2650102
237	0x3c315d05	0.0108254
238	0xbe090192	-0.13379505
239	0x3de15f82	0.11004545
240	0xbe621650	-0.22078824
241	0xbc6542bb	-0.013992961
242	0x3d6371e9	0.055528555
243	0x3b902196	0.004398535
244	0x3c659903	0.014013532
245	0x3de841a6	0.113406464
246	0x3e1dfdf7	0.15428911
247	0x3d7dfb61	0.06200731
248	0x3d804427	0.06262999
249	0xbd8ca5aa	-0.068675354
250	0x3d91ede9	0.07125456
251	0x3d5ad44f	0.05342513
252	0x3d6bd0cd	0.057572175
253	0xbe2e9023	-0.17047171
254	0x3e2aefba	0.16693011
255	0xbe9f8fef	-0.311645

model.dense2.bias f4 [16]
0	0x3e9aca38	0.30232406
1	0xbe34ff0a	-0.17675415
2	0x3d9d0889	0.076676436
3	0xbd8bd1f8	-0.06827158
4	0xbe398f4f	-0.18121074
5	0x3db9cd0d	0.090723135
6	0xbd6ee91c	-0.05832778
7	0x3c90c95c	0.01767414
8	0xbe1bed16	-0.1522716
9	0x3e09a4eb	0.13441817
10	0x3d98a843	0.074539684
11	0x3e1efb70	0.15525603
12	0x3e96c86f	0.29449794
13	0x3e975b64	0.29561913
14	0x3e06161e	0.13094375
15	0x3cf3cd15	0.029760877

model.dense3.weight f4 [16, 16]
0	0xbe5a95b7	-0.21346174
1	0xbd15ed95	-0.03660353
2	0x3e1fda47	0.1561061
3	0x3f208db6	0.62716234
4	0xbf1394a6	-0.57648695
5	0xbd393767	-0.04521885
6	0x3f042349	0.5161634
7	0x3df4ce65	0.11953429
8	0x3e4f69a4	0.20255142
9	0x3eef4022	0.46728617
10	0x3e78470b	0.2424585
11	0x3f24fc1e	0.644472
12	0xbe879185	-0.2647821
13	0x3ebe533e	0.37172884
14	0x3e96d8f1	0.29462388
15	0x3f104b62	0.56365025
16	0xbe88d5ad	-0.26725522
17	0x3dfcd5e6	0.123454854
18	0xbdfeb1fb	-0.12436291
19	0x3e469515	0.19392808
20	0x3ed4ef9b	0.41589054
21	0x3f2d6027	0.6772484
22	0x3e838329	0.25686005
23	0x3e708a3b	0.2349023
24	0x3e7b627a	0.24549285
25	0x3ebbb217	0.3665931
26	0x3e07aff7	0.13250719
27	0x3e42c6fe	0.19021222
28	0xbe65b134	-0.22430879
29	0xbdbb0a2b	-0.09132799
30	0xbeb43e79	-0.35203913
31	0xbea468b9	-0.32111147
32	0x3ed8d905	0.42353073
33	0x3da62e9a	0.08114357
34	0x3c9d81cf	0.019226937
35	0x3d897f10	0.067136884
36	0x3e4f2f79	0.20232953
37	0xbf2cdf3b	-0.6752812
38	0x3e7db66c	0.2477662
39	0xbde15ab9	-0.11003632
40	0xbe6e719e	-0.23285529
41	0x3e3aea31	0.182534
42	0x3eb1746a	0.3465913
43	0x3e39ecef	0.18156789
44	0x3e946bc0	0.28988457
45	0x3eb169d3	0.3465105
46	0xbee42840	-0.44561958
47	0x3ecc096d	0.3985094
48	0xbdfcc37d	-0.12341974
49	0xbd20eb0d	-0.039286662
50	0xbd8a905c	-0.067658156
51	0xbea61bdc	-0.3244313
52	0xbedd5e60	-0.43236065
53	0x3f0e61ff	0.5561828
54	0x3e1a842f	0.15089487
55	0xbe8aa2eb	-0.27077422
56	0x3e3cd360	0.18440008
57	0x3dae172f	0.08500516
58	0xbe9c9370	-0.30581236
59	0xbeb9d505	-0.36295334
60	0x3ede8e9b	0.43468174
61	0xbd88d40c	-0.0668107
62	0x3d939d1a	0.07207699
63	0xbe99812a	-0.29981357
64	0xbd757231	-0.059923355
65	0x3e26687a	0.16250792
66	0xbe9ed62b	-0.31022772
67	0xbdbb8700	-0.091566086
68	0x3dc11eb0	0.09429681
69	0x3f4b0440	0.7930336
70	0x3ecac45c	0.39602935
71	0xbe58966d	-0.21151133
72	0x3dd4c6e0	0.10389495
73	0xbcf5e48f	-0.030016212
74	0x3e83b57e	0.25724405
75	0xbe1de1f6	-0.15418229
76	0x3f2f6864	0.6851866
77	0xbed803a9	-0.42190292
78	0x3de34652	0.11097397
79	0xbec2d64a	-0.38054115
80	0x3de39f61	0.111143835
81	0xbdb3ac29	-0.08773071
82	0x3d54e40c	0.051975295
83	0x3e6a67bf	0.22891138
84	0x3e892377	0.2678487
85	0x3eaa2f67	0.3323929
86	0xbdeaad26	-0.11458807
87	0x3e335628	0.17513335
88	0xbe69dc45	-0.22837932
89	0x3e6b2824	0.22964531
90	0x3db7c6d9	0.08973474
91	0xbe6d06e6	-0.23147163
92	0xbd7ed278	-0.062212437
93	0x3c1aa841	0.009439529
94	0x3eabd817	0.335633
95	0x3da1ee1a	0.079067424
96	0x3ef32d94	0.4749571
97	0x3cc7fd27	0.024412705
98	0x3e22f8ac	0.15915173
99	0x3c2811b1	0.010258124
100	0x3f486b31	0.7828856
101	0x3d63565a	0.055502273
102	0xbe8c7007	-0.2742922
103	0xbe069c1b	-0.13145487
104	0x3c12c6c0	0.0089585185
105	0xbd6955a0	-0.056966424
106	0x3ed57fc1	0.4169903
107	0xbe1bdea3	-0.15221648
108	0x3e380e45	0.17974193
109	0xbdbb7f4b	-0.091551386
110	0x3b2474c1	0.0025094005
111	0x3dd55092	0.10415758
112	0x3e14ed37	0.14543615
113	0xbdb59b04	-0.088674575
114	0xbea791f6	-0.32728547
115	0xbdca01e5	-0.098636426
116	0x3ee7f976	0.4530751
117	0x3d3633f3	0.044483136
118	0x3e0e9e91	0.13927676
119	0xbe8c68cd	-0.27423707
120	0xbdb73d8a	-0.089472845
121	0xbe8cb80b	-0.27484164
122	0x3ede2034	0.43383944
123	0x3e6fc4a4	0.23414856
124	0x3f4696d7	0.77573913
125	0xbd8bd78d	-0.068282224
126	0xbed9df34	-0.42553103
127	0xbe79f795	-0.24410851
128	0xbe46c00f	-0.19409202
129	0x3dd94d4f	0.106104486
130	0xbe001cb6	-0.12510952
131	0x3e96bfaf	0.29443118
132	0xbf18584d	-0.59509736
133	0x3ca5e88a	0.020252485
134	0x3e2dcc1a	0.1697239
135	0xbe2d0c11	-0.16899134
136	0xbddccf7b	-0.10781761
137	0x3dae8e21	0.08523203
138	0x3e422f2d	0.18963309
139	0x3a76d550	0.00094159413
140	0x3ea0f336	0.31435555
141	0xbd04eea2	-0.03245414
142	0x3d1a36cd	0.03764992
143	0xbe1e98e4	-0.1548801
144	0xbe5ee25e	-0.2176604
145	0x3e718f1a	0.23589745
146	0x3e6bc653	0.23024873
147	0x3dd28d7c	0.10280892
148	0xbc196e71	-0.00936471
149	0x3eb97aff	0.3622665
150	0xbde206f0	-0.110364795
151	0x3d215b0e	0.039393477
152	0xbe7e1155	-0.24811299
153	0x3e6a5d34	0.22887117
154	0x3d8318c0	0.06401205
155	0xbe7a8d1c	-0.24467891
156	0x3e75946d	0.23982401
157	0xbeaad6a2	-0.33366877
158	0xbe101269	-0.14069523
159	0xbea328a6	-0.3186695
160	0x3ef07e86	0.4697153
161	0x3d018546	0.03162124
162	0x3e942d44	0.28940785
163	0x3eb6fd5f	0.35740182
164	0xbe6877a1	-0.22701885
165	0x3e90c14b	0.2827247
166	0x3f1dc227	0.6162438
167	0xbd9f9e6d	-0.07793889
168	0xbba4b80b	-0.0050268224
169	0xbe373418	-0.17890966
170	0x3de1a2fc	0.11017415
171	0xbeb320b3	-0.34985885
172	0x3f05584f	0.52087873
173	0xbeb26f2d	-0.34850445
174	0x3eaf4d66	0.34238738
175	0x3f2c081e	0.67199886
176	0x3f60728d	0.8767479
177	0xbe588680	-0.21145058
178	0xbd121bc1	-0.035671
179	0xbf347c96	-0.70502603
180	0xbdc34489	-0.095345564
181	0xbee94e23	-0.45567426
182	0xbed1481e	-0.40875334
183	0xbe424c0f	-0.18974327
184	0xbdc8affd	-0.09799192
185	0xbef5d690	-0.4801526
186	0x3ec80fc6	0.39074534
187	0xbf10bf55	-0.5654195
188	0x3ed451f5	0.41468778
189	0xbd77510a	-0.06038002
190	0x3e2e1402	0.1699982
191	0x3eb08d14	0.34482634
192	0x3e77b0f2	0.24188593
193	0xbdbc3211	-0.09189237
194	0x3e8926fb	0.26787552
195	0x3e075753	0.13216905
196	0x3f20cfe3	0.6281721
197	0x3f3f8fac	0.748286
198	0xbe7325cd	-0.23744889
199	0x3efcb2fc	0.49355304
200	0x3d3d0cce	0.04615479
201	0x3e8f63fc	0.2800597
202	0xbe4b1ac5	-0.1983443
203	0xbec728dc	-0.3889836
204	0xbe15b686	-0.14620408
205	0xbdda88bb	-0.106706105
206	0x3e5b300b	0.21405046
207	0x3e8b2b33	0.27181396
208	0xbd0ee98c	-0.034890696
209	0x3e065d13	0.13121442
210	0x3e239d4b	0.15977971
211	0x3ea13cff	0.3149185
212	0xbea6cf48	-0.32580018
213	0x3de85401	0.113441475
214	0x3e1442cb	0.14478604
215	0xbe85de1a	-0.26146013
216	0xbb7ee1ae	-0.003889184
217	0xbe33f7b8	-0.17574966
218	0x3e921bd8	0.28536868
219	0x3f29dec6	0.6635555
220	0x3ea1b301	0.31581882
221	0xbc72ff7a	-0.014831418
222	0x3b879f06	0.00413883
223	0xbe0d0708	-0.13772213
224	0x3e78c976	0.24295601
225	0x3c3cbe8b	0.011520038
226	0x3e756040	0.23962498
227	0x3e713f75	0.23559363
228	0x3f24adda	0.64327776
229	0xbeca4b0d	-0.39510384
230	0xbe024eb7	-0.1272534
231	0x3e970130	0.29493093
232	0xbe70ebbd	-0.23527427
233	0x3f212e41	0.629612
234	0xbc5515cd	-0.013005686
235	0x3ee9f6fe	0.45696253
236	0xbf0c40e1	-0.547865
237	0x3f342bb5	0.7037919
238	0xbe574a5b	-0.21024458
239	0xbe3ed0fe	-0.18634412
240	0xbea59d1e	-0.32346433
241	0x3e734a44	0.23758799
242	0xbec825b7	-0.39091274
243	0x3d7f0265	0.062258143
244	0xbda5ebfc	-0.08101651
245	0x3e8ee69b	0.27910313
246	0x3ea4f372	0.32216984
247	0xbe5a74ec	-0.21333665
248	0xbe4f4dc0	-0.20244503
249	0x3c65197c	0.013983127
250	0x3de5f167	0.112276845
251	0x3f1410c8	0.57838106
252	0x3eaf7295	0.34267107
253	0x3e8ce5d8	0.27519107
254	0xbe9ade50	-0.30247736
255	0xbeb2281d	-0.3479623

model.dense3.bias f4 [16]
0	0x3e8b7700	0.27239227
1	0xbdde2ddc	-0.10848591
2	0x3d2fd4af	0.04292744
3	0xbe41ac9a	-0.18913499
4	0x3e5ad86a	0.21371618
5	0xbeaa8eb8	-0.3331201
6	0xbe973334	-0.29531252
7	0x3d74f512	0.05980403
8	0xbdda5095	-0.10659901
9	0x3e0a9fa1	0.13537456
10	0x3ee20b59	0.44149283
11	0x3f407594	0.7517941
12	0x3d5088a3	0.050911557
13	0xbe950d93	-0.2911192
14	0x3e5585d6	0.20851836
15	0xbe6f45d0	-0.23366475

model.output.weight f4 [10, 16]
0	0x3f169fc3	0.5883753
1	0x3e964cbe	0.29355425
2	0xbdf16717	-0.11787241
3	0x3decd509	0.11564071
4	0xbf2a0765	-0.66417533
5	0xbed946d9	-0.42436865
6	0xbea86228	-0.32887387
7	0x3c06063c	0.008180197
8	0xbe46fd96	-0.19432673
9	0xbd93eec6	-0.07223277
10	0xbf9698d3	-1.1765388
11	0xbe33e99a	-0.1756958
12	0xbf21e072	-0.632331
13	0x3e608717	0.21926533
14	0x3f2c052c	0.6719539
15	0x3f323ac4	0.6962092
16	0x3c1557d8	0.009115182
17	0xbd8b6bbd	-0.06807659
18	0xbf33cc55	-0.7023366
19	0x3d02fed5	0.031981308
20	0x3dce5ab8	0.10075897
21	0x3efd1b9d	0.4943513
22	0x3e618475	0.22023185
23	0xbf0c476c	-0.5479648
24	0x3ba826d6	0.0051315827
25	0x3e3e8bc9	0.18608011
26	0x3f2e7c9e	0.681589
27	0xbee15548	-0.44010377
28	0x3f474b61	0.77849394
29	0xbde49db4	-0.11162892
30	0xbf4fd52a	-0.8118464
31	0xbebf16ad	-0.37321988
32	0xbf19bb83	-0.60051745
33	0x3f595bf3	0.8490593
34	0xbed86db4	-0.42271197
35	0xbd3775e6	-0.04479017
36	0x3e316616	0.17324099
37	0x3e98762f	0.29777667
38	0x3eca8143	0.39551744
39	0x3e5fa1c0	0.21839046
40	0xbda2b511	-0.07944692
41	0x3e574159	0.21021022
42	0xbf0478f8	-0.51747084
43	0x3cbbfa51	0.022946509
44	0x3f213973	0.62978286
45	0xbea6eadb	-0.32601056
46	0x3db73bd4	0.08946958
47	0x3e889b6f	0.26681086
48	0xbd3e7986	-0.046502613
49	0x3eda64b3	0.42654952
50	0xbd00e45e	-0.031467788
51	0x3e99e002	0.30053717
52	0x3f1e942c	0.6194484
53	0xbd004299	-0.031313512
54	0xbe2bc999	-0.16776122
55	0x3e44e45b	0.19227736
56	0x3ee8f4a3	0.45499143
57	0x3ebd2ff0	0.36950636
58	0x3e2f11a5	0.17096575
59	0xbf0d13a7	-0.5510811
60	0xbd5b10d6	-0.053482853
61	0x3e87faa2	0.26558405
62	0xbf0d1857	-0.55115265
63	0x3eb07a2b	0.34468207
64	0xbe1d6584	-0.15370756
65	0xbf07c9a8	-0.5304208
66	0x3f3b189d	0.7308443
67	0xbdd04608	-0.101696074
68	0xbf264d62	-0.64961827
69	0xbe0bcdf3	-0.13652782
70	0x3ecd1934	0.4005829
71	0xbe096a37	-0.13419424
72	0x3e072355	0.13197072
73	0x3e44e535	0.1922806
74	0x3e043935	0.12912448
75	0x3f7b3b41	0.9813729
76	0xbd3123c4	-0.043247
77	0xbf034c11	-0.51287943
78	0x3e494bae	0.19657776
79	0xbf1fd5e2	-0.62435734
80	0x3f8450ac	1.0337119
81	0x3e30c339	0.17261972
82	0x3c85a417	0.016313596
83	0xbdecfd9e	-0.11571811
84	0xbe6a54f6	-0.22883973
85	0xbdfb1127	-0.12259131
86	0xbf3a80bd	-0.7285269
87	0xbedbe4dd	-0.42948046
88	0x3df04ecb	0.117337786
89	0xbe430eed	-0.19048662
90	0x3eac21ab	0.33619437
91	0xbe9d3826	-0.307069
92	0xbe522546	-0.20522031
93	0x3c4527ca	0.012033412
94	0xbe6196be	-0.2203016
95	0x3dac64ab	0.084176384
96	0x3e97343e	0.29532045
97	0x3e1bbe09	0.15209211
98	0x3e7021ca	0.2345039
99	0xbdeb7d9a	-0.11498566
100	0xbf270ecd	-0.6525696
101	0x3e4a2b9d	0.197432
102	0x3e264ee8	0.16241038
103	0xbf29bcdc	-0.663038
104	0xbd1734cd	-0.03691559
105	0x3dac1a6d	0.08403478
106	0xbf213038	-0.629642
107	0xbed7359b	-0.42033085
108	0x3e886916	0.26642674
109	0xbec845ec	-0.39115846
110	0x3f604d92	0.8761836
111	0xbead0cac	-0.3379873
112	0xbf8247aa	-1.017812
113	0xbe806def	-0.25083873
114	0xbecd1f08	-0.40062737
115	0x3f26ccf4	0.65156484
116	0x3f15c2e3	0.585005
117	0xbde69ab6	-0.112599775
118	0x3d89639d	0.06708453
119	0x3eb29a33	0.3488327
120	0x3cb3d6f6	0.021953087
121	0x3e3d4285	0.18482406
122	0x3f1b63cd	0.6069916
123	0x3ef1b6b2	0.47209698
124	0x3e34f3de	0.17671153
125	0xbe73de1f	-0.23815201
126	0xbe035889	-0.12826742
127	0xbe4590c4	-0.19293505
128	0xbccff0b9	-0.02538334
129	0x3e825eae	0.2546286
130	0x3f03f3a1	0.51543623
131	0xbeb1f515	-0.34757295
132	0x3cb58c47	0.022161616
133	0x3e03239b	0.12806551
134	0x3f052f09	0.52024895
135	0x3ec5307b	0.3851355
136	0xbef91287	-0.48646948
137	0xbe8db1a5	-0.27674595
138	0x3eb45f63	0.35229024
139	0xbf65a1e2	-0.8970014
140	0x3d8e2129	0.069399185
141	0x3e39b643	0.18135934
142	0xbdf7fb5b	-0.12108489
143	0x3ddc4345	0.10755018
144	0x3da6ffc7	0.081542544
145	0xbf0cdaf7	-0.55021614
146	0x3f05a940	0.5221138
147	0xbec5226a	-0.38502818
148	0x3df002f2	0.11719312
149	0xbe5e26b4	-0.21694452
150	0xbc0456ee	-0.008077366
151	0x3f16bacb	0.58878773
152	0x3e5bd59a	0.21468201
153	0xbd87d698	-0.066327274
154	0x3e8d0c39	0.27548388
155	0x3f07717b	0.5290753
156	0xbf19c43a	-0.6006504
157	0x3f06089c	0.52356887
158	0xbf22462a	-0.6338831
159	0x3da30db3	0.07961597

model.output.bias f4 [10]
0	0x3e40bcb5	0.18821986
1	0x3b3f5d2d	0.0029199824
2	0xbcf4584a	-0.029827256
3	0xbc9b4c2e	-0.018957224
4	0x3ea45e33	0.32103118
5	0x3e8f163e	0.27946657
6	0xbe891995	-0.2677733
7	0x3da20717	0.079115085
8	0xbf350c65	-0.7072204
9	0xbe283dbb	-0.16429798
