Models/model_optRMSprop_ep10_neu32_lay2_acc0.9190.pth (torch, 108324 bytes, 8 tensors)

model.input.weight f4 [32, 784]
000000 70 5d 31 3b eb 6c 08 bd 90 8e 90 3c 4e 0d e0 3c
       0.002706375 -0.033306997 0.017646104 0.027350094
000010 86 a0 f5 3c f3 fe a5 bc 72 4f 99 3c ba 79 e2 3c
       0.02998377 -0.02026317 0.01871464 0.027645934
000020 14 53 0a 3c 15 d9 07 bd 2d b6 0f 3d e6 8c e1 3c
       0.008442659 -0.03316601 0.035085846 0.027533006
000030 48 f8 51 3c 30 df 3c 3b 35 b1 85 bc 1a 3f c6 bc
       0.0128155425 0.0028819554 -0.01631985 -0.024200011
000040 7a 28 c0 3c 5c 6d 27 bc 80 cf 5a bc 3c 56 02 3c
       0.0234568 -0.010218944 -0.013355136 0.00795513
000050 12 cd 3b bc 2a 5b 6d bc a0 fa 40 bc 2a c7 1f bc
       -0.011462467 -0.014487067 -0.011778504 -0.009752074
000060 8e 28 a7 3c d5 88 a8 bc 40 ec 49 ba 26 e1 9f 3c
       0.02040508 -0.02057306 -0.00077027455 0.019516539
000070 2a 29 e8 bc 36 3b fc 3c d6 a9 06 bd dc c9 b3 bc
       -0.028339941 0.030789953 -0.032876812 -0.02194684
000080 1e 33 85 bc 12 bd 0b bc 3c 70 94 bc 54 80 e4 bb
       -0.016259726 -0.008528965 -0.018119924 -0.0069733057
000090 f8 dc b2 bc a0 82 53 bb 30 71 7f bb a0 d1 ce 3c
       -0.021833882 -0.0032273903 -0.0038977377 0.025246441
0000a0 9c e9 e4 bb d8 d0 0a bd ff 32 10 3d c8 81 a6 bc
       -0.006985856 -0.033890575 0.035204884 -0.020325556
0000b0 9e 53 ee bc 94 77 21 3c 3c 08 58 bc 0d 94 11 3d
       -0.029092606 0.00985517 -0.013185557 0.035541583
0000c0 2e ea 1a bc e8 f7 8a 3c a6 20 43 bc 60 8c 51 bc
       -0.009455247 0.016963914 -0.011909639 -0.012789816
0000d0 40 8a eb 3b ec 8b ec bc 53 37 be bc 8c dc d4 3c
       0.0071881115 -0.028875314 -0.02321974 0.025984071
0000e0 dc c3 e0 bc c3 8e b0 bc 6a f7 11 bd 90 dc 73 3b
       -0.027437143 -0.02155245 -0.035636343 0.0037210323
0000f0 ac d1 85 3c 98 27 b9 3c 38 4f 7e bc c0 e7 04 bc
       0.01633533 0.022601888 -0.015521817 -0.008111894
000100 dc 9d 47 3c c0 5a c9 3a ca c8 47 bc 04 5f 3d 3c
       0.012183633 0.0015362129 -0.012193868 0.011558298
000110 ae bf 62 bc 3c e3 56 3c 71 4d f4 bc 77 fc 04 bd
       -0.013839645 0.0131157 -0.029822083 -0.03246733
000120 e0 e9 45 3b 5e 39 de bc 70 22 61 3b b0 06 66 3b
       0.0030199215 -0.027126964 0.0034352802 0.00350992
000130 1e 3f ff bc 00 f4 9d 3b c6 13 72 bc 16 3b f0 3c
       -0.031158026 0.004820347 -0.014775222 0.02932505
000140 70 93 c9 bc 68 81 db bc 2c e0 04 bd fc 81 90 bc
       -0.024606436 -0.026795104 -0.03244035 -0.017640106
000150 e8 f7 90 3c 48 73 46 3c 28 20 0d bd e3 af f0 bc
       0.017696336 0.012112446 -0.034454495 -0.029380744
000160 fc 0d 28 bc e6 3b 7e bc 70 97 46 3c 38 3a 49 bc
       -0.01025724 -0.015517211 0.012121066 -0.012281947
000170 b0 e6 f8 bb 8f fc 0b 3d 8e eb c8 bc b2 c6 0f bc
       -0.0075958595 0.034176406 -0.024526384 -0.0087754
000180 a4 6e 8b 3c 00 d9 a6 39 9c bc 88 3c f5 b9 34 bb
       0.017020531 0.00031823665 0.016691498 -0.002757666
000190 21 d1 e9 3b 27 81 ab 3c cc 63 d9 3c fe ce c0 bc
       0.007135526 0.020935608 0.026536845 -0.023536202
0001a0 26 1a b4 3c d0 d7 24 3c 90 53 86 3b 43 49 c6 bc
       0.021985125 0.010061219 0.004099317 -0.024204856
0001b0 34 0d 45 3c 4a f4 7d bc 67 ac a1 bc 59 09 02 3d
       0.012027074 -0.015500138 -0.019735528 0.031747196
0001c0 0a 8a f3 bc ca 18 0d bd e4 27 f6 bb 0b 79 11 3d
       -0.029728908 -0.03444747 -0.0075120796 0.035515826
0001d0 1c a0 bb bc 32 50 d9 3c 48 f3 1d 3c b0 ea 86 3c
       -0.022903495 0.026527498 0.009640522 0.01646933
0001e0 36 f4 ac 3c 6e d4 76 bc 1b ca f4 bb 1b a8 2f bd
       0.021112543 -0.015065296 -0.007470382 -0.042884927
0001f0 34 b8 8b 3c 62 48 c3 bc b7 bb 5c bc 1e 67 c1 3c
       0.017055608 -0.023838226 -0.013472489 0.02360874
000200 6c 38 85 3c 7b 1f ff 3c ba c4 f6 bb 12 1d 63 bd
       0.016262256 0.03114294 -0.007530776 -0.055447645
000210 b4 bf c8 3b 02 15 7f bc 51 44 ff bc 1e bd fb 3c
       0.0061263684 -0.0155689735 -0.031160505 0.030729827
000220 35 fc eb bc be 10 85 3c fc 50 3d 3c 8e 75 9e bc
       -0.028806785 0.016243335 0.011554953 -0.019343164
000230 8a 82 55 bc 18 46 b5 bc 85 a7 c9 bc 7e 44 a6 3c
       -0.013031611 -0.02212815 -0.024616012 0.020296331
000240 7c 77 c8 3c 50 d9 82 3b 24 09 bb 3a 3e 79 d6 3b
       0.024471037 0.003993191 0.0014269692 0.006545215
000250 53 ea 37 bd 56 6d 45 bc b0 a3 29 bc 39 8f 18 bd
       -0.044901203 -0.0120499935 -0.010353968 -0.037245963
000260 12 ae d7 3c 96 6b bf bc 59 dd 91 bc 12 cc 26 3b
       0.02632812 -0.02336673 -0.017805742 0.0025451225
000270 13 b1 ac ba 0b bd 70 bb 22 8e af 3a 01 32 db bc
       -0.0013175331 -0.0036733772 0.0013393799 -0.026757242
000280 08 48 16 ba 58 1e 26 bd 59 6a 58 3b 53 cf 8f bc
       -0.00057327794 -0.04055628 0.0033022373 -0.017554915
000290 b8 a1 89 bc 8e 67 fe 3c bc 8e 12 bc a2 d0 a6 3c
       -0.016800746 0.031055238 -0.008945163 0.020363156
0002a0 48 d7 f9 bb a6 05 ac 3c 76 54 b5 3c df e4 02 bd
       -0.0076245405 0.020998787 0.022135 -0.03195655
0002b0 0e d0 89 3c 24 4e e3 bb 08 af dd bc c3 80 1c bd
       0.016822841 -0.0069368053 -0.027061 -0.038208734
0002c0 eb 8c 15 bd ea bf f0 bc 35 09 62 bc bc 3a 4e bc
       -0.036511343 -0.029388387 -0.01379614 -0.012587246
0002d0 77 4d a8 bc 44 07 65 bc 5a 50 7d bb 11 7c 1c 3c
       -0.02054475 -0.013978783 -0.003865263 0.009551064
0002e0 c2 3e 09 bd 5c 65 cf bc 06 9b 86 3c b2 77 48 3c
       -0.033507116 -0.025316887 0.016431343 0.012235569
0002f0 bc 4c a8 3c 00 69 b4 bc e7 c3 9d 3c a1 0e d0 3c
       0.020544402 -0.022022724 0.019258453 0.0253976
000300 9f 47 b2 bc 90 6c 42 bb c8 b4 7e 3c 7e 67 da bc
       -0.021762667 -0.002966676 0.015546031 -0.026660677
000310 f8 ee b7 3c 0e 66 c7 3c 66 97 cd 3c d2 d7 e1 3c
       0.022452816 0.024340656 0.025096606 0.027568731
000320 ac 43 9b 3c e4 0c 01 bc d2 77 11 bd a2 03 ae 3b
       0.018953167 -0.0078766085 -0.03551466 0.0053104917
000330 94 1b 23 3c 53 60 c3 bc 7a 83 65 bb 9a 89 67 bc
       0.009955306 -0.023849642 -0.0035020993 -0.014131928
000340 a5 5d 56 bc e3 c8 3f bc 48 40 3a bc 3a d8 7b 3c
       -0.01308385 -0.01170561 -0.011367865 0.015371377
000350 58 18 15 bd 33 f9 97 bb c3 45 14 bc 5f 2a 76 3c
       -0.03640017 -0.004637861 -0.009049836 0.0150247505
000360 ad 65 48 bd d6 3d b6 3c ba 19 14 bd 23 52 88 3b
       -0.04892509 0.022246283 -0.036157347 0.004160182
000370 0c cd 9a 3c f5 60 ac bc a6 7c 1a bc e2 f9 06 bd
       0.018896602 -0.021042326 -0.009429133 -0.03295315
000380 ee a7 fa 3c 9c 4f a7 bc e6 54 51 bc b0 dd 25 bb
       0.030597653 -0.020423703 -0.012776589 -0.0025309138
000390 a0 27 cf 3b b7 3a 8c bc 3a 2b 1a bd 83 c0 d1 3c
       0.0063218623 -0.017117841 -0.03763888 0.025604492
0003a0 18 1a 1d bd 93 d7 ba ba 36 cb 3e bc 57 1f bf 3b
       -0.038354963 -0.001425492 -0.011645129 0.0058325934
0003b0 3b 7d b4 bc ad 3b 94 3b c5 87 ae bc e0 57 02 bc
       -0.02203237 0.0045237155 -0.021304974 -0.007955521
0003c0 72 e8 e9 bb 19 36 bc 3a 6c cc 88 bc 59 71 60 bc
       -0.0071383053 0.0014359384 -0.016699038 -0.013698899
0003d0 5b 96 ac 3b 10 e6 c3 ba e9 21 69 3c 4d 71 8b 3c
       0.005266947 -0.0014945883 0.014229276 0.0170218
0003e0 7e 95 c4 3c 50 51 82 3b 6d 94 05 3d 0e 5a f0 bc
       0.023997065 0.0039769784 0.032612253 -0.029339816
0003f0 c0 16 70 3c 70 cb b0 3b 2e 53 66 bc 70 fb 54 3c
       0.0146538615 0.0053953454 -0.0140579175 0.0129994005

model.input.bias f4 [32]
000000 9d 4b 7d 3c ab b1 bf 3d c1 23 ce 3b bc dc 92 3d
       0.015459922 0.09360059 0.0062908833 0.07171008
000010 53 44 cb 3d 32 11 da 3d 3f e0 c4 bb 2b ac 12 3d
       0.09925141 0.10647811 -0.0060081775 0.035808723
000020 7c 51 71 bd 0f 15 71 bd 53 d1 e7 3c 60 0c 22 bd
       -0.0589156 -0.058857974 0.028298056 -0.039562583
000030 4d eb 7d 3e be 5d 91 bb 0b 4d 31 3d 59 09 40 3e
       0.24796791 -0.004436224 0.043286365 0.18753566
000040 3d fe b2 3d 5c dd 31 bd a0 7b 3b 3d ef b3 73 3d
       0.08739898 -0.043423995 0.045772195 0.05949777
000050 12 19 90 bc 3d ed 2b 3e e8 ec c9 bc cf 8c 69 3d
       -0.01759008 0.16789718 -0.024649099 0.05701905
000060 0e 6f 8f 3d 99 61 08 3d ca 3c 7b bc fc a4 8c 3d
       0.07003604 0.0332962 -0.015334317 0.06867406
000070 cf 2f 21 3e a8 66 01 3e bc 4f 99 3d 47 38 71 3a
       0.15740894 0.12636817 0.07485911 0.00092018064

model.dense1.weight f4 [16, 32]
000000 7d 72 2d be 2f 05 25 be 10 8a 41 bd 18 37 0f be
       -0.16938205 -0.16115259 -0.047250807 -0.1398586
000010 95 c2 0d 3e 68 a6 05 be 06 22 e9 3d 10 6e 37 bc
       0.13843758 -0.1305176 0.113834426 -0.011195675
000020 9d 8c e8 bd 84 8f 21 be e6 eb b2 3d 37 f1 29 3e
       -0.11354945 -0.15777403 0.087364 0.16595922
000030 72 6d f4 3d 1e 5b ad 3d 36 f0 c0 3d 40 f6 ca 3c
       0.119349375 0.08464645 0.094208166 0.024775624
000040 d4 97 1e be 5c c2 44 3d 00 00 25 be 26 ff f7 bd
       -0.15487605 0.048036918 -0.16113281 -0.121092126
000050 d6 2b 92 bd 5b f4 14 be 00 6d e4 3b 47 b5 20 be
       -0.07137267 -0.14546339 0.0069710016 -0.15694152
000060 88 d9 fb bd d4 cd 23 be 0c af 2f 3d 7d e3 ca bd
       -0.1229735 -0.15996486 0.042891547 -0.09906671
000070 48 48 93 bd 64 6f 31 bd da 5f 32 be c0 65 ab 3c
       -0.07191521 -0.04331912 -0.17419377 0.020922542
000080 53 d2 0b 3e 83 2b 2e 3e 2e 08 31 3e c9 28 49 be
       0.13654451 0.17008786 0.17288277 -0.19644465
000090 62 61 4e 3e 69 b4 ef 3d d7 b7 97 3e 81 45 9c be
       0.20154336 0.117043324 0.29632446 -0.30521777
0000a0 c7 5f 5d 3e 98 4d 78 be a1 9c 47 3e 5b 70 0d 3e
       0.21618567 -0.2424835 0.19493343 0.13812391
0000b0 83 27 0b be 27 76 2e 3b 63 e2 5b be 63 42 4d bd
       -0.13589291 0.0026620717 -0.21473078 -0.05011214
0000c0 3c 01 99 3c da 31 16 bc 01 95 1f 3d 07 00 f9 3d
       0.018677346 -0.009167159 0.03896046 0.12158208
0000d0 0f d0 b6 bd fb d8 16 be a8 f8 79 3e 30 1d de be
       -0.08926403 -0.14731209 0.24411261 -0.43381643
0000e0 0c 24 2f 3d 9f 34 40 3d 1a ed 31 be 2a 1d 83 3c
       0.042758986 0.046925183 -0.17375603 0.016005117
0000f0 c4 2b cc be b1 a3 d1 be c2 4a 89 3e 7d 2c ac 3e
       -0.3987714 -0.409452 0.26814848 0.33627692
000100 62 b5 68 3d 9e b5 fb 3d ac f5 88 3d fd 0c 1d bf
       0.056813605 0.122905 0.06687483 -0.61347944
000110 1e 2f fa 3d e2 2a 29 3e 9d a3 ab 3d 89 e6 fc be
       0.12216018 0.16520265 0.08380816 -0.49394634
000120 b3 28 ba 3d a6 00 aa be c9 e9 00 3e 4a 7c 95 3d
       0.09089794 -0.3320362 0.12589182 0.07299097
000130 5d 3d 01 3f 4c 11 03 3d 8d 55 4f bd 1c 26 b1 3d
       0.5048426 0.031998917 -0.050618697 0.08649847
000140 01 62 3c 3f eb 93 dd bd f1 77 a8 3c 5a cb d4 3e
       0.7358704 -0.10819229 0.020565005 0.41561395
000150 57 1f 69 be a5 20 46 3e c5 aa e2 3d d8 0b c1 3e
       -0.22765861 0.1934839 0.11067728 0.3770435
000160 97 d1 5f 3e 7d 09 55 3e a9 27 9d bd c4 44 f8 3e
       0.21857296 0.208044 -0.0767358 0.48489964
000170 18 8c 0a be 26 80 82 3e ea 0e 26 bd bc 22 40 3e
       -0.13530004 0.25488394 -0.040541567 0.1876325
000180 a7 fd 0e be bf c9 85 be ba 84 18 3e cb c4 f9 3d
       -0.13963948 -0.26130483 0.14894381 0.121957384
000190 36 76 81 3e 98 9b 58 3c 8f c4 82 3d 98 0b f9 3e
       0.252855 0.01322069 0.06385147 0.48641658
0001a0 25 c9 45 3e 39 21 cf bc 82 fc aa 3e 70 46 cf 3d
       0.19315012 -0.025284396 0.33395773 0.10120857
0001b0 f1 5e 94 3e e1 7d ac 3d c0 e6 f1 3c bc ea 70 3e
       0.28978685 0.08422447 0.029528975 0.23527044
0001c0 58 13 25 3e 75 10 3f 3d 44 27 97 3e f6 3b e7 bd
       0.1612066 0.046646554 0.29522145 -0.112907335
0001d0 a6 3b 9d 3d 5a 76 99 be 5b 20 bc be 6d d1 df bd
       0.07677393 -0.29973108 -0.36743435 -0.10928617
0001e0 30 14 c9 3d 6a 33 95 3e 44 24 48 3e 72 6d 1c 3e
       0.098183036 0.29140788 0.19545084 0.15276125
0001f0 ec ea 0b 3e 40 b3 a5 3d b0 a8 c6 3d 67 58 ec 3d
       0.13663834 0.0809083 0.09700143 0.11540299
000200 5c 52 07 3e 18 8c 7c bd b7 ec d2 bd 23 75 63 3e
       0.13215011 -0.06165704 -0.10299056 0.22212653
000210 c7 e9 b2 3e 6f 97 4f 3d 68 8e 28 3d 84 08 91 3e
       0.34943983 0.050681528 0.041151434 0.2832681
000220 e9 75 a1 3e 4a c6 26 3e e2 5c 3c 3e a2 c1 f8 3d
       0.3153527 0.16286579 0.18394807 0.121463075
000230 3b 3f 50 3e 40 ca 33 bd 1f 07 02 be e3 e0 80 3e
       0.2033662 -0.043894053 -0.12698029 0.25171575
000240 96 e7 fd be 42 72 8f be 9a a2 16 ba 0d 85 c6 bd
       -0.4959075 -0.2801686 -0.00057462754 -0.09693346
000250 8e 1a 0a 3e 32 14 8e be 82 84 12 be a8 7f 37 be
       0.13486692 -0.27749783 -0.1430836 -0.1791979
000260 10 75 e8 3d 17 a6 1b bc a6 19 2b 3e 68 fc 22 be
       0.11350453 -0.009500048 0.16709003 -0.15916598
000270 d0 7a 64 be b9 22 5e be e9 79 a8 3e 37 90 ac 3d
       -0.22312474 -0.21692933 0.3290551 0.08425944
000280 77 56 ac 3d 82 8d 99 3e 06 f5 8e be a8 e6 b3 be
       0.08414929 0.29990774 -0.27921313 -0.35136914
000290 35 37 8f be 95 c8 81 3d c2 00 5e bd 96 96 a9 3e
       -0.27971807 0.06337086 -0.05419994 0.331227
0002a0 68 ad ba 3e 2d d8 2e bb 1d 41 00 bf 80 47 72 bd
       0.36460423 -0.0026679144 -0.50099355 -0.05915022
0002b0 59 2e ac 3e d5 33 9a 3c 77 46 fe bd 1f ce 5c 3d
       0.3362911 0.018823544 -0.12415784 0.05390751
0002c0 a3 c7 df bd 0a 28 33 be 80 be a3 3c 1d c3 a1 bc
       -0.109267496 -0.17495742 0.019988298 -0.019746358
0002d0 c5 c0 d0 3e b0 ec f5 3d 56 70 8e 3e d9 58 48 3e
       0.4077207 0.12008035 0.2782008 0.19565143
0002e0 2c 15 3e 3e c2 d9 05 bf d7 c2 09 3f 79 aa 4c 3e
       0.18562764 -0.522854 0.53812927 0.19986905
0002f0 e4 96 5c be c8 86 aa be a7 2e 83 3e 65 35 8e 3e
       -0.21541935 -0.33305955 0.2562153 0.27775112
000300 ef 2a 0e be e5 fe e8 3e 7f 5c 93 3e 6e 73 c5 3e
       -0.13883565 0.4550697 0.28781506 0.38564628
000310 bc f9 7c 3e 3f af 74 3e 1c 9c e0 bd 02 de 08 be
       0.24704641 0.23894976 -0.109672755 -0.1336594
000320 c8 60 97 be 0d 91 98 bd 04 5e 27 be 60 a5 1b 3e
       -0.29566026 -0.07449541 -0.16344458 0.15199804
000330 7c 10 68 be 34 65 01 bd 70 99 53 bd 09 57 55 3e
       -0.22662538 -0.031590655 -0.05166 0.20833983
000340 4e 8f e3 be 11 42 48 be 89 c4 f9 3d 97 64 8b 3d
       -0.4444527 -0.19556452 0.12195689 0.06806295
000350 ac 3f 0e 3f 42 43 ce 3e cb 6f 3b ba a5 d8 ab bd
       0.55565906 0.4028569 -0.00071501423 -0.08390931
000360 83 01 2c 3d 7c c5 cd be 31 d1 83 be 7b d6 48 bd
       0.04199363 -0.4018973 -0.25745538 -0.04903267
000370 5b 18 0d 3f fc f1 af 3d b4 c5 87 3e f9 58 a0 3e
       0.5511529 0.08591077 0.26518023 0.3131788
000380 ce 18 0c be 15 27 3c 3e 2e 82 bb 3c 17 2b 96 3d
       -0.13681337 0.18374284 0.022889223 0.073324375
000390 40 a9 d0 3e 6d 53 02 3d 5b ca e4 3c ef 4e ae be
       0.40754128 0.031817842 0.027928522 -0.34044597
0003a0 c2 39 72 be 9b 6d 6d be d1 45 d0 3d 63 2f b8 3d
       -0.23654845 -0.23186342 0.101695664 0.08993413
0003b0 48 92 84 3e 00 88 63 39 03 b8 bb be 9e 37 02 3d
       0.25892854 0.00021699071 -0.36663827 0.031791322
0003c0 ee 79 0f 3e f1 81 c4 bd 03 fb fb bd 89 42 54 3c
       0.14011356 -0.09595097 -0.12303736 0.012955316
0003d0 37 0c c1 bd 86 71 73 3d f9 27 dd 3d 04 e5 46 3f
       -0.09426158 0.059434436 0.1079864 0.776932
0003e0 42 34 9e 3e 19 8c bc be 8a 50 0a be 0f fc b6 bd
       0.30899245 -0.36825636 -0.13507286 -0.08934795
0003f0 26 36 96 3e 90 88 54 3e dc 20 b5 bd 97 d3 80 bd
       0.29338187 0.2075522 -0.08844158 -0.062903576

model.dense1.bias f4 [16]
000000 cb 95 af bd 16 bd dd 3d aa 3e 6f 3e 80 d5 11 3e
       -0.085734926 0.10827081 0.23363748 0.142416
000010 a6 7b 13 bd 1d 8a 32 3e d1 a7 4c 3e 69 85 87 3e
       -0.036006592 0.17435499 0.19985892 0.2646897
000020 82 67 92 3e c5 57 2a 3e 8e 27 3f 3e c7 f0 c2 bd
       0.28594595 0.16635044 0.18667433 -0.09518581
000030 31 24 9e 3d 5c bb 48 3e f2 a3 1a bd bb 6c 2b bd
       0.07721747 0.19602722 -0.037754007 -0.04185174

model.dense2.weight f4 [16, 16]
000000 2e 54 76 3e 34 d2 f8 bd a4 51 3e 3e 62 cb d3 3c
       0.2405555 -0.12149468 0.18585831 0.025853816
000010 24 c7 25 3d 38 c3 a0 bd 92 f0 9d be e1 fe 68 be
       0.04047312 -0.07849735 -0.30847603 -0.22753479
000020 a0 c5 9b be 9a a7 bf bd 5d 44 68 3d 6c 70 30 3e
       -0.30424213 -0.09358139 0.05670582 0.17230386
000030 59 3c 73 be c8 ad 04 3d 49 71 28 be 18 82 6c 3e
       -0.2375349 0.032392293 -0.16449465 0.23096502
000040 fe 23 42 be 2d 3f cc bd ed 37 1b 3e 4e 18 63 be
       -0.18959042 -0.09972987 0.15158053 -0.2217724
000050 d4 6f b7 be fa ec 04 3f 74 58 8f bc 41 07 82 bd
       -0.35827506 0.519241 -0.017498232 -0.0634904
000060 9b 0a 42 be d7 40 b3 3d ec 6c b3 3d 77 e3 8f be
       -0.18949358 0.087526016 0.087610096 -0.2810323
000070 a0 c0 64 be 99 43 7a be fa 2b 0a 3f 58 0a 63 be
       -0.22339106 -0.24439849 0.5397335 -0.22171915
000080 c4 ad 9a bd 4c be f9 bd f9 04 5b 3e 2e 2c 0e 3e
       -0.075526744 -0.121944994 0.21388616 0.1388404
000090 e0 9a 80 3e 41 68 a0 3e cc 5c 78 3e b1 db 7c 3e
       0.2511816 0.3132954 0.24254149 0.2469318
0000a0 2d 85 23 3f be f2 d2 be 6a 6f f8 3e 98 2d d7 bd
       0.63875085 -0.41200823 0.48522502 -0.10506743
0000b0 f8 d8 bc 3b f6 e1 a3 be 50 03 1f be 03 d8 2f 3e
       0.0057631694 -0.32008332 -0.15528607 0.17172246
0000c0 0e ac 32 be e0 b6 fd bd c2 c7 d3 3d 3a f7 3d 3e
       -0.17448446 -0.12388396 0.10340835 0.1855134
0000d0 7d 8c dd 3c 83 ed 14 3e 2a 6c 1e 3e 29 87 f8 3e
       0.02704453 0.14543729 0.15470949 0.4854062
0000e0 fc 7b c9 be eb 40 31 3d a0 55 1f 3f 7e 90 e3 3d
       -0.39352405 0.0432748 0.6224003 0.11111544
0000f0 f8 b2 8e be 0a 9d 47 be 81 05 de bc 2b 3c 0c 3e
       -0.27870917 -0.194935 -0.027102234 0.13694827
000100 88 bb 92 bd ca 20 82 be 7b c3 89 3d ab aa 10 bc
       -0.07164675 -0.2541564 0.06726738 -0.008829753
000110 b2 fc 0b 3e f4 6e c2 3e 45 95 55 be 88 ea 83 bd
       0.13670614 0.37975276 -0.20857723 -0.06441218
000120 da 6c 75 3e 38 7f c8 3d 48 25 8a bd 25 d5 e4 be
       0.23967305 0.0978989 -0.06745392 -0.44693866
000130 cf 27 81 be d1 c6 e8 3e df ff 42 be 8a a1 fe 3a
       -0.25225684 0.45464185 -0.1904292 0.0019426805
000140 68 6a cc 3d 72 1d 8d 3d bc 34 d2 3e a8 8f ff bd
       0.09981233 0.06890382 0.41055858 -0.12478572
000150 f6 1d 08 be 82 18 06 bd ed 43 c7 3d d0 62 31 3e
       -0.13292679 -0.032738216 0.09729753 0.1732285
000160 b4 49 84 be b0 81 51 be 22 f9 a2 be 52 ed 80 3e
       -0.2583748 -0.20459628 -0.31830698 0.2518106
000170 b1 73 35 3e fc 77 0c be 1a aa b5 3e 8f eb b1 bc
       0.17719914 -0.13717645 0.3548134 -0.021718768
000180 f0 e0 47 3d 44 d6 1a be 84 d1 75 3d e4 04 27 3e
       0.0487985 -0.15120798 0.060014263 0.1631046
000190 ba fe 19 3e 85 c7 62 be 8e 4b 92 be 33 b5 b8 bd
       0.15038577 -0.22146423 -0.2857327 -0.09018936
0001a0 13 b9 6f be 71 6f 5d 3d 4b d0 3c 3e 96 c0 32 be
       -0.23410444 0.054061357 0.18438832 -0.17456278
0001b0 29 aa 22 3e cd 82 74 bd 46 f0 37 be e0 b4 e9 3d
       0.15885223 -0.059695054 -0.17962751 0.11411452
0001c0 80 c2 bd bb 90 26 00 bf 6e 88 8c bd 1a d9 0f be
       -0.0057910085 -0.5005884 -0.068619594 -0.14047661
0001d0 9b dc b1 be ee f3 f6 bd 75 ce d1 3e eb f0 ac 3e
       -0.3473862 -0.12058245 0.40977827 0.33777556
0001e0 d5 1c eb 3d fd 9f 0b bd b9 4b 25 3e 86 b5 2e be
       0.11480109 -0.034088124 0.16142167 -0.17061433
0001f0 86 21 89 3e 99 c0 69 bd 55 ff 80 3e 37 26 19 3d
       0.2678339 -0.05706844 0.25194803 0.03738996
000200 00 2d f4 3b 88 04 97 be 9a e1 9f 3e 25 86 3a 3e
       0.0074516535 -0.29495645 0.31226808 0.18215235
000210 0c 22 b6 be 82 08 bf bd 3b e4 eb 3d d9 52 20 3f
       -0.3557285 -0.093277946 0.11518141 0.62626415
000220 8d 74 db 3e b8 70 8d be 64 e7 29 bc 43 b7 81 3d
       0.4286236 -0.2762506 -0.010370109 0.063337825
000230 b5 c7 ae bd 97 2b b2 3e 17 b3 37 be 24 74 6d 3e
       -0.08534185 0.3479888 -0.17939411 0.23188835
000240 18 3a 19 be b8 02 a4 be a6 82 38 3d 71 9d 96 3e
       -0.14963567 -0.32033324 0.04504647 0.29416993
000250 c9 b5 95 bd e5 9e 75 3e 68 7e 8a be 8f fa fb bd
       -0.073100634 0.23986395 -0.27049565 -0.1230365
000260 af a9 af bd f7 ef 9b 3e 9b f3 e3 3e 8b 65 92 bd
       -0.085772865 0.30456516 0.44521794 -0.07148274
000270 c1 5c 8d be 06 d5 8c 3e 81 f2 64 3e 2b de 6a bd
       -0.27609828 0.27506274 0.22358133 -0.057340782
000280 88 20 73 be d5 90 8c 3e e8 6a c6 3e 58 82 55 3e
       -0.23742878 0.27454248 0.38753438 0.20850503
000290 c3 7e 3f be fa 83 76 bd 21 89 2a bd 28 15 19 3c
       -0.187007 -0.060184456 -0.041634683 0.009343423
0002a0 b7 84 2c be bd 71 ea 3e 20 e6 21 bc 4d de ae bd
       -0.16847502 0.457899 -0.009881526 -0.08538494
0002b0 71 13 22 be 04 d1 c2 3e 21 69 af be d4 85 63 3e
       -0.15827729 0.3805009 -0.34259894 0.2221902
0002c0 cc f0 92 bd b6 47 41 be a2 d8 37 3e 04 28 9e be
       -0.071748346 -0.18875012 0.17953733 -0.30889904
0002d0 a3 b6 35 bd aa 33 4d 3e 19 2e ec 3d 18 1a 51 3e
       -0.04436363 0.2003924 0.1153223 0.2042011
0002e0 60 e6 7f bb e6 0e da 3e 0a 5e ce 3d 9e 75 51 be
       -0.0039047226 0.42589492 0.1007653 -0.20455024
0002f0 92 2c 31 be 2f 63 16 3e 88 75 e4 be 4b ff 11 3d
       -0.17302158 0.14686273 -0.4462092 0.035643857
000300 72 fb 32 3e 67 b0 56 be ef c5 21 3d 5f 29 93 3e
       0.17478731 -0.2096573 0.039495405 0.287425
000310 4d fd 83 be d5 27 0b be 45 a4 a4 3e 37 b1 13 bf
       -0.2577919 -0.13589413 0.32156578 -0.57692283
000320 d0 97 08 3f d2 51 df 3e 68 79 81 be fa 04 b5 3d
       0.5335665 0.4361711 -0.25287938 0.0883884
000330 3d b0 08 3e 21 b0 ef 3e 70 38 e2 3e f6 76 c9 3d
       0.1334848 0.46814063 0.44183683 0.09837143
000340 28 0e 6f 3d d5 d0 14 3b 99 f0 89 be 0b f2 df 3d
       0.05836311 0.0022707481 -0.26941374 0.10934838
000350 e6 63 fa 3e cd bc b6 3e ee d0 f9 3e 0c 24 4e be
       0.4890434 0.3569092 0.48792213 -0.20130938
000360 f2 d8 b6 3e 49 6a e1 3e ef d7 b9 bd 5c c5 09 3e
       0.3571239 0.44026402 -0.09074389 0.13454193
000370 42 cb 91 be cc f4 e3 bd db c0 d2 3d b0 d9 49 bd
       -0.28475386 -0.11130676 0.102906905 -0.04927987
000380 f8 0f 9c bd 8d e9 c2 3d 6d c0 09 3e 6d 1d b4 3e
       -0.07620233 0.095172025 0.13452311 0.351787
000390 c7 3f 94 3e e1 ff b9 bd 43 88 26 bc 48 88 e0 3c
       0.28954908 -0.09082008 -0.010164323 0.027408734
0003a0 9c 78 fd bd 0f fe 64 be 15 ea 2b 3e 27 7b c9 3e
       -0.1237652 -0.2236254 0.16788514 0.3935177
0003b0 a7 49 0c 3e c4 36 69 be 30 5c 97 3e 06 f7 08 be
       0.13699971 -0.22774798 0.2956252 -0.13375482
0003c0 38 d5 77 3e 61 19 0d 3f c8 44 52 3e 24 2b 11 be
       0.2420243 0.5511685 0.2053405 -0.14176613
0003d0 3f 77 bc 3d 44 39 af 3e 80 99 80 3e df 10 27 3e
       0.09202432 0.34223378 0.2511711 0.1631503
0003e0 97 96 78 3c 48 d8 28 bd 16 27 0e bf 86 79 ef 3d
       0.015172622 -0.041221887 -0.5552839 0.11693101
0003f0 bd 02 d9 3e 1f bc 2a be 83 53 86 be e4 38 41 bd
       0.42384902 -0.16673325 -0.2623559 -0.047173396

model.dense2.bias f4 [16]
000000 c6 f0 5e bc 92 aa 11 3e 9f ec 79 3e a8 2f 9d bd
       -0.01360721 0.14225224 0.2440667 -0.07675105
000010 7f 76 0d 3e 73 b0 07 3d 2e c3 81 bc 1b 57 2c 3e
       0.13814734 0.03312726 -0.01584014 0.16830103
000020 10 21 a9 3d f7 e4 74 be 7a 61 0d 3d c4 13 b8 3e
       0.08258259 -0.23915468 0.03451679 0.3595258
000030 23 85 56 3d 03 13 a7 bd a5 45 bf 3e a4 9a 1b 3e
       0.052373063 -0.08157923 0.37357822 0.1519571

model.output.weight f4 [10, 16]
000000 0f 39 0b bf c7 de ad be eb 76 ba be 30 6e d0 bd
       -0.5438394 -0.33959028 -0.36418852 -0.101772666
000010 ed de ec 3d f2 f0 54 3e 9f 5b 22 be f4 ed 0a 3f
       0.11565957 0.20795038 -0.15855263 0.5426934
000020 32 a3 b8 3d fa 90 a3 be d7 4d 9b be 21 f1 14 bf
       0.09015502 -0.31946546 -0.30332825 -0.58180434
000030 2e da c6 bb 16 31 98 3c cc fe 50 be 86 c4 35 3e
       -0.0060684895 0.018578093 -0.20409697 0.17750749
000040 d3 52 e8 bd 07 8c cc 3e 0c 54 89 3c df 43 66 3e
       -0.113439225 0.39950582 0.01676371 0.22486828
000050 bb 53 e6 3e 60 58 b9 bd 2a ae d7 bd e8 cf cc 3c
       0.44985756 -0.09050059 -0.10531266 0.025001481
000060 cd ae 52 3d 38 07 5b 3e c6 0b b2 3d b9 b6 20 3e
       0.051436234 0.21389472 0.08693652 0.15694703
000070 53 1e 07 bf 76 3c cf be 6a b6 ea bd 11 53 e4 be
       -0.52780646 -0.40475816 -0.11460574 -0.44594625
000080 76 a3 12 3e 8f f0 98 3e a9 f6 9d be 56 f6 4d be
       0.14320168 0.29871032 -0.3085225 -0.20113501
000090 59 76 86 be 55 50 7b 3e 95 7d 4f 3e c8 d6 84 be
       -0.26262167 0.24542363 0.2026275 -0.25945115
0000a0 e7 48 0b bf 7a 30 5a b9 4d 05 e1 be 04 e9 c3 bd
       -0.54408115 -0.00020808159 -0.43949357 -0.095659286
0000b0 46 29 41 3e 41 fb 87 bd 40 c7 b4 3e 9b b9 12 be
       0.18863401 -0.0663972 0.35308266 -0.14328615
0000c0 28 be d3 be 6b a7 6a be 53 b3 c2 3e b6 64 51 3e
       -0.41356015 -0.22915427 0.3802744 0.20448574
0000d0 25 00 99 be 53 66 1a be 1d 62 b2 3d f4 94 b5 be
       -0.29882923 -0.15078096 0.0871012 -0.35465205
0000e0 ea 15 94 be 03 d0 55 be 20 96 02 bf cd de fb be
       -0.2892297 -0.20880131 -0.5101032 -0.4919342
0000f0 a8 4a 0f be cf c5 d7 3e 22 fc 48 3e 3b 20 09 be
       -0.13993323 0.42143103 0.19627431 -0.13391201
000100 1c cf ac bd 2b d3 04 bf e7 a2 0c bf 6b 32 cf bd
       -0.084379405 -0.51884717 -0.5493607 -0.10117038
000110 a0 08 fe 3e 9e e4 cf be ee fb 88 bd 67 14 f2 be
       0.49615955 -0.4060411 -0.06688677 -0.4728119
000120 fc f9 72 be d5 24 af 3d 84 bc d8 3e 8d 77 be 3e
       -0.23728174 0.08551947 0.42331326 0.37200585
000130 01 66 8a 3e 38 e1 a1 3e 1a 06 49 be 07 aa 58 be
       0.27030948 0.3161714 -0.19631234 -0.2115861
000140 5e 02 6b be 85 41 d9 be eb 97 9c 3e 09 1a a9 3d
       -0.22950122 -0.424328 0.30584654 0.08256919
000150 11 0c 5c bf 48 62 51 3c 00 c1 d8 bc b8 1b 52 be
       -0.8595591 0.01277978 -0.026459217 -0.20518386
000160 d5 fc 89 3e d0 23 45 bf 36 d4 fc 3d fb 08 d5 3e
       0.26950708 -0.7700777 0.123451635 0.41608414
000170 4c d8 a7 be 8a 4e 23 be 82 f6 a3 3d 01 aa 8a 3c
       -0.3278221 -0.15947929 0.08006002 0.016926767
000180 90 31 77 3e 15 99 81 be 5f d5 eb be 44 66 5c be
       0.2414 -0.25312105 -0.46061227 -0.21523386
000190 02 fa ba bd 6b b7 47 3e 47 43 49 bd 72 8c 67 be
       -0.091297165 0.19503562 -0.049136426 -0.2261217
0001a0 46 4f df 3e 24 75 4e 3e 28 95 7e 3e b6 91 de be
       0.43615168 0.20161873 0.24861586 -0.43470544
0001b0 49 7f 5d 3e 06 30 f1 be ff 78 d2 3c cb 89 71 be
       0.21630587 -0.4710695 0.025692461 -0.2358772
0001c0 87 46 17 be bc b2 77 3e ba f2 96 3d 9b 26 ea bd
       -0.14772998 0.24189276 0.07370515 -0.11433145
0001d0 30 33 bf 3d 7d 05 e3 be b7 12 8d bd 4e 9c e6 3e
       0.09335935 -0.44340125 -0.06888335 0.45041126
0001e0 d6 29 60 3b c8 c9 06 3e 3a bd d5 be 0d c3 51 3e
       0.0034204624 0.13162911 -0.4174593 0.20484562
0001f0 94 cc 04 3e 39 5c 60 3e 0b 25 02 bf 49 e7 12 bf
       0.12968665 0.2191018 -0.50837773 -0.57384163
000200 de b7 8d 3d 69 23 84 3e f4 ac 59 bd 78 aa 2c bd
       0.069198355 0.25808266 -0.053143457 -0.04215476
000210 1a 2f 22 bf 99 4a 05 3e 8e 8d 43 be 82 49 e8 be
       -0.6335312 0.13016738 -0.19096968 -0.45368582
000220 e8 aa e1 be a7 28 fe bd c3 ff 40 3e d7 91 c5 3c
       -0.44075704 -0.124100976 0.18847565 0.024117393
000230 b6 97 2c be 3d ae 60 3d 18 0d 72 be a9 8c c6 3e
       -0.16854748 0.054853667 -0.23637807 0.3877919
000240 8c f7 c2 be ea 0e 46 be d2 b6 3f 3e 0d 00 21 bf
       -0.38079488 -0.19341627 0.18722084 -0.628907
000250 7e 17 0e 3f d4 f7 88 be 4e 83 bd 3d ea 43 57 be
       0.55504596 -0.26751578 0.0925356 -0.21022001
000260 b8 97 0e 3e 77 f4 a3 be 68 ed 1c be 0b 6b 0e 3e
       0.13925064 -0.3202245 -0.15324938 0.13908021
000270 53 f2 86 3e 4e 8e 7b 3e 7a 55 a0 be c4 72 ce 3d
       0.26356754 0.24566004 -0.31315213 0.100804836

model.output.bias f4 [10]
000000 18 c7 a4 be 74 eb 01 be f3 43 87 3d 05 66 1b be
       -0.32183146 -0.12687474 0.06604757 -0.15175636
000010 45 19 81 be 77 29 6f 3e 51 d1 80 be 6c fe 97 be
       -0.25214592 0.23355661 -0.25159696 -0.29686296
000020 01 e8 76 bd 41 97 05 be
       -0.06027985 -0.1304598
