Models/model_optRMSprop_ep5_neu32_lay4_acc0.8808.pth (torch, 111826 bytes, 12 tensors)

model.input.weight f4 [32, 784]
0	0x3c85a08e	0.01631191
1	0xbc1a7eca	-0.009429643
2	0x3ce44c5e	0.027868446
3	0xbcc7901a	-0.024360705
4	0x3c7d7fc8	0.01547236
5	0x3cdc9ae2	0.026929323
6	0x3cc84018	0.024444625
7	0x3a30aa80	0.00067392737
8	0x3cfb3752	0.030666027
9	0x3ca1641a	0.019701052
10	0xbd00a022	-0.031402715
11	0xbcbbfc33	-0.022947406
12	0x3d3ef0b1	0.04661626
13	0x3d5d4b77	0.054027047
14	0x3cc2e966	0.023792934
15	0xbae6cb4c	-0.0017608195
16	0x3c1fa368	0.009743549
17	0x3c262950	0.010141686
18	0x3d019b7f	0.031642433
19	0xbbf4a494	-0.0074659083
20	0xbc58a4fc	-0.013222929
21	0xbc977bac	-0.018491589
22	0xbcc94075	-0.024566868
23	0xbd06f5d7	-0.032949295
24	0x3cb7da42	0.02244294
25	0x3c8126d8	0.015765592
26	0xbcf2fe35	-0.029662231
27	0x3d093c53	0.033504795
28	0xbb1c6690	-0.0023864843
29	0xbc93e923	-0.018055504
30	0xbcc0ffdc	-0.023559503
31	0x3d09bcdb	0.033627372
32	0x3cdac18a	0.026703615
33	0x3c969a3c	0.018384092
34	0xbd3ea5bd	-0.04654478
35	0xbdb29e09	-0.08721549
36	0xbc8d4ed7	-0.017249508
37	0xbd118ff5	-0.03553768
38	0xbbfd8b62	-0.007737563
39	0x3c7bb270	0.015362367
40	0x3e20c15c	0.15698761
41	0x3dfb3bc4	0.12267259
42	0xbc625d44	-0.013816182
43	0xbe0129c9	-0.12613596
44	0xbe258456	-0.16163763
45	0xbcbd65b0	-0.023119777
46	0x3dbfdcfb	0.093683206
47	0x3d94bbaf	0.0726236
48	0x3d5cb116	0.05387982
49	0x3cedf8ff	0.029049395
50	0x3c8ea2c1	0.017411591
51	0x3aec9fce	0.0018052997
52	0xbd0bf194	-0.034165934
53	0xbcf2eb71	-0.029653283
54	0x3d0ce127	0.03439441
55	0x3cbb919c	0.02289658
56	0x3d03fd61	0.032224063
57	0x3c2410e4	0.010013793
58	0x3c8293f4	0.01593969
59	0xbc733398	-0.014843844
60	0xbc83273c	-0.01600992
61	0xbbd6a977	-0.0065509635
62	0x3b486b90	0.003058169
63	0xbcb09321	-0.021554532
64	0xbc57c4f7	-0.013169519
65	0x3c8325a0	0.016009152
66	0x3d9c92ad	0.07645164
67	0x3d8c5e49	0.06853921
68	0x3b7e9521	0.0038846212
69	0x3d018508	0.03162101
70	0xbd4401ef	-0.047853407
71	0xbd977be1	-0.07396675
72	0xbd7bd7ec	-0.061485216
73	0x3d8ac5cd	0.06776009
74	0xbc942d20	-0.018087924
75	0x3ca12f64	0.019675918
76	0xbd87de07	-0.06634145
77	0xbd94f4a3	-0.07273223
78	0xbd90f56b	-0.0707806
79	0xbdc4fd22	-0.09618594
80	0xbd77b73d	-0.060477484
81	0x3cbfcc6e	0.02341291
82	0x3ccb31b0	0.024803966
83	0x3c9bf53e	0.019037839
84	0xbc886b2e	-0.01665267
85	0xbc8e68ba	-0.017383922
86	0x3cb24b76	0.021764498
87	0xbcbe6708	-0.023242489
88	0xbd17c890	-0.037056506
89	0xbd1084be	-0.035282843
90	0xbd4c2d87	-0.049848106
91	0xbd67e1a4	-0.056611672
92	0x3cdec9a0	0.027195752
93	0x3d42af72	0.0475306
94	0x3db9afae	0.09066711
95	0x3d6edd0c	0.058316275
96	0x3ce494a4	0.027902909
97	0xbd95167f	-0.072796814
98	0x3ca6b213	0.020348584
99	0xbcc7f13a	-0.024407018
100	0x3b647694	0.0034860717
101	0x3d226fbe	0.039657347
102	0xbce80d16	-0.028326552
103	0x3c16f598	0.009213828
104	0xbcdb9e8d	-0.026809001
105	0x3969608f	0.00022256582
106	0xbde3243e	-0.11090897
107	0xbd19cf46	-0.037551187
108	0x3b958a96	0.00456364
109	0xbd08ef43	-0.033431303
110	0xbcbfb9fa	-0.02340411
111	0xbcffd4f8	-0.031229481
112	0x3b797c10	0.0038068332
113	0x3c0b8c10	0.00851728
114	0xbd01c785	-0.031684417
115	0x3a8c0fbd	0.0010685843
116	0x3d2bf91f	0.041985627
117	0x3bff6607	0.007794145
118	0xbc26211c	-0.01013973
119	0xbbce1de0	-0.0062901825
120	0xb5e74284	-1.72302e-06
121	0x3d4d5f8f	0.05013996
122	0x3d17e83f	0.03708672
123	0x3dd42c77	0.103600435
124	0x3d94d65d	0.07267449
125	0x3c67d616	0.014150163
126	0x3d26149b	0.040546995
127	0x3c2c1c15	0.010504742
128	0x3dd71f39	0.10504002
129	0x3e19f83f	0.15036105
130	0x3dcf8ca2	0.101342455
131	0x3c9147a6	0.01773436
132	0x3b08d35f	0.002087794
133	0xbda37c33	-0.079826735
134	0xbd90a55b	-0.07062789
135	0xbcec39af	-0.0288361
136	0x3dc81c48	0.09771019
137	0x3dbda737	0.09260409
138	0xbd4c5264	-0.04988326
139	0xbd0b388b	-0.03398947
140	0xbceb55c3	-0.028727418
141	0x3ce416a6	0.02784283
142	0xbd8f434c	-0.06995258
143	0x3c89ce10	0.016821891
144	0xbd9408c7	-0.07228237
145	0xbd794b15	-0.06086262
146	0x3d9fecaf	0.07808816
147	0x3d4b747f	0.049671646
148	0x3d63314e	0.055466942
149	0xbb0b3f28	-0.002124736
150	0x3daf7fde	0.085693106
151	0x3d3c9a88	0.04604581
152	0x3cf8c0ca	0.030365366
153	0x3c941013	0.018074071
154	0x3d4f737a	0.050647236
155	0x3d18b2b8	0.037279814
156	0x3dc3aae7	0.095540814
157	0x3daaf22d	0.083469726
158	0x3ddd3f28	0.10803062
159	0x3cc91765	0.024547288
160	0x3d43ddfa	0.047819115
161	0xbd9d9a20	-0.07695413
162	0xbdbf35eb	-0.09336456
163	0xbd8ef9af	-0.06981217
164	0x3db65cbe	0.08904408
165	0x3e26f8c9	0.16305842
166	0xbd1bd99c	-0.038049325
167	0xbd26db58	-0.040736526
168	0x3b99e390	0.004696317
169	0xbce9adf8	-0.028525338
170	0x3d95abac	0.073081344
171	0x3c9a015d	0.018799478
172	0xbc2e1043	-0.010623994
173	0x3c93f5d7	0.018061562
174	0x3bc3d15b	0.005975885
175	0x3d3baafb	0.045817357
176	0x3d49719a	0.049180605
177	0x3c8a4b54	0.016881622
178	0x3ca12ac1	0.019673707
179	0x3dc04dc9	0.09389836
180	0x3deef113	0.11667075
181	0x3dc25c5d	0.09490273
182	0x3d9e6f78	0.07736105
183	0x3db9fc7a	0.09081359
184	0x3e258252	0.16162995
185	0x3e02a8b4	0.12759668
186	0x3d5c09a0	0.053720117
187	0x3da821c7	0.082095675
188	0xbc83a2ec	-0.016068898
189	0xbd983629	-0.07432205
190	0xbda66110	-0.08123982
191	0x3d075c5e	0.033047073
192	0x3e80bdd2	0.2514482
193	0x3eae6bbd	0.34066573
194	0x3d864857	0.065567665
195	0xbd717d9d	-0.058957685
196	0xbc8f025f	-0.017457185
197	0x3c93cfbd	0.018043393
198	0x3d7e4544	0.062077776
199	0xbd376acf	-0.044779595
200	0xbdac6bf6	-0.084190294
201	0xbcf89e03	-0.030348783
202	0x3cadc9dd	0.02121442
203	0x3c966b8d	0.018361831
204	0xbb689687	-0.0035490112
205	0x3d7a99a5	0.061181683
206	0x3d98b48c	0.074563116
207	0x3d82d1c0	0.06387663
208	0x3dcefa89	0.101063795
209	0x3dfac98a	0.12245472
210	0x3e284c35	0.1643532
211	0x3e39f6ae	0.18160507
212	0x3e54589d	0.20736928
213	0x3e254248	0.16138566
214	0x3dd9b283	0.106297515
215	0x3dc1da2a	0.094654396
216	0x3d62cbe1	0.055370215
217	0xbbe6d6d1	-0.007044651
218	0xbd143075	-0.036179025
219	0x3df4e59b	0.11957856
220	0x3e80bdeb	0.25144896
221	0x3ea029d5	0.31281915
222	0x3e144686	0.14480028
223	0xbd92b122	-0.07162692
224	0x3be09c2b	0.006854554
225	0x3d919da0	0.07110143
226	0x3bcf872c	0.0063332524
227	0xbd924801	-0.0714264
228	0xbe1901af	-0.14942048
229	0xbcca2519	-0.024675893
230	0x3c9bf266	0.019036483
231	0xbd3526d8	-0.044226497
232	0x3cc5f6e2	0.024165574
233	0x3c619558	0.0137685165
234	0x3bc66c0d	0.006055361
235	0x3dd5d96f	0.10441863
236	0x3d80e44f	0.062935464
237	0x3dfeb368	0.12436563
238	0x3dbef7bf	0.093245976
239	0x3e04c738	0.12966621
240	0x3e0ea302	0.1392937
241	0x3e12a7a1	0.14321758
242	0x3de78dae	0.1130632
243	0x3db5204b	0.0884405
244	0x3d9f0096	0.07763784
245	0x3d59e57a	0.05319736
246	0x3d5eeeb7	0.054426875
247	0x3e3695c3	0.17830567
248	0x3e9cae3b	0.30601677
249	0x3e9965a1	0.2996035
250	0x3dd75f48	0.1051622
251	0x3cd30dff	0.02576351
252	0x3b9a1ecf	0.0047033797
253	0x3d8da0a4	0.069154054
254	0x3da6ceaa	0.08144887
255	0xbd3b9d55	-0.04580434

model.input.bias f4 [32]
0	0x3dd27dd7	0.10277908
1	0xbbeb07dd	-0.0071725682
2	0xbd2caf9b	-0.042159658
3	0x3d5b6362	0.053561576
4	0x3e772a72	0.24137285
5	0x3dfa363a	0.12217374
6	0x3b3061ab	0.0026913683
7	0x3cd02f79	0.025413262
8	0xbcaaf2f2	-0.020867798
9	0x3c956a78	0.018239245
10	0x3e001cbf	0.12510966
11	0x3e82a276	0.25514573
12	0xbc1d98be	-0.009618936
13	0x3d3a9c19	0.045559023
14	0x3e21883c	0.15774626
15	0x3c99e909	0.018787878
16	0x3d009f8d	0.03140216
17	0x3c64f0eb	0.013973455
18	0x3d237495	0.039906103
19	0x3c12b6d2	0.008954721
20	0x3e289030	0.16461253
21	0x3e2567ac	0.16152829
22	0x3e008f2d	0.12554617
23	0x3d5da57d	0.0541129
24	0x3d59488b	0.053047698
25	0x3dc90009	0.0981446
26	0xbc450764	-0.012025688
27	0x3dba14d6	0.090860054
28	0x3d3aa8fd	0.045571316
29	0xbc165fd8	-0.009178124
30	0x3b6a4ffe	0.0035753245
31	0x3c6a5ee9	0.014304855

model.dense1.weight f4 [16, 32]
0	0xbc57f5ad	-0.013181132
1	0xbd1ec142	-0.038758524
2	0x3e0c8c2f	0.13725351
3	0x3e46bc9e	0.19407889
4	0xbe77be0f	-0.24193595
5	0xbe851e5f	-0.25999734
6	0x3e96c926	0.2945034
7	0x3e08e5c6	0.13368902
8	0x3eb8a557	0.36063644
9	0x3dcffd9f	0.10155796
10	0x3e4fa054	0.20276004
11	0xbd942be0	-0.07234931
12	0x3d8c0067	0.06836014
13	0xbcca28d8	-0.024677679
14	0xbe2f6a3c	-0.17130369
15	0x3d711eed	0.058867384
16	0x3dc5f068	0.096649945
17	0x3e841ff9	0.25805643
18	0xbcf18d5e	-0.029486354
19	0x3d92b811	0.07164014
20	0xbdda518f	-0.10660087
21	0x3dab1f59	0.083555885
22	0xbd31790a	-0.043328322
23	0x3ea8ce96	0.32970113
24	0xbd901627	-0.07035475
25	0xbe1e30bf	-0.15448283
26	0xbc594f6a	-0.013263563
27	0xbee057e4	-0.43817055
28	0x3e8cb2da	0.27480203
29	0x3e9023be	0.2815227
30	0x3e79c207	0.24390422
31	0x3d70aaae	0.058756523
32	0x3e7c917c	0.24664873
33	0xbdf550b8	-0.119782865
34	0x3dca2a75	0.09871379
35	0xbe828ff5	-0.25500455
36	0xbc63e576	-0.013909688
37	0x3eba1032	0.3634048
38	0xbdffd2e5	-0.12491397
39	0x3eb27e45	0.3486196
40	0x3d50c35e	0.050967567
41	0xbce86505	-0.028368482
42	0x3e63ab9e	0.22233436
43	0x3d45926e	0.04823535
44	0x3d86db3e	0.06584786
45	0x3dbd53da	0.09244509
46	0x3e9c30c1	0.30505946
47	0x3e17958a	0.14803138
48	0x3d9523d2	0.07282223
49	0xbecf5cbc	-0.40500438
50	0xbe7cc143	-0.24683098
51	0x3db8a66e	0.09016119
52	0x3deea72c	0.11652979
53	0x3e22d256	0.1590055
54	0xbd8515b5	-0.06498281
55	0xbe298699	-0.16555251
56	0x3e3bb048	0.18328965
57	0x3ea89845	0.32928672
58	0xbd5b1fe5	-0.053497214
59	0x3e60d6d1	0.21956946
60	0xbed470ca	-0.414923
61	0x3c0fe9db	0.008783783
62	0xbda0b4b6	-0.07846968
63	0xbda58703	-0.08082392
64	0x3e92876b	0.2861894
65	0xbe24e977	-0.16104685
66	0xbd5dac84	-0.0541196
67	0x3e85c366	0.2612564
68	0x3f0899a4	0.53359437
69	0x3efba5cb	0.49149927
70	0xbd8c9dc0	-0.06866026
71	0xbeff7e4b	-0.4990104
72	0xbe176b4d	-0.14787026
73	0x3e7f2d44	0.24919611
74	0x3e9fc3a5	0.31203952
75	0x3ec42486	0.38309115
76	0x3bc679e2	0.00605701
77	0x3eaaf70a	0.333916
78	0x3eb70741	0.35747722
79	0xbf01cbcd	-0.507016
80	0xbba5bd9c	-0.0050580036
81	0xbe8d74c3	-0.27628145
82	0x3ea26fbf	0.3172588
83	0xbb3500b8	-0.0027618837
84	0x3ea5046d	0.3222994
85	0x3ed25450	0.4107995
86	0xbd5c7f53	-0.053832363
87	0xbcd432c7	-0.025903119
88	0x3e31d7ca	0.17367473
89	0xbd0bb730	-0.034110248
90	0x3dabe9f7	0.08394235
91	0x3efa05f3	0.48832664
92	0x3e1b6502	0.1517525
93	0xbe925129	-0.28577545
94	0x3ec91149	0.39271
95	0x3edf8eee	0.43663734
96	0x3d152200	0.036409378
97	0xbd4c498f	-0.04987484
98	0x3e23c22f	0.15992044
99	0x3ea2eb31	0.31820062
100	0xbd151b92	-0.036403246
101	0xbe7222ce	-0.2364609
102	0x3e85f130	0.26160574
103	0xbe51ed46	-0.20500669
104	0x3e985704	0.29753888
105	0x3ea1bb02	0.31587988
106	0xbe87e161	-0.26539138
107	0xbdc0ccaa	-0.094140366
108	0xbdbbbea2	-0.0916722
109	0x3eb08def	0.34483287
110	0x3e10456e	0.14088985
111	0x3dd99d25	0.10625676
112	0xbcb5a995	-0.02217559
113	0x3e8b4aec	0.27205598
114	0x3dfb815e	0.12280534
115	0x3eaa20ea	0.33228236
116	0x3e46ea6e	0.19425365
117	0x3e1812a9	0.14850868
118	0x3e0ec9b7	0.13944136
119	0x3e50285b	0.20327894
120	0x3e8405d8	0.25785708
121	0x3ed21ece	0.41039127
122	0xbcb44bf1	-0.022008868
123	0xbecb1bb3	-0.3966957
124	0xbe97a181	-0.29615405
125	0xbe60217f	-0.21887778
126	0x3e470ccc	0.19438475
127	0xbccae3ce	-0.024766829
128	0x3e481c70	0.19542098
129	0xbbce3e77	-0.0062940675
130	0x3e4b1ba1	0.19834758
131	0x3ebfd50a	0.37467223
132	0x3dbf8760	0.093519926
133	0xbd147e77	-0.03625342
134	0xbe952227	-0.2912762
135	0x3ef3f1ef	0.47645518
136	0x3e0e80b6	0.13916287
137	0xbd00e9d6	-0.031473003
138	0x3e2709e4	0.16312367
139	0x3e02a6d5	0.12758954
140	0x3d95356e	0.072855815
141	0x3dd4e2c1	0.103948124
142	0x3e5e7969	0.21726002
143	0x3dca8836	0.098892614
144	0x3d9dbfaa	0.07702573
145	0xbe8cbcf3	-0.27487907
146	0xbd685b64	-0.056727782
147	0x3e864c61	0.26230147
148	0x3eae4737	0.34038708
149	0x3d9da4af	0.076974265
150	0x3ecbcb6a	0.3980363
151	0x3eb20856	0.34771985
152	0x3e132cb6	0.14372525
153	0x3df7ad6e	0.12093626
154	0xbc6e0730	-0.014528081
155	0xbe8c4158	-0.27393603
156	0xbe0e52b9	-0.13898744
157	0x3eb594a5	0.3546497
158	0xbe792da8	-0.24333823
159	0xbe3898cb	-0.18027036
160	0xbd4a57af	-0.049400028
161	0x3e24e99f	0.16104744
162	0xbe1dd9d2	-0.15415123
163	0x3e87c22a	0.26515323
164	0x3d722aec	0.059122965
165	0xbe4a052e	-0.19728538
166	0xbe2ce505	-0.16884239
167	0x3ea7ea1f	0.32795808
168	0x3d873156	0.06601207
169	0x3e18b390	0.14912248
170	0x3e0484eb	0.12941329
171	0xbcdeca7b	-0.02719616
172	0xbd684919	-0.056710336
173	0xbd785dd0	-0.06063634
174	0x3d917975	0.07103244
175	0xbce5ba67	-0.028042985
176	0xbd86f036	-0.06588785
177	0x3cff853f	0.031191466
178	0x3df10107	0.11767774
179	0x3d70c840	0.058784723
180	0x3e0a3381	0.1349621
181	0xbc673dc0	-0.014113843
182	0x3dd5a925	0.104326524
183	0x3e84b5b5	0.2591988
184	0x3d7c280a	0.06156162
185	0x3df44d54	0.11928812
186	0x3d693d3f	0.056943174
187	0xbdd9aea0	-0.1062901
188	0x3e03f958	0.12888086
189	0x3ec24f5f	0.3795118
190	0x3dfaf272	0.12253274
191	0xbd3e4b6a	-0.04645864
192	0xbe7d4d33	-0.2473648
193	0x3de03390	0.10947335
194	0xbd30a4ad	-0.043125797
195	0xbdac9816	-0.084274456
196	0x3dd5cc09	0.10439307
197	0xbe1cd8a7	-0.15317021
198	0x3ef8ef31	0.4861999
199	0x3dcb2093	0.099183224
200	0x3d764f1b	0.060134035
201	0x3e44c068	0.19214022
202	0xbe505241	-0.20343877
203	0x3e03687b	0.12832825
204	0x3c6a63c0	0.014306009
205	0xbe10983d	-0.14120574
206	0xbd26e502	-0.040745743
207	0x3dfe97be	0.12431286
208	0xbeb9c9ac	-0.36286676
209	0x3ef1594a	0.47138435
210	0x3e37731d	0.17915006
211	0x3d4ea978	0.050454587
212	0x3db36d23	0.087610506
213	0x3de1d980	0.11027813
214	0x3b0fd3ca	0.0021946304
215	0xbe07e0b1	-0.13269307
216	0xbd7f2263	-0.062288653
217	0xbe0becce	-0.13664553
218	0xbdff58b8	-0.12468094
219	0x3d858af8	0.06520647
220	0xbd99d16e	-0.07510649
221	0x3cc07e40	0.0234977
222	0xbc86d9e9	-0.01646133
223	0xbdeba306	-0.11505704
224	0x3d756a79	0.059915993
225	0x3cf330f2	0.029686425
226	0x3bd97f12	0.0066374624
227	0xbd732e29	-0.059370194
228	0x3cc0e29a	0.023545552
229	0xbe866ace	-0.2625336
230	0x3d440015	0.04785164
231	0x3e88c91b	0.2671593
232	0x3bb06c81	0.0053840284
233	0xbda34f10	-0.07974064
234	0x3dc0f331	0.09421385
235	0x3d04c179	0.032411072
236	0xbd82051b	-0.0634863
237	0xbec461ed	-0.3835596
238	0xbe8ada92	-0.2711988
239	0x3eb2b680	0.3490486
240	0x3e515de9	0.2044598
241	0x3e76d091	0.24103
242	0xbdca86e3	-0.09889009
243	0xbe3cfdfe	-0.18456265
244	0xbdcec992	-0.1009704
245	0xbe70ac64	-0.23503262
246	0x3e739a37	0.23789297
247	0x3ea667fd	0.32501212
248	0xbd8c50a2	-0.06851317
249	0xbe2e8b0c	-0.1704523
250	0x3e3415d9	0.17586459
251	0xbd6dae69	-0.05802766
252	0x3e968b23	0.29403028
253	0x3ed43112	0.41443688
254	0xbd36bd32	-0.044614024
255	0x3ea2a881	0.31769183

model.dense1.bias f4 [16]
0	0x3d87afaa	0.06625302
1	0x3cbfe26e	0.0234234
2	0x3e1acb89	0.15116705
3	0x3d97e2fe	0.07416342
4	0x3d7de8ba	0.061989523
5	0x3d289e8e	0.041166835
6	0xbd503266	-0.050829314
7	0x3e30515d	0.17218538
8	0x3dd866ae	0.105664596
9	0x3cc3d2d2	0.023904238
10	0xbe342184	-0.1759091
11	0x3e77f49b	0.24214403
12	0x3df6c496	0.120492145
13	0xbd27a0a4	-0.040924683
14	0xbc6093ae	-0.013707085
15	0x3c0e16e6	0.008672452

model.dense2.weight f4 [16, 16]
0	0x3d3c7e92	0.046019144
1	0xbd69f3eb	-0.057117384
2	0x3e4b294a	0.1983997
3	0xbe559a41	-0.20859624
4	0xbd9fc384	-0.078009635
5	0xbe942847	-0.2893698
6	0x3eeb5177	0.4596059
7	0xbee7677f	-0.4519615
8	0xbe38fea1	-0.18065883
9	0xbdeabe83	-0.114621185
10	0xbe23a2bc	-0.15980047
11	0x3e473ce9	0.19456829
12	0x3cbb3f3f	0.022857307
13	0x3e6ef617	0.23336063
14	0xbe020873	-0.12698536
15	0x3ed947ef	0.42437693
16	0xbe7930b6	-0.24334988
17	0x3dd66864	0.1046913
18	0xbdd0f464	-0.10202864
19	0xbc724560	-0.014787048
20	0x3b5eb000	0.0033979416
21	0x3d9e94e4	0.077432424
22	0xbdf0dad8	-0.11760491
23	0xbd3554b0	-0.044270217
24	0xbe693c3c	-0.22776884
25	0xbde356ec	-0.111005634
26	0x3d2c6100	0.042084694
27	0x3c10edc0	0.0088457465
28	0xbe21556a	-0.15755239
29	0x3e0088fe	0.12552258
30	0xbe52bc36	-0.2057961
31	0x3d1202f8	0.035647362
32	0x3f129cee	0.57270706
33	0x3e9b46ea	0.3032754
34	0xbe06a8ed	-0.13150378
35	0x3f13e2ca	0.5776793
36	0x3ed59779	0.41717127
37	0x3e506824	0.20352226
38	0xbedfddb6	-0.4372384
39	0x3ebadbad	0.36495724
40	0xbecfdf01	-0.40599826
41	0xbd33bfef	-0.043884214
42	0xbddb9a14	-0.107227474
43	0x3e7f76b3	0.24947624
44	0x3eed3c20	0.46334934
45	0xbde00ee9	-0.10940344
46	0x3d0c3ebd	0.03423952
47	0x3c40fa46	0.01177842
48	0x3d962964	0.073321134
49	0xbdd01f33	-0.10162201
50	0xbe620ca8	-0.2207514
51	0x3e0bfb8d	0.13670178
52	0xbd9dd498	-0.07706565
53	0x3d9cc94d	0.076555826
54	0x3f18d053	0.5969288
55	0x3e6c5c26	0.23082027
56	0xbe9a2167	-0.3010361
57	0x3cd71098	0.02625303
58	0xbe0b26c5	-0.13589008
59	0x3e670156	0.22559103
60	0xbe70a601	-0.23500825
61	0xbcf8ec35	-0.03038607
62	0x3dc3b8ec	0.095567554
63	0x3e8a06db	0.26958355
64	0xbf0250ee	-0.5090474
65	0x3f0409bd	0.5157736
66	0x3ebc8129	0.3681729
67	0xbb94856b	-0.004532506
68	0x3d396468	0.04526177
69	0xbe02f3a8	-0.1278826
70	0xbef7881a	-0.48346025
71	0xbe62f422	-0.22163442
72	0x3f0f2fa2	0.55932057
73	0xbe626490	-0.22108674
74	0x3dfa9281	0.12234975
75	0x3d9d4fef	0.07681262
76	0x3e8b294d	0.27179947
77	0x3e93d2f9	0.28871897
78	0xbe2d0021	-0.1689458
79	0xbd302ad0	-0.04300958
80	0x3da1b41a	0.0789568
81	0x3c2e1437	0.010624937
82	0xbe050cc5	-0.12993152
83	0x3e20f714	0.15719253
84	0xbdd437d4	-0.10362211
85	0x3e96b70b	0.29436526
86	0xbe19131f	-0.149487
87	0x3e7d220c	0.24720019
88	0xbe29c9d1	-0.16580893
89	0x3e075f77	0.1322001
90	0xbe5b67ec	-0.21426362
91	0xbd9777b4	-0.073958784
92	0xbe452c46	-0.1925517
93	0xbd5cff8e	-0.053954653
94	0x3e78bd78	0.24291027
95	0x3d466dbd	0.0484445
96	0x3d6b250d	0.05740838
97	0xbcc84f5e	-0.024451908
98	0x3de791a1	0.113070734
99	0x3d505c8a	0.050869502
100	0xbe6cc4a1	-0.23121883
101	0xbe173860	-0.14767599
102	0x3eabd1d6	0.3355853
103	0xbe3aedcc	-0.18254775
104	0xbd61afb5	-0.055099208
105	0x3d990834	0.07472268
106	0xbe66564e	-0.2249386
107	0xbd8a4457	-0.06751316
108	0x3caf3ea3	0.021392172
109	0xbca8eef1	-0.020621749
110	0xbd9aae50	-0.07552779
111	0x3ec144f7	0.37747929
112	0x3cb09448	0.021555081
113	0x3e1b2d6a	0.15154043
114	0x3e705bb1	0.23472477
115	0xbdd8c42d	-0.105842926
116	0xbe85b7d0	-0.261168
117	0xbe8b8f88	-0.27257943
118	0x3e105a90	0.14097047
119	0x3dee279a	0.11628647
120	0xbe52e566	-0.20595321
121	0x3d5095c1	0.050924066
122	0xbddf4c22	-0.10903193
123	0x3e86d45d	0.26333895
124	0xbc9e621e	-0.019333895
125	0xbd9e23e4	-0.07721689
126	0x3e4b22da	0.19837514
127	0x3ea8c0f8	0.32959723
128	0x3c8ff04b	0.017570635
129	0xbe840a02	-0.25788885
130	0x3e409813	0.18808012
131	0xbce1b58f	-0.027552394
132	0x3e9785d3	0.29594287
133	0x3eacb4fa	0.33731824
134	0x3d372532	0.044713207
135	0x3eefa053	0.46802005
136	0xbe4af46b	-0.198198
137	0x3e61d9b3	0.22055702
138	0x3e5ebbbd	0.21751304
139	0x3e9f3b22	0.31099802
140	0xbe876e12	-0.26451164
141	0x3c84653b	0.016161552
142	0x3e4a8aae	0.19779465
143	0x3e0eb8cf	0.13937686
144	0x3e176dd0	0.14787984
145	0xbe175477	-0.14778315
146	0x3e4698a6	0.19394168
147	0x3e5a3399	0.21308745
148	0x3eaed3b6	0.34145898
149	0x3e8635dd	0.2621297
150	0xbe76ef77	-0.24114786
151	0x3e060278	0.13086879
152	0x3e76376c	0.2404458
153	0x3e6b1ec4	0.22960955
154	0xbd2fa131	-0.042878333
155	0x3e6cbd4f	0.2311909
156	0xbd479d48	-0.04873398
157	0xbd835d61	-0.06414295
158	0x3e14a5a0	0.14516306
159	0x3e369700	0.1783104
160	0x3d83f664	0.0644348
161	0x3e346252	0.17615631
162	0xbda5526b	-0.080723606
163	0xbdea96a2	-0.11454512
164	0x3b337f79	0.0027389212
165	0xbd3245e8	-0.0435237
166	0xbd879714	-0.06620613
167	0xbdfee447	-0.12445884
168	0xbdab5738	-0.08366245
169	0xbe41cdb4	-0.18926126
170	0xbc6c9b80	-0.014441371
171	0x3d7c5048	0.0616
172	0xbe3ce315	-0.18446
173	0xbe7ce868	-0.24698031
174	0x3dec3f4c	0.115355104
175	0xbe0403b0	-0.12892032
176	0xbe8e2fe6	-0.2777092
177	0x3ecf7cc9	0.4052489
178	0x3da1b524	0.07895878
179	0x3e8e2db0	0.27769232
180	0x3e6f383f	0.233613
181	0xbea4e617	-0.32206795
182	0xbeae5315	-0.34047762
183	0xbf0bba21	-0.54580885
184	0x3ee2999a	0.44257814
185	0xbdb22cf8	-0.08699983
186	0x3dfe740f	0.1242448
187	0x3dd12f60	0.10214114
188	0x3ed07965	0.40717617
189	0xbbb68631	-0.005570196
190	0x3dd82b6b	0.10555156
191	0x3e8709d5	0.2637469
192	0xbf027d5d	-0.5097254
193	0xbe0a23ee	-0.13490269
194	0x3e6ec8e7	0.23318826
195	0xbdd066f8	-0.1017589
196	0x3dac3a89	0.08409602
197	0x3d0c9b04	0.034327522
198	0x3e90031e	0.28127378
199	0xbf06bf74	-0.52635884
200	0x3ed07888	0.40716958
201	0x3eb1683b	0.34649834
202	0xbe15d9c4	-0.14633852
203	0x3e381a36	0.17978749
204	0x3e16c890	0.14724946
205	0xbe52155c	-0.2051596
206	0xbe49080a	-0.19631973
207	0x3ea18f25	0.31554523
208	0xbdc285fe	-0.09498213
209	0xbe28b833	-0.16476516
210	0x3e7d08ee	0.24710438
211	0x3e83519c	0.256482
212	0xbcacfc12	-0.02111629
213	0xbe7113e9	-0.23542751
214	0x3e274490	0.16334748
215	0xbe8983b7	-0.26858303
216	0x3d6579dd	0.05602442
217	0xbe34c7da	-0.17654362
218	0xbd3413db	-0.04396425
219	0xbe41285c	-0.18863052
220	0x3e9b7c96	0.3036849
221	0x3e35c7f2	0.17752054
222	0x3e5c7f26	0.21532878
223	0x3edc675a	0.430476
224	0x3dbf9297	0.09354132
225	0xbe91e3f7	-0.28494236
226	0x3df53c7c	0.11974427
227	0x3ea7306e	0.32654136
228	0xbcaabfd0	-0.020843416
229	0x3e2fad80	0.17156029
230	0x3f10399a	0.56337893
231	0xbce9e242	-0.028550271
232	0xbe119f82	-0.14221004
233	0xbcde3329	-0.027124004
234	0x3c2be349	0.010491201
235	0x3e2df49f	0.16987847
236	0x3e3a4fc9	0.18194498
237	0xbdc2ebeb	-0.09517654
238	0x3dc56c4a	0.09639795
239	0x3e44a3fe	0.19203183
240	0x3e129281	0.143137
241	0x3e9f26e0	0.31084347
242	0x3e87a67e	0.2649421
243	0xbe84872e	-0.25884384
244	0x3e34e62a	0.17665926
245	0x3ead3f86	0.33837527
246	0xbe81f55a	-0.253825
247	0x3e6fba81	0.2341099
248	0x3e93ecb4	0.28891528
249	0x3eeaf68a	0.4589122
250	0xbc9f989b	-0.019481948
251	0x3efe42a1	0.4966021
252	0xbdb72f5d	-0.08944581
253	0xbc52b023	-0.012859377
254	0x3e626302	0.22108081
255	0xbd85ad41	-0.06527186

model.dense2.bias f4 [16]
0	0xbb95d9b4	-0.0045730714
1	0xbc93a880	-0.018024683
2	0x3e4f8b0c	0.20267886
3	0x3e2d405c	0.16919082
4	0x3eb31579	0.3497732
5	0x3c6f7532	0.014615344
6	0x3e34d920	0.17660952
7	0x3e437d2b	0.19090717
8	0xbe3ce9e4	-0.18448597
9	0x3b89066e	0.0041816747
10	0xbdc15f30	-0.09441984
11	0xbe51c47f	-0.20485114
12	0x3d260408	0.04053119
13	0xbd146e64	-0.03623809
14	0xbe63cab1	-0.2224529
15	0x3e7a4b42	0.24442771

model.dense3.weight f4 [16, 16]
0	0xbeaaa693	-0.3333021
1	0xbe372306	-0.17884454
2	0x3ed46145	0.4148046
3	0xbe857144	-0.26062977
4	0x3e44e056	0.19226202
5	0x3d3b3482	0.045704372
6	0xbd7f4bf6	-0.0623283
7	0xbe2a6e0c	-0.16643542
8	0x3c4db572	0.012555467
9	0x3e5ffd0d	0.21873875
10	0xbe21e868	-0.15811312
11	0x3e83c0a1	0.25732902
12	0xbe1ec634	-0.15505296
13	0x3ecb9d16	0.39768285
14	0x3eb4aace	0.35286564
15	0xbe6dc4ee	-0.23219654
16	0xbe43380e	-0.19064352
17	0xbe57edda	-0.21086827
18	0xbe18e954	-0.14932758
19	0x3a4ef800	0.0007895231
20	0xbd32aa90	-0.043619692
21	0xbc9a5690	-0.018840104
22	0x3e22f8fa	0.1591529
23	0x3e4a6dd6	0.19768462
24	0xbe23ee12	-0.16008785
25	0xbe65ed9a	-0.22453919
26	0x3bd46180	0.0064813495
27	0xbd6b8ba8	-0.057506233
28	0x3e5a90a8	0.21344244
29	0xbe04b414	-0.1295932
30	0xbe6a2962	-0.22867349
31	0xbe14c872	-0.14529589
32	0x3e01e564	0.12685162
33	0xbde15410	-0.11002362
34	0x3cec8bb3	0.028875208
35	0x3ebbd57a	0.36686307
36	0xbdd149fa	-0.10219188
37	0xbd84a737	-0.06477206
38	0x3ec2df84	0.38061154
39	0x3e0b5133	0.13605194
40	0xbc550fee	-0.013004286
41	0x3dce2ff6	0.100677416
42	0x3dde47c8	0.10853535
43	0x3d59b4ed	0.05315106
44	0x3e8864f6	0.26639527
45	0x3e6c9363	0.23103099
46	0x3edfdf9d	0.4372529
47	0xbe63584a	-0.22201648
48	0x3ef561ba	0.47926122
49	0xbe01efc4	-0.1268912
50	0x3e7a9d0c	0.24473971
51	0xbe60e410	-0.21961999
52	0x3ec9e86d	0.3943514
53	0xbd3110af	-0.0432288
54	0x3e0dffa8	0.13867056
55	0x3ec89a6c	0.39180315
56	0xbe90715e	-0.28211492
57	0xbe0ab333	-0.13544922
58	0xbe1502d1	-0.14551856
59	0x3e8d62e2	0.27614504
60	0x3ed920ce	0.4240784
61	0x3e95134b	0.29116282
62	0xbce27599	-0.027643966
63	0x3d87b04e	0.06625424
64	0xbe24ec77	-0.16105829
65	0xbd34ecd8	-0.044171184
66	0xbd4c7489	-0.049915824
67	0xbe769327	-0.24079572
68	0xbcd69a53	-0.026196634
69	0x3d7cee48	0.06175068
70	0xbc871bbc	-0.016492717
71	0x3de242aa	0.110478714
72	0xbe0d2d6a	-0.13786855
73	0xbe4da7a4	-0.20083481
74	0x3e54cf3e	0.20782182
75	0x3de08f89	0.10964877
76	0xbd50cbcd	-0.05097561
77	0xbc045e76	-0.008079162
78	0x3e424a66	0.18973693
79	0xbe336bcc	-0.1752159
80	0xbe5ef5b7	-0.2177342
81	0xbe209a76	-0.15683922
82	0xbd910d83	-0.07082655
83	0xbe911e39	-0.2834337
84	0x3da6a935	0.081377424
85	0xbcc29e0e	-0.023757007
86	0xbe1ddd83	-0.15416531
87	0xbe8a8fe4	-0.27062905
88	0x3dc365f5	0.09540931
89	0x3ea2acb3	0.31772384
90	0xbe34c830	-0.1765449
91	0x3e487b51	0.19578291
92	0x3ea31ff5	0.3186032
93	0xbdeeb20a	-0.11655052
94	0xbe47a24c	-0.19495505
95	0x3e38d187	0.18048678
96	0x3daf7924	0.085680276
97	0x3d7e6550	0.062108338
98	0x3e62e6e1	0.22158386
99	0xbe30ea48	-0.17276871
100	0x3ec8fdf2	0.39256245
101	0x3d56c0c8	0.052429944
102	0xbe1c4924	-0.15262276
103	0xbe0fc00e	-0.14038107
104	0xbe6cfbc3	-0.23142914
105	0x3e640af4	0.22269803
106	0xbe210840	-0.15725803
107	0x3e5ae1b0	0.21375155
108	0xbe02c619	-0.12770881
109	0xbdb63374	-0.08896533
110	0xbe16181c	-0.14657634
111	0x3def53ed	0.116859294
112	0xbd81d228	-0.06338912
113	0xbe30aa0a	-0.17252365
114	0x3d400020	0.04687512
115	0x3e209442	0.15681556
116	0x3df510f4	0.11966124
117	0x3b212f80	0.0024594963
118	0xbd9494d8	-0.07254952
119	0xbe1ae014	-0.15124542
120	0x3dd3bf70	0.10339248
121	0xbe70c5ca	-0.2351295
122	0xbe30d41a	-0.1726841
123	0xbdd760d4	-0.105165154
124	0xbe5cdb46	-0.21568021
125	0x3e603b34	0.21897584
126	0xbe28519e	-0.16437384
127	0xbe348458	-0.1762861
128	0xbe2ff27b	-0.17182343
129	0x3e171938	0.14755714
130	0xbe526505	-0.20546348
131	0x3e8529ad	0.2600836
132	0x3e80466a	0.25053722
133	0xbd09b4a8	-0.033619553
134	0xbe503f19	-0.2033657
135	0x3e099cad	0.13438673
136	0x3dde2e8f	0.10848724
137	0xbe54650b	-0.2074167
138	0xbd53cd10	-0.051709235
139	0x3e70642f	0.23475717
140	0x3e4f4446	0.20240888
141	0xbe4fd7ac	-0.20297116
142	0xbe93c18a	-0.28858596
143	0xbd83f788	-0.06443697
144	0x3ebe1569	0.3712571
145	0xbd9ac718	-0.07557505
146	0xbd17715a	-0.036973335
147	0x3f129f30	0.5727415
148	0xbe68d52d	-0.2273757
149	0xbe1ae10b	-0.1512491
150	0x3ea25075	0.3170201
151	0x3ee89c64	0.45431817
152	0x3e33b671	0.17550065
153	0x3df96fa6	0.121794984
154	0xbe248056	-0.16064581
155	0xbe330026	-0.17480525
156	0xbdac3b9b	-0.08409806
157	0x3e955ea0	0.29173756
158	0xbc9f86a2	-0.019473378
159	0x3d8f2e51	0.06991256
160	0x3dfe4d5f	0.12417101
161	0x3e44f986	0.1923581
162	0xbe1f8a17	-0.15580021
163	0xbecea1bb	-0.40357766
164	0x3e843c3f	0.25827214
165	0xbdf238f3	-0.118272685
166	0x3d531a3e	0.0515387
167	0x3ea79399	0.32729796
168	0x3e95b100	0.29236603
169	0x3e666fa7	0.2250353
170	0x3e112795	0.14175256
171	0xbe2dc823	-0.16970877
172	0x3deca8de	0.11555646
173	0xbcbb4c69	-0.022863584
174	0xbd69c57b	-0.057073098
175	0x3efebc1f	0.497529
176	0xbdfafc24	-0.12255123
177	0x3e20e676	0.15712914
178	0x3e717351	0.23579146
179	0x3f0c54f6	0.5481714
180	0xbe823235	-0.2542893
181	0x3e9d3117	0.30701515
182	0xbd63774e	-0.0555337
183	0xba1c5825	-0.00059640623
184	0xbc013c09	-0.007887849
185	0xbcc918ea	-0.024548013
186	0xbc732c20	-0.014842063
187	0xbec42850	-0.38312006
188	0xbe7e69cd	-0.24845047
189	0xbe77c6fd	-0.24197002
190	0x3cabf674	0.020991541
191	0x3e02fcc0	0.12791729
192	0xbca01926	-0.019543242
193	0x3dc956d8	0.09831017
194	0x3ebcb1d1	0.36854413
195	0x3d958169	0.07300074
196	0xbbcae99b	-0.0061923987
197	0xbc1eb4d6	-0.009686669
198	0x3e56a529	0.20961441
199	0x3e1fb577	0.15596567
200	0xbe70311a	-0.23456231
201	0x3e38a6d3	0.18032388
202	0x3e3518a8	0.17685187
203	0xbe0fb1db	-0.1403269
204	0xbe9c6206	-0.30543536
205	0x3d3cb176	0.046067677
206	0x3e0f6cb9	0.14006318
207	0xbe6377f3	-0.22213726
208	0xbe7f53f5	-0.24934371
209	0xbe6e90a2	-0.2329736
210	0x3ec89d5b	0.39182553
211	0xbe62f4c2	-0.2216368
212	0xbe50a456	-0.20375189
213	0xbe547ed2	-0.20751503
214	0xbd32b042	-0.043625124
215	0xbda50f3a	-0.08059545
216	0x3ec445c3	0.38334474
217	0x3e706ce1	0.23479034
218	0xbc558625	-0.013032471
219	0xbe1e38ae	-0.15451309
220	0xbd40222a	-0.04690758
221	0xbe660eeb	-0.22466628
222	0x3ea9c230	0.33155966
223	0x3ec3bc31	0.38229516
224	0xbeb3c2a1	-0.35109428
225	0xbd134d30	-0.035962284
226	0xbda75cba	-0.08171983
227	0xbdbfb700	-0.09361076
228	0x3ecbd99d	0.39814463
229	0xbd1a1440	-0.03761697
230	0xbeed12d9	-0.46303442
231	0xbea72703	-0.3264695
232	0xbdd11110	-0.102083325
233	0x3db25f03	0.08709528
234	0xbe0a4fa9	-0.1350695
235	0x3e11ffda	0.14257756
236	0xbe499540	-0.1968584
237	0xbe261d24	-0.16222054
238	0xbdb93f4a	-0.090452746
239	0x3e7978b9	0.24362458
240	0x3de00db0	0.10940111
241	0xbe454c80	-0.19267464
242	0xbdb990cf	-0.09060823
243	0xbe3804a8	-0.17970526
244	0x3e2c9020	0.16851854
245	0xbe4330bd	-0.19061561
246	0xbe2508b1	-0.16116597
247	0xbe70ea77	-0.23526941
248	0x3e276977	0.16348825
249	0x3eb4d2d1	0.3531709
250	0xbe1363b1	-0.14393498
251	0x3ea4ee08	0.32212853
252	0x3e32d367	0.17463456
253	0x3d99a870	0.0750283
254	0x3ed148fd	0.40875998
255	0xbe684161	-0.2268119

model.dense3.bias f4 [16]
0	0xbe29c1e2	-0.16577867
1	0xbe72aa00	-0.23697662
2	0x3de52ec4	0.111905605
3	0x3dacc76c	0.08436474
4	0xbe043cc6	-0.12913808
5	0x3e9b0616	0.3027808
6	0xbdb308f7	-0.08741944
7	0xbe3775b8	-0.17916
8	0x3c7e9e94	0.015540738
9	0xbe284ae2	-0.16434816
10	0x3e87825d	0.26466647
11	0xbd9d4e37	-0.07680934
12	0xbd94c1d3	-0.072635315
13	0x3d8beefc	0.06832692
14	0xbda7243b	-0.08161207
15	0x3e3399dc	0.17539161

model.dense4.weight f4 [16, 16]
0	0x3ecdda09	0.4020541
1	0x3e281504	0.16414267
2	0x3e1c99d9	0.15293063
3	0x3ea769c7	0.3269789
4	0xbd05ba35	-0.032648284
5	0xbe2872a1	-0.16449977
6	0x3ca8e1ff	0.020615576
7	0xbd3f6818	-0.04673013
8	0xbcf57c4b	-0.029966494
9	0xbe7db760	-0.24776983
10	0xbd6a212d	-0.057160545
11	0xbe80173b	-0.25017723
12	0xbe5be89f	-0.21475457
13	0x3cbbf8fe	0.022945877
14	0xbec77531	-0.38956597
15	0x3e88b014	0.26696837
16	0x3e8e77d6	0.27825803
17	0x3e1128f8	0.14175785
18	0xbe7cba14	-0.24680358
19	0x3eaf06ee	0.34184974
20	0x3e03f35b	0.12885801
21	0x3dcb8957	0.09938305
22	0x3eba849f	0.36429307
23	0xbe20effa	-0.15716544
24	0xbde50b0f	-0.1118375
25	0xbdd3d877	-0.10344022
26	0xbe426ada	-0.18986073
27	0x3e6d50f7	0.23175417
28	0x3ebe0a8b	0.3711742
29	0xbea2433f	-0.3169193
30	0x3ede219c	0.43385017
31	0xbda366dc	-0.07978603
32	0xbd04f677	-0.03246161
33	0x3cedcdc0	0.029028773
34	0x3e57274d	0.21011086
35	0xbe0fd849	-0.1404735
36	0x3c4f80e0	0.012665004
37	0xbe3d8a4c	-0.18509787
38	0x3d9f57e1	0.077804334
39	0x3e28bbb8	0.16477859
40	0xbe1ee078	-0.15515316
41	0xbe91140e	-0.28335613
42	0xbcc7b49a	-0.02437811
43	0xbdb27bb4	-0.08715001
44	0x3e510373	0.20411472
45	0x3e0fe79e	0.14053199
46	0xbe57eda2	-0.21086743
47	0xbcc67c33	-0.024229145
48	0xbde440b2	-0.11145152
49	0xbd984760	-0.07435489
50	0x3ecf5a3f	0.4049854
51	0x3e94383a	0.28949147
52	0x3c4bdc3d	0.012442646
53	0xbec89516	-0.39176244
54	0x3bef7088	0.007307116
55	0xbd0ded40	-0.034650087
56	0x3ea61ae5	0.32442394
57	0x3ed024f1	0.40653184
58	0xbd8bf279	-0.06833357
59	0xbdf02e9c	-0.1172764
60	0xbda9f4ba	-0.08298631
61	0xbe15934e	-0.14606974
62	0x3e88ce6e	0.26719993
63	0xbcaaa628	-0.020831183
64	0x3da5d7c1	0.080977924
65	0x3e68c47e	0.22731206
66	0x3ed906bf	0.4238796
67	0x3e43b69c	0.19112629
68	0xbc401313	-0.011723298
69	0xbc1476da	-0.00906154
70	0xbe34bfde	-0.17651317
71	0xbd3a9a58	-0.04555735
72	0x3d7547e8	0.05988303
73	0xbd9254a1	-0.07145048
74	0x3e8d177d	0.27556983
75	0xbed230d9	-0.41052893
76	0xbe9259b0	-0.2858405
77	0x3d9918da	0.07475443
78	0xbe3de3c6	-0.1854392
79	0xbd7891e4	-0.060686007
80	0xbe47a674	-0.1949709
81	0xbcfb14a0	-0.030649483
82	0xbe513ba1	-0.20432903
83	0xbe9024c5	-0.28153053
84	0x3d2db120	0.042405248
85	0x3da44e05	0.080226935
86	0x3e555793	0.20834188
87	0x3e6d8f0e	0.23199102
88	0xbe14ff3a	-0.14550486
89	0x3e67c223	0.22632651
90	0x3e60c5cd	0.21950455
91	0x3ec1a06b	0.37817702
92	0x3dca1ca3	0.09868743
93	0x3eaafeb7	0.33397457
94	0x3d23e28f	0.040010985
95	0xbc4c26f6	-0.012460461
96	0x3df691ba	0.12039514
97	0xbe00c6ec	-0.12575883
98	0x3d994093	0.0748302
99	0xbdb4d11d	-0.08828948
100	0x3dec638c	0.115424246
101	0xbd981a00	-0.07426834
102	0xbe5c1f94	-0.21496421
103	0xbe16fd2e	-0.14745018
104	0xbe6be784	-0.23037535
105	0xbdfb2014	-0.12261978
106	0xbc37afe0	-0.011211365
107	0xbcf7a2d0	-0.030229002
108	0xbe71799e	-0.2358155
109	0xbe628666	-0.22121581
110	0xbe7069d0	-0.23477864
111	0xbd85950b	-0.06522568
112	0xbd65ee30	-0.056135356
113	0x3ddcdda0	0.10784459
114	0x3e9f3bd2	0.31100327
115	0x3e902bc6	0.28158396
116	0xbd9f0803	-0.077652
117	0xbea26436	-0.3171708
118	0xbd525e6f	-0.05135959
119	0x3bc8e600	0.0061309338
120	0xbdaeb8c5	-0.08531336
121	0xbd0c440d	-0.034244586
122	0xbef06075	-0.4694859
123	0x3e75505e	0.23956439
124	0x3eeee4e4	0.46659005
125	0xbeb0f3bc	-0.34560955
126	0x3d16aea9	0.036787663
127	0x3e71c706	0.23611078
128	0x3e1ee056	0.15515265
129	0x3d5eb518	0.054371923
130	0x3a92a1b1	0.0011187104
131	0xbd966ddd	-0.073451735
132	0x3e3d6978	0.18497264
133	0x3db17344	0.08664563
134	0xbc963918	-0.018337771
135	0xbe4bb208	-0.19892132
136	0x3e18e8ab	0.14932506
137	0xbda4e584	-0.08051589
138	0xbd890c75	-0.06691829
139	0x3ef5e043	0.4802266
140	0x3e1a690e	0.15079138
141	0x3d90172f	0.07035672
142	0x3ec30772	0.38091618
143	0xbe4c8eaf	-0.19976304
144	0x3d270bee	0.04078286
145	0xbdb73dac	-0.0894731
146	0x3e0c7aee	0.13718769
147	0x3e929549	0.2862952
148	0x3e12d20b	0.14337938
149	0xbd9543e6	-0.07288341
150	0xbe9b4d8a	-0.30332595
151	0xbe6d31d6	-0.23163542
152	0x3e21e2a2	0.1580911
153	0x3f0916f9	0.5355068
154	0x3e479056	0.19488654
155	0xbe95f739	-0.29290178
156	0xbed117a0	-0.40838337
157	0xbe998643	-0.29985246
158	0xbf0fba5b	-0.5614373
159	0x3e799e48	0.24376786
160	0xbdc892c7	-0.097936206
161	0xbe2ce8b6	-0.16885647
162	0xbe1d1348	-0.15339386
163	0xbe178c6a	-0.14799657
164	0x3e344d62	0.17607644
165	0xbd9ee265	-0.07758025
166	0xbe2e9e0d	-0.17052479
167	0xbe1b8f5a	-0.15191403
168	0x3b485c7b	0.00305727
169	0x3e81c8d2	0.25348526
170	0x3eb3cefa	0.35118848
171	0xbe5b125b	-0.21393721
172	0xbe504c6f	-0.20341657
173	0x3e8f8a4a	0.28035194
174	0x3ca90b53	0.020635283
175	0xbda03884	-0.078232795
176	0x3dd68fd8	0.10476655
177	0xbccc4cd0	-0.02493897
178	0xbe32eaf3	-0.17472439
179	0xbe664991	-0.22489001
180	0xbd296d88	-0.041364223
181	0xbde873ef	-0.113502376
182	0x3e80a20a	0.25123626
183	0xbded4a5c	-0.115864486
184	0x3ebd05e8	0.3691857
185	0x3ef46e7f	0.47740552
186	0x3ea74d94	0.32676375
187	0xbd19d443	-0.037555944
188	0xbd9b1867	-0.07573014
189	0x3e9822c6	0.2971403
190	0xbdc6ffe0	-0.09716773
191	0xbccd7e85	-0.025084743
192	0x3e916d3f	0.2840366
193	0xbbc6f6c0	-0.0060718954
194	0x3e0cf3e6	0.13764915
195	0xbe768d58	-0.24077356
196	0xbe5a7dce	-0.21337053
197	0x3e590918	0.21194875
198	0x3c60db67	0.013724185
199	0x3dfa6a08	0.12227255
200	0xbe9e7ebc	-0.30956066
201	0xbe769dea	-0.24083677
202	0x3c9e273a	0.019305814
203	0xbe746e36	-0.23870167
204	0x3d86d3f6	0.06583397
205	0x3eda1981	0.42597583
206	0xbea58250	-0.32325983
207	0x3dd9a2d3	0.106267594
208	0xbde17757	-0.110090904
209	0x3e30fa26	0.17282924
210	0xbe189606	-0.1490098
211	0x3cf02de6	0.029318761
212	0xbe4a2fce	-0.19744799
213	0xbe0415ac	-0.12898892
214	0xbe11ef00	-0.14251328
215	0xbe0e0f70	-0.13873076
216	0xbdcef124	-0.10104588
217	0x3cb742f0	0.022370785
218	0xbe5a7a26	-0.21335658
219	0x3d8d9368	0.06912881
220	0xbc369540	-0.011143982
221	0xbdbc93cb	-0.09207877
222	0x3da94d28	0.082666695
223	0xbe7e957c	-0.24861711
224	0x3e2340fb	0.15942757
225	0x3d4cd3b0	0.05000657
226	0xbd935bed	-0.07195268
227	0x3d89b622	0.06724192
228	0xbddf5ca8	-0.10906345
229	0xbe5cd480	-0.21565437
230	0x3e44dd80	0.1922512
231	0xbe41f17e	-0.18939778
232	0x3d45e041	0.04830957
233	0x3e931c67	0.28732607
234	0xbe758212	-0.23975399
235	0x3eb17620	0.34660435
236	0x3ed316e5	0.41228405
237	0x3e913a61	0.28364852
238	0x3e00bda3	0.1257234
239	0xbda58eae	-0.080838546
240	0xbddbfab2	-0.10741176
241	0xbdf673b0	-0.120337844
242	0xbe8408bd	-0.25787917
243	0x3ea40b28	0.32039762
244	0xbd292edd	-0.041304458
245	0x3ea5703e	0.32312196
246	0x3e9b6ed4	0.30357993
247	0xbbae9f40	-0.0053290427
248	0xbe46c9b9	-0.19412889
249	0xbe8bd44e	-0.27310413
250	0x3ea690ef	0.3253245
251	0xbe769b60	-0.24082708
252	0xbcddf022	-0.027092043
253	0x3d5352af	0.051592525
254	0x3ea895ec	0.3292688
255	0x3e26186a	0.1622025

model.dense4.bias f4 [16]
0	0xbcd6eb2f	-0.026235191
1	0xbcf63657	-0.030055208
2	0xbe79a7bb	-0.2438039
3	0x3e9627cf	0.29327247
4	0x3cb06391	0.021531852
5	0x3f058d4b	0.5216872
6	0xbe1b0575	-0.151388
7	0x3d90337f	0.07041072
8	0xbdb7afba	-0.08969064
9	0x3c743d84	0.014907245
10	0x3e003847	0.12521468
11	0x3b904999	0.004403305
12	0x3e863918	0.26215434
13	0x3d8d4f88	0.06899935
14	0xbdcbe622	-0.09956004
15	0x3e0ed353	0.13947801

model.output.weight f4 [10, 16]
0	0xbd738826	-0.059456013
1	0x3ed348ed	0.41266575
2	0xbde32a1f	-0.11092018
3	0x3d9708fd	0.07374761
4	0xbef379e8	-0.47553945
5	0xbf24510b	-0.6418616
6	0x3e738721	0.23782016
7	0xbf071fd3	-0.52782935
8	0x3d136a7d	0.035990227
9	0xbe4f8c39	-0.20268334
10	0xbdbc4bf4	-0.091941744
11	0xbd3f0172	-0.046632238
12	0xbebc7437	-0.36807415
13	0x3d06c37e	0.03290128
14	0x3d8f6518	0.07001704
15	0x3ea8848a	0.3291362
16	0x3cdd6916	0.027027648
17	0xbecbf519	-0.39835432
18	0xbd5d51f3	-0.05403323
19	0x3ea92b61	0.33040908
20	0x3e7dfe41	0.24804021
21	0xbe32eaa1	-0.17472316
22	0xbe560fc9	-0.20904459
23	0x3e81b58f	0.2533383
24	0xbebf43d2	-0.3735643
25	0x3e030668	0.12795413
26	0xbe88711c	-0.26648796
27	0x3d9f7c18	0.07787341
28	0xbdc1dc73	-0.094658755
29	0xbd8d9484	-0.06913093
30	0xbe0d6dd8	-0.13811433
31	0xbeeae755	-0.45879617
32	0x3d4e504e	0.050369553
33	0x3e8366e6	0.25664443
34	0xbdee4261	-0.116337545
35	0x3e30d0ac	0.17267102
36	0x3e2d7d96	0.16942438
37	0xbdcd3c19	-0.10021228
38	0xbcf4d596	-0.029887002
39	0x3e123964	0.14279705
40	0xbcad77ad	-0.02117523
41	0x3da2820f	0.07934963
42	0x3e804d1f	0.2505884
43	0xbead6a57	-0.33870193
44	0xbea78817	-0.32721016
45	0xbe647888	-0.22311604
46	0xbde1fdd6	-0.110347435
47	0xbda54b85	-0.08071045
48	0x3e41a282	0.18909648
49	0xbbdb8607	-0.006699327
50	0xbf0867d2	-0.5328342
51	0xbdd52524	-0.10407475
52	0x3d0f4440	0.034977198
53	0x3ddd7783	0.10813811
54	0xbe2309be	-0.15921685
55	0xbe84b6c9	-0.25920704
56	0xbd83482e	-0.064102516
57	0x3ea9952e	0.33121628
58	0xbdfc8ba8	-0.12331325
59	0xbe7db63a	-0.24776545
60	0xbe50fe3b	-0.20409481
61	0xbe68e9df	-0.22745465
62	0xbedc0a9d	-0.42976847
63	0x3e0d29b6	0.13785443
64	0xbe9ad8bc	-0.3024348
65	0x3e1f5624	0.15560204
66	0xbe6b97a2	-0.23007062
67	0x3e9213e2	0.28530794
68	0xbeb9c92b	-0.3628629
69	0x3e7fa5a0	0.24965525
70	0x3cf8e539	0.03038274
71	0xbdfe934c	-0.124304384
72	0x3d32d55f	0.043660518
73	0xbdaca589	-0.08430011
74	0xbd07193d	-0.032983053
75	0x3e8aa11e	0.27076048
76	0x3e6f3ad6	0.23362288
77	0x3dc88faa	0.09793027
78	0x3ea3ebc9	0.32015827
79	0xbe961770	-0.29314756
80	0xbe133b84	-0.14378172
81	0x3dfe183c	0.12406966
82	0x3c9833ec	0.018579446
83	0xbe3d2687	-0.18471728
84	0x3d0b343b	0.033985358
85	0x3d9fe630	0.07807577
86	0x3e41ad0c	0.18913668
87	0xbe6157cc	-0.22006148
88	0xbdf5f6a1	-0.12009931
89	0xbe0cd374	-0.13752538
90	0xbefce639	-0.49394396
91	0xbe922bf9	-0.28549173
92	0x3eac038a	0.3359645
93	0x3e6f8e49	0.23394121
94	0xbe868993	-0.26276836
95	0x3e9b2434	0.30301058
96	0x3e2b14b6	0.1670712
97	0x3e2b1260	0.16706228
98	0x3b61ae92	0.0034436327
99	0xbe8996c4	-0.26872838
100	0xbeda403b	-0.4262713
101	0xbeaa2225	-0.33229175
102	0x3e50e137	0.20398413
103	0x3d3c7f6b	0.046019953
104	0x3e54769f	0.20748375
105	0xbe8b6aef	-0.2723002
106	0xbeb30545	-0.34964958
107	0xbed323c7	-0.41238233
108	0x3e015278	0.12629116
109	0x3e630b05	0.22172172
110	0x3e8cf544	0.27530873
111	0xbd8d01ac	-0.068850845
112	0xbef80b54	-0.48446143
113	0xbec70b38	-0.38875747
114	0xbdd903d0	-0.1059643
115	0x3ee0edc9	0.43931416
116	0xbdae42cb	-0.085088335
117	0x3e143184	0.14472014
118	0x3da6fa73	0.08153238
119	0xbd957ab6	-0.07298796
120	0x3dce431b	0.10071393
121	0x3e972e84	0.29527676
122	0x3e4873ab	0.19575374
123	0x3c21bc27	0.009871519
124	0xbe0605cd	-0.1308815
125	0x3d5f3f63	0.05450381
126	0xbea6d079	-0.32580927
127	0x3ebaf389	0.36513928
128	0x3dba62fc	0.09100911
129	0xbe49adeb	-0.1969525
130	0xbd9773ce	-0.07395135
131	0xbcbd2355	-0.023088137
132	0xbd8d6d49	-0.0690561
133	0xbeb65d77	-0.35618183
134	0x3e5244bb	0.20534031
135	0xbe62654f	-0.22108959
136	0xbf079340	-0.5295906
137	0x3df9278f	0.12165748
138	0xbed364a4	-0.4128772
139	0x3dc7684f	0.09736692
140	0x3e86e83e	0.26349062
141	0x3e49804d	0.19677849
142	0x3d955423	0.072914384
143	0x3d429455	0.04750474
144	0xbd89340b	-0.066993795
145	0xbd8ffebb	-0.07031008
146	0xbe9b3429	-0.30313233
147	0xbdbb427b	-0.091435395
148	0x3e286639	0.16445245
149	0x3d7995cf	0.060933884
150	0x3de070e3	0.109590314
151	0xbf001a97	-0.5004057
152	0xbeb5ecb3	-0.3553215
153	0xbe010048	-0.12597764
154	0x3ea32f1c	0.3187188
155	0x3e320153	0.17383318
156	0x3e8ab87f	0.27093884
157	0x3e31bb86	0.17356691
158	0xbe05883c	-0.1304025
159	0xbda9637d	-0.08270929

model.output.bias f4 [10]
0	0xbeac513b	-0.33655724
1	0x3df90072	0.12158288
2	0xbddc19dc	-0.1074712
3	0xbe73686e	-0.23770306
4	0x3e4fd943	0.20297723
5	0x3d2902a6	0.04126229
6	0x3deb7d48	0.11498505
7	0x3de556e7	0.11198216
8	0xbe34ed3d	-0.17668624
9	0xbe00e19c	-0.12586063
