Models/model_optAdam_ep40_neu256_lay1_acc0.9682.pth (torch, 943826 bytes, 6 tensors)

model.input.weight f4 [256, 784]
-0.02492238 -0.020427134 -0.012074893 0.008399986 -0.02432831 -0.0065656565 -0.007272916 -0.027605467
0.015629355 -0.016815595 0.018995315 -0.018548097 -0.021854823 0.029746931 0.021249253 -0.014903635
-0.006881373 0.015972555 0.033202898 -0.002912078 -0.0056070983 -0.008617878 -0.03175136 -0.0063876137
0.031317916 -0.011892788 0.02036694 -0.0339856 0.0015228018 -0.021281801 -0.033407617 0.01049247
0.024358045 -0.031153496 0.014754947 0.020909632 -0.004572306 -0.014523254 -0.013254985 -0.009845251
0.024914589 -0.014213809 0.026108759 0.0441133 0.051046375 -0.02023007 0.019841725 -0.0041645407
0.0106891915 0.024183579 0.034485992 0.027497057 0.021653008 0.03240392 -0.02238215 -0.012744844
0.008657988 0.0026982613 -0.023339264 -0.0043951906 0.014326222 -0.0028869899 0.003088029 0.10490604
0.031458784 -0.03697064 -0.06321019 -0.013726249 -0.0011671649 0.0198087 -0.11281362 -0.18671288
-0.13031302 -0.08899017 -0.13994306 -0.051285166 -0.016092245 -0.08621786 -0.018921638 0.12000109
0.06718052 -0.000707897 0.02906495 0.032722864 0.021086715 -0.030501798 -0.0087547265 0.026491048
0.0023069188 -0.033782683 -0.05633142 -0.038081385 -0.09002338 -0.11037707 -0.03096849 -0.15314004
-0.15994945 -0.09991521 -0.08583788 -0.06582627 -0.12049796 -0.16144708 -0.07518342 -0.035060965
-0.09492836 -0.013778795 0.08802795 0.044573944 0.10345185 -0.00094385527 0.020416364 -0.013100302
-0.0040717125 -0.0015076697 -0.03196764 -0.0057736617 -0.11654 -0.061247405 -0.09331791 -0.16363046
-0.13594 -0.1992735 -0.19237672 -0.07174219 -0.064825244 0.1420116 0.04471946 -0.02387065
0.0023251881 0.059619848 0.043047287 -0.007948873 -0.0113579985 0.041946083 0.08942239 0.09253325
-0.015504478 -0.07801809 -0.0676008 0.017970622 0.011228345 -0.015546322 -0.041419324 -0.017741298
-0.02373203 -0.075357236 -0.06991462 -0.21377978 -0.17567493 -0.17947662 -0.08499537 -0.14425991
-0.08808805 -0.003337938 -0.034891434 -0.04302907 0.038824886 0.0018356468 0.04907016 0.048290435
0.097465016 0.116224304 0.07809411 0.12246553 0.06337562 -0.05430294 -0.02366672 -0.0033966475
-0.010387408 0.01954094 0.18581687 -0.07383045 0.015180605 -0.04460423 -0.10669912 -0.108734
-0.17719164 -0.1533983 -0.08676708 -0.070548594 -0.008730556 -0.0070925863 -0.006510099 0.04208471
-0.0021921226 0.024120644 0.048318647 0.10400084 0.11705147 0.16366859 0.10537297 -0.061136328
0.08738586 -0.036015242 -0.027521728 -0.02380681 0.025322706 -0.06734597 0.19109616 -0.017004367
-0.057966653 -0.047589283 -0.14096028 -0.19281566 -0.054320496 -0.0982193 0.019254547 0.0527177
0.039505318 0.10564348 0.018510163 0.04010291 0.07829314 0.026163492 0.13893485 0.10901994
0.16920832 0.20376472 0.07697805 0.013874296 0.097519465 0.019490862 -0.05057154 0.022814557
-0.01124168 0.0355242 0.06739304 -0.17323798 -0.1301505 -0.037401885 -0.12402809 -0.06547735
-0.009854819 -0.07007214 -0.07252212 0.039963458 0.0659719 0.07063298 0.119417325 0.06243827
0.018968903 0.060461435 0.106393196 0.08393411 0.08072137 0.09649248 0.040816084 0.068454325
0.08786292 0.03824102 0.0068845325 -0.029425249 0.022121277 0.0580479 0.079963244 -0.07051732
00000000: 052a ccbc ce56 a7bc c6d5 45bc 18a0 093c
00000010: 2a4c c7bc b824 d7bb a451 eebb dc24 e2bc
00000020: 2209 803c dcc0 89bc 109c 9b3c 2ef2 97bc
00000030: e308 b3bc d6af f33c ea12 ae3c 602e 74bc
00000040: 247d e1bb e0d8 823c c3ff 073d 90d8 3ebb
00000050: c0bb b7bb 0032 0dbc b70d 02bd 304f d1bb
00000060: 3747 003d f8d9 42bc 92d8 a63c 7c34 0bbd
00000070: c098 c73a 2c57 aebc 6dd6 08bd 9ce8 2b3c
00000080: 868a c73c 9e35 ffbc bcbe 713c ad4a ab3c
00000090: 48d3 95bb f1f2 6dbc 702b 59bc fa4d 21bc
000000a0: ae19 cc3c 09e1 68bc 09e2 d53c 26b0 343d
000000b0: 0116 513d 88b9 a5bc 1d8b a23c b376 88bb
000000c0: b821 2f3c a41c c63c 2f41 0d3d 8241 e13c
000000d0: a661 b13c f9b9 043d c55a b7bc c0cf 50bc
000000e0: 3cda 0d3c 50d5 303b fc31 bfbc 8805 90bb
000000f0: 88b8 6a3c a733 3dbb 8860 4a3b fad8 d63d
00000100: edda 003d 876e 17bd 5874 81bd 10e4 60bc
00000110: 8efb 98ba db45 a23c d40a e7bd a931 3fbe
00000120: c770 05be 7a40 b6bd 3c4d 0fbe 6510 52bd
00000130: e2d3 83bc fd92 b0bd 8d01 9bbc 22c3 f53d
00000140: f195 893d 2a92 39ba 9e19 ee3c 6908 063d
00000150: 0cbe ac3c e8de f9bc fc6f 0fbc c103 d93c
00000160: ad2f 173b b65f 0abd c6bb 66bd 3afb 1bbd
00000170: 2e5e b8bd 600d e2bd a1b1 fdbc bed0 1cbe
00000180: cac9 23be 58a0 ccbd c5cb afbd eccf 86bd
00000190: a2c7 f6bd 6252 25be c4f9 99bd 169c 0fbd
000001a0: cd69 c2bd 74c0 61bc ff47 b43d 2b93 363d
000001b0: 90de d33d 0e6d 77ba 3840 a73c a6a2 56bc
000001c0: 006c 85bb 009d c5ba 80f0 02bd fc30 bdbb
000001d0: 86ac eebd 8fde 7abd 761d bfbd be8e 27be
000001e0: db33 0bbe 5a0e 4cbe 67fe 44be 92ed 92bd
000001f0: 19c3 84bd 7d6b 113e c12b 373d 628c c3bc
00000200: 2f62 183b f133 743d 5a52 303d fd3b 02bc
00000210: e616 3abc a8cf 2b3d 1623 b73d 1382 bd3d
00000220: 7e06 7ebc f3c7 9fbd 4a72 8abd 2037 933c
00000230: 18f7 373c 00b6 7ebc 4fa7 29bd 3356 91bc
00000240: ad69 c2bc e554 9abd 652f 8fbd 16e9 5abe
00000250: 21e4 33be b8c8 37be 0d12 aebd dfb8 13be
00000260: 8267 b4bd 4fc1 5abb 52ea 0ebd 403f 30bd
00000270: d806 1f3d 169a f03a cbfd 483d 31cc 453d
00000280: bd9b c73d 0207 ee3d ceef 9f3d 35cf fa3d
00000290: 14cb 813d c26c 5ebd b6e0 c1bc 4a9a 5ebb
000002a0: f22f 2abc 5214 a03c c746 3e3e 6b34 97bd
000002b0: 13b8 783c edb2 36bd 1185 dabd eeaf debd
000002c0: ba71 35be 7214 1dbe f0b2 b1bd c87b 90bd
000002d0: 9b0a 0fbc ed68 e8bb ab52 d5bb 0461 2c3d
000002e0: b7a9 0fbb a898 c53c c6e9 453d 64fe d43d
000002f0: aeb8 ef3d bd98 273e c9cd d73d 166a 7abd
00000300: 5cf7 b23d b884 13bd 3f75 e1bc 8006 c3bc
00000310: 9071 cf3c afec 89bd b6ae 433e be4c 8bbc
00000320: 716e 6dbd fbec 42bd e457 10be 7871 45be
00000330: 2b7f 5ebd 3327 c9bd b6bb 9d3c 84ee 573d
00000340: 54d0 213d 9c5b d83d a0a2 973c f342 243d
00000350: 2758 a03d d254 d63c f044 0e3e d945 df3d
00000360: f244 2d3e b3a7 503e aba6 9d3d 0451 633c
00000370: 49b8 c73d 4dab 9f3c 1a24 4fbd 98e5 ba3c
00000380: 062f 38bc d381 113d 5d05 8a3d 4c65 31be
00000390: 2c46 05be b832 19bd 7002 febd fd18 86bd
000003a0: 1b76 21bc fb81 8fbd 7a86 94bd b9b0 233d
000003b0: 471c 873d 06a8 903d 1291 f43d 45bf 7f3d
000003c0: ac64 9b3c 69a6 773d ade4 d93d a6e5 ab3d
000003d0: 3f51 a53d d99d c53d c42e 273d c831 8c3d
000003e0: 79f1 b33d 9ea2 1c3d a597 e13b 380d f1bc
000003f0: ae37 b53c a3c3 6d3d c5c3 a33d 626b 90bd

model.input.bias f4 [256]
0.014499693 0.036632802 0.06800247 0.026425358 -0.02753772 0.072472274 0.05574958 0.0015378743
-0.019296233 -0.019545257 0.10955728 -0.012355752 0.0022146115 0.027959937 0.08255301 -0.021752052
0.0015417875 0.033446662 -0.020763407 0.052326724 0.07578902 0.034683246 0.14130165 -0.02842286
0.028294466 0.04855134 0.058836922 -0.050937027 -0.055397537 0.07148932 0.07410095 0.05122419
0.03342885 0.0965495 0.013224124 -0.030869927 0.038893238 0.07465231 0.0068981093 0.07292207
0.08920136 -0.00973631 -0.0026786567 0.05678931 0.04677792 -0.034506 -0.013754078 0.012065332
0.11675919 0.006962951 0.017691594 0.15733765 0.08501808 -0.034754157 -0.044619933 0.0010169751
0.033711817 -0.017503552 0.015452043 0.042418025 0.027100127 0.11223932 -0.017208334 0.035675183
0.04944884 0.04334351 0.022221478 -0.046072155 0.033784475 0.017932707 0.07301817 0.069224715
0.025938936 0.011807618 -0.017458417 -0.033773407 0.055896305 0.0651518 0.068037376 0.14515857
-0.014455534 0.026748266 0.04031641 0.079239585 -0.02293057 0.07697494 -0.03253453 0.050240457
-0.035631727 0.0063956375 -0.031572256 0.014177533 0.017093644 0.032702304 0.07108297 0.06408266
0.08224095 0.06581362 -0.015982749 -0.0048928214 0.060599215 0.05829919 -0.0018932833 -0.029604131
-0.0015698983 -0.011000944 0.043678127 -0.04987182 -0.06988916 0.011365353 0.09705503 0.012493846
0.02810127 0.06659793 0.006860934 0.0008667336 -0.015345796 0.05314896 0.015733138 0.007550043
0.11773029 0.07624843 0.031041713 0.068664365 0.076231755 0.028822638 0.027909793 0.017468156
0.10671962 -0.076270044 -0.015664984 0.07470217 -0.007976236 0.072030276 0.098530695 -0.015257387
0.086857714 0.08382 -0.01311392 0.007630157 0.073399074 0.03689344 0.0394667 0.03396887
0.10056971 0.0724518 -0.029417787 0.037555877 -0.0040555405 0.014067037 0.034247845 0.06682519
0.016275512 0.050979044 -0.014842481 -0.007992993 0.021420922 0.015357654 -0.011487636 0.13084419
0.10324941 0.035793636 -0.032855604 -0.015622179 0.032547936 -0.017333273 -0.039214987 0.020095969
-0.029445529 -0.03875381 0.024808422 -0.02892702 0.031668838 0.14777827 0.07207134 0.002706328
0.10659418 0.03992274 0.057802074 0.046317447 0.017689314 -0.016151661 0.06565834 0.06325861
-0.031968065 0.10604339 0.06764408 -0.02139671 0.08155655 0.03724553 0.024727928 0.10880717
0.02285854 0.008213864 0.04581151 0.0695818 -0.056170464 0.013466861 -0.0039425096 0.09623253
0.02330932 -0.00028030362 0.018414043 0.047264047 0.013761781 0.013030131 0.057405204 0.057378154
0.026989011 2.2065216e-05 0.07949631 0.13424611 0.0325723 -0.0069195754 -0.009364125 0.1344596
0.020052144 0.12455455 -0.025822258 -0.015131322 -0.035724446 0.029765595 0.032634955 0.004470684
-0.011263132 0.04243539 0.017833635 -0.0028064663 0.12208425 -0.03550547 0.014014852 0.09815007
0.09276017 0.060369022 0.002425276 -0.021445366 -0.05393102 -0.019559471 0.056823533 0.05781185
0.08025346 0.01541834 0.01936139 0.17025603 0.0392198 -0.028459093 0.082895786 0.016490994
0.0410433 0.04465336 0.017564613 0.006147912 -0.027555626 -0.037377723 -0.020242698 0.04760333
00000000: 1f90 6d3c 470c 163d e144 8b3d fe79 d83c
00000010: c996 e1bc 586c 943d ac59 643d 8092 c93a
00000020: 2213 9ebc 601d a0bc 915f e03d c86f 4abc
00000030: 0423 113b 3d0c e53c 8d11 a93d 5c31 b2bc
00000040: ce15 ca3a 5eff 083d 0518 aabc 8c54 563d
00000050: 4637 9b3d 0510 0e3d 61b1 103e 0fd7 e8bc
00000060: ccc9 e73c c5dd 463d fcfe 703d 58a3 50bd
00000070: 87e8 62bd fe68 923d 3dc2 973d 75d0 513d
00000080: b1ec 083d bfbb c53d ffa9 583c eee2 fcbc
00000090: 844e 1f3d 4fe3 983d 8909 e23b 2b58 953d
000000a0: 34af b63d 0b85 1fbc 678c 2fbb e89b 683d
000000b0: 349a 3f3d 2a56 0dbd c958 61bc acad 453c
000000c0: 711f ef3d 7729 e43b f6ed 903c 1f1d 213e
000000d0: f61d ae3d 605a 0ebd 64c3 36bd 064c 853a
000000e0: 6715 0a3d 9c63 8fbc 912a 7d3c 86be 2d3d
000000f0: 1601 de3c bbdd e53d 7ef8 8cbc 2420 123d
00000100: de8a 4a3d f788 313d d109 b63c 28b6 3cbd
00000110: 9761 0a3d 9de7 923c 8d8a 953d b0c5 8d3d
00000120: e47d d43c bd74 413c f404 8fbc fc55 0abd
00000130: 86f3 643d 4f6e 853d 2e57 8b3d 73a4 143e
00000140: e7d6 6cbc 2e1f db3c d222 253d 5d48 a23d
00000150: e4d8 bbbc 0aa5 9d3d ed42 05bd f0c8 4d3d
00000160: 93f2 11bd 7f92 d13b e951 01bd e248 683c
00000170: f807 8c3c daf2 053d f393 913d c53d 833d
00000180: f16d a83d 4bc9 863d 41ee 82bc f653 a0bb
00000190: e236 783d 22cb 6e3d 0c28 f8ba 5d84 f2bc
000001a0: 0cc5 cdba 4e3d 34bc d6e7 323d 6546 4cbd
000001b0: 0c22 8fbd bf35 3a3c cac4 c63d fdb2 4c3c
000001c0: a234 e63c 7f64 883d b0d1 e03b 8235 633a
000001d0: ef6c 7bbc b9b2 593d c8e2 803c 5a66 f73b
000001e0: 941c f13d 2328 9c3d 314b fe3c e79f 8c3d
000001f0: 651f 9c3d 741d ec3c 14a3 e43c 6119 8f3c
00000200: d18f da3d 7833 9cbd da53 80bc 74fd 983d
00000210: c2ae 02bc 9c84 933d 76ca c93d 1ffa 79bc
00000220: 75e2 b13d d2a9 ab3d c4db 56bc 6506 fa3b
00000230: 4152 963d 931d 173d d6a7 213d f122 0b3d
00000240: 7ef7 cd3d 9c61 943d 92fd f0bc 31d4 193d
00000250: 57e4 84bb 6e79 663c 7847 0c3d a5db 883d
00000260: 3954 853c 67cf 503d e12d 73bc 0bf5 02bc
00000270: ee7a af3c ab9e 7b3c a336 3cbc 05fc 053e
00000280: 6d74 d33d 599c 123d 9993 06bd 2bf4 7fbc
00000290: fc50 053d 82fe 8dbc e59f 20bd 4da0 a43c
000002a0: c037 f1bc 51bc 1ebd 083b cb3c 5cf8 ecbc
000002b0: 2fb7 013d 3053 173e 249a 933d a65c 313b
000002c0: 0d4e da3d 0786 233d dec1 6c3d 5db7 3d3d
000002d0: 2ee9 903c 7d50 84bc e177 863d bb8d 813d
000002e0: f2f0 02bd 472d d93d fb88 8a3d 2748 afbc
000002f0: 1f07 a73d c58e 183d 3992 ca3c 4bd6 de3d
00000300: d541 bb3c 7193 063c daa4 3b3d e780 8e3d
00000310: 0013 66bd 1ca4 5c3c 2b30 81bb 9015 c53d
00000320: 30f3 be3c b7f5 92b9 0cd9 963c f297 413d
00000330: 1879 613c 557c 553c b821 6b3d 5b05 6b3d
00000340: 0f18 dd3c b118 b937 f6ce a23d d077 093e
00000350: 886a 053d 9bbd e2bb fd6b 19bc c7af 093e
00000360: 6544 a43c 7516 ff3d 3389 d3bc 5de9 77bc
00000370: cc53 12bd fad6 f33c 3bac 053d d17e 923b
00000380: 0089 38bc bbd0 2d3d d817 923c b1ec 37bb
00000390: 4f07 fa3d 2f6e 11bd 8d9e 653c e702 c93d
000003a0: 0bf9 bd3d 8245 773d 61f1 1e3b 31ae afbc
000003b0: c6e6 5cbd 2f3b a0bc cbbf 683d 1ecc 6c3d
000003c0: ed5b a43d 359d 7c3c c79b 9e3c 9957 2e3e
000003d0: f1a4 203d 0b23 e9bc 44c5 a93d 1f18 873c
000003e0: 051d 283d 71e6 363d aae3 8f3c 6c74 c93b
000003f0: 56bc e1bc 6219 19bd 04d4 a5bc b6fb 423d

model.dense1.weight f4 [128, 256]
-0.20440963 0.039462492 -0.22523338 0.07981761 0.021225857 -0.22358382 -0.0747528 -0.009694058
0.11274589 -0.16086718 0.0034349852 -0.0007778483 0.25439268 0.036805347 0.05317569 0.01625984
0.07194966 0.021510448 -0.07221553 0.10114518 -0.09857144 -0.03311963 -0.2978644 -0.0039275307
0.075270854 -0.19595295 0.067247875 0.12369107 -0.02779614 0.09050937 0.1981633 0.0766738
-0.05849817 0.05738851 -0.061885647 0.13524866 0.060907226 -0.0016812743 0.056917496 0.037291426
0.0037086087 -0.12021408 0.19674054 -0.12585202 0.032100495 0.07202918 0.04283391 -0.20458256
0.067378685 0.10373925 0.08387352 0.010741329 0.0011775597 0.019803623 0.046858497 -0.13609834
0.11555905 -0.25181624 -0.068434276 -0.016061593 0.07687408 0.110298775 0.058494933 -0.028146947
0.045958657 -0.110929064 0.12717639 -0.016127082 -0.29543406 0.0024272222 -0.17966399 0.12855221
0.13490202 0.01556357 -0.048389845 0.012552383 -0.0609334 -0.20104396 -0.060833864 -0.2741275
0.03334734 -0.01039206 -0.19418709 0.15764377 -0.059555393 0.08583367 -0.04728481 0.08718941
0.011281084 0.0973577 0.23732997 0.043660786 -0.021494607 0.13141121 -0.14291522 0.12343038
0.11455065 0.052231796 0.13971494 0.12316449 -0.11161918 0.052324004 0.14436518 0.16252403
0.034140673 -0.03896752 0.0017388968 0.05013104 0.019738862 0.08557261 -0.0039461027 -0.02357374
0.18420672 0.060381576 0.10910047 -0.046809804 -0.08403767 0.024696657 -0.012109517 0.14935932
-0.006858319 -0.0915349 0.0852682 0.071668945 -0.02864961 -0.032635555 -0.09352571 0.07584125
0.010973158 0.040237386 0.09700124 0.011897064 -0.0057967943 -0.24065147 -0.03759409 0.061981384
-0.16250816 0.095715694 0.12229102 0.07370357 -0.079751834 0.081164144 0.18495476 0.13285556
-0.046608694 -0.07429679 0.12437539 -0.0791925 0.026303234 -0.04288207 0.17026572 -0.10233628
-0.045896973 -0.28615224 -0.00033498125 0.025316792 -0.021766001 0.03325589 0.37329245 0.061357293
0.06916924 0.026783286 -0.36073482 0.14770599 -0.0645995 0.07418396 0.14760204 0.0069163693
0.15621719 -0.1192328 0.04741802 0.030681558 0.028869916 -0.05379578 0.00991522 0.014619225
0.08926095 -0.14630088 0.034780324 0.00035511918 0.019255592 0.031598836 0.018164799 -0.34505102
-0.070434675 0.032558743 0.084190495 0.14706923 -0.037413206 0.03799707 -0.023401631 -0.09347847
0.09684996 0.029300975 0.07116396 0.16066487 -0.09263353 0.016855625 0.22807004 -0.22216345
0.03096594 0.14280722 0.023040531 -0.047819722 0.05714862 -0.0045534964 0.18805058 -0.053551994
-0.030503625 -0.020678908 0.020497322 0.11369843 0.03311759 -0.02584365 0.1095231 -0.0951336
0.1022007 0.013052338 0.12588583 0.11707306 0.04846526 0.004683591 0.1632194 0.070754446
0.06853958 -0.25144187 0.099375635 0.010692391 -0.07636074 0.053866565 0.04235578 -0.23442806
0.035661127 0.03714641 0.21851423 0.06484689 -0.16896547 0.0891493 0.04881751 0.040347237
-0.07137397 -0.07018061 -0.29558796 0.0016198718 -0.042377375 0.17558818 -0.1163247 -0.09235697
-0.106917344 0.05695866 0.058229398 0.07964874 -0.07683925 -0.028862134 -0.07175695 0.08770063
00000000: c250 51be 6ca3 213d 94a3 66be 6a77 a33d
00000010: d9e1 ad3c 28f3 64be ff17 99bd d4d3 1ebc
00000020: 51e7 e63d 5eba 24be 7d1d 613b 84e8 4bba
00000030: c23f 823e 34c1 163d c1ce 593d 5b33 853c
00000040: 585a 933d ae36 b03c bce5 93bd 3425 cf3d
00000050: d3df c9bd 73a8 07bd af81 98be 84b2 80bb
00000060: 9b27 9a3d e4a7 48be 41b9 893d be51 fd3d
00000070: bbb4 e3bc fa5c b93d 52eb 4a3e 2707 9d3d
00000080: c79b 6fbd 3710 6b3d ce7b 7dbd a07e 0a3e
00000090: db79 793d 345e dcba 5222 693d e5be 183d
000000a0: 210c 733b cd32 f6bd 5a76 493e 5adf 00be
000000b0: cf7b 033d 0984 933d 9c72 2f3d 177e 51be
000000c0: d6fd 893d 3e75 d43d e1c5 ab3d 66fc 2f3c
000000d0: 5958 9a3a 353b a23c b2ee 3f3d 5d5d 0bbe
000000e0: 39aa ec3d 0fee 80be 4527 8cbd 9a93 83bc
000000f0: 2870 9d3d 53e4 e13d 6298 6f3d 6d94 e6bc
00000100: 253f 3c3d c72e e3bd 873a 023e f11c 84bc
00000110: 2243 97be 0812 1f3b d6f9 37be 31a3 033e
00000120: c123 0a3e 58fe 7e3c 6e34 46bd 83a8 4d3c
00000130: 4d95 79bd 78de 4dbe ee2c 79bd 715a 8cbe
00000140: 3897 083d 7543 2abc fbd8 46be 5e6d 213e
00000150: 5bf0 73bd 90c9 af3d b8ad 41bd 5d90 b23d
00000160: 4cd4 383c 7963 c73d a106 733e a7d5 323d
00000170: 7515 b0bc a990 063e 5e58 12be 11c9 fc3d
00000180: 8899 ea3d 02f1 553d 6f11 0f3e aa3d fc3d
00000190: 9998 e4bd b251 563d 77d4 133e b36c 263e
000001a0: 17d7 0b3d 689c 1fbd b2eb e33a 3556 4d3d
000001b0: 65b3 a13c b140 af3d 4f4e 81bb b71d c1bc
000001c0: b0a0 3c3e ac52 773d 1170 df3d a3bb 3fbd
000001d0: f11b acbd a550 ca3c ff66 46bc a6f1 183e
000001e0: c0bb e0bb a676 bbbd 18a1 ae3d 2bc7 923d
000001f0: 96b2 eabc dcac 05bd 688a bfbd a852 9b3d
00000200: c3c8 333c f5cf 243d 96a8 c63d e7eb 423c
00000210: 09f3 bdbb 576d 76be 43fc 19bd 31e0 7d3d
00000220: 8a68 26be 9706 c43d b773 fa3d e6f1 963d
00000230: ee54 a3bd 6339 a63d c864 3d3e 4a0b 083e
00000240: c2e8 3ebd ea28 98bd 86b8 fe3d ad2f a2bd
00000250: e179 d73c 1ca5 2fbd 235a 2e3e af95 d1bd
00000260: 77fe 3bbd 8c82 92be 6ca0 afb9 2965 cf3c
00000270: 9d4e b2bc 5437 083d 3020 bf3e c951 7b3d
00000280: 9aa8 8d3d 9f68 db3c 3cb2 b8be 3d40 173e
00000290: be4c 84bd c3ed 973d fd24 173e b6a2 e23b
000002a0: 66f7 1f3e 5430 f4bd 6639 423d e457 fb3c
000002b0: 9a80 ec3c f758 5cbd 7273 223c 7985 6f3c
000002c0: 72ce b63d e6cf 15be d075 0e3d 4a2f ba39
000002d0: e7bd 9d3c c86d 013d 58ce 943c 87aa b0be
000002e0: 0e40 90bd 515c 053d 116c ac3d 5199 163e
000002f0: 973e 19bd d1a2 1b3d c7b4 bfbc a471 bfbd
00000300: 4659 c63d 9908 f03c 69be 913d 5585 243e
00000310: a6b6 bdbd cf14 8a3c 318b 693e d17e 63be
00000320: 48ac fd3c 0e3c 123e 7fbf bc3c 9dde 43bd
00000330: ac14 6a3d 7f35 95bb 5590 403e 5659 5bbd
00000340: bde2 f9bc d066 a9bc 00ea a73c b9da e83d
00000350: 4fa6 073d 10b6 d3bc a64d e03d 68d5 c2bd
00000360: 9a4e d13d 79d9 553c 37e8 003e 00c4 ef3d
00000370: 8283 463d cf78 993b fd22 273e b5e7 903d
00000380: 7b5e 8c3d fdbc 80be 7485 cb3d 232f 2f3c
00000390: 0563 9cbd 30a3 5c3d 417d 2d3d e90d 70be
000003a0: 6711 123d d626 183d 32c2 5f3e 72ce 843d
000003b0: 4905 2dbe e893 b63d dff4 473d 2543 253d
000003c0: 842c 92bd daba 8fbd 4e57 97be e151 d43a
000003d0: e693 2dbd 63cd 333e a53b eebd a725 bdbd
000003e0: 7bf7 dabd 7c4d 693d f381 6e3d e11e a33d
000003f0: e65d 9dbd 4870 ecbc 4ff5 92bd 639c b33d

model.dense1.bias f4 [128]
0.054837663 0.024055908 -0.043404005 0.035387356 0.10152507 0.14091888 0.016982121 -0.02548523
-0.031839937 -0.051772017 0.05821922 0.0074537173 0.021796383 0.12736015 0.062233184 0.035451703
0.087507635 0.11751679 0.07370212 0.034304127 0.1669337 0.09506351 0.10569811 0.009086717
0.030125685 0.10673991 -0.047032617 0.013840273 -0.048796356 0.02360939 -0.027843654 0.06651911
-0.015282159 -0.028344035 -0.014020355 -0.06173667 0.060852718 0.103483014 0.005512714 0.06627812
0.14193745 0.014446777 0.14853983 0.044294633 0.02198863 0.058016066 0.07708529 0.071653254
-0.0053283297 0.099494435 0.070730925 0.07267482 0.13505457 -0.04267338 0.008765628 -0.03774622
0.09239925 -0.05260727 0.10364945 0.042789787 0.013523659 -0.07443164 0.005207666 -0.022518529
0.058597274 0.018773835 -0.03148983 0.057199147 -0.011201031 0.0041916855 0.06774666 0.069113165
-0.045023054 0.09209787 0.056126643 0.117325105 0.08097276 -0.0381842 0.11138011 0.07698974
0.124875195 -0.009625052 0.12636042 0.04355503 0.09516494 0.08497961 0.13266641 0.18276037
0.07130671 0.039671026 -0.0050867 0.07398464 0.09559166 0.09021926 0.020895414 0.0744154
9.4872994e-05 0.14779018 0.058163248 -0.02270015 0.03666918 0.042908374 0.0460504 0.040942762
0.11170517 0.06200684 -0.07482559 -0.12696646 0.029669201 0.07801416 0.025550652 0.06851642
-0.06845083 0.08001738 0.019028036 0.05616542 -0.031406876 0.06700405 0.08015455 0.005375305
0.0048088976 -0.029812677 0.06183568 -0.1254218 0.011382403 0.0332837 0.13313562 -0.06673747
00000000: 759d 603d e510 c53c 66c8 31bd 55f2 103d
00000010: 60ec cf3d 0a4d 103e 171e 8b3c 67c6 d0bc
00000020: 986a 02bd e50e 54bd 4777 6e3d 503e f43b
00000030: 548e b23c b36a 023e 39e8 7e3d ce35 113d
00000040: 3437 b33d a5ac f03d 23f1 963d 7c82 0c3d
00000050: abf0 2a3e a8b0 c23d 4078 d83d 74e0 143c
00000060: 24ca f63c 749a da3d 46a5 40bd 50c2 623c
00000070: b0de 47bd 7b68 c13c 6018 e4bc 2c3b 883d
00000080: 0562 7abc c031 e8bc a2b5 65bc 97df 7cbd
00000090: b340 793d e7ee d33d ffa3 b43b d3bc 873d
000000a0: 0d58 113e 2db2 6c3c d31a 183e 4a6e 353d
000000b0: 8021 b43c 41a2 6d3d e4de 9d3d f1be 923d
000000c0: 4599 aebb bdc3 cb3d 60db 903d 89d6 943d
000000d0: bf4b 0a3e 48ca 2ebd b59d 0f3c c89b 1abd
000000e0: d13b bd3d b97a 57bd 2a46 d43d 5844 2f3d
000000f0: 5692 5d3c 9e6f 98bd 12a5 aa3b c778 b8bc
00000100: b203 703d 96cb 993c 7bfb 00bd a749 6a3d
00000110: 8784 37bc 685a 893b c3be 8a3d 348b 8d3d
00000120: 186a 38bd cf9d bc3d 0de5 653d 2548 f03d
00000130: 0cd5 a53d 0967 1cbd 411b e43d ccac 9d3d
00000140: 91be ff3d 65b2 1dbc a064 013e c266 323d
00000150: d6e5 c23d ca09 ae3d b4d9 073e 8925 3b3e
00000160: 4109 923d 167e 223d 55ae a6bb 4285 973d
00000170: 8fc5 c33d e0c4 b83d dc2c ab3c 1a67 983d
00000180: 8df6 c638 4f56 173e 963c 6e3d aaf5 b9bc
00000190: 6c32 163d b1c0 2f3d 589f 3c3d 99b3 273d
000001a0: aec5 e43d e2fa 7d3d 293e 99bd 7f03 02be
000001b0: d30c f33c e3c5 9f3d 9a4f d13c 5652 8c3d
000001c0: f32f 8cbd 27e0 a33d afe0 9b3c b60d 663d
000001d0: 7fa4 00bd 6b39 893d 1228 a43d 5423 b03b
000001e0: f593 9d3b b739 f4bc 6947 7d3d 936e 00be
000001f0: 427d 3a3c 7d54 083d b454 083e a8ad 88bd

model.output.weight f4 [10, 128]
-0.0776534 0.17307647 -0.06858271 -0.14118904 -0.20684505 -0.12093585 -0.246621 0.03152828
0.11246081 -0.06864844 0.09573363 -0.033166245 -0.12315311 -0.16236003 -0.0010464696 0.1215151
0.115493864 -0.27900603 0.14308906 0.17305698 -0.24095173 -0.18859605 0.14748254 0.04934082
-0.22384463 0.016615879 0.03739513 -0.0022663001 -0.17080595 0.16076931 0.06344483 -0.13264005
0.108807184 0.04298141 -0.18837419 0.28854465 -0.16630211 -0.14088131 -0.07697762 -0.025853205
-0.18459074 -0.24419916 -0.11613811 -0.17318432 -0.10980268 -0.19581836 -0.01001409 0.096057326
0.14755045 -0.16199096 -0.0978654 0.043962777 -0.06880054 0.19624184 -0.23380032 -0.16680968
0.15232073 -0.2238916 0.14323205 0.07647759 0.13416143 0.058290124 0.14704308 0.03540741
-0.16494748 0.12897085 -0.008453098 0.13037078 -0.15100746 -0.0829357 -0.29281512 0.066420026
0.14627263 0.09332427 -0.027769994 -0.101073794 0.1540087 -0.027331501 0.16316748 0.05186628
-0.16651504 -0.25983372 -0.3379147 0.14239761 0.004201944 -0.104058884 -0.007714632 -0.27653423
0.037873812 0.024958843 -0.16187619 0.013900773 -0.18272914 0.017270679 0.02820577 -0.36790037
0.19626133 0.06003401 -0.12977089 -0.15426154 0.0831081 -0.12381519 0.10948254 -0.13475275
-0.011520248 0.19225848 -0.06807001 -0.044342097 -0.12006128 0.010163539 0.056509238 0.1439589
-0.09810455 -0.2751754 -0.2768286 -0.29558933 0.017496837 -0.16079393 -0.00076339615 0.04107796
0.15577607 -0.2591677 0.03871427 -0.042422563 0.07722999 0.029983504 -0.029645225 -0.21442427
-0.26704383 -0.03667681 0.009270238 0.038113426 0.110934205 -0.35111874 0.1087557 -0.24202164
-0.09118742 0.082222216 0.059191294 -0.03084318 -0.24630298 -0.00031242572 -0.14827359 -0.098111376
-0.17377399 -0.20457955 -0.17614038 -0.02628066 0.044279974 0.09294448 -0.16870476 -0.16726364
0.08774755 -0.040122773 0.14162149 -0.19194646 0.09771761 -0.24227653 -0.2595387 0.06837627
-0.22499299 0.19269443 0.11985793 -0.3421921 0.13638367 0.19186485 0.12040608 0.17381012
-0.21750207 0.15347058 -0.15720956 -0.11077412 -0.20730129 -0.19744702 -0.16252753 -0.17684285
-0.1180371 0.025031777 0.13105157 0.010570364 -0.055977564 -0.11661154 0.17129381 0.054562643
-0.15526974 0.057683185 -0.17450586 0.158897 -0.15624757 0.02456704 0.14271504 -0.21495293
-0.019806165 -0.015058412 0.071996786 0.09067247 -0.073135845 -0.064706884 -0.21408731 0.11264966
-0.0064576883 -0.14943534 -0.12122047 0.13663313 -0.18206674 0.064538345 -0.22937244 0.16952394
0.10914084 -0.08550893 -0.073640876 0.08978057 0.07677559 0.1574421 -0.27746117 0.14956535
0.117060065 -0.1972917 -0.18044972 -0.06320223 0.18197235 -0.27656463 -0.22398022 0.21637554
-0.10900891 -0.25380793 -0.15784936 0.029479837 -0.009642487 0.11993735 -0.17777795 -0.1088616
-0.23265983 0.037433576 0.040578216 0.15180011 -0.12294695 -0.26308677 -0.07502211 0.0842238
0.25396323 0.17630677 0.047572747 0.11921543 -0.10720385 -0.22136194 -0.22962421 0.14813542
-0.16434674 0.112824075 0.08290429 0.070523396 0.13399588 0.16699837 -0.27978298 0.16035415
00000000: bf08 9fbd f53a 313e 1875 8cbd dc93 10be
00000010: 30cf 53be 37ad f7bd 378a 7cbe cc23 013d
00000020: da51 e63d 8e97 8cbd fe0f c43d 54d9 07bd
00000030: b337 fcbd b541 26be b129 89ba e9dc f83d
00000040: 0c88 ec3d e1d9 8ebe f085 123e d935 313e
00000050: 0dbc 76be 531f 41be aa05 173e 9a19 4a3d
00000060: 8737 65be 061e 883c a32b 193d 3586 14bb
00000070: c1e7 2ebe b6a0 243e 5def 813d cbd2 07be
00000080: 4dd6 de3d 460d 303d 2ae5 40be 20bc 933e
00000090: 1a4b 2abe 3143 10be 71a6 9dbd 1aca d3bc
000000a0: 5b05 3dbe 580f 7abe d1d9 edbd 3b57 31be
000000b0: 3ae0 e0bd 9c84 48be 2312 24bc b4b9 c43d
000000c0: 7717 173e f5e0 25be a86d c8bd 5012 343d
000000d0: 4ce7 8cbd 9ff3 483e 5a69 6fbe 28d0 2abe
000000e0: f7f9 1b3e d743 65be 6cab 123e 48a0 9c3d
000000f0: 9d61 093e a0c1 6e3d 7692 163e 5c07 113d
00000100: fee7 28be ef10 043e dd7e 0abc eb7f 053e
00000110: b3a1 1abe 31da a9bd ddeb 95be 3907 883d
00000120: 7ec8 153e cb20 bf3d e67d e3bc c7ff cebd
00000130: 75b4 1d3e 50e6 dfbc 6015 273e bd71 543d
00000140: eb82 2abe ed08 85be 2803 adbe aed0 113e
00000150: 76b0 893b d31c d5bd 06cb fcbb e595 8dbe
00000160: 9221 1b3d 7d76 cc3c dfc2 25be 11c0 633c
00000170: 591d 3bbe 3d7b 8d3c c90f e73c 705d bcbe
00000180: bbf8 483e 39e6 753d a9e2 04be bdf6 1dbe
00000190: 9434 aa3d d192 fdbd 6238 e03d a0fc 09be
000001a0: 6cbf 3cbc 68df 443e 4a68 8bbd 0fa0 35bd
000001b0: b0e2 f5bd f984 263c 3b76 673d f669 133e
000001c0: 0aeb c8bd cae3 8cbe 7abc 8dbe 7c57 97be
000001d0: 8755 8f3c 2aa7 24be a61e 48ba 5d41 283d
000001e0: c383 1f3e a1b1 84be db92 1e3d 48c3 2dbd
000001f0: c22a 9e3d f79f f53c 8bda f2bc 0992 5bbe
00000200: f8b9 88be 6c3a 16bd 32e2 173c d31c 1c3d
00000210: 7931 e33d d6c5 b3be 4fbb de3d 85d4 77be
00000220: 78c0 babd 1f64 a83d 9272 723d d6aa fcbc
00000230: d936 7cbe 12cd a3b9 08d5 17be 9eee c8bd
00000240: cff1 31be 4d7d 51be 255e 34be 8a4a d7bc
00000250: eb5e 353d ad59 be3d f1c0 2cbe 2947 2bbe
00000260: fdb4 b33d c757 24bd 3905 113e 9d8d 44be
00000270: 2c20 c83d 5717 78be 42e2 84be dc08 8c3d
00000280: 9064 66be b051 453e 1378 f53d ce33 afbe
00000290: 29a8 0b3e 3878 443e 7697 f63d 48fb 313e
000002a0: ddb8 5ebe 6427 1d3e 8bfb 20be 8bdd e2bd
000002b0: ca46 54be 8d2f 4abe 9e6d 26be 4b16 35be
000002c0: 6fbd f1bd 710f cd3c 6232 063e 522f 2d3c
000002d0: bb48 65bd 08d2 eebd a567 2f3e 147d 5f3d
000002e0: 08ff 1ebe 3445 6c3d aab1 32be e5b5 223e
000002f0: 5dff 1fbe d140 c93c e423 123e 9f1c 5cbe
00000300: 8a40 a2bc 8fb7 76bc 0d73 933d 7db2 b93d
00000310: 3fc8 95bd 0b85 84bd b439 5bbe ddb4 e63d
00000320: 049b d3bb 9405 19be 7042 f8bd 8ee9 0b3e
00000330: b46f 3abe ae2c 843d 9ce0 6abe af97 2d3e
00000340: 3c85 df3d 4e1f afbd 07d1 96bd e0de b73d
00000350: 853c 9d3d 8038 213e 640f 8ebe a927 193e
00000360: 30bd ef3d d606 4abe d0c7 38be 2c70 81bd
00000370: f656 3a3e e199 8dbe 125b 65be 8d91 5d3e
00000380: 1040 dfbd 1df3 81be 43a3 21be b37f f13c
00000390: 86fb 1dbc b7a1 f53d 6c0b 36be d5f2 debd
000003a0: 613e 6ebe f353 193d 5835 263d 7d71 1b3e
000003b0: 9ccb fbbd 4fb3 86be 31a5 99bd 877d ac3d
000003c0: 7807 823e c389 343e a4db 423d 3827 f43d
000003d0: b18d dbbd b4ac 62be 9c22 6bbe d0b0 173e
000003e0: 834a 28be 4f10 e73d b9c9 a93d 926e 903d
000003f0: 3736 093e 9f01 2b3e b73f 8fbe e133 243e

model.output.bias f4 [10]
-0.06666741 -0.018809784 -0.058484502 -0.009550407 0.047662016 0.08044928 -0.044821717 -0.0469326
0.0459131 0.06721655
00000000: ec88 88bd fa16 9abc 728d 6fbd 4f79 1cbc
00000010: 3f39 433d 98c2 a43d fa96 37bd 663c 40bd
00000020: 600f 3c3d d5a8 893d
