Models/model_optSGD_ep40_neu32_lay1_acc0.9446.pth (torch, 106494 bytes, 6 tensors)

model.input.weight f4 [32, 784]
00000000: 80a5 723c 329a ce3c 4315 003d 54c6 aebb
00000010: 004d 36b9 2cc4 a03c 04ed 08bd 0ed4 02bc
00000020: c09d 29bc 68aa 923b 12e2 62bc 606e cb3b
00000030: 30b1 953b 452e 84bc 9d20 c83c 67dd 053b
00000040: beaa 93bc 00ce 0e39 ba13 c1bc 30c4 72bb
00000050: d8c4 d63c 40b2 98bc 862d 3abc be62 a4bc
00000060: dc01 cbbb 234c f9bc d478 733c 7583 8cbc
00000070: 090a 0c3d aee7 22bc 146c a3bb 5c58 f5bc
00000080: ea59 9abc 34a8 d4bb a948 ae3c 3dca 103d
00000090: 9942 a8bc 9459 7dbb 7e15 0a3d 178b 053b
000000a0: 5e08 153d 3068 d0bc 7c87 0ebd aeaf 033d
000000b0: 312a e13c a98d f3bc 3f0e 03bd a291 5ebc
000000c0: cafb 85bc 4b3e a538 a00c a83b dae8 0bbc
000000d0: 6e1a 933c bc54 54bc e4d9 97bb 2026 2fbc
000000e0: b897 e93b 48da d93b 335a c9bc 0001 813b
000000f0: 9755 4dbc 2416 c2bc ddbf 1ebb bac0 5c3b
00000100: 834e 003d b8d9 163c fe13 b43c 38e7 34bb
00000110: 5fb8 cf3c 5008 d23b 55e3 d63c ecd3 0a3d
00000120: 108c c93c 3e4b 76bc 6bd9 03bd 6b5e b33b
00000130: 7c71 17bc 950f d7bc 5916 6abc 8221 babb
00000140: 7d28 1fbc b827 c0bc f0b7 b13b a044 f83a
00000150: 2015 b93a b8eb 9d3c e116 0f3d 91dd 223c
00000160: e9c3 5ebc a1cf 5b3c e742 4b3b 3ca0 003d
00000170: fb54 503b 8a15 01bc 42e2 3a3d 560f bc3c
00000180: c09d cfbc 525e 863c 0d31 0f3d 4e62 a4bb
00000190: 3f5d 233b a2db 1fbc 2dee 46bd 263c 243b
000001a0: 4b9e f8bc 3e09 513c 8c05 cabb 189b b5bc
000001b0: 7728 d93c 9705 c63c 50c9 913b 932f ffbc
000001c0: 9c47 07bc c8c1 883c 4c09 b03c 9125 efbc
000001d0: 9416 023b 2308 d6bb 4cdf 4a3c e226 2bbc
000001e0: 3b47 ac3c 760e 073c 169a d43c 1656 0e3d
000001f0: a80b 3b3d fa9a aa3d 3c68 21bd 3e5f bbbb
00000200: 0cfd 9bbd 55d8 1ebd 6b17 18bd 1f9c 06bc
00000210: e895 c1bc 589e 2dbd 0b21 573c 23df 0ebc
00000220: 1991 813c 545b ca3c cb9a b0bc 103a bc3b
00000230: 68f3 363c c0ea a83c b29b aa3c b99a 8fbc
00000240: ea9d 583c 56cb 103b cb1b 7abc 8371 8f3d
00000250: 0b89 b73d faa3 a23d 01e9 ac3d a75e dfbb
00000260: cbbf 63bd 7fe2 eabd abc9 5dbe c16b 0cbe
00000270: 68b8 1fbe 6a85 32be 85b5 b3bd 9ef7 99bd
00000280: dcab c7bb cf6f 5bbd 98e7 64bd d5cd 02bd
00000290: 7756 283c 6020 32bc 02dd 9dbc d0e5 743b
000002a0: 606a 413c b200 2ebc e706 ce3c 15ad b7bc
000002b0: 9191 d4bc 71fd dd3c d1e1 8d3d 882f 383c
000002c0: d6c6 e63c f9c4 36bd 2125 7abd 4daf 2dbd
000002d0: aeb0 b03b 047e f5bd c0c6 f6bd a431 f4bd
000002e0: eab1 6ebc 4970 09be cc46 3ebd 0ae9 aebd
000002f0: 2486 45bc 19b4 c3bc 153e ad3b faf3 b83c
00000300: dbed fa3c 7eb3 4c3c be67 893c 09fa be3b
00000310: 7356 33bc 19e6 99bc 0ebf 81bc fe74 e3bb
00000320: defc 063b b0c3 113d 5995 893d 1058 623d
00000330: 460c 46bc 9679 253d f95b 5e3d 2dd2 083e
00000340: 7327 97bb 3bb2 16be 4887 74bd 104a 7ebd
00000350: 721d 10bd 2576 3f3d 7854 e63d 2113 573d
00000360: 6ce0 d73a bdc1 f2bc 5d47 45bc 47b6 ed3c
00000370: ec48 bf3d e1c8 99ba 54e7 fb3c 6927 053d
00000380: a1c4 463c 22ae 083d 3448 393d 8c72 b13c
00000390: e9f4 3e3d ac2f 633d 4202 3e3d ea56 483d
000003a0: cadd 4b3d 47bd c13d 45cb f43d f04e 843d
000003b0: 823a c33c 0321 fbbd 4124 16be a84c cabd
000003c0: 8474 a8bd 739f a53d 0b0b 8c3d 1cfb 9dbb
000003d0: 5ba1 59bc 08f6 acbc 8bc9 9a3d 5969 f83d
000003e0: 7f4e 303d a440 c2bb bdb6 af3c 5d44 273b
000003f0: e866 4fbc 3c95 143d 3e9a 3f3c c4d9 363d
0.014809966 0.02522001 0.031270277 -0.005333701 -0.00017385557 0.019624792 -0.03342916 -0.007985128
-0.010352552 0.0044758804 -0.013847845 0.006208226 0.0045682415 -0.016135344 0.024429614 0.0020426156
-0.018025752 0.00013618916 -0.023568977 -0.0037043206 0.02621691 -0.018639684 -0.011363393 -0.020066615
-0.00619529 -0.030431813 0.014860351 -0.017152527 0.034189258 -0.009942932 -0.004987249 -0.02994936
-0.018841702 -0.006489778 0.021274881 0.03534912 -0.020539569 -0.003865813 0.033711903 0.0020377093
0.036384933 -0.025440305 -0.034797177 0.032149963 0.027485939 -0.029730635 -0.031996008 -0.013584526
-0.016355414 7.879416e-05 0.005128458 -0.008539403 0.017956939 -0.012959655 -0.004634129 -0.010690242
0.007128682 0.0066483356 -0.024579143 0.003936887 -0.012532613 -0.023692198 -0.0024223246 0.003368421
0.031324875 0.009207182 0.02198219 -0.0027603637 0.02535647 0.0064096823 0.026231447 0.03389351
0.02460292 -0.015032588 -0.032189768 0.005473902 -0.009243365 -0.026252547 -0.014287555 -0.005680264
-0.009714243 -0.02345644 0.0054235384 0.001894135 0.0014120676 0.019277439 0.03493393 0.009940521
-0.013596513 0.013416202 0.0031015219 0.03140281 0.0031788934 -0.0078786705 0.045625933 0.022956531
-0.025343776 0.016402397 0.034958888 -0.0050166016 0.0024927405 -0.009756954 -0.048566986 0.0025060265
-0.030348917 0.012758551 -0.006165212 -0.022168681 0.026508553 0.024172587 0.004449047 -0.031150615
-0.008256819 0.016693965 0.021488808 -0.029192718 0.0019849883 -0.0065317317 0.01238234 -0.010446282
0.02103006 0.008243194 0.02595238 0.034750067 0.045665413 0.08330341 -0.039406046 -0.005718141
-0.07616624 -0.03878053 -0.037131708 -0.008215933 -0.023631051 -0.042387336 0.013130437 -0.008720192
0.015816258 0.024701752 -0.021558186 0.0057442263 0.011166431 0.02061975 0.020826194 -0.017529832
0.013221243 0.0022093854 -0.015265415 0.070040725 0.08961686 0.07941432 0.084428795 -0.0068167034
-0.05560283 -0.11468982 -0.21658961 -0.1371298 -0.15597689 -0.17433706 -0.087748565 -0.07517932
-0.0060934853 -0.053573426 -0.055884928 -0.031934578 0.010274521 -0.010871977 -0.019270424 0.0037368424
0.011805147 -0.010620283 0.025149776 -0.0224214 -0.025948318 0.02709839 0.06927837 0.011241801
0.028170984 -0.04462144 -0.061070565 -0.042403508 0.0053921556 -0.11986926 -0.12049627 -0.11923531
-0.014568785 -0.1342174 -0.046454236 -0.085405424 -0.012055907 -0.023889588 0.005286942 0.022577275
0.030630996 0.012493966 0.016773101 0.0058281464 -0.010945904 -0.018786477 -0.015838172 -0.006941437
0.0020597498 0.035587013 0.06717939 0.055259764 -0.012087887 0.040399157 0.05428693 0.13361426
-0.004612857 -0.14716427 -0.059699327 -0.06208235 -0.03518433 0.04674353 0.1124658 0.052508477
0.0016470081 -0.029633397 -0.01204094 0.02901758 0.093400806 -0.001173284 0.030749954 0.032508288
0.012131841 0.03336919 0.045234874 0.021661066 0.046620283 0.055465385 0.046388872 0.048911013
0.04977206 0.0945993 0.11952833 0.06460369 0.02383161 -0.12262156 -0.14662267 -0.09877902
-0.082253486 0.08087053 0.06838044 -0.0048211943 -0.013283099 -0.02111341 0.075579725 0.121294685
0.04304361 -0.005928116 0.021449441 0.0025522925 -0.012658812 0.036275133 0.011694489 0.04464127

model.input.bias f4 [32]
00000000: 9506 c83d 4d29 443e 3ab4 fd3c 41a9 2f3d
00000010: 55c2 683d 13cf 233e 6f5f 48bd 3fda 5cbe
00000020: 0ce8 a03d 1227 1d3e 19ed c53c 97e2 bfbd
00000030: cb29 183e e991 6c3d 597c b23d d445 453e
00000040: 854f 89be 7dd4 87bd 803d 0c3d 5d7f 27be
00000050: 6cbe 2d3d 9189 873e 10ea 3fbe c009 27be
00000060: 992d bc3d 1840 42bc d0d4 1b3e a05c f13d
00000070: 9c0c 3d3e 61b8 6cbd 1869 51bd 7c6d b43d
0.097668804 0.1915638 0.030969728 0.042886022 0.056825954 0.15996961 -0.048919138 -0.2156763
0.078567594 0.15346935 0.024160909 -0.093693905 0.14859693 0.05775634 0.08715124 0.19264919
-0.2681848 -0.06632326 0.03423834 -0.16357179 0.04241793 0.26472142 -0.18741632 -0.16312313
0.091883846 -0.011856101 0.152179 0.11785245 0.18461841 -0.057793025 -0.051125616 0.08809945

model.dense1.weight f4 [16, 32]
00000000: acf4 1d3f 9c56 b0bc ac7f 40be 8009 c83d
00000010: 8ce1 363f a38c a23e 9ac2 d7bd 2310 f03e
00000020: 62b9 f03e 376f 43bf ab4c fd3e 32ce d4be
00000030: 0a34 9e3e a8a7 8b3e b91e acbe 2467 68be
00000040: 0510 e53d 638a 21be 2f61 443f d295 7c3e
00000050: c647 d6be 1ce5 193f a678 033e 01a5 0b3f
00000060: ce04 483f 1559 febe 2958 2bbf c1bc a13d
00000070: aa4f 023f f0a3 16bf fa14 80bf c682 033f
00000080: bf9c af3e 7ae7 07bf 61bc 1a3f ddc1 97be
00000090: 69ef 2b3f 6f25 f9bd 6f1b 74bd 0aa2 f3be
000000a0: f99e 043f 9fe8 333f 27de 9e3e 863c a3bd
000000b0: d6b4 063e ad55 86bf 2e15 5b3e 41aa d13e
000000c0: 63c7 3dbf 9b6e 67bf 0720 033f 2d2d 16bf
000000d0: 7280 b0bd 5cb7 0f3f 9690 c2be be4f 473e
000000e0: b64f 99be 812a 15bd 9c6f 303e 2b70 2fbf
000000f0: b523 eebd fae0 92bf 17eb e23e cf3a 0fbd
00000100: f4b0 47bf b925 edbe 248b 423f 3e90 c4be
00000110: 3fc5 3a3f 5d8b 06bf 1f0a 6d3f a584 6f3f
00000120: 8534 b6be 6851 b23e 2660 2c3e 87f9 a4be
00000130: 30e8 32be 69af 1b3f 4d87 c7be 704e 2fbf
00000140: 1675 613f 06ab a23c f10c 21be 51fc 853e
00000150: 530a 1d3f 9d0b 893e 49da 36be 1f81 99be
00000160: a69b 023f 41a9 aebe 09db b53e 97fe 19bf
00000170: a85c 413f a729 043f c999 f13c 9d79 793f
00000180: 5232 323e d747 9fbd ce64 843d 3829 c03d
00000190: 7125 573d 42e3 48bc 05e9 323e ff25 4bbe
000001a0: 06a7 7abd f118 26be f9f7 d2bc bd3a 023e
000001b0: 9f4a d5bc 1bc9 90bd 6794 45be a54a 403e
000001c0: 5768 dcbd 2d7f 71bd 623f 243e 2e8c acbd
000001d0: cf30 833d 793a a3bd 44a0 3c3e 9ad4 203e
000001e0: 143b 1a3d 93b8 ba3d cb6b 353e d600 013d
000001f0: a8ac a3bd 7155 b53c e9bd 0cbe f883 95bc
00000200: bcf7 233e e3d8 ab3e c706 2c3f 95fe 0e3f
00000210: 1df4 073d 4a76 523f 1c3e 173f 5b18 75be
00000220: 1525 21be dcb9 0e3e 331e 42bf dba4 f23c
00000230: 2922 9abe a044 04be 9a3a a7bc 5895 b4be
00000240: 6a96 a73d 3fb5 283f f5b1 c13e d8f0 0abe
00000250: a3d2 5cbe 0c65 a33e c548 edbd e489 983e
00000260: b0b5 9abe 75b1 713e bdc9 303f 17b6 4abd
00000270: 7d71 b4be 37cd 003f fddb 2b3e bc13 ec3d
00000280: dc27 b1be 4fa7 7b3e 89f6 a83e 8788 3fbe
00000290: 983d 8bbe b4da d63e eecc 12bf 1cfd 26bc
000002a0: 2a6f ac3e 3037 37bf 9e8a 763d e9c0 b2bd
000002b0: 4d0d bebe ac3e 4a3f 5bc8 6b3d 5b1b cf3d
000002c0: 2798 f0be 1a6e 593d 4eb0 94be 3e0f ec3e
000002d0: f003 0e3c de90 e73e 0435 063d d8b1 8bbd
000002e0: 194a d4bd b728 08bf 7194 0fbf 331c 123f
000002f0: f9b7 f33e 02d4 d3bb e487 10bf d273 e83e
00000300: cf23 da3e f375 f23e 5d6d ea3e 47bd 223d
00000310: 330c 98be 080e 873d 9e6e 813e 5b2b 95be
00000320: b26e 8fbe 3a66 c0bd cc75 0bbe f471 533f
00000330: 7a87 07be 4617 d43e d5a6 ec3e 06da 013f
00000340: d3e7 61bd bf19 033e 557d ecbe 830f 31bd
00000350: e04b 5e3e ae96 113f 4dfb 183f 9e33 343e
00000360: 031e 53bf 56bb babe b6fb 7a3e d3c5 d83e
00000370: 2867 24be a52c 943e bf7c 013f 4de7 16bf
00000380: 0c77 6c3d f0dd 213f 1c70 ddbe 06ed 8c3e
00000390: 6aa9 ecbe e256 253f 9130 c43e e279 d7be
000003a0: 33bb 9d3e e1a0 9f3e 7548 c0be b2db 20be
000003b0: 7141 f13e 838d 02bd 9cf7 a83e eee5 393f
000003c0: 4f3c de3e 0312 903e e68d 18be c99a 253f
000003d0: 19a0 0b3f 96e3 773e a8ec 26be d6b4 22be
000003e0: a755 f13c ebb5 93be e739 26bf 5e07 db3e
000003f0: 581d d83d 0e57 a03d 0ed4 7cbd fcf5 c2be
0.61701465 -0.021525674 -0.18798703 0.09767437 0.7143791 0.31747922 -0.10535164 0.4688731
0.47016436 -0.76341575 0.49472556 -0.41563565 0.30899078 0.2727635 -0.3361719 -0.22695595
0.11184696 -0.15775447 0.7671079 0.24666527 -0.41851634 0.6011522 0.12838992 0.5454865
0.7813233 -0.4967734 -0.66931397 0.0789733 0.5090281 -0.588439 -1.0006402 0.5137142
0.34299275 -0.5308758 0.60443693 -0.29640093 0.67162186 -0.12165343 -0.059596475 -0.47584563
0.51805073 0.70276827 0.31028864 -0.07970528 0.13154921 -1.0494896 0.21394798 0.40950206
-0.74132365 -0.90403146 0.51220745 -0.5866268 -0.08618249 0.5613916 -0.38000935 0.19464013
-0.29943627 -0.036417488 0.17230076 -0.6853053 -0.11627904 -1.1474907 0.44319984 -0.034968194
-0.78004384 -0.46317843 0.7599356 -0.38391298 0.72957224 -0.525564 0.9259357 0.93561774
-0.35586944 0.34827733 0.16833553 -0.32221624 -0.17471385 0.6081453 -0.38970414 -0.6847906
0.88069284 0.019856941 -0.15727593 0.26169065 0.6134388 0.26766673 -0.17856707 -0.29981324
0.5101875 -0.34113505 0.35518673 -0.601541 0.7553201 0.51626056 0.029492276 0.9745119
0.17402008 -0.07777374 0.064645395 0.09382862 0.05252594 -0.012261214 0.17471702 -0.19838713
-0.061194442 -0.16220452 -0.025753008 0.1271772 -0.026036559 -0.07069608 -0.19294892 0.18778475
-0.10762089 -0.058959175 0.16039804 -0.08425175 0.06405794 -0.07970137 0.18420511 0.15706101
0.037653998 0.09117236 0.17716901 0.031494938 -0.07991916 0.022135468 -0.1374432 -0.018251404
0.16012472 0.3356391 0.6719784 0.5585721 0.03319179 0.82211745 0.59079146 -0.23935072
-0.15736802 0.13938087 -0.7582733 0.029619625 -0.30104187 -0.12916803 -0.020413686 -0.3527019
0.08182986 0.6590156 0.37831083 -0.13568437 -0.21564727 0.3191303 -0.11586145 0.29792702
-0.30216742 0.2360285 0.6905783 -0.04949006 -0.35242835 0.50313133 0.16783138 0.115272015
-0.34600723 0.24575542 0.3300059 -0.18704425 -0.2719543 0.41963732 -0.5734395 -0.010192182
0.3367856 -0.71568584 0.06019079 -0.08728201 -0.37119523 0.7900188 0.05756412 0.101126395
-0.46991083 0.053083517 -0.2904076 0.4610538 0.008667931 0.45227712 0.032765403 -0.068210304
-0.103656955 -0.53187126 -0.5608588 0.5707428 0.47601297 -0.0064644823 -0.5645735 0.45400864
0.42605445 0.47355613 0.45786563 0.03973129 -0.29696807 0.06594473 0.25279707 -0.2913464
-0.2801414 -0.09394498 -0.13619155 0.82595754 -0.13235274 0.41424006 0.46221033 0.507233
-0.055152725 0.1280279 -0.4618937 -0.043227684 0.21708632 0.56870544 0.59758455 0.17597815
-0.8246767 -0.3647105 0.24510083 0.42338428 -0.16054976 0.2894031 0.5058097 -0.58946687
0.05773072 0.63229275 -0.43249595 0.27524585 -0.46223003 0.645857 0.38318303 -0.42085177
0.30806884 0.31177428 -0.3755528 -0.15708807 0.4712024 -0.031873237 0.3300141 0.7261647
0.43405387 0.28138742 -0.1489788 0.6468931 0.54541165 0.24207911 -0.16301215 -0.15889296
0.029459788 -0.2884973 -0.649321 0.42779058 0.10552472 0.07829104 -0.06172567 -0.38078296

model.dense1.bias f4 [16]
00000000: befe c4bd a8da 2b3f 7bf9 8d3e 0f2b 1fbe
00000010: b23b 2bbe 4a7c ffbd 4411 253d 8d0d 173e
00000020: 1366 163e 5644 fdbd f83c b83e 4f57 303e
00000030: 0945 7a3d a51f debe 25e7 8e3e c313 e53c
-0.09618901 0.6713052 0.277294 -0.1554377 -0.1672199 -0.12474878 0.04029967 0.14751263
0.14687376 -0.1236655 0.35984015 0.17220806 0.061100993 -0.43383518 0.27910724 0.027963525

model.output.weight f4 [10, 16]
00000000: a7e2 3c3f 280d 28bf b632 0abf 0b6a 083d
00000010: d0a4 533f 6af9 603f f59c e83e 9f82 37bf
00000020: 0270 f53e 6390 d03c 0b48 cfbe 0426 593f
00000030: 1601 6fbf 194b bfbd dfe3 0abf 1c6f 07bf
00000040: d9cc 1ebf 4c26 72bd 5c16 cc3f 641f 83be
00000050: d8c5 55bf 972d e4be 1550 f33e 4075 6dbf
00000060: 3b68 2b3f 5f10 58be c3a4 acbe 59a7 2abf
00000070: e2b4 0c3e 75e6 66be 78c8 bf3f 85c6 5bbf
00000080: 1f65 f1bd 72a1 b3be ba3f c93f 384e 93be
00000090: 506a 793f 6c98 20bd ffa7 42bf 07fe 91bb
000000a0: da9e 41be fb90 e43d cc55 ccbe 8a15 c9be
000000b0: a552 9d3e 55dc 863f 423f c4bf 031a e23e
000000c0: f74f 16bf 663d 06bf f290 68be f3ab 9f3e
000000d0: 676e df3e 2604 80bf 9d0c 4e3f 10e9 c03d
000000e0: fb34 0ebf fbc6 b33d f3b7 55bf 1718 a8be
000000f0: 7b4e 7a3f 86b3 4d3f 8b9a 283f c29e 813f
00000100: 12cb 363f 9502 b23f 9dc6 04bf cc93 03be
00000110: 3bf9 bd3d 52a5 4ebf 0999 acbf 61de bbbe
00000120: fd92 d8bd 1363 4b3e b95b 053f 6c68 ca3d
00000130: ac6e 81bf 7d2b b0bf 758e 493f 7512 673f
00000140: 1bfe bdbf a216 753f 426a 9ebf db2c 03bd
00000150: 9826 0d3f ab64 86be 2712 973f f0b1 d33e
00000160: 2d43 e83e 7d31 5ebe e887 9b3f d610 b73e
00000170: 69ff 613f 8b3d de3d ddd0 7dbe ec51 95bf
00000180: 11b6 673f 8ea5 8b3f b0d6 0dbf f7f1 da3d
00000190: 38bb fbbe 5fae febd 087c 15be e5d0 8abf
000001a0: 6f08 a03e e994 41be a918 60bf 4151 933f
000001b0: 5a02 413e bd76 523f 9fe9 353d 6097 b7bf
000001c0: c59b 383f 49ac 15bf 6528 e03e b997 773d
000001d0: 5357 43bd de74 d3be cf6f e6bd 8dbd ad3f
000001e0: 701e 383f e591 e53d 2bdc 01bf fbe8 c8bf
000001f0: f635 39bf 338f 9ebe 04ce 89bf b25a 8a3f
00000200: 467f 6c3f def7 023e 7a12 bc3e 30c7 e1bd
00000210: a41d 8fbf d091 8e3f 144a 493d 2d28 8f3e
00000220: 0850 99bf 69e1 3abe 4f38 393f 0876 a8be
00000230: 495f 5c3f 4090 a5be 967a 133f 2fdc 55be
00000240: 5703 39bf b22a c8bf 0e77 8dbf f712 50be
00000250: a817 e1be 18f4 a93d 38f5 9bbe 3775 113f
00000260: 5a16 253b 8d45 063e 2494 893f fb62 a13f
00000270: 0dc1 85bf 71fe e13d 006d 0c3f b998 3d3f
0.73783344 -0.65645075 -0.5398363 0.033304255 0.8267336 0.87880576 0.4543225 -0.71683687
0.47937018 0.025459474 -0.40484652 0.8482363 -0.9336103 -0.093404956 -0.54253954 -0.52903914
-0.6203132 -0.059118554 1.5944324 -0.25609887 -0.8350501 -0.44566032 0.47522035 -0.92757034
0.6695592 -0.21099995 -0.33719453 -0.666616 0.13740876 -0.2254885 1.4983053 -0.8584979
-0.117868654 -0.3508411 1.5722573 -0.28770614 0.97427845 -0.03920786 -0.7603759 -0.0044553312
-0.18908253 0.11160465 -0.39909208 -0.39274246 0.30727115 1.053599 -1.5331805 0.4416047
-0.58715767 -0.52437437 -0.22711542 0.31185874 0.43638918 -1.0001266 0.80487996 0.09419453
-0.5554959 0.08778187 -0.8348381 -0.3283088 0.97776 0.80352056 0.65860814 1.0126574
0.7140361 1.3907038 -0.5186556 -0.12849349 0.092760526 -0.8072101 -1.3484203 -0.366931
-0.10574911 0.19862013 0.5209308 0.09883198 -1.0111899 -1.3763272 0.78733 0.9026254
-1.4843172 0.9573766 -1.2376177 -0.0320252 0.55137014 -0.2624868 1.1802415 0.41346693
0.4536375 -0.21698566 1.215085 0.35755032 0.8828035 0.10851582 -0.24786706 -1.1665626
0.90512186 1.0909898 -0.5540571 0.106906824 -0.49166274 -0.124356024 -0.14598095 -1.0845
0.31256434 -0.18904461 -0.8753763 1.1509172 0.18848553 0.8221243 0.04441225 -1.4343071
0.72112685 -0.5846601 0.4378082 0.06044743 -0.0476907 -0.413001 -0.112517945 1.3573471
0.71921444 0.11209468 -0.50726575 -1.56961 -0.7234796 -0.30968627 -1.0765996 1.0808928
0.92381704 0.12789866 0.36732846 -0.1102432 -1.1180921 1.1138248 0.049142912 0.2796034
-1.1977549 -0.1825005 0.72351545 -0.3290255 0.86082894 -0.32336617 0.57608926 -0.20884775
-0.7227072 -1.563803 -1.1051958 -0.20319735 -0.4396336 0.0829851 -0.30460525 0.5681948
0.0025190325 0.13112469 1.0748334 1.2608331 -1.044954 0.11034859 0.5485382 0.7406116

model.output.bias f4 [10]
00000000: 0806 a1be 2f62 f53e 23df c33d 700e 98be
00000010: 9698 5b3e a038 e03e 163b 4d3e 1f53 d53e
00000020: f8f8 25bf 4e16 83bc
-0.31449914 0.4792647 0.09564044 -0.29698515 0.21444926 0.437932 0.20042071 0.4166498
-0.6483302 -0.016001847
