Models/model_optSGD_ep40_neu32_lay4_acc0.9356.pth (torch, 111778 bytes, 12 tensors)

model.input.weight f4 [32, 784]
000000 38 a6 76 bc 93 4b 08 3d 90 82 c1 3b 3c 59 6a bc
       -0.015054278 0.0332752 0.005905457 -0.014303502
000010 70 3d e2 bc 70 52 a0 3b c7 84 92 bc 9a 8a ee bc
       -0.027617186 0.00489264 -0.017885579 -0.029118825
000020 8d ab 0d 3d be a1 cb bc 0d 43 03 bd d0 f3 57 3c
       0.03458743 -0.024857398 -0.032046366 0.013180688
000030 3f 46 20 3c 06 a2 44 bc 5e 89 76 bc 2e 1e ec bc
       0.009782373 -0.01200152 -0.015047399 -0.028822985
000040 40 db 90 3b 9a 6d ad bc 78 c0 c7 3b 48 1a 0f 3c
       0.004420668 -0.021170426 0.006095942 0.008734293
000050 98 eb c0 bc 4a 2b 36 bc 70 bb 08 3b 00 4d 91 bb
       -0.02354984 -0.011118719 0.0020863675 -0.004434228
000060 e8 81 ba 3c 33 90 0c 3d 26 6d bb 3c 8a bf 93 bc
       0.022767022 0.034317207 0.022879194 -0.018035669
000070 02 78 f5 3c 84 63 28 3c 10 ce 83 3b 92 e3 90 3c
       0.02996445 0.010277633 0.0040223673 0.017686639
000080 7b 4a 09 3d 63 c8 08 bd ee 1c 4e 3d 12 ea ed 3c
       0.033518296 -0.03339423 0.05032056 0.029042277
000090 7c c2 33 3d 9a 10 b8 bc 9c 9e a8 3c 94 66 d3 bc
       0.043886647 -0.022468854 0.020583443 -0.025805749
0000a0 ae 70 0d bd c4 a9 17 bd 9a 8c ab 3c 16 e3 3d bc
       -0.034531288 -0.037027135 0.020941067 -0.011589786
0000b0 57 5d 98 3c 1c dc e2 bc fb 63 d2 3c 01 c9 ae bc
       0.018599195 -0.027692847 0.02568244 -0.02133608
0000c0 1f ff e4 bb 5d 9f 53 bc 7a 92 0c bd f6 7b 05 3d
       -0.0069884206 -0.012916413 -0.03431938 0.03258892
0000d0 f2 24 0f bd 08 1e 94 bb 72 11 eb 3c 28 6f 85 bb
       -0.034947343 -0.0045201816 0.028694842 -0.0040720887
0000e0 e8 41 ab 3c 5f 94 11 3d 20 03 62 bb dc a0 ff bb
       0.02090545 0.03554189 -0.0034486726 -0.0078011584
0000f0 54 0e 5d bc 41 17 e9 3c 9e cc 2a 3d f6 df 32 3d
       -0.013492186 0.028453471 0.041699044 0.043670617
000100 76 3c 84 3c f1 3a 9e 3d 8f 29 f4 3c 70 41 fe 3c
       0.016142111 0.07726086 0.029804973 0.031037062
000110 3d 56 00 3d 9a 2b cd 3d 02 dd ae bc 41 80 0a 3a
       0.031332243 0.10018082 -0.02134562 0.00052833935
000120 02 5c 68 bd ff cd 11 bd 98 ad 3f bd 1c 05 3f bd
       -0.05672837 -0.035596844 -0.04679641 -0.046635732
000130 e5 e2 d2 3c 11 55 25 3b 86 33 0a bd 67 c3 50 bc
       0.025742957 0.0025227705 -0.033740543 -0.0127419
000140 0e 1b ad 3c 47 14 df 3a 31 5d 05 3d b0 59 5d bb
       0.021131065 0.0017019593 0.032559577 -0.0033775382
000150 94 09 1b 3c 00 48 45 3a 0e 61 74 bc fe b9 5e bb
       0.009462733 0.00075256824 -0.014915718 -0.0033985372
000160 be 5b 13 3d d0 57 ad bc 8c 57 0d 3d 7c 9a 8c 3c
       0.035976164 -0.021160036 0.03450732 0.017163508
000170 74 1a 3d 3d 38 99 bc 3d 8f 20 f8 3d 22 ae 3f 3e
       0.046167806 0.09208912 0.12115585 0.1871877
000180 da 1b fe 3d 98 57 9a 3d d1 00 b7 bd 29 b3 0a be
       0.12407656 0.075362384 -0.089357026 -0.13544907
000190 89 15 0f 3c 9a d0 07 3e 86 96 29 bd 6a 8d 82 bd
       0.008733162 0.13263169 -0.041403316 -0.06374629
0001a0 71 9f 0b bd 60 99 8a 3b 2e dc af bd 46 ff e6 bc
       -0.034087602 0.0042297095 -0.08586918 -0.028197896
0001b0 74 8c 9b bc 16 59 e7 3b a0 bb fc ba 4e 84 a5 bc
       -0.018987872 0.0070601804 -0.0019281991 -0.02020469
0001c0 48 f9 fd bb 38 5b c2 3b cc 9e 80 3c 64 3b af bc
       -0.007750664 0.0059312843 0.01570072 -0.021390624
0001d0 05 78 43 bd 96 36 00 bd 71 83 28 3d 37 24 91 3d
       -0.04772188 -0.031302057 0.041140977 0.070869856
0001e0 7d 84 35 3d ca 63 0e 3e 38 0a 7e 3e 00 09 90 3e
       0.044315804 0.13905254 0.24808586 0.28131866
0001f0 b0 49 37 3e 07 84 d4 bd bf 57 22 be f6 d1 28 be
       0.17899203 -0.10376745 -0.15853785 -0.16486344
000200 74 c4 ad bd ed 06 c1 bc b1 5e 91 3d a0 fa 99 bd
       -0.08484736 -0.023562873 0.07098139 -0.07518506
000210 53 82 23 bd 8d 53 d7 bd 43 5c 26 bd 0c cd 84 bd
       -0.03991921 -0.10513983 -0.04061533 -0.06484422
000220 87 4d 0f bd 1f 61 18 bc 4f 1a 1f bc 98 0f 85 3c
       -0.034986045 -0.009300499 -0.009710862 0.016242787
000230 ee fe a2 3c ce 56 7d bc 77 d3 fd 3c 3e a9 08 3c
       0.01989695 -0.01546259 0.030984623 0.008341132
000240 87 de da bb d8 8e fe bc b1 c9 c8 3c f8 94 b6 3d
       -0.0066793594 -0.031073973 0.024510236 0.08915132
000250 9a 63 11 3e d3 2d 4b 3d 29 1d b5 3c 98 da 32 3d
       0.14198151 0.04960425 0.022108631 0.0436655
000260 2e 38 91 3d b4 73 de 3d 34 95 f5 bd bf b5 e5 bd
       0.070907936 0.10861912 -0.11991349 -0.11216306
000270 47 38 39 3d 33 55 32 3e e6 15 3e 3d 7b 6b 8f bb
       0.045219686 0.17415313 0.046407603 -0.0043768263
000280 33 9f 0d 3e f1 63 61 3d 01 92 4c 3b 74 88 2f bb
       0.13830261 0.055026952 0.0031214955 -0.0026784213
000290 d5 f5 03 3d 81 e4 87 3b a0 48 e3 3c 2d 90 2d bb
       0.032216866 0.004147113 0.027744591 -0.002648364
0002a0 fc 87 bf 3c 5a f2 d5 bc b5 59 d0 bc eb 6c 6e 3c
       0.023380272 -0.026116539 -0.0254334 0.014552335
0002b0 ab 98 f3 bb 1a 48 c8 bc bd e3 0f bd 91 35 4c bc
       -0.007433971 -0.024448443 -0.035129298 -0.012463943
0002c0 12 07 0e 3d de d9 33 3d bd 66 99 bc d7 15 a5 3c
       0.03467471 0.043908946 -0.018725747 0.020152016
0002d0 eb c5 62 3d f1 9e e6 3c 78 42 97 3d 2c a7 07 be
       0.05536453 0.028151961 0.07385725 -0.13247365
0002e0 59 58 98 bd 5f af 00 3e c4 bb 41 3e 82 db 0c 3d
       -0.07438726 0.12566899 0.18919283 0.034389026
0002f0 f6 7f 28 3d 36 6d 1e 3d 1c 70 ec 3b 45 5c c6 bd
       0.041137658 0.03867837 0.007215513 -0.09685568
000300 fa a6 b1 bd 25 fc 1d bc a3 40 fa bc 91 ca 01 3d
       -0.086744264 -0.0096426355 -0.0305484 0.031687323
000310 90 00 68 bb 49 5b 8e 3b 56 15 bf 3c 9f f2 32 bd
       -0.0035400726 0.004344378 0.023325603 -0.043688413
000320 b3 ae 2a bd 89 49 ed bd 8d 20 48 bd be 4d 07 be
       -0.041670512 -0.11586291 -0.048859168 -0.1321325
000330 4b 63 95 bd bb af 45 bd 15 12 45 bd 0b 3f 29 3d
       -0.07294329 -0.048263293 -0.048112947 0.041319888
000340 0e 22 3b bd a3 f4 20 bd 1e 80 94 3d dd c5 54 3c
       -0.045686774 -0.039295804 0.07250999 0.012986627
000350 df 67 5b bd 19 96 59 3d 94 fb b1 36 9d d7 d9 bc
       -0.053565856 0.05312166 5.3042986e-06 -0.02659207
000360 2e 75 43 be 5c 8a dd bd 5e 43 49 bd 46 63 a6 bc
       -0.19087669 -0.108174056 -0.049136512 -0.02031101
000370 8f 4c 8a bd 59 15 75 3b 4f e7 55 bc 95 1f 8f bc
       -0.06752884 0.0037396757 -0.013055637 -0.017471114
000380 b0 ce 35 3b be 88 45 bc 75 15 8e 3c 35 54 96 3c
       0.0027741604 -0.012056528 0.017344216 0.0183507
000390 b8 f8 20 3b fc 42 4e 3d 7b 78 af 3d 89 6d 60 3d
       0.002456231 0.05035685 0.08567902 0.05479196
0003a0 2b b2 d0 bb 3b c8 8a bd ee 09 1d 3e a1 bc 58 3e
       -0.0063688955 -0.06776472 0.15335819 0.21165706
0003b0 c4 59 c6 3d f5 51 43 3e 94 44 a1 3d 38 2a 0f bd
       0.0968509 0.19074233 0.07874408 -0.034952372
0003c0 d8 2a 76 bd be 77 b6 bc 4c 79 e0 bd d3 dc 34 be
       -0.060099453 -0.022273894 -0.109606355 -0.17662363
0003d0 d5 f1 20 be 7b 90 17 be 7e c5 b7 bd 2f a3 76 bc
       -0.15717252 -0.14801209 -0.089732155 -0.015053554
0003e0 c3 b3 64 bd f9 3f 00 bc f2 47 0c bd 2c 06 b0 bc
       -0.055835497 -0.007827752 -0.0342483 -0.021487318
0003f0 a4 6f a0 bb ad b3 d7 bc 7f 28 8e 3b 3e b7 d4 bc
       -0.004896121 -0.026330793 0.0043383236 -0.025966283

model.input.bias f4 [32]
000000 49 80 0b 3e e9 6a b7 3d 16 78 1a be b6 a5 24 3d
       0.13623156 0.08955938 -0.15084872 0.040197097
000010 7d 5f 2c bc 0f e2 51 bd 91 29 ed 3d 0f 89 5b 3e
       -0.010520813 -0.051240977 0.11580194 0.21439002
000020 d7 ca 89 3e a8 e1 c7 bb da f2 ee bd e2 fe cb 3d
       0.26912567 -0.0060998984 -0.11667414 0.099607244
000030 62 07 9b bd 0b 5f 19 be 17 7d 51 3d 98 29 4d be
       -0.075697675 -0.14977662 0.051144686 -0.20035398
000040 fd a1 97 bc f4 07 18 be bf 06 75 be 3a ad ed 3d
       -0.01850986 -0.14846784 -0.23928355 0.11605306
000050 cc 81 97 3d bb 9e be be b9 8e 96 bd 1b 1c 8f 3d
       0.07397804 -0.37230477 -0.07351441 0.069877826
000060 be 94 af bd b6 ca 3c be 1c 0b de be 00 25 65 bb
       -0.08573292 -0.18436703 -0.4336785 -0.003496468
000070 19 14 35 be 39 77 97 3e e4 3d a4 3d a6 f0 18 be
       -0.17683448 0.29583147 0.08019617 -0.1493555

model.dense1.weight f4 [16, 32]
000000 98 c9 0c 3f 9b e0 1f 3c c8 7e 96 be 15 8f c7 3c
       0.5499511 0.00975814 -0.293936 0.024360219
000010 7d 6b 2c 3e 12 8d 1a 3f 1f 57 13 3f de d7 e0 3e
       0.16837879 0.60371506 0.5755481 0.43914694
000020 a3 03 0f be 79 10 93 be a2 d9 b4 3e 77 58 0c 3f
       -0.13966231 -0.28723505 0.3532229 0.54822487
000030 ec f6 c2 3e 5a 56 fb 3c 10 ce c7 bc 32 c1 43 bf
       0.3807901 0.030680824 -0.02439025 -0.7646667
000040 4c 29 ee 3e ca fc 58 bd 44 67 52 bd 60 b1 62 bc
       0.46515882 -0.052975453 -0.051368013 -0.013836235
000050 ca be 15 3f c8 d8 0d be 4e d5 57 3e 20 2b 06 3f
       0.58494246 -0.13852227 0.21077463 0.52409554
000060 60 01 07 3f 34 5e 6e be d3 76 a0 3e 6e 4b 78 3d
       0.52736473 -0.23278123 0.31340656 0.06061881
000070 5b ae 09 bf f5 9c 7f be a3 d0 0b bf e0 0c ea 3d
       -0.5378167 -0.24962218 -0.5461523 0.11428237
000080 4a 48 2c 3e f2 02 84 3d 96 04 0b be 6c 74 69 bc
       0.16824451 0.06445874 -0.13575968 -0.014248949
000090 bc f2 10 be 70 72 21 3c 90 73 0c 3e e2 40 66 be
       -0.14155096 0.009853944 0.13715959 -0.22485688
0000a0 4b 6f 14 3c 5b 75 a4 3d d9 29 19 bd b8 96 d4 bd
       0.009059737 0.08030196 -0.037393425 -0.1038031
0000b0 3e 27 96 3e 33 01 22 3d b7 5a cd 3d 34 c1 01 bd
       0.29326814 0.039551925 0.10027068 -0.031678393
0000c0 87 3a 3b 3e 1c b4 9d 3e c9 ea 73 be 1c ba 1d be
       0.18284045 0.30801475 -0.23820032 -0.15403026
0000d0 67 cc af 3d 09 d8 19 be 71 8b 30 be d5 cb 0e be
       0.085839085 -0.15023817 -0.17240693 -0.13944943
0000e0 49 9d 66 bd 6b 22 a7 3d 03 a6 4b 3e f8 f8 87 3d
       -0.056302343 0.081608616 0.19887547 0.06639284
0000f0 dc f2 4e 3e 58 ee f5 bd 5c dc 89 3e c8 9d f4 bd
       0.20209831 -0.12008351 0.26925933 -0.11944157
000100 0a 22 5c bd 78 c3 9c be f0 2f ef 3e 5f dc df 3e
       -0.0537434 -0.3061788 0.4671626 0.43722817
000110 97 54 a1 be aa 3f b3 bd f3 40 c0 be 57 46 47 be
       -0.3150985 -0.08752377 -0.37549552 -0.19460426
000120 ca 88 c6 3e ac d3 7c 3b 40 a5 fa be a7 86 80 be
       0.38776237 0.0038578315 -0.489542 -0.25102732
000130 1a e9 ad 3e 9f 60 c6 bd 87 cc 30 3d 43 9c 29 3e
       0.33966905 -0.09686398 0.043163802 0.16563515
000140 40 49 22 bd 84 22 5b be 26 42 a2 3d 4d a2 05 be
       -0.039620638 -0.21399885 0.07922773 -0.13050194
000150 7f 7a 6a be 60 dc a9 be c3 de 25 3d 54 21 eb 3d
       -0.22898291 -0.33175945 0.040495645 0.11480966
000160 84 45 b1 3d e7 3f 19 3d 39 2e 3e be 43 78 d7 be
       0.08655837 0.037414458 -0.1857232 -0.4208394
000170 b6 dc 6d 3e ed 9e 8f 3e 4c f5 3a 3e 2d e3 0b 3e
       0.23228726 0.28050938 0.18257636 0.1366088
000180 26 20 bd 3c 29 dc 9a 3c 73 21 ab bd 94 f9 68 bd
       0.023086619 0.018903809 -0.08355989 -0.05687864
000190 e8 91 de 3c 5d 1e 54 bc f8 80 22 bd 93 87 8f bd
       0.027169183 -0.012946692 -0.039673775 -0.070082806
0001a0 e3 75 72 3e 01 eb 63 3e 6d e4 d3 3c c0 2a 34 bc
       0.23677783 0.22257616 0.025865758 -0.0109965205
0001b0 1e cd 36 bc fe eb 01 be 2c c8 95 bd 49 4e 00 bd
       -0.011157302 -0.1268768 -0.073135704 -0.03132466
0001c0 6d 7a 11 3e 21 1f 71 3e 88 90 a8 3e 4d ab 5c be
       0.14206858 0.23547031 0.3292277 -0.21549721
0001d0 2c 2f cd 3d 7b c1 47 be 1a e6 81 bd b4 c0 97 be
       0.10018763 -0.195074 -0.063427165 -0.29639208
0001e0 1b bf 82 3e dc c7 ac 3c fa b4 24 be 15 9c 3a be
       0.25536427 0.021091394 -0.16084662 -0.18223603
0001f0 06 01 e4 bd ea 65 95 bd 26 b0 c4 bd 0d 61 99 3c
       -0.11133008 -0.07294829 -0.0960391 0.018723035
000200 8e 60 9d 3e cd 92 de be 7e ec c6 3e 24 f7 ff 3c
       0.30737728 -0.43471375 0.38852304 0.031245776
000210 13 76 a9 be 0e 2c 4e 3e 48 01 85 3d 21 9d f3 be
       -0.33097896 0.20133993 0.06494385 -0.47580817
000220 26 6a c8 3d da d4 62 3e 47 3b 82 3e 34 2c b5 3e
       0.09785871 0.22151509 0.2543585 0.35385287
000230 7a f2 d5 3e 20 0b 6c 3e 1e 4b 03 3f 59 3d 23 be
       0.41786557 0.23051119 0.51286495 -0.15941371
000240 2b 00 06 be 58 11 95 be 73 d4 97 3d 0f f7 2e 3e
       -0.13086002 -0.29114795 0.07413568 0.17086433
000250 e2 17 d3 be f8 aa 2d 3d 12 02 51 be 68 19 8f bd
       -0.4122916 0.042399377 -0.20410946 -0.06987268
000260 49 0b 92 3d 89 be 3b 3e 7a f4 85 be f6 ad 48 be
       0.07131059 0.18334402 -0.26163083 -0.19597611
000270 d0 ea 92 bc 95 2a c8 bc 73 71 82 3d 24 ef 8b 3e
       -0.017934233 -0.024434367 0.06369295 0.27330887
000280 20 ff 12 3d 45 5a e4 3d 07 13 95 3e f9 47 af 3e
       0.035887837 0.1115003 0.2911608 0.34234598
000290 61 98 64 be 63 81 c2 bd 40 22 cc bd 5f d7 74 be
       -0.22323753 -0.09497335 -0.0996747 -0.23910283
0002a0 7e 87 6d be 55 2a 12 be cd 59 4e 3e e6 fe 95 bd
       -0.23196217 -0.14273961 0.20151444 -0.07324009
0002b0 e6 fd 01 be cb 6f d1 3d fd fe 9a bd 1a 42 8c 3b
       -0.12694511 0.10226401 -0.075681664 0.004280341
0002c0 d8 29 df be f3 be af be fa d8 22 3e 6b 27 a8 3e
       -0.43586612 -0.3432537 0.15903082 0.32842574
0002d0 69 e7 39 be 13 66 16 be 68 39 64 bd b8 16 53 3e
       -0.18154682 -0.14687376 -0.05571881 0.20614135
0002e0 20 1b 22 3e ac 71 80 3e 45 78 83 3e 3b 71 9e bd
       0.1583066 0.25086725 0.25677696 -0.07736441
0002f0 c1 22 83 3e 9c a2 b5 be e3 62 c8 be ff a2 c3 bd
       0.25612453 -0.35475624 -0.39137945 -0.095525734
000300 34 c8 a2 3e 04 c2 77 be 0b aa 8a 3e 22 96 d4 3c
       0.31793368 -0.24195105 0.27082857 0.025950495
000310 4d a9 35 be 38 1c f4 3e fb 99 ec 3e eb 8a 37 bd
       -0.17740364 0.4767778 0.46211228 -0.044810217
000320 b9 42 fc be 6b be 89 3d c3 0b 77 3f 3e a2 b4 3d
       -0.49269655 0.067257725 0.9650232 0.08820008
000330 fc f0 b5 3e 67 8d 47 3e c7 ce be bd 86 a5 25 bf
       0.3553542 0.19487534 -0.093167834 -0.64705694
000340 9d f3 8f be 8f e5 77 3d 61 00 74 3d ff 1c a4 3e
       -0.2811555 0.06052166 0.059570674 0.32053372
000350 8c 70 3b be 9e fd 66 be 17 b1 0b 3e bc e8 b8 3e
       -0.18304652 -0.22557685 0.13641773 0.36115062
000360 7b 87 0f 3f 64 9a 6f 3e e1 57 ce 3c 1e e7 04 3e
       0.560661 0.23398739 0.025188388 0.12978789
000370 ef 69 17 3e 8b 36 b2 be 1a 0b 3f bf 77 c3 02 bd
       0.14786504 -0.34807238 -0.74626315 -0.03192469
000380 66 04 99 3e 88 c5 6e 3e 9e ae 14 3e f8 f9 ad bd
       0.29886168 0.2331754 0.14519736 -0.084949434
000390 08 e9 2e 3e cd e8 77 bd 31 a9 a0 be 24 90 03 3f
       0.17081082 -0.06052475 -0.31379083 0.51391816
0003a0 48 09 4c bf 22 b2 a3 3d ff 47 e9 3d 50 d3 5f 3e
       -0.7970166 0.079929605 0.11390685 0.21857953
0003b0 1e 5b 1f be 10 fe f2 3e 51 bc 5c 3e be cc 7f be
       -0.15562102 0.4745946 0.21556212 -0.24980447
0003c0 ba 4f 04 3f a8 f9 27 3e 3d 4e 08 be 94 69 44 3e
       0.51684153 0.1640383 -0.13311096 0.191809
0003d0 a1 33 a9 bb 1e 9f a5 bd 79 0a 94 3e 10 6a a6 3e
       -0.0051636253 -0.0808699 0.2891424 0.32502794
0003e0 0c 49 02 bf a1 34 40 bd c4 a5 d7 3e 21 59 9d bd
       -0.5089271 -0.04692519 0.42118657 -0.076830156
0003f0 f6 9e 99 3e c7 a4 e5 be 35 b9 58 bc 06 88 b3 be
       0.3000409 -0.44852278 -0.013227751 -0.35064715

model.dense1.bias f4 [16]
000000 2b 7a 8b be fb ad 51 3e fa 5c b2 bd 75 52 3c be
       -0.27241644 0.20476525 -0.0870914 -0.1839083
000010 41 82 17 3b e2 bf cc 3e 5c e3 93 3e bb 4f 1d 3f
       0.002311841 0.39990145 0.288844 0.61449784
000020 8c 5f 57 3e 9b e4 b0 3e af f9 81 3e e4 aa c5 3e
       0.21032542 0.34549412 0.25385806 0.38606942
000030 20 b2 fc be 4c 7e 89 3d 80 a0 ba bd 55 93 f7 bc
       -0.4935465 0.06713542 -0.09112644 -0.03022162

model.dense2.weight f4 [16, 16]
000000 f1 57 2f 3f a4 ea db bd 0f b3 c9 bd 92 40 2d be
       0.6849356 -0.107381135 -0.09848606 -0.16919163
000010 10 75 1b be 60 1a 85 3e 5e 75 5d 3e 2a 1c 0d 3e
       -0.15181375 0.25996685 0.21626803 0.13780275
000020 3b 46 88 3e 6b a1 8c 3e 88 d2 5b 3e b0 88 0e bf
       0.26616082 0.27466902 0.2146703 -0.5567732
000030 1b f2 33 be 63 17 bd 3d 03 5f 33 3e 25 75 14 3e
       -0.17572825 0.09232976 0.17516713 0.14497812
000040 34 4c 16 be 9b 85 de bd 85 36 73 3e 92 2b 7c 3e
       -0.14677507 -0.10865327 0.23751266 0.24625996
000050 01 d3 80 3e 22 2e 29 be 46 62 14 3e 0f 47 b7 3d
       0.25160983 -0.16521505 0.14490613 0.089491
000060 99 8e 44 be 87 92 d4 3c 01 90 5f be 65 83 85 bd
       -0.19195022 0.025948776 -0.21832277 -0.06519202
000070 fd df 11 be 77 9e 99 3e d0 6f d9 bd fa ea 65 3d
       -0.14245601 0.30003712 -0.1061703 0.056132294
000080 04 a4 9e 3d ff 0d bb 3d 5d c6 59 3d 91 45 53 3e
       0.07746127 0.09133529 0.05316769 0.20632006
000090 99 b9 ef bd 73 e7 04 3d b1 92 81 bd 5b ec 5e 3e
       -0.11705322 0.03244729 -0.06326807 0.2176985
0000a0 69 e8 84 bc fa 6a 97 be ad 55 31 be 38 c0 8e 3e
       -0.016224103 -0.29573804 -0.17317839 0.27881026
0000b0 fb bb 94 bd 95 af 40 bd c9 93 0d be 04 e3 2f 3d
       -0.07262417 -0.047042448 -0.13825907 0.04294111
0000c0 98 01 5a 3e d4 37 89 be a1 78 a9 be 14 96 1d bd
       0.2128967 -0.26800406 -0.33099845 -0.038473204
0000d0 75 2a 7a bd 5e 3c cc bd cc 15 0e 3f 3e 62 8f 3e
       -0.061075646 -0.099724516 0.5550201 0.2800464
0000e0 7a 74 d9 3d df 13 55 be e2 2b 01 3f 36 b2 28 be
       0.10617919 -0.20808361 0.50457585 -0.16474232
0000f0 7d b3 21 be ca 97 cb be ea c7 8b 3e e3 2c 08 be
       -0.15791126 -0.39764243 0.2730096 -0.13298373
000100 c4 5e fc bd 37 f3 13 be e8 52 c9 bc d9 eb c2 3c
       -0.123227626 -0.14448248 -0.024575666 0.023794102
000110 b7 6f e9 bd 95 47 43 3e df ca f2 3e 5f e8 85 3e
       -0.11398261 0.19070275 0.47420403 0.26153848
000120 2a ad 57 3e ee e7 bf 3e e5 4e 89 3e de a7 b4 bd
       0.2106215 0.37481636 0.26818004 -0.088210806
000130 c1 e1 81 bc 99 d5 e6 be 91 15 1b be 51 d2 59 be
       -0.015854718 -0.45084837 -0.15144946 -0.21271636
000140 80 f3 1d 3e e5 7c 72 be 9d 42 b5 3d 6a 02 39 bd
       0.15424919 -0.23680456 0.08850596 -0.045168318
000150 7d c8 48 be 38 e4 c7 bd 71 35 91 3d d8 5c e3 bd
       -0.1960773 -0.09760326 0.07090271 -0.11101693
000160 46 e9 1f 3f 80 d3 86 be 6b fa 6b 3f b0 b0 80 3e
       0.6246532 -0.26333237 0.9217898 0.25134802
000170 53 d2 fd be c2 7a 24 bf c0 9e 41 3f 9e 20 b3 3d
       -0.49574527 -0.64249814 0.7563286 0.087464556
000180 d7 22 1a 3c 7e 7d 0f 3e f7 ca 9b 3e 28 79 3d be
       0.0094077205 0.14012715 0.30428287 -0.18503249
000190 0e bc 01 3a 1a 8a 09 be df 48 e3 3d 85 da a5 3b
       0.0004948982 -0.13431588 0.110978834 0.00506145
0001a0 64 b2 aa 3d ab 99 6f 3d 49 f0 bd 3e bf 61 bc bc
       0.083348066 0.05849616 0.37097386 -0.022995828
0001b0 82 b6 af bd 14 24 3f be 04 b2 a3 bd 0d 4a 41 be
       -0.085797325 -0.18666106 -0.07992938 -0.18875904
0001c0 bc 42 c5 3d 03 4d 67 3e c0 c7 88 3e 05 ee b7 bd
       0.09631869 0.22587971 0.26714897 -0.089809455
0001d0 9d b1 6d be c7 f5 c2 be 48 18 79 3e a7 30 c0 be
       -0.23212285 -0.38078138 0.24325669 -0.3753712
0001e0 cc e8 8a 3e c7 50 43 bf d2 1e 4b 3e 26 78 2d 3e
       0.27130735 -0.7629513 0.19835976 0.16940364
0001f0 e9 c2 a4 bd f5 c9 8a be ed e3 2d 3f 24 76 02 3d
       -0.08044989 -0.27107206 0.6792591 0.03185095
000200 3f 68 82 bd ed 43 d8 3d 51 e4 c0 bd c1 9f 17 be
       -0.063675396 0.10559831 -0.09418548 -0.14807035
000210 d5 2b 94 3b d0 e1 36 3e 5a 54 0d be 35 08 61 bd
       0.0045218267 0.17859578 -0.13801709 -0.054939467
000220 14 13 12 be 86 9b 94 bd 65 58 73 be ab e5 16 3c
       -0.1426509 -0.07256226 -0.23764189 0.009210031
000230 40 26 46 be ef 5b 48 be ba 43 1d be 74 f5 e5 3d
       -0.19350529 -0.1956632 -0.15357867 0.11228457
000240 ca e9 3e be ac 3b 12 3e 07 cc f6 3d 60 08 be 3c
       -0.18643871 0.14280576 0.12050634 0.023197353
000250 a8 cc 0c 3e 52 34 9d bc 32 f8 d7 bd 6c 3f ea 3d
       0.13749945 -0.019189987 -0.105453864 0.11437878
000260 71 c7 48 bd 5a 0f d8 3d 16 3e 2a be d7 f5 02 3d
       -0.049018327 0.10549803 -0.16625246 0.031972732
000270 4a 81 74 be 75 e2 30 3d 11 dc 15 3d 41 a7 09 be
       -0.23877445 0.043184716 0.036586825 -0.13442709
000280 d9 b0 8a be 81 be 18 bd 8c 00 ef 3e bd 60 20 bd
       -0.2708805 -0.037291054 0.46680105 -0.039154757
000290 d4 2c 60 3e 13 11 c7 3e 26 cc 68 3e d2 c9 76 be
       0.218921 0.38880214 0.22734126 -0.24100426
0002a0 24 ac 7a bd 9b 76 36 3e 99 73 b7 3e e8 10 51 3e
       -0.061199322 0.17818682 0.35830382 0.20416605
0002b0 70 dc 77 be ca 6e 37 be 24 53 af be ef 57 31 3e
       -0.24205184 -0.17913356 -0.3424312 0.173187
0002c0 38 5d 8f be 1c 79 a4 be a7 6b 0d 3f 23 59 03 bf
       -0.28000808 -0.3212365 0.5524239 -0.51307887
0002d0 d3 71 e5 3e 1e 50 3e 3f a2 e7 71 3f b5 f6 ba be
       0.44813403 0.74341 0.9449407 -0.36516348
0002e0 28 e9 1f bf 7c 13 0b 3e 23 91 3b 3f 3b cd 66 3e
       -0.62465143 0.13581651 0.73268336 0.22539227
0002f0 24 fd 1a be b3 35 5c bd 5c 22 dd bd 24 06 09 be
       -0.15135628 -0.05376215 -0.10797569 -0.13381249
000300 91 9d 68 3f 9b df ae 3e 45 5a 8f be c8 58 ac be
       0.9086543 0.34154972 -0.27998558 -0.33661485
000310 cd 41 d1 3e 60 6a 30 3e 0c 51 43 3f f3 06 b6 3e
       0.40870515 0.17228079 0.7629554 0.35552177
000320 16 93 71 3e a0 d7 e9 3d 88 48 48 be ca 20 03 bf
       0.23591265 0.1141808 -0.19558918 -0.5122191
000330 76 50 13 bf 6b 7d d1 3e e3 43 9d 3e ba 2d de 3b
       -0.5754465 0.40916 0.30715856 0.0067803534
000340 1c 01 d5 be b7 41 7c 3e 1d 7f a4 3e f3 0a 0f bd
       -0.4160241 0.24634443 0.3212823 -0.03492255
000350 ee 7d 30 3c e7 65 ef bc c3 68 8b 3e 33 12 ad 3d
       0.0107722115 -0.029223396 0.27228364 0.08450737
000360 0e 84 a4 be a5 b9 ea bd 21 cc 64 be 2f a8 83 3e
       -0.32132 -0.1146119 -0.22343494 0.2571425
000370 8a 54 18 3f db 64 7e 3c 99 2d 06 bf 37 8a 35 be
       0.59503996 0.0155269755 -0.52413327 -0.17728506
000380 d5 93 85 bd 7d e9 11 3e 3c 9e a7 be 18 06 64 bd
       -0.06522337 0.14249225 -0.3273791 -0.055669874
000390 91 b7 f5 be b5 fc bc 3e 7a 58 f4 3d 4d 86 07 3f
       -0.47991613 0.3691155 0.11930938 0.529393
0003a0 75 cd 2e 3f 82 7a 1c 3f 46 4b 2b 3e fc 34 0b 3f
       0.6828225 0.6112443 0.16727933 0.5437772
0003b0 71 15 0e 3f 31 a4 15 bf 8d 37 4d be c6 55 18 bb
       0.55501467 -0.5845366 -0.20040722 -0.0023244484
0003c0 e9 93 ff bd b9 03 68 bb 92 11 4d be 29 fc d7 bd
       -0.124793835 -0.003540261 -0.20026234 -0.105461426
0003d0 14 27 ba bc 8c 9a ff 3d c8 e9 ca bc 13 68 08 3f
       -0.022723712 0.12480649 -0.024769679 0.53283805
0003e0 46 ae c4 3e ce ae 29 3f 8d 66 4f 3e 0f 52 87 3e
       0.3841421 0.66282356 0.20253964 0.26429793
0003f0 16 28 d3 3e 14 2f 16 be b9 b0 c4 bd 68 87 14 bd
       0.4124152 -0.14666396 -0.0960402 -0.036261946

model.dense2.bias f4 [16]
000000 8c 9d 82 bc 9b da 01 be b5 84 a9 bd 78 81 e0 be
       -0.015944265 -0.12681048 -0.08277265 -0.43848777
000010 29 62 1b bc 36 52 36 3f 80 52 4a 3d 69 b0 87 3e
       -0.009483852 0.71219194 0.049395084 0.26501778
000020 55 7c 43 bd c0 12 4e be 56 db 9f 3d a0 34 85 3e
       -0.047725994 -0.2012434 0.07805507 0.26016712
000030 ce 90 18 3d 3e 68 c8 3e f6 27 42 3e a4 59 f9 3d
       0.03724747 0.3914203 0.18960556 0.12175301

model.dense3.weight f4 [16, 16]
000000 e3 70 11 3e f3 27 d6 bd 01 c5 93 3e c8 3a 39 3e
       0.14203219 -0.104568385 0.2886124 0.1808883
000010 91 3c ac 3d 34 a9 1a 3f fe 11 70 bc b8 bc d5 3d
       0.084099896 0.60414433 -0.014652727 0.10436386
000020 b6 95 3e be 95 ba 6c be 4a 21 db be 9d 52 2a bf
       -0.18611798 -0.2311805 -0.42798835 -0.6653231
000030 1d b2 d7 be 0b 96 13 3e 2a 2c 36 3f 25 fe db 3e
       -0.42128077 0.14412706 0.7116114 0.42967334
000040 5b a5 8a 3e c9 b2 18 3e 48 b0 4d 3e c5 21 86 3d
       0.2707928 0.14911951 0.20086777 0.0654941
000050 34 f0 9d 3d 8b 74 ea bd 17 69 97 be ba 20 6c be
       0.07711831 -0.1144801 -0.29572365 -0.23059359
000060 a8 83 0d 3d 0c 6c a7 3d 81 d2 81 be c8 4c 7d be
       0.034549385 0.08174905 -0.25355914 -0.24736321
000070 37 fd 71 3e 4b 90 b1 3e 70 70 15 3f a0 d6 0a 3f
       0.2363175 0.346804 0.5837469 0.5423374
000080 10 b6 81 3c c5 f9 f5 bd 8a f2 9e bd 1e 67 a4 3e
       0.015833884 -0.120105304 -0.077611044 0.32109922
000090 62 28 4a 3e a3 af 49 3f 41 9b 66 3e 73 74 2b 3d
       0.19741967 0.78783625 0.22520162 0.0418591
0000a0 12 a9 4a 3e 58 37 c5 3d 7d b1 b3 3e b0 bb ab 3e
       0.19791058 0.096296966 0.3509635 0.33541632
0000b0 9d c0 ed be 0a 78 b9 be 0b a7 ed bd 8d 41 87 3e
       -0.46436015 -0.36224395 -0.116041265 0.264172
0000c0 a3 3f 0d bf fa e8 ce bd c6 54 1f be af 01 57 be
       -0.55175227 -0.101030305 -0.15559682 -0.20996736
0000d0 7b fc e2 3e b8 a3 81 bd 4a 95 86 3e 8c f0 e4 be
       0.44333252 -0.06330055 0.26285774 -0.44714773
0000e0 50 64 f5 bd 4b 15 39 be 9a 6c ad 3e a9 fd 43 3f
       -0.11982024 -0.18074529 0.3387192 0.7655893
0000f0 84 5b 6c bf 94 81 14 3f 46 56 4d 3f c4 5b 20 3f
       -0.9232714 0.5801022 0.8020977 0.62640023
000100 61 07 61 3e f8 fd 31 be d8 5a 37 3e 70 48 3b 3f
       0.21975471 -0.17382038 0.17905748 0.73157406
000110 6a 12 4f be 05 52 63 3f b4 ba 4c 3d b2 fe 52 3f
       -0.20221868 0.88797027 0.04998274 0.82419884
000120 e9 77 35 bc b9 b3 d1 3c 29 7f 20 3e 0f 8a 19 3f
       -0.011075952 0.025598394 0.15673508 0.59976286
000130 0f a0 6d 3c be 49 b1 be bd c8 a7 be 5e 22 a0 be
       0.014503493 -0.34626573 -0.3277034 -0.3127622
000140 7e fa 38 3e 9f 69 79 be b9 b8 17 3e f9 4e 90 3d
       0.18064305 -0.24356697 0.1481656 0.07046313
000150 f9 88 55 3e 5b 8e 6c 3e 24 76 46 3e bc ef e5 bd
       0.20853032 0.2310118 0.19381005 -0.11227366
000160 d4 04 c0 3d 0f c5 18 3e 51 55 97 bc 8e f0 67 be
       0.09375921 0.14918922 -0.0184733 -0.22650358
000170 38 5c 91 bd 04 73 03 be 0a d8 0a 3f f6 dd 66 3e
       -0.070976675 -0.12836844 0.542359 0.22545609
000180 fb 61 0c 3e 3e 7e 2d 3e 32 01 e3 bd 4b 51 d9 3e
       0.13709252 0.16942689 -0.11084212 0.42444834
000190 b9 0f 9c 3d 9e 81 1f 3f e2 20 65 3e b5 31 a9 3e
       0.07620186 0.62307155 0.22375825 0.33045736
0001a0 74 3d 04 be ce 04 87 be a6 70 ec bd 77 4c 5c be
       -0.12914068 -0.26370853 -0.115449235 -0.21513544
0001b0 56 f6 95 bd ec 8e bf bd b7 28 c8 3e 3f 0d a2 3c
       -0.073223755 -0.09353432 0.39093563 0.019781707
0001c0 bc ae 2e 3e 16 59 28 bd 2b 02 03 3e 66 43 79 be
       0.17058843 -0.041100584 0.12793796 -0.24342117
0001d0 b8 d3 d5 3d 6a c0 0b be 05 a3 01 bd eb 12 5f bd
       0.10440773 -0.13647619 -0.03164961 -0.0544614
0001e0 a8 6d dc 3d 17 dd 10 be 2b da 1e be d4 20 24 be
       0.10763103 -0.14146839 -0.15512912 -0.16028148
0001f0 0b a6 d3 bd ed 7b d2 3d d0 28 42 bd 3b 69 20 be
       -0.103344046 0.10277543 -0.047402203 -0.15665142
000200 62 17 41 be a9 7d 80 3e a9 fe 02 be 8d 53 37 be
       -0.18856576 0.2509587 -0.12792458 -0.17902966
000210 d3 72 c2 bd 32 90 7b be bc f3 5e 3e 63 96 7c 3e
       -0.09494557 -0.24566725 0.21772665 0.24666743
000220 14 e1 09 be 8e ad 42 be 41 82 76 3e d5 37 2a be
       -0.13464767 -0.19011518 0.24073125 -0.1662286
000230 49 6a 4f 3e 6e 0a da bc e4 ac 72 be de 22 65 3e
       0.20255388 -0.026616301 -0.23698765 0.22376582
000240 3d b8 7d be 1d 54 02 3e b2 96 e3 3c 8f b1 08 bd
       -0.24777313 0.12727399 0.027781818 -0.033372458
000250 94 70 bd bd a9 82 43 3e 30 8e 8b 3d c5 fd 06 be
       -0.09249988 0.19092812 0.068142295 -0.13182743
000260 8e e8 64 3e 04 0a 8d bd eb 90 c9 3d 10 77 99 3d
       0.22354338 -0.06886676 0.09842094 0.074934125
000270 36 d8 2a be 90 20 01 3e 0f fe e5 3d d9 32 4f be
       -0.1668404 0.12610078 0.112300985 -0.2023424
000280 c0 30 a8 be b9 e3 ad bd da b4 1f be b4 6d 85 be
       -0.32849693 -0.084907 -0.15596333 -0.2606026
000290 e8 09 55 3d d1 94 5e be 58 e7 91 3c 4f f0 20 3d
       0.0520114 -0.21736456 0.017810509 0.039291676
0002a0 9b f6 de 3d a9 01 1c 3e dd 54 33 3e 85 0e d2 3c
       0.1088688 0.15235008 0.17512842 0.02564169
0002b0 a2 10 64 be b2 0c 77 3e 9e 05 b1 3e 84 84 ca 3d
       -0.2227197 0.24125937 0.34574598 0.098885566
0002c0 85 ba 4a be 5f 60 15 3e 78 ef e7 bd 82 7d 7f be
       -0.19797714 0.14587544 -0.11324972 -0.24950221
0002d0 1e 68 64 be 9a f6 78 be 4f c1 76 3e 20 3d 59 be
       -0.22305343 -0.24312821 0.24097179 -0.21214724
0002e0 d8 25 7b 3e c8 ac ac bd 94 4f e6 bd da a9 d6 bb
       0.24526155 -0.08431393 -0.11245647 -0.0065510096
0002f0 75 1e 0e be 30 8e 4e be 6f 04 46 bd 65 2b 09 be
       -0.13878806 -0.20171428 -0.048344072 -0.1339546
000300 e4 57 27 be f1 8f 02 3e b2 ad 64 3d 2b 6c 3c bd
       -0.16342121 0.12750222 0.05582971 -0.046001595
000310 bf 1c 08 3e af 60 17 be 6a bd 74 3d d3 59 45 3d
       0.13292216 -0.14782976 0.05975095 0.048181366
000320 56 ef 39 3e 70 3b 84 3e a3 17 94 3e 89 52 42 3f
       0.18157706 0.25826597 0.28924283 0.7590719
000330 74 02 d6 3e ef 18 d5 3b ac 85 7a bc 0c 32 80 bb
       0.41798747 0.0065032165 -0.015290659 -0.003912216
000340 b3 fb 38 3f 46 61 e7 bc 28 18 9d be 54 76 b8 3e
       0.7225906 -0.028244626 -0.30682492 0.36027777
000350 ca d0 0c 3f e2 1c d2 be c9 93 26 3e 04 3f f7 be
       0.55006087 -0.4103766 0.16267313 -0.48290265
000360 7b f1 35 3e 30 53 da 3d 05 34 40 be 9e 52 b4 3e
       0.17767899 0.10660398 -0.18769844 0.35219282
000370 bc a5 5e 3f 3d ea f9 be b2 67 8b 3e 6c 07 ee 3e
       0.8697164 -0.48811522 0.2722755 0.46490037
000380 ea 2e ac 3e 15 b6 43 be 59 51 24 3e 28 af fe 3e
       0.33629543 -0.19112428 0.16046657 0.4974301
000390 ef b1 ef 3e 4b 94 79 3e a2 a1 65 3e 24 70 a2 3e
       0.4681544 0.24372976 0.2242494 0.31726182
0003a0 4e 6d ef 3d ec 29 e1 3b c3 43 22 bd a1 76 90 be
       0.1169077 0.0068714526 -0.039615404 -0.28215507
0003b0 b2 a4 51 3e 30 8f 8f bd a0 5f ac 3d 5f d9 37 bd
       0.20472983 -0.07009733 0.084166765 -0.044885036
0003c0 d4 be 7f bd 8a 9e 9c bd 5e 7f f2 3c 12 85 00 be
       -0.062437847 -0.076474264 0.029601749 -0.12550762
0003d0 84 f9 f7 bd d9 35 c0 3e 20 68 4b 3d 8f c2 58 bd
       -0.12108138 0.37541083 0.04965985 -0.05291992
0003e0 8b 87 12 be 31 d9 7b be b0 b6 b6 be 41 88 fd be
       -0.14309518 -0.2459457 -0.35686255 -0.49518016
0003f0 81 b9 96 3e b7 ac 83 be 54 1a eb 3b aa 53 89 3d
       0.29438403 -0.25717708 0.0071747694 0.06705411

model.dense3.bias f4 [16]
000000 c9 08 96 3e 55 e6 2d 3e 19 b8 83 3e 6f 55 ad 3e
       0.29303578 0.16982396 0.25726393 0.33854243
000010 53 a5 c9 3e 6c ae 84 be 42 3e 23 be ef aa d1 bd
       0.39383945 -0.25914323 -0.15941718 -0.10237681
000020 1a ce 6e 3d 12 43 0d be c5 24 99 3e 83 6d 01 3e
       0.058302023 -0.13795117 0.29910865 0.12639432
000030 44 75 45 bc 2c f1 38 bd d0 e4 13 bf 64 42 fa 3e
       -0.012051884 -0.045151874 -0.57771015 0.48878777

model.dense4.weight f4 [16, 16]
000000 26 f4 03 3f f3 b9 a7 3e fe 72 75 3e b0 64 2f 3f
       0.51544416 0.32759055 0.23969647 0.6851301
000010 e3 58 35 be e2 a0 2f 3e c5 9f 00 3e d8 5e 68 3e
       -0.17709689 0.17151216 0.12560947 0.2269243
000020 5a 0b d6 bd cb c1 32 bc 71 b6 ad 3e a9 94 5c 3e
       -0.10451384 -0.010910462 0.33928254 0.21541084
000030 80 58 ea bd 3d 16 94 be b4 6a 0d 3d e8 c2 2e bc
       -0.11442661 -0.28923216 0.03452559 -0.010666586
000040 d9 c0 ab bd 73 e6 bd 3e f3 9a 8b be cc 4a 7b 3e
       -0.08386392 0.3708988 -0.27266654 0.24540251
000050 cb d9 93 be f4 2d 90 bd 83 20 0a bf 52 48 ac bc
       -0.288771 -0.07040015 -0.5395586 -0.021030579
000060 8f 62 b6 bd 1f 38 0c 3e b2 50 34 be 85 87 e4 3d
       -0.08905517 0.13693283 -0.17608908 0.11158661
000070 89 8e a3 3e 3f 31 43 3f f8 86 ba be b7 22 ac bd
       0.31944683 0.7624702 -0.36431098 -0.08405059
000080 1d c4 2a be 1b 3d 97 be 1e a4 10 3f ca e8 21 3f
       -0.16676374 -0.29538807 0.5650042 0.6324583
000090 0c 30 b0 bc 88 07 95 3d 33 87 89 3d 48 08 82 3d
       -0.021507286 0.07276827 0.0671524 0.06349236
0000a0 d4 98 82 ba 0b 94 1c 3e db 76 97 be 4e a1 4b be
       -0.0009963759 0.15290849 -0.29582867 -0.19885752
0000b0 21 97 16 3e 08 4f 18 be c8 dc 6d be a3 71 e7 3d
       0.14706089 -0.14873898 -0.23228753 0.11300971
0000c0 26 c0 27 bd ed 40 92 3e 2e 52 27 bf 28 0a 2f 3f
       -0.04095473 0.2856516 -0.6535977 0.6837487
0000d0 08 af 61 bf 2b 8a 82 be 23 9e 25 bf 39 0b ec 3d
       -0.881577 -0.2549604 -0.6469442 0.11525578
0000e0 b9 c7 58 3e 4f 2d e9 bc 8b 0c d3 3e a4 10 fb bc
       0.21169938 -0.028463988 0.41220507 -0.030647583
0000f0 e1 83 2a 3e 3c 81 9e 3e d1 67 90 be d6 60 85 be
       0.1665187 0.30957973 -0.28204206 -0.26050442
000100 6c e8 1f 3f f9 7e 9d 3e 8a db eb 3c 72 a9 61 be
       0.6246402 0.30760935 0.028791208 -0.22037295
000110 a4 2f 72 be 2a 73 e8 3e 41 1c e9 3e 5f 50 e9 3d
       -0.23650986 0.45400363 0.4552937 0.11392283
000120 a9 41 65 bd f7 60 14 3e 44 b0 1b 3e 86 15 a4 3c
       -0.05597082 0.14490114 0.15203959 0.020029794
000130 70 cf aa be 74 c0 2a 3e f8 1b 10 3f 4d 82 35 3e
       -0.33361387 0.16674978 0.56292677 0.17725487
000140 09 c6 55 3e 8d 3a 15 3d 56 55 40 be 26 d3 2a bf
       0.20876326 0.03643279 -0.18782553 -0.66728437
000150 47 b9 2b 3f ee 96 b5 bd 47 8b 93 3c 70 29 60 bd
       0.67079586 -0.08866678 0.018010749 -0.054727018
000160 06 8a 2d be 07 48 93 bc a2 c6 ca bd c8 a8 64 be
       -0.16947183 -0.017978681 -0.099011675 -0.2233001
000170 a8 bf 33 be 30 26 a5 3e 42 f9 d7 3e a4 08 cc 3e
       -0.1755358 0.32255697 0.42182356 0.39850342
000180 91 bf 92 3c e5 e2 41 be 83 4b 15 3f 5b 72 af 3e
       0.017913612 -0.1893421 0.58318347 0.34266934
000190 70 9d 5a 3f 50 c9 6e be 85 2d 83 3e ed bb 7e 3e
       0.8539648 -0.23318982 0.25620666 0.24876375
0001a0 76 41 f0 bd 70 2c 83 3d 30 4f 7b be 67 20 7e 3e
       -0.11731236 0.0640496 -0.24541926 0.24817048
0001b0 7c 46 9a 3e 6b 20 aa be b1 bd 4c be 54 cd 13 be
       0.301319 -0.33227858 -0.19994237 -0.14433795
0001c0 18 2b 5b 3e a5 29 33 3f dd 6a 2e be f6 9c ed 3e
       0.21403158 0.6998542 -0.17032953 0.46408814
0001d0 7f 66 d7 be b0 a8 61 3e 21 7d 79 bd 3d 9a 8e bd
       -0.42070386 0.22037005 -0.060910348 -0.06963012
0001e0 db e5 17 3e 03 fc 17 be 33 86 e2 3d 13 f2 2f 3e
       0.14833777 -0.14842229 0.11060753 0.17182188
0001f0 4b e6 45 bd 39 39 c3 3e b6 0d 75 be f9 5c 6a 3e
       -0.048315328 0.38129595 -0.23931012 0.22887029
000200 d5 58 7f 3e 27 bf d7 be 52 a7 ab 3e 49 5f 1a 3f
       0.2493623 -0.42138025 0.33526093 0.60301644
000210 16 7e e4 3e 76 1e 51 be 53 05 81 be 62 a9 74 be
       0.44627446 -0.20421776 -0.25199375 -0.2389274
000220 da 6d d7 bd 51 08 98 3e 78 d3 43 3d b0 c6 bd 3d
       -0.105189994 0.29693845 0.047809094 0.09266412
000230 02 b5 73 3d 42 d2 72 bf 73 df 8d be 2d fd 12 3e
       0.059498794 -0.9485208 -0.2770954 0.14354391
000240 3c 48 24 bf 85 5a c9 bd e0 97 2c 3e 0d 01 ce 3e
       -0.6417272 -0.09831718 0.1685481 0.40235177
000250 a6 ac b9 3e bf ec f4 bd b8 4c 6f be 82 6a c2 bd
       0.36264533 -0.11959218 -0.2336911 -0.09492971
000260 21 72 46 be 63 ff 11 3e f9 f4 0f 3d 46 e5 33 be
       -0.19379474 0.14257579 0.035145734 -0.1756793
000270 2f 04 d9 3e be 93 5c 3f dd 59 b3 3e 09 ee e7 be
       0.42386004 0.86162937 0.35029498 -0.45298794
000280 29 b1 a5 3e 12 9b 59 3d 1f 94 ed 3e 4e 17 18 3f
       0.32361725 0.053126402 0.4640207 0.5941056
000290 eb 73 a4 be 33 4d 77 3e c6 72 17 3e df 8a 02 3c
       -0.32119688 0.24150543 0.14789876 0.00796768
0002a0 ca 9c 00 3e eb 90 44 3e e2 50 23 bd fe a2 1e bc
       0.1255981 0.19195907 -0.039872058 -0.009682415
0002b0 ea 0a 31 be 97 0c bf 3e 01 02 83 3e 5d 78 80 be
       -0.1728932 0.37314293 0.25587466 -0.2509183
0002c0 39 12 de 3e cd 50 d0 3e a5 de 56 3d d0 f6 7a 3d
       0.43373278 0.40686646 0.052458424 0.061270535
0002d0 0a 09 2f be 6a 5c a3 3e f6 4a c8 3d de fe 64 3e
       -0.17093292 0.31906444 0.09779923 0.22362849
0002e0 e3 ab b8 bd 94 25 ee 3d 2b e1 51 be 9a 3d 9c 3d
       -0.0901716 0.11628261 -0.20496051 0.07628937
0002f0 e0 26 35 be b6 10 74 3e 53 a6 20 bd 2c 1c 45 bd
       -0.17690611 0.238345 -0.03922112 -0.04812257
000300 c6 a1 67 be 6c 41 33 3d b8 4c 90 be fb 23 22 3f
       -0.22620305 0.043763563 -0.28183532 0.6333615
000310 5a 9c 3b bf 67 3e 8b 3d a9 e4 de bd ff 91 81 bd
       -0.7328545 0.06799012 -0.10883457 -0.06326675
000320 1e bb 26 bd 4b 74 a1 bd 2b d5 1d 3e 65 7a d0 3b
       -0.040705793 -0.07883509 0.15413348 0.006362247
000330 b2 5f 0f 3e 81 19 02 be f1 94 be be 1f db eb be
       0.14001349 -0.12705041 -0.37223008 -0.46065614
000340 6a 6c 81 bb 3a 68 3f be 54 b4 a9 3d 6e a2 73 bd
       -0.0039496915 -0.18692103 0.08286348 -0.059481077
000350 ac 37 86 be ec df 40 be e3 ec 1d be c8 f6 34 3d
       -0.2621435 -0.1883542 -0.15422396 0.04418066
000360 f5 cc a8 3d c2 7c 0c 3e 97 f7 57 be cc 73 5b be
       0.082422175 0.13719466 -0.21090542 -0.21430892
000370 21 9c 92 bc 2a ac 22 3e 95 fc 3d be ff d2 bf 3c
       -0.017896714 0.15885988 -0.18553384 0.02341604
000380 00 ce d9 bd 74 0c 68 be 1e 69 66 be 78 b1 5f be
       -0.106349945 -0.22661 -0.22501037 -0.21845043
000390 f6 6c 2a be 0a 7c 36 be 56 af 51 3e 16 9d 0e 3e
       -0.16643128 -0.17820755 0.20477042 0.13927111
0003a0 20 47 d7 3c 04 42 cc 3d d8 fa 39 3d 90 75 70 3d
       0.026279032 0.09973529 0.04540524 0.058705866
0003b0 80 96 33 3c 2e 27 49 be 6a 4a 46 be 16 0e 39 be
       0.010961175 -0.19643852 -0.19364324 -0.1807178
0003c0 a9 4d 9a be 40 ab 64 3e bc c9 49 bd f2 7c 81 be
       -0.30137375 0.22330952 -0.049264655 -0.25290638
0003d0 70 5b 1b 3d d8 3b 39 be a7 a5 28 bd 60 68 f4 bd
       0.037929 -0.18089235 -0.041173603 -0.119339705
0003e0 e7 3a 47 3e d3 de 3c 3e 03 cc 61 be b2 c8 3a be
       0.19456063 0.18444376 -0.2205048 -0.18240622
0003f0 aa 86 4e 3e 60 27 3e 3f ba 15 83 3e 7a 44 b2 3d
       0.20168558 0.7427883 0.25602514 0.08704467

model.dense4.bias f4 [16]
000000 a9 72 30 3e 17 65 0f 3f 60 e0 2e be 48 46 2f 3f
       0.1723124 0.56013626 -0.1707778 0.68466616
000010 74 80 ae be d0 4f fc 3e db 03 fb 3d f5 9f f9 3e
       -0.34082377 0.49279642 0.12256595 0.4875485
000020 d4 36 a2 3e 87 09 aa be e3 90 03 bf 7e 59 88 3e
       0.31682456 -0.33210394 -0.51392955 0.26630777
000030 5b 42 3f 3e ba fd 04 be 48 6b 5f bd 56 6f 27 3e
       0.18677656 -0.12987414 -0.05454567 0.16351065

model.output.weight f4 [10, 16]
000000 16 0e 09 be 5a aa 93 bd f3 c6 63 be 4d 4b c5 be
       -0.1338428 -0.07210226 -0.22243862 -0.38534012
000010 7d fe d7 be e3 12 99 3f 5a f2 2d 3f 17 b4 84 be
       -0.42186347 1.1958889 0.67947924 -0.25918648
000020 02 9f e4 3e 9e 6c 5c bf 7e 45 74 bf 78 bc 2e bf
       0.44652563 -0.86103237 -0.95418537 -0.6825633
000030 1b 6b bb bd 0e e8 75 3e 78 e0 44 3d 94 93 d7 be
       -0.09151288 0.24014303 0.048065633 -0.4210478
000040 3f 60 ca be 3c 60 69 3e 12 27 8f 3e 5e d0 55 3f
       -0.39526555 0.22790617 0.27959496 0.8352107
000050 24 6e c6 bd 66 eb 55 bf f5 a5 63 be 3c d6 ba 3d
       -0.096889764 -0.83562315 -0.22231276 0.09122893
000060 d6 c0 a3 bc 22 82 34 3f 5a 51 52 3d 5e 3f 74 3d
       -0.019989412 0.70511067 0.051347114 0.059630744
000070 c5 3c 3e 3f 9d 08 4d 3e 6c 0b cc 3d 1e 0e d5 3d
       0.74311477 0.20022817 0.09963116 0.10403083
000080 7b 74 38 bf 9d 2c fd 3e ed d0 ac 3d 43 9a 3b 3d
       -0.72052735 0.494481 0.08438287 0.045801412
000090 e0 ff 1b be a6 c4 63 3c 54 05 68 be 2c 83 56 3e
       -0.15234327 0.013901865 -0.22658283 0.20948476
0000a0 2c bb e4 3e 32 c2 ce 3e ff 15 f6 be 4a b5 6f 3e
       0.4467405 0.40382534 -0.48063657 0.23409
0000b0 8e 1e cf be 18 42 2d be 70 1f 82 bc a6 85 52 3f
       -0.40453 -0.16919744 -0.015884131 0.8223518
0000c0 bd 56 45 bc c9 76 64 3e b0 5e e8 be 91 8f 26 bf
       -0.012044606 0.22310938 -0.4538474 -0.65062815
0000d0 22 83 21 3f 7e 05 e4 bc d6 c6 62 bf 5c f1 02 3f
       0.6309072 -0.02783465 -0.8858465 0.51149535
0000e0 00 23 fc 3d 91 ca f8 3d 04 7c b8 3e bd ea e5 3e
       0.12311363 0.121480115 0.36032116 0.44905654
0000f0 7a 69 54 be 63 2b 11 3e 7c f6 ff 3d 05 11 92 3e
       -0.20743361 0.14176707 0.12498185 0.2852861
000100 dc 46 17 3f 2f 4f 29 3e 74 e0 03 3f e0 72 b8 bc
       0.590925 0.16534112 0.51514363 -0.022515714
000110 c9 d6 11 bf 6f 8d 08 bf 10 d7 09 3f 15 56 13 bf
       -0.5696836 -0.5334081 0.53843784 -0.57553226
000120 7b 8d db 3e d3 ed 0d be 40 78 03 3e 35 d7 34 be
       0.4288138 -0.13860254 0.1283884 -0.1766022
000130 67 75 04 bb 34 fe e5 bd 28 10 ac bd 69 c7 07 bf
       -0.0020211579 -0.11230126 -0.08401519 -0.5303865
000140 ec ed de bd ab 2f 25 bf 59 91 96 be 7a be 85 3e
       -0.10885224 -0.6452586 -0.29407766 0.26121885
000150 a4 2c 3a 3f 8f 07 4a 3f b5 9e d6 bd 0d c0 0d bf
       0.72724366 0.78917783 -0.1047949 -0.5537117
000160 d5 64 9d be 2f 0d 77 3e 05 7a 31 3e 66 be 58 3e
       -0.3074099 0.24126123 0.17331703 0.21166381
000170 0a fc 98 be 90 36 96 3d 3a e0 75 3e 51 e2 b6 3e
       -0.2987979 0.07334626 0.24011317 0.3571954
000180 ee 5a 38 bf ab 88 11 bf 3c 0f 46 be 0a 1f 9d bd
       -0.7201375 -0.56849164 -0.19341749 -0.07671936
000190 27 ac 1d bf 3e bf 0b 3f d6 44 d8 3e 27 95 60 bf
       -0.6159081 0.5458869 0.42240018 -0.8772759
0001a0 a7 ef c0 be cf 82 4a 3f 96 31 3f bf f4 bd 17 bf
       -0.3768284 0.7910585 -0.7468504 -0.5927422
0001b0 87 79 14 be 31 dc 7c bd d8 a9 7e be fc 92 09 3f
       -0.14499484 -0.06173343 -0.24869478 0.53739905
0001c0 52 1f 16 3f b5 06 9e 3e 83 57 c0 be 16 89 44 3f
       0.5864154 0.30864492 -0.37566766 0.76771677
0001d0 ab d9 1a bc a5 5e 04 bf b0 07 fd be 82 ce 02 3f
       -0.00945131 -0.51706916 -0.49419928 0.51096356
0001e0 0c 64 23 3e c4 4e 43 bf a9 62 bb bc c4 38 cb 3e
       0.15956134 -0.7629206 -0.022874193 0.39691746
0001f0 f8 fa bf 3e f2 8c 49 3e 20 00 bd 3c 78 db 2e bf
       0.3749616 0.19682673 0.023071349 -0.6830363
000200 ad d7 c4 3e 4d a4 eb bd bc 0f 89 3e 35 8d 05 bf
       0.38445798 -0.11505947 0.26769817 -0.5216859
000210 b3 a4 67 bd b3 5d 2c bd 47 2a 64 3e e8 10 aa 3d
       -0.056553554 -0.042081546 0.22281753 0.08304006
000220 24 e1 80 bf d3 87 03 3f 74 81 34 3f d0 50 e0 3e
       -1.0068707 0.51379126 0.7051003 0.43811655
000230 ea 06 bc be a3 fd 3a 3e 60 1d 42 3c f1 83 39 3b
       -0.36724025 0.18260817 0.011847824 0.0028307403
000240 06 78 72 3f a2 e2 42 bf 78 38 e2 3d f8 f1 1a bf
       0.9471439 -0.76127064 0.11045927 -0.60525465
000250 2e ab bd 3e 9c 62 17 be e4 e6 c8 bd 43 ee e4 3d
       0.37044662 -0.1478371 -0.09809664 0.11178257
000260 c7 b9 9c 3e 67 6d 3e bf 70 99 b5 3e 10 6e e6 3e
       0.30610487 -0.74385685 0.35468626 0.45005846
000270 b6 9b b2 be 54 eb ba 3d 5c 36 e9 3d 74 de a0 be
       -0.34884423 0.091269165 0.11387321 -0.31419718

model.output.bias f4 [10]
000000 60 6f 09 3f 1c 5b 0f bf 04 00 1e 3f 34 f4 28 bf
       0.5368557 -0.55998397 0.61718774 -0.65997624
000010 50 4d 67 3e 59 1c 96 be 19 3f 7b 3d 96 03 d9 3e
       0.22588086 -0.29318503 0.06133947 0.42385548
000020 6f ea a9 be 7e f8 b4 3d
       -0.3318667 0.088364586
