Models/model_optSGD_ep10_neu32_lay1_acc0.9346.pth (torch, 106494 bytes, 6 tensors)

model.input.weight f4 [32, 784]
000000 22 45 b1 3c 50 0b c0 3c 40 30 0f 3c 0f f3 0e bd
       0.02163941 0.023442894 0.008739531 -0.034899767
000010 10 72 66 3c 0c 80 c7 3c 60 21 01 3b 02 8c c5 3c
       0.014065281 0.02435305 0.001970373 0.024114612
000020 be a4 b3 3c 90 88 2d bb 00 1d 18 39 ee 94 89 3c
       0.021929141 -0.0026479103 0.00014506653 0.016794648
000030 1b 81 9b 3c 37 66 06 bc 5d c5 e5 bb d4 af d4 3c
       0.01898246 -0.008203081 -0.007012053 0.025962748
000040 66 12 17 bc 44 96 5b 3c 3a 96 8f bc e2 a8 be 3c
       -0.009220695 0.013402525 -0.017527688 0.023273889
000050 fa 8e a9 bc 95 91 a1 bc 9c e1 27 3c 7a 86 91 3c
       -0.02069806 -0.01972274 0.010246661 0.017764319
000060 10 67 7f 3c c0 e9 3e bc f0 1b 73 bb 85 5b c6 bc
       0.015588537 -0.01165241 -0.003709551 -0.024213562
000070 12 43 07 bc 25 8b 88 bc b0 c5 b6 3c 38 2a b4 3c
       -0.008255737 -0.016667912 0.022311062 0.021992788
000080 00 07 35 3b 47 72 06 3d e9 bb d7 3c 55 7c 0e 3d
       0.002762258 0.032823827 0.02633472 0.03478654
000090 cb 6f f9 bc e9 88 b0 bc 52 8d 76 bc 03 54 b6 3c
       -0.030448815 -0.021549659 -0.015048342 0.022256857
0000a0 b5 e3 07 3d bc c5 29 3a d1 c4 f3 3c 74 6e a8 3c
       0.033176143 0.0006476303 0.029756935 0.02056048
0000b0 60 41 9e b9 2e c2 f3 bc 78 62 e9 bc 37 e6 0a bd
       -0.00030184817 -0.029755678 -0.028489336 -0.033910956
0000c0 05 f6 e1 3b e1 db 85 3c df b0 f5 3c 60 1c 2c 3c
       0.006895783 0.016340198 0.029991565 0.010504812
0000d0 40 32 5f 3c d8 46 0a 3c 98 e6 e3 bc d6 5e ee 3c
       0.01362282 0.008439742 -0.027819917 0.029097956
0000e0 9a 14 b5 bc 64 47 0d bd 4e c1 5e bc c0 74 ae 3b
       -0.02210455 -0.03449191 -0.013595892 0.0053239763
0000f0 1e 84 0e 3d 48 f7 0d bd 38 65 bf bc 8e 75 5b 3c
       0.034793966 -0.034659654 -0.023363695 0.013394726
000100 51 e7 f9 3c ae 48 1a bd 11 04 87 3c c8 be 2f bd
       0.030505808 -0.03766697 0.016481431 -0.042906553
000110 ef cd 41 bc 1d be 2b bc 77 8d 7f 3c b8 6c a4 3b
       -0.011828884 -0.010482338 0.015597693 0.005017843
000120 d8 14 0b bd 6a 20 ec bc 97 38 2a 3c 16 91 eb 3b
       -0.033955425 -0.02882405 0.010389469 0.0071889265
000130 f1 68 c9 bc 92 47 e7 3c 35 8c 71 bb 90 3e 8c bc
       -0.024586173 0.02823237 -0.0036857252 -0.017119676
000140 11 73 d4 3b 61 bc 8d 3c 24 11 30 3c 46 1d ef 3c
       0.0064834435 0.01730174 0.010746274 0.029188763
000150 00 18 fb 39 ba 3e ba 3c 98 ed b0 3c 13 e4 9b bc
       0.00047892332 0.022734988 0.021597669 -0.019029653
000160 f7 04 3c bb 70 54 23 3d 82 54 02 3d e6 a9 93 3c
       -0.0028689483 0.039875448 0.031818874 0.01802535
000170 96 9d 6b bc f8 c6 3d bd c7 ce 3e bc 2a 67 c1 bc
       -0.014380833 -0.04633233 -0.011645979 -0.023608763
000180 ac 90 2b bc a8 2c 7f 3c b8 09 ba 3c 88 68 33 3c
       -0.010471504 0.015574612 0.022709712 0.010950215
000190 12 53 bd 3c d0 4a 6d 3b 63 fb 6d 3c ca 9f 83 3c
       0.0231109 0.0036207922 0.014525267 0.016067404
0001a0 0e 56 12 3d a9 24 8c 3c 3b cc 02 3d dc 93 19 3d
       0.0357266 0.017107325 0.03193305 0.037494525
0001b0 62 4d ef bc 33 35 83 3c 0a 89 91 3c 5c b5 fd bc
       -0.029211704 0.016016578 0.01776554 -0.030970268
0001c0 da bc d2 3c c8 e5 fa bc d4 c2 7d 3c 45 6c ee 3b
       0.025724817 -0.030627146 0.015488345 0.0072760903
0001d0 94 ac 28 3c b3 7c 45 3d 06 33 74 3b 2b 76 c7 3b
       0.010295052 0.048214626 0.0037261858 0.0060870848
0001e0 43 8b 9a bb 08 5b ae 3c 0a c3 05 3d 1f ba 30 3d
       -0.0047163083 0.021283641 0.032656707 0.04314625
0001f0 09 0d 7a 3d a8 62 db 3d 74 70 91 3d 3b 57 cd 3d
       0.061047588 0.107121766 0.07101527 0.100264035
000200 ff a1 f4 3d 5b a1 f7 3d 73 77 6c 3d 28 b4 0f 3d
       0.11944961 0.12091323 0.057731103 0.03508392
000210 8f 98 11 3c 49 ed d2 bb d0 71 04 3d f9 4d e0 3c
       0.00888647 -0.006436978 0.032335103 0.02738093
000220 bc 4e d1 3b da 25 db 3c 6c 4c da bc 23 7f d0 bc
       0.0063875597 0.026751447 -0.026647769 -0.025451249
000230 9e 15 c4 3c 2e 07 b0 3c 27 65 05 3c 17 0c ee 3c
       0.02393609 0.021487799 0.008141792 0.0290585
000240 ca 1b 10 3d 73 7f 8f 3b f4 a4 67 3d 2a 5c 13 3d
       0.03518275 0.004379207 0.056553796 0.035976566
000250 07 a3 5a 3d df d6 aa 3b ec 34 f8 3c b6 3c 8a 3d
       0.05337813 0.005213603 0.030298673 0.06749861
000260 e1 a7 9a 3d 94 8c 45 3d 59 9c 18 3d c2 37 67 3d
       0.075515516 0.04822977 0.03725848 0.05644966
000270 75 6c b7 3d ad 94 6f 3d 80 ab b7 3d b3 43 08 3d
       0.089562334 0.058491398 0.08968258 0.033267688
000280 55 30 0b 3d 65 fa 9b bb d0 43 20 bd 2d 8d de bc
       0.03398164 -0.004760074 -0.03912717 -0.027166927
000290 bb 26 49 3d 06 3e cd 3c b8 11 69 3c 47 a2 ad bc
       0.049109202 0.02505399 0.014225416 -0.021195544
0002a0 d0 8f 83 3b 8c 3c ec bc 8d 61 18 3c c6 86 6e b9
       0.0040149465 -0.028837465 0.009300602 -0.00022747656
0002b0 b4 3e f7 bb de 01 16 3d ac 7b 8f 3d 43 bc 41 3c
       -0.0075453166 0.036622874 0.070060104 0.01182467
0002c0 f3 40 3f 3d fb 56 85 3d d1 3f 2e 3d e3 76 b8 3c
       0.0466928 0.06510731 0.04254133 0.022517627
0002d0 d3 6a 6d 3d 59 61 80 3d fb 40 9b 3b c8 1f 77 bd
       0.057963204 0.062685676 0.004737971 -0.060333043
0002e0 0a fe 00 bd 45 73 54 bc 71 4e 51 3b d9 1f 9c 3c
       -0.03149227 -0.0129669355 0.0031937624 0.019058155
0002f0 46 e0 c6 3c b1 9f 04 3a 4b cc 84 bc 53 51 1d 3c
       0.024276864 0.0005059196 -0.016210696 0.009601909
000300 fa 08 c2 3c 78 bc 39 3d dd 4b 0c bd 88 8f 7d 3c
       0.023685921 0.045345753 -0.034252036 0.015476115
000310 bb 02 4b bc 1d 4b 08 3c 69 02 d3 3c 47 a8 5d bc
       -0.012390788 0.00831869 0.025757985 -0.01352889
000320 8e db 10 3d 85 34 89 3d ba 85 67 3d ad 26 31 3d
       0.035365634 0.066994704 0.056524016 0.043249775
000330 a1 05 cf 3d 06 4c 78 3d 9a 7a 4c 3d 32 d6 e1 3c
       0.101084955 0.060619377 0.04992161 0.027567957
000340 f7 75 c5 bc 00 a2 ae bd 9e df 00 be fe 7a e5 bd
       -0.024104102 -0.08526993 -0.12585303 -0.112050995
000350 27 3b d1 bd c5 f0 b4 bd 91 8c c5 b9 be 30 ad ba
       -0.102163605 -0.08834986 -0.00037679498 -0.0013213379
000360 5b a4 c1 3c f2 91 ff bb 9b 5f 5a bc c2 9a 50 3a
       0.023637941 -0.0077993805 -0.013328458 0.0007957631
000370 a7 95 f1 3c 4e d1 e6 3b ab a6 26 bc 3e 18 dd bc
       0.029490305 0.007043994 -0.010171573 -0.026989099
000380 f2 65 8e 3c c0 8a ea bc eb 70 a8 3a 7e 4d 47 ba
       0.017382596 -0.028630614 0.0012851035 -0.0007602795
000390 e5 c2 b9 3c 78 7d af bb e5 ff 1c bc 18 65 a8 3d
       0.02267594 -0.005355533 -0.009582494 0.08222407
0003a0 b5 ad 7a 3d 86 7e 29 3d 2a c1 54 3b 8c b4 27 bc
       0.061200816 0.041380428 0.0032463768 -0.010235917
0003b0 33 7a 80 3b 83 9f 57 3b 09 a4 bd bd b7 53 c7 bd
       0.0039208173 0.0032901473 -0.09259803 -0.09732764
0003c0 d6 ad 05 bd 52 3a 26 3c a3 9b 62 3d 4c 67 0f 3d
       -0.032636486 0.010145741 0.055324208 0.03501062
0003d0 7c 9b 1b 3d 4b f6 90 3c f8 76 24 3c 1c a1 ab 3c
       0.03799008 0.017695567 0.01003813 0.020950846
0003e0 9e 2e 1e 3d 83 ac 30 3d 6f 1b c9 bc 44 7f fa bc
       0.038618676 0.04313327 -0.024549214 -0.030578263
0003f0 02 6a a9 bc 46 ed 19 bc f0 9b a1 ba c9 88 ba 3c
       -0.020680431 -0.009394949 -0.0012329798 0.022770302

model.input.bias f4 [32]
000000 b7 36 24 bc 5a 60 e6 bd 3e 0b 1c 3e 80 1c b7 3d
       -0.010022811 -0.11248846 0.15238664 0.08940983
000010 1c 5b 1a 3e 33 16 c0 3b e5 20 e9 3c 09 6f 54 3e
       0.15073818 0.0058620214 0.028458068 0.20745482
000020 cd f0 f3 3d 4e a0 d1 3d 76 54 a6 3d 5f 99 90 3d
       0.119111635 0.10235654 0.081215784 0.07060503
000030 49 ff 9f 3c d7 8a 42 3d 4c 99 14 3e 92 af 4b 3e
       0.01953091 0.04749569 0.14511603 0.19891194
000040 eb 66 2a 3c 33 87 88 3b e8 3c dd 3c c5 03 53 3c
       0.010400514 0.0041665076 0.027006581 0.012879317
000050 36 5e 93 bd 15 dd 38 bc a6 df 9e 3d 59 90 e1 bd
       -0.07195704 -0.011283179 0.07757501 -0.1101386
000060 97 7d 19 bd 46 e5 85 bd c4 48 1e 3e 75 bb 81 3e
       -0.037473287 -0.06537871 0.15457445 0.2533833
000070 36 89 de 3c f3 e6 9b bd b4 88 f1 3c 5a 96 db 3a
       0.027165037 -0.076124094 0.02948413 0.0016753182

model.dense1.weight f4 [16, 32]
000000 31 88 df 3e 1c ac da 3d 04 6a 04 bf 46 81 a5 3e
       0.43658593 0.106773585 -0.51724267 0.3232519
000010 8e fb 2d 3d 17 d5 c3 3d 8b 3d db bd 3e 2a dd 3e
       0.04247623 0.09562128 -0.10705098 0.4319629
000020 13 f7 2e 3d ab 15 1d 3e dd 55 53 3e d2 04 77 bd
       0.042716097 0.15340297 0.20638223 -0.06030733
000030 46 e5 1b 3f 82 97 3f be f7 27 96 3e 74 9c bc be
       0.6089672 -0.1871014 0.29327366 -0.36838114
000040 47 b6 df ba 62 ee 94 3d af 76 9b 3b 4f 34 eb be
       -0.0017067873 0.072720304 0.004744373 -0.45938346
000050 cc 32 5d 3e 3e a6 77 3e c0 5a a4 3e d8 6e fb bc
       0.21601409 0.2418451 0.32100487 -0.030692503
000060 a0 94 8f 3e 77 00 f8 3d 2b 1e 0f bf bb b9 7d 3d
       0.2804308 0.12109464 -0.5590541 0.061944705
000070 28 d0 08 3e 3e 5d b7 be bb 57 2b be c4 02 29 bf
       0.13360655 -0.35813326 -0.16732685 -0.66019845
000080 98 41 28 3e 76 1d 87 3e d3 0b 67 be 9b 2f 52 3f
       0.16431272 0.26389664 -0.22563104 0.8210389
000090 de 86 9a 3d f5 a9 bc be a9 a7 3d be 8b d7 10 3f
       0.07545255 -0.36848417 -0.18520989 0.5657889
0000a0 f6 97 13 3d ad ae 8a be db ea 08 bd 46 26 80 3e
       0.036033593 -0.27086392 -0.0334271 0.250292
0000b0 ce 1a 1e 3f 50 6c b4 be 55 ed 50 bd ee e2 7b bd
       0.6175965 -0.35238886 -0.051007587 -0.061495714
0000c0 0e 44 85 be 43 a9 7a be 9c 80 16 3e a7 88 0d bf
       -0.26028484 -0.2447863 0.14697498 -0.5528664
0000d0 7b 1d 58 3f 0e ca 82 3e ca 4a 92 3e 62 38 34 bf
       0.84419984 0.2554478 0.28572685 -0.70398533
0000e0 ca 30 9e 3d f6 b2 56 be 2c 0b da 3e 3e 51 b4 3e
       0.077241495 -0.20966706 0.42586648 0.35218233
0000f0 49 24 6c be 67 d1 a7 bb 92 24 94 be e9 b1 d6 be
       -0.23060717 -0.0051213983 -0.2893415 -0.4193261
000100 6e bf d4 bd 0c 45 e1 be 5d c6 b7 be e4 64 40 3e
       -0.10388075 -0.4399799 -0.35893527 0.18788487
000110 19 01 0f be ca 84 99 be 04 c8 69 3e 5c 6c b9 3e
       -0.13965262 -0.29984123 0.22830206 0.36215484
000120 dd db 43 bd fa 35 9e 3e 49 a3 9a be 6e 1d 24 be
       -0.0478171 0.30900556 -0.30202702 -0.16026852
000130 27 a4 81 be 3f a2 bf 3c ba 62 3d 3e 98 ea 87 3e
       -0.2532055 0.023392795 0.18494692 0.26546168
000140 32 63 a6 3e 2b 5d c3 bd da 30 01 3d 97 89 66 bd
       0.32497555 -0.09539255 0.03154073 -0.05628356
000150 50 c4 ab 3d 56 17 d6 3e bd df e9 bd 51 26 16 be
       0.08387053 0.4181468 -0.11419628 -0.14663054
000160 74 cd c2 3d d1 d4 c4 be 08 0e 14 3e df 5c 9a 3e
       0.09511843 -0.38443616 0.14458477 0.3014898
000170 ab 38 c8 be b5 ce 73 3d 00 45 f7 3d 83 1a a1 bb
       -0.39105734 0.059523303 0.120737076 -0.0049164905
000180 ff a0 83 be c9 a0 7d bd cc b5 9c bd 00 4d 04 3e
       -0.25708768 -0.061920915 -0.076518625 0.12919998
000190 3d c6 ae 3e 71 79 ac 3d d7 4e bd be 9a 01 4d 3b
       0.3413562 0.084216006 -0.36974213 0.0031281472
0001a0 32 78 6a 3d 61 c8 4d be 09 81 88 3e 93 c8 5f 3d
       0.057243533 -0.2009597 0.26660946 0.05463464
0001b0 f2 49 45 3e 6a 76 d1 3d 28 2d 4e 3e 61 ed 95 3e
       0.19266489 0.10227664 0.20134413 0.29282668
0001c0 78 d2 b4 be aa ea c6 3d cb 3d 7f 3e 6a 7f 01 3b
       -0.35316825 0.09712727 0.24925916 0.0019759783
0001d0 32 9a 71 be d8 5d 23 3e c0 a1 08 bf 2b 2a a6 3c
       -0.23593977 0.15953767 -0.5337181 0.02028378
0001e0 d6 fb a0 be 4a 3b c3 3e c3 e1 44 3d 1a 5d c6 be
       -0.31442136 0.3813117 0.048066866 -0.38742906
0001f0 df 78 e0 bd ff 42 8e bd b4 84 77 3e 87 43 84 3e
       -0.10960554 -0.06946372 0.24171716 0.2583277
000200 b9 fe 1d 3f f7 d6 83 3d 64 06 9b be e3 bc be 3d
       0.617168 0.06437486 -0.30278313 0.09313371
000210 30 67 59 be 34 ec 69 bd 4e 40 a0 bd 85 cd 99 3d
       -0.21230769 -0.057110026 -0.07824765 0.07509903
000220 0d d2 6f be c8 13 0f 3f d3 0b f8 3d 1e 03 fd be
       -0.23419972 0.5588956 0.1211163 -0.4941644
000230 0e dd 06 be a1 65 b5 3c d3 9c 06 3f 39 31 3d 3e
       -0.13170263 0.022143187 0.52583045 0.18475808
000240 32 0e 70 3e a1 cb 32 3e 4f aa 57 bd 0e 4c 94 3e
       0.23442915 0.17460491 -0.052652653 0.28964275
000250 23 3b 91 be 7d bc 5d bd 6f a1 c6 3d 45 a3 ff 3d
       -0.2836543 -0.054134835 0.0969876 0.12482313
000260 9e b3 12 bd 5a 81 8a 3d ce 48 36 be 0d 55 4f 3f
       -0.035815828 0.06762953 -0.1780121 0.8098915
000270 22 31 0d 3f 5a 5b 46 bf 02 2c c3 3d cb 99 0b 3e
       0.55153096 -0.7748314 0.09529878 0.13632886
000280 7a 70 48 3d dc 2d 02 bd da ec c5 3d b1 fa a5 3c
       0.04893539 -0.031782016 0.096643165 0.02026114
000290 c7 ee be 3d cc 34 ee bd 5c 5e d1 bd 5f 6f da 3d
       0.09322887 -0.11631164 -0.10223076 0.106657736
0002a0 0f c9 ea bc 07 59 11 3e 5c d8 8d bc a0 35 e4 bd
       -0.028660325 0.14194117 -0.017315082 -0.11143041
0002b0 bb 1e 88 3c 9a 54 c8 3c e1 4c ee 3c 62 16 f3 3a
       0.016616216 0.024454404 0.029089393 0.0018546099
0002c0 2a 6d 00 be 96 99 24 be 2d e8 53 bd 86 1b c9 bd
       -0.12541643 -0.16074213 -0.051735092 -0.09819703
0002d0 25 76 3f 3d e5 5f 31 be 79 e0 2e be dc fe 27 bd
       0.04674353 -0.17321737 -0.17077817 -0.041014537
0002e0 3d 0b e4 bd f3 a0 27 3e 4a bd 07 be d4 0e 68 3c
       -0.11134956 0.16369991 -0.13255802 0.014163692
0002f0 17 f5 13 3e 0d 05 c0 bc 3d fd d0 bd 86 8c 23 be
       0.14448963 -0.023439908 -0.10204551 -0.15971574
000300 f0 7c 30 3f c9 86 5d be c5 ac 48 3e be f9 15 be
       0.6894064 -0.21633448 0.19597156 -0.1464605
000310 e3 97 b3 3e 22 27 3a 3e b4 a1 75 3e 97 2c 3f 3e
       0.35076818 0.1817899 0.23987466 0.18669353
000320 ab 68 04 be ef 7c df 3e bf 27 b9 3d 61 89 3a 3f
       -0.12930553 0.43650004 0.09040784 0.72865874
000330 bd b9 8c be 22 ea 42 3e d5 e6 4c 3e d1 8d 68 be
       -0.27485457 0.19034627 0.2000993 -0.22710349
000340 a4 08 1e 3f 1d 19 ce be 43 f9 d7 3e cf cc 09 3d
       0.61731935 -0.40253535 0.4218236 0.033642586
000350 7f 98 b7 be c6 ef a3 be e8 29 12 3e ba 70 d3 be
       -0.35858533 -0.3201887 0.14273798 -0.4129694
000360 3d 3c 00 3e 79 9f 94 be ed d2 63 3e bf 3b 00 3f
       0.12522979 -0.29027918 0.2224843 0.50091165
000370 3c 68 8f 3e f3 4e f9 bd f5 72 72 be ee 06 2a 3f
       0.28009212 -0.121732615 -0.23676665 0.66416824
000380 1d 73 e5 3d 3f 87 bb bc 78 a9 0f bf 58 de eb 3e
       0.11203597 -0.022891639 -0.56117964 0.46068072
000390 8a 8e 1d 3f 32 62 ca be 91 b7 17 be 9c a1 cf be
       0.6154562 -0.39528042 -0.14816119 -0.40552986
0003a0 7e cf 85 3e 21 d6 b0 3e 45 2f 87 be 3e 9d b1 bc
       0.26134866 0.34538367 -0.2640325 -0.021681424
0003b0 7f f5 1b 3d b4 b9 11 be 56 15 9f bd 9e b8 34 be
       0.03807592 -0.14230996 -0.077677414 -0.17648551
0003c0 48 9c 66 3e f6 c0 06 3e e9 e5 17 3f b9 83 f1 bd
       0.22520554 0.13159546 0.5933519 -0.11792702
0003d0 8d 8a 28 3f 05 23 dc 3e 25 60 81 be c7 68 1d bd
       0.6583641 0.42995468 -0.25268665 -0.03843
0003e0 20 a5 23 3e fa 33 d1 bd d1 48 35 3c d0 be 8b be
       0.15980959 -0.10214992 0.011064724 -0.27294016
0003f0 c1 1a 1b bf b3 26 16 3f 55 be 55 be 27 63 a2 3d
       -0.605877 0.586528 -0.20873387 0.07929068

model.dense1.bias f4 [16]
000000 b5 11 cb bd 2d cb 68 3d c6 ec 4b 3e dc f0 8f 3d
       -0.09915487 0.05683439 0.1991454 0.07028362
000010 54 09 03 3e 27 91 10 be e2 a8 e4 3e 08 15 75 3d
       0.12796527 -0.14117871 0.44660097 0.05983451
000020 fc 8d 46 be f6 1e 8c bd 0c cb f0 3d cd 76 c2 3c
       -0.193901 -0.06841843 0.11757478 0.02373829
000030 25 96 2e 3c e5 27 2d 3e cf b2 75 3e 6d 14 7e 3e
       0.010655914 0.1690975 0.23993991 0.2481248

model.output.weight f4 [10, 16]
000000 50 a2 7f 3d cb c5 8b be d9 83 e1 be fd c4 0f be
       0.062410653 -0.27299342 -0.44045904 -0.14039989
000010 b5 1f b5 be 31 a5 43 3e d9 96 89 bf 95 17 75 bd
       -0.35375753 0.19105984 -1.074916 -0.059836943
000020 e0 00 4b 3f 63 15 b1 3e df 67 f8 3e f0 9e 6b 3e
       0.7929821 0.3458663 0.48516747 0.23009849
000030 a0 63 dc 3b 9d b1 1c be 57 04 bd 3e da 91 12 bf
       0.0067257434 -0.15302129 0.36917374 -0.572538
000040 d7 d6 99 be 08 3a ce be 15 82 29 bf 7a 1e 19 3e
       -0.30046722 -0.4027865 -0.66214114 0.14953032
000050 89 8d c4 be 24 f8 7f bd 50 e4 a9 3f bc 52 f3 3e
       -0.38389233 -0.062492505 1.32728 0.4752406
000060 03 4c 3a 3e 79 bf dc be de 4e 72 bf 43 86 87 be
       0.18193059 -0.43114832 -0.9465159 -0.2646962
000070 8f ae 6b 3d 72 d7 ba 3e bd 30 fd be 58 73 3b 3e
       0.05753952 0.36492497 -0.49451247 0.18305719
000080 44 95 a7 3e df 9e 40 3f 12 79 09 3f 02 34 69 bd
       0.32731068 0.7524242 0.53700364 -0.056934364
000090 b7 29 24 bf 2f d5 f5 3d 6a 9d 95 be 84 c1 68 3f
       -0.6412615 0.12003552 -0.2922166 0.9092028
0000a0 67 9f 3f be 99 98 1d bf 22 47 c0 3e 9d 30 30 3f
       -0.18713151 -0.6156097 0.3755427 0.6882418
0000b0 5e 9f 75 bd 9b 5a 37 3e d0 5f 60 3d 65 c3 ca be
       -0.059966438 0.17905657 0.054778874 -0.396022
0000c0 28 ac 99 3f 83 48 74 3f ab e7 5d be 32 68 ff 3d
       1.2005663 0.95423144 -0.21670406 0.124710456
0000d0 74 5b 9a 3e ce b3 fa bc 26 fd ac bd 4f 7d 8e be
       0.30147898 -0.030603316 -0.08446722 -0.27829978
0000e0 e5 45 04 bc 64 d1 88 3e 7e 63 66 bf ca 29 7f 3e
       -0.008073305 0.26722252 -0.89995563 0.24918285
0000f0 95 7a 27 be da 6d 9d 3e 1a 1f 7d be cf b8 8d 3e
       -0.16355355 0.30747873 -0.24718896 0.2768006
000100 cd 3b d7 be d3 9b 26 bf 0b 28 58 bd 6a d6 c4 be
       -0.42037812 -0.6508152 -0.052772563 -0.38444835
000110 a7 4a 78 3f da 6e 45 3e d4 68 e2 3e e3 40 77 bf
       0.9698891 0.19280568 0.44220603 -0.96583384
000120 f6 5c 9b bf 68 88 10 bf 10 7d 19 3f 79 4b 3f be
       -1.2137744 -0.5645814 0.59956455 -0.18681134
000130 53 b0 f7 3d 88 4e 8b be d6 5f 0f be 65 78 35 3f
       0.12094178 -0.27208352 -0.14001402 0.7088683
000140 d3 fe e0 bd b2 72 0d 3f 44 58 e4 3d c0 66 b6 be
       -0.10986104 0.55253136 0.11149648 -0.35625267
000150 86 ca 33 bf fe cd eb bc a0 ff 42 3f 8d d3 04 be
       -0.702309 -0.028784748 0.761713 -0.12971325
000160 7b bd 22 bf 1f a2 a6 3f 25 f0 e1 3b 5c 8c 51 be
       -0.63570374 1.3018225 0.0068950825 -0.20463699
000170 c0 6c a1 bd 55 77 ae be 15 18 fe 3e e9 ab a0 be
       -0.078820705 -0.34075418 0.49627748 -0.31381157
000180 70 f5 dd be 71 43 48 bf bf 82 60 3e 11 04 2e 3f
       -0.43351316 -0.7822791 0.21924876 0.67974955
000190 63 d5 11 bf f2 90 f7 3d 64 a1 3b bf a3 b5 ae 3e
       -0.5696623 0.12088193 -0.7329314 0.34122953
0001a0 46 51 7e be 3f 60 e2 3e 6d 49 61 3f c3 8d 2b bf
       -0.24835691 0.44214055 0.88002664 -0.67013186
0001b0 3c 65 8f bc c8 d3 b0 be 34 04 e5 be 67 cd 24 3f
       -0.017504327 -0.34536576 -0.4472977 0.6437592
0001c0 77 e2 2a bf 52 a3 17 3f dd 05 03 3f 74 e7 cc 3d
       -0.6675181 0.5923358 0.5118082 0.10005084
0001d0 f9 e8 46 3f 1e 3a 51 3d a4 09 2b be 8b d8 db 3e
       0.7769924 0.051080815 -0.16702896 0.42938647
0001e0 77 6a a5 3e 2b f5 51 bf 07 99 9a be bf 6d 9d be
       0.3230779 -0.8201472 -0.30194876 -0.30747792
0001f0 6e df 0c 3e 5f 03 4a 3f 5f 19 70 3f 6a 5f 4b bf
       0.13757107 0.78911394 0.93788713 -0.79442465
000200 ac 69 a9 3e cf cf b6 bb b5 a5 0b 3f 3b e2 3d bf
       0.33088434 -0.005578972 0.54549724 -0.74173325
000210 10 2f 4e 3e d2 65 25 3e 36 d1 a7 3e e2 41 bf 3d
       0.2013514 0.16152123 0.32776803 0.09338738
000220 da d6 39 3f da 54 dc bc 66 8b ab bd 2e f1 3c bf
       0.7259346 -0.02689593 -0.083761975 -0.7380551
000230 49 75 dc 3d b7 91 17 bf 14 f1 3e bf 77 c3 15 3f
       0.10764558 -0.5920672 -0.74586606 0.5850138
000240 b9 53 58 3d a7 e2 4f bf 7c 5b 8b 3e d4 a9 d8 be
       0.05281422 -0.8120522 0.27218235 -0.4231707
000250 cd 36 26 3f db c2 85 be 45 76 25 3e 76 60 78 bf
       0.6492737 -0.26125225 0.16158397 -0.9702219
000260 c2 b2 a5 3e 8c 94 3b be b1 41 02 bf 96 e0 3d 3f
       0.32362944 -0.18318385 -0.5088149 0.74170816
000270 6d 8a 3a 3e 0e 52 bd be 14 08 4c 3e df 23 ba 3e
       0.18216868 -0.36976665 0.19924957 0.36355492

model.output.bias f4 [10]
000000 12 43 79 bc 18 8b 3a 3f 20 6d 17 be d6 ef cc bd
       -0.015213745 0.7286849 -0.14787722 -0.100066826
000010 c0 4c 95 3d f7 f0 0d 3e f6 0d 99 3d 53 3e 2a bd
       0.072900295 0.13861452 0.07473366 -0.041563343
000020 94 77 0e bf 33 03 88 be
       -0.5565121 -0.2656494
