Models/model_optAdam_ep70_neu64_lay2_acc0.9468.pth (torch, 216000 bytes, 8 tensors)

model.input.weight f4 [64, 784]
000000 d3 70 80 bc 40 11 5a 3a 90 c7 71 3b d0 c1 61 3c
       -0.015678799 0.00083186105 0.003689263 0.013779119
000010 20 14 0f 3b d6 7f d7 3c e3 aa 9c bc f2 0d 05 bc
       0.0021832064 0.026306074 -0.019124454 -0.008121001
000020 e3 92 ef bc c6 f5 bc 3c 5c a9 ae 3c c0 cb 19 3c
       -0.029244846 0.023066413 0.021320991 0.009386957
000030 65 59 15 bd 6f c3 44 bd 7c c9 15 3b f6 36 23 bd
       -0.036462206 -0.048037942 0.002285569 -0.039847337
000040 da 92 8a bc b8 f4 79 3c 48 df 37 3c d2 39 87 3c
       -0.016915727 0.015256099 0.011222668 0.016507063
000050 e0 1e dd ba 70 54 df bc 8c 39 8b bc c8 db 26 3c
       -0.0016870163 -0.027261943 -0.016995214 0.010184236
000060 95 17 11 3d 0a 20 95 bc 4a ff 82 bc c8 28 fe bb
       0.03542288 -0.018203754 -0.015990872 -0.0077563263
000070 ee 84 48 bc 20 5e 83 3c 2e 04 05 bd 18 93 9c 3b
       -0.012238724 0.016036093 -0.03247469 0.004778277
000080 40 19 f7 3b 97 4c 34 bd 49 3d 4e be a9 de 44 be
       0.007540852 -0.044018354 -0.20140566 -0.19225563
000090 cf 95 bd bd ab 93 fd bd ea 75 aa 3c ab 1c 6b bc
       -0.09257089 -0.12381681 0.020808179 -0.014350097
0000a0 d2 1d 38 bd c4 fb cf bb af b0 1b be 13 be aa be
       -0.044950314 -0.0063471515 -0.15204118 -0.3334814
0000b0 ef 74 b9 be 44 cf ba be 9c 15 7b bd dc 15 1e bd
       -0.36222026 -0.36486256 -0.061299905 -0.038595065
0000c0 9d b4 a5 bd fd 8e f5 bc 71 1d f8 bd d4 b2 cd bd
       -0.0809109 -0.029975409 -0.121149905 -0.100438744
0000d0 0c bd 94 bc 32 61 82 3c d0 da 38 bb 64 d6 a9 bb
       -0.01815655 0.015915487 -0.0028206594 -0.005183028
0000e0 b0 a4 cd 3c 76 fc a1 3c f0 7d 11 3c d2 5c c8 3c
       0.025102943 0.019773703 0.0088801235 0.024458323
0000f0 76 22 d9 3c a6 c8 75 bd 3e 8f 4a be e2 ea 7a be
       0.02650569 -0.060005806 -0.19781205 -0.24503663
000100 6a f1 97 be 7d 5e d1 be ad 25 39 be e4 1d 0f be
       -0.29676372 -0.408924 -0.18080778 -0.13976246
000110 2a 82 10 bc 11 aa 86 be 32 56 ca 3d 17 91 55 3e
       -0.008820096 -0.26301625 0.09879722 0.20856129
000120 a2 94 df 3d fa 5d 0c 3e 25 bd 89 3e 27 20 33 3e
       0.10917021 0.13707724 0.26902118 0.17492734
000130 8f 6f 97 bd 6f fc d8 bd 67 51 06 bd ba 1c 31 be
       -0.07394325 -0.10595023 -0.032792475 -0.17296115
000140 bf 8e 0c be dd 41 aa bb 80 7f 89 bb 1e 37 f3 3c
       -0.13726328 -0.00519584 -0.0041961074 0.029689368
000150 08 44 cc 3b 75 da f3 bc dc 68 c6 3c 72 58 33 bc
       0.006233696 -0.029767254 0.024219923 -0.01094638
000160 03 c1 0d be 91 0d 34 3d 20 43 df 3c 23 85 6d be
       -0.1384316 0.04395825 0.027253687 -0.23195319
000170 a2 68 f5 bc 90 5f b8 be ca 31 42 be 42 99 0c bd
       -0.02995712 -0.36010408 -0.18964306 -0.034325846
000180 2a 47 26 3e e8 3c 6f 3e ba 2b 75 3e 60 69 56 3e
       0.16238084 0.23363078 0.23942462 0.20938635
000190 3b f8 9c 3e 7e 1f c5 3e 8f c5 05 3f 59 54 a0 3e
       0.30658135 0.3850059 0.52254575 0.31314352
0001a0 63 2f a2 3e c2 30 95 3e 8f f9 0b 3e 3b 99 26 3e
       0.31676778 0.29138762 0.13669418 0.1626939
0001b0 22 69 74 bd 69 2c c9 bd 72 15 f7 3c 45 bd bc bc
       -0.059670575 -0.09822924 0.030161593 -0.02303947
0001c0 4a ef 0d bc 12 bd 09 bd 80 4c 39 3a 4b 45 9b 3e
       -0.008663008 -0.033627577 0.00070685893 0.30326304
0001d0 05 b7 14 3f 78 1a 7a bd c6 51 89 be b8 1d 83 be
       0.58091766 -0.0610604 -0.268202 -0.2560861
0001e0 26 f3 9d 3d 6e d5 07 be c6 e4 15 be 5c 7a c1 bd
       0.077123925 -0.1326501 -0.14638051 -0.09447166
0001f0 ac 47 cd bb 4c 58 83 3c 97 63 52 3d b7 ba 98 3d
       -0.0062646475 0.016033314 0.051364508 0.07457488
000200 c3 3f 6a 3e 60 92 cf 3d 0c a9 d7 3c 2c 66 e0 3d
       0.22875886 0.10135341 0.026325725 0.10956988
000210 f2 f5 cd bc 0d 69 14 3e 58 b3 47 3e 43 12 82 bc
       -0.02514169 0.14493199 0.19502008 -0.015877848
000220 6e 93 cf 3e b3 0d c4 3e 5b c8 0b 3e a0 08 0e bc
       0.40542167 0.38291702 0.13650648 -0.008669049
000230 7f 70 0f 3d 6e 8a 9c bc e5 a6 14 3e 31 19 2c 3e
       0.035019394 -0.019108977 0.1451679 0.16806485
000240 a4 fe 1c bd e8 bb be bd 35 81 8c 3c a3 9f 19 3d
       -0.03832878 -0.09313184 0.017151454 0.037505757
000250 29 13 35 be d4 0a 00 be 5a c8 6d bd 92 34 50 3c
       -0.1768309 -0.1250413 -0.0580524 0.012707846
000260 0f b0 9b 3d 28 91 29 3d 3c 1e 42 bb 2f 39 1f be
       0.0760194 0.041398197 -0.0029620072 -0.15549158
000270 d1 47 0e bd 98 92 cd 3d d0 7d 15 bd 8f e7 d9 bc
       -0.03473646 0.10037726 -0.036496937 -0.026599674
000280 4a bd b3 3c 2e 54 a6 bd 19 a9 5b be 16 00 b8 be
       0.021940846 -0.08121525 -0.21451224 -0.35937566
000290 ec 09 54 be fb 29 d3 3a a1 a3 f3 bd 1a 0a 0a 3e
       -0.2070691 0.0016110534 -0.11896444 0.13480416
0002a0 10 5a e2 3b 54 a6 7d 3c 16 17 07 3d bd 8f 88 3e
       0.006907709 0.01548155 0.032981 0.26672164
0002b0 b2 69 28 3e 06 c5 19 3e 57 61 56 3e 73 36 0f 3e
       0.1644657 0.15016565 0.2093557 0.13985614
0002c0 4a 19 50 3e 98 30 08 3e 50 48 80 3d 4a 75 ff ba
       0.20322147 0.13299787 0.062637925 -0.0019489911
0002d0 94 7c 9b 3c 9b b2 e4 3d 71 8c 7c bd 1a 00 4c be
       0.018980302 0.11166879 -0.061657373 -0.19921914
0002e0 af 0f d0 bd e1 94 9d bd 75 2e bd bd 48 37 16 bb
       -0.101592414 -0.07694412 -0.092373766 -0.0022921134
0002f0 58 48 8a 3d 58 0e bb bc ce a2 0b 3d c0 e3 29 3e
       0.0675208 -0.022833988 0.03409081 0.16590786
000300 db d8 d2 3d be d3 37 3d 52 ab 26 3d 33 97 45 be
       0.10295268 0.044879667 0.040690728 -0.19295959
000310 76 20 42 bb 63 ef a2 be 6a 8d 77 be d9 a4 3c 3d
       -0.00296214 -0.31823263 -0.24175039 0.04605565
000320 4d cc 02 3d f5 6a 72 3e 76 a2 9b 3e a2 ec 29 3e
       0.031933118 0.23673613 0.30397385 0.16594175
000330 c3 4b 8a 3e 9e 96 34 3e e7 97 80 3d 60 a9 9f bc
       0.27010927 0.17635581 0.06278973 -0.019489944
000340 03 8e 3a bd c0 4b d0 bc 56 94 ee 3c 9b dd 85 bd
       -0.04554559 -0.025426745 0.029123466 -0.065364085
000350 2e 26 3a bd 0d 19 21 bb 51 84 c5 3d fd 88 d7 3d
       -0.045446567 -0.0024581582 0.09644378 0.10524175
000360 f1 f2 09 3d 6b 83 b7 bc d1 f4 cb ba 23 47 4b 3e
       0.033678953 -0.022401532 -0.0015560632 0.19851355
000370 4a 2f b0 3d d5 6f ea 3e 91 b9 47 3e 48 a5 2a be
       0.0860277 0.45788446 0.19504382 -0.16664612
000380 fd 45 49 bc 38 5f dc be 84 0e 18 be c6 9c 20 3e
       -0.012284753 -0.43041396 -0.14849287 0.15684804
000390 3e f4 45 3e 90 78 df 3c b9 e9 eb 3d a8 5c 43 3e
       0.19331452 0.027279168 0.115191884 0.19078314
0003a0 d2 eb 2d 3e 30 bf d9 bc b5 05 36 be 4f a1 c8 bd
       0.1698449 -0.026580423 -0.17775615 -0.09796392
0003b0 f5 4e 19 3d 0f ee a9 bd 7c 48 8c bd 9b e2 04 bd
       0.037428815 -0.08297359 -0.06849763 -0.03244267
0003c0 a7 eb b1 3d 4e 0e 5c 3d ec 09 01 3e 54 67 df 3d
       0.08687525 0.05372458 0.12601441 0.1090838
0003d0 1c 97 25 3e b7 d3 03 3e 50 99 3a 3d 41 31 73 be
       0.16170925 0.12873732 0.045556366 -0.23749258
0003e0 6d 3d 66 3e bf 0d 15 3f e4 2e a1 3d 37 01 7f 3e
       0.2248437 0.582241 0.07870272 0.24902807
0003f0 3c 74 dd bc ac 3e 44 3d fa c0 1d 3d f9 48 cd 3d
       -0.027032964 0.04791133 0.038514115 0.10023684

model.input.bias f4 [64]
000000 96 15 82 3d ff bc 85 3d 00 3c 0b 3e 7f 25 fb 3d
       0.063517734 0.06530189 0.13597107 0.12263011
000010 3d 74 36 3e f1 62 02 bd a2 3d 38 bc d8 f4 35 3e
       0.17817779 -0.03183264 -0.011245163 0.17769182
000020 10 e5 30 3d 08 15 03 be 22 8d 19 be 2b 3c f9 bc
       0.0431872 -0.12800992 -0.14995244 -0.030424198
000030 0f fc 6d bc 88 d6 78 bd d2 cd 77 3d 45 d4 03 3e
       -0.0145254275 -0.060751468 0.06049902 0.12873943
000040 9f 9f 1d 3e 7a 46 5e 3e a3 ae 0d 3e 49 00 c1 bd
       0.15392922 0.21706572 0.1383615 -0.094238825
000050 24 da cd 3c f4 f7 bc 3d cb 89 14 bd 8f 40 b7 3d
       0.025128432 0.09226981 -0.036264222 0.089478604
000060 4f 6d 90 3e e3 b8 bf 3c ee 10 3f 3e c8 14 1e 3e
       0.28208396 0.02340359 0.18658802 0.15437615
000070 68 3e cc 39 c0 0a 30 bc 52 af 91 bd 96 33 1a bc
       0.00038956408 -0.0107447505 -0.07113518 -0.009411713
000080 ef 32 31 bd 72 8a fb bb c4 fb 95 bb 72 74 0b bc
       -0.043261465 -0.007676416 -0.004577132 -0.008511649
000090 86 3e d7 3d 76 f3 a9 3d ec 41 87 3d 2a 33 60 3d
       0.10509972 0.082983896 0.066043705 0.054736294
0000a0 51 51 24 bd b3 51 af 3c 44 96 d9 3e d7 8b 4e 3e
       -0.040116612 0.021401262 0.42497456 0.20170532
0000b0 97 e9 ea 3b f5 cc a8 3d d1 b2 1d 3e 01 41 7a bd
       0.0071689594 0.082422175 0.15400244 -0.06109715
0000c0 f0 13 56 3e b9 43 73 3e 46 3a af bd 2b 55 60 3e
       0.20906043 0.23756303 -0.08556037 0.21907489
0000d0 d4 84 04 be 82 a7 82 3e 73 b1 f2 3d bc 10 12 3c
       -0.12941295 0.25518423 0.11850252 0.008915123
0000e0 8d 5a 93 bd 0d 13 31 bd c5 b6 9b bc fd 76 2f 3e
       -0.071950056 -0.04323106 -0.01900805 0.17135234
0000f0 7e a1 a7 3c 5e 03 81 be 44 c5 ae 3d e8 66 b1 bc
       0.020462748 -0.2519788 0.08533719 -0.021655515

model.dense1.weight f4 [32, 64]
000000 05 37 76 be 57 6c 77 3e bb 84 9c 3e f2 30 5d be
       -0.24044426 0.24162422 0.30570015 -0.21600702
000010 36 97 df 3d 4b a8 f4 3e 40 23 3c bc 8b cd c6 bd
       0.10917513 0.47784647 -0.011483014 -0.09707173
000020 44 73 15 be ce aa d3 3e 6d c2 41 3e 5f 01 04 bf
       -0.14594752 0.4134125 0.18921824 -0.5156459
000030 9c 9c 33 bd df 3b f0 3e 99 30 e0 3d e0 5e 0d 3c
       -0.043850526 0.46920678 0.10946769 0.008628577
000040 db e3 b4 bd 31 8e e2 be b2 cd 36 3e 82 2d 92 3e
       -0.088325225 -0.44249108 0.17851904 0.28550345
000050 dc f4 f8 bd 69 0d b4 3c b9 75 3b be 2a cc 9e 3e
       -0.12156078 0.02197905 -0.18306626 0.3101514
000060 98 ce 97 3e d3 df 0d 3f d4 87 5f 3e fd 33 46 3f
       0.29649806 0.55419654 0.21829158 0.7742308
000070 43 c0 38 3e a5 3f a9 be 1a 86 60 be 8e ed 8a bc
       0.18042092 -0.3305637 -0.21926156 -0.016958978
000080 20 e8 3c be 81 45 cb 3e 9f 0f ac bd 22 3d b3 3b
       -0.18447924 0.39701465 -0.08401417 0.005469934
000090 76 ba 37 be f7 84 6a be c0 71 9c 3d c1 0d 67 be
       -0.17942223 -0.22902285 0.076388836 -0.2256384
0000a0 71 63 e6 bd d9 58 c5 be 7e 81 41 3e 25 2a 82 bd
       -0.11249436 -0.38544348 0.18897054 -0.06355695
0000b0 65 77 54 bd f6 4f f7 3e 4b 61 91 3d 9f e5 6d be
       -0.051871676 0.48303193 0.07098635 -0.23232125
0000c0 17 da 78 3e 6b 67 4c 3e 0c 86 30 3e e4 66 45 3e
       0.24301945 0.19961326 0.17238635 0.19277531
0000d0 f6 80 ef bd b1 0b f8 3e 50 5e 36 bc 15 ed 19 be
       -0.11694519 0.4844642 -0.011130884 -0.15031846
0000e0 bb bb 55 3e 6a 9a 7d 3d 01 86 98 bc ba 5a 72 3e
       0.20872395 0.06191484 -0.018618586 0.23667422
0000f0 98 9f 94 bd d1 0a b3 be 4f e6 97 3d 61 ec 0a 3f
       -0.072570026 -0.3496919 0.07416975 0.54266936
000100 75 72 dd 3c cd 29 d8 bd a7 80 9a 3d 9d 28 87 ba
       0.027032116 -0.10554848 0.0754407 -0.0010311786
000110 a5 0c f3 bd fa ec 9a bd e7 d3 3c 3d d4 61 bd 3c
       -0.11867646 -0.07564731 0.046100523 0.023117937
000120 ba d1 92 3d ce 1c 0e bd 33 4e f2 bd bb 48 76 bd
       0.071689084 -0.03469544 -0.118313216 -0.060127955
000130 5d 09 77 3d 2a 49 51 bd da bf c7 bd 3a 73 d2 bd
       0.060311664 -0.051095165 -0.0975339 -0.10275884
000140 f8 74 bd b9 1d cb d0 bd 3d e8 0d be 4a 6e 98 bd
       -0.00036136038 -0.10194991 -0.13858123 -0.07442911
000150 cd a1 b1 bd 7b 5a 23 be 20 73 34 bd d4 3d 51 bd
       -0.08673439 -0.15952484 -0.044055104 -0.051084355
000160 65 9e e0 bd 7a 62 b7 bd cf 2d 57 3d 16 57 22 bd
       -0.10967711 -0.0895433 0.05253392 -0.039633833
000170 d6 2c 04 3c 39 e5 1b 3d 48 d2 5c 3d 8e 67 68 bd
       0.00806733 0.0380604 0.053911477 -0.056739382
000180 7e bd 16 be 81 e8 ee 3c 2d 2b 46 bc 57 10 92 bd
       -0.14720723 0.0291636 -0.012095255 -0.07132023
000190 55 a4 cc 3c 86 25 b1 3c 46 4a d3 bd ab 11 08 3c
       0.024980703 0.021624338 -0.10316901 0.008304994
0001a0 b7 02 a5 3d bf 28 c1 3d 8b a8 e2 bd 99 93 4b bc
       0.080571584 0.094316 -0.11067303 -0.012425327
0001b0 d7 08 ad bd 3c 3d ba bd a6 b4 dc bd 3e 44 86 3c
       -0.08448952 -0.09093711 -0.107766435 0.016389962
0001c0 38 18 1f bd c6 d3 9c 3d 4f ef c8 bc 2b 61 ca bd
       -0.038841456 0.0765758 -0.024528174 -0.098818146
0001d0 dd c2 1a be b0 13 0a be a1 29 67 3d 0c 78 8b bd
       -0.15113397 -0.13484073 0.056436185 -0.068100065
0001e0 2a 69 a3 bd 2b be fa 3c 07 27 9f 3d 9f 92 8d bd
       -0.07979043 0.030608257 0.07771116 -0.069127314
0001f0 16 29 d3 3b 4f cb fe 3d f4 f3 f8 bd 33 1a 17 bd
       0.006444107 0.12441122 -0.12155905 -0.03689022
000200 1d ae d7 3c 5f 31 d0 3e 42 de b4 3e e8 6a 44 be
       0.02632814 0.40662667 0.3532582 -0.19181406
000210 9b 74 ae 3d 2d 61 1a 3f 90 bb 78 3d d2 fe 60 3d
       0.085183345 0.6030453 0.06072575 0.054930516
000220 3f a1 73 be 6b 38 a5 3e 7c 06 91 bd dd 14 8e be
       -0.23791979 0.32269606 -0.07081315 -0.27750292
000230 d9 a0 67 3e b2 40 e2 3e ef 02 31 3e 21 82 80 3d
       0.22619952 0.44189984 0.17286275 0.0627482
000240 05 10 13 bd 19 15 b6 be 1e fb 38 3e 2b cb 1f 3f
       -0.03590395 -0.3556297 0.18064544 0.62419385
000250 60 8d 83 3e 2c da 9d bd 9f 36 b1 bd 4c b0 56 3e
       0.25693798 -0.077076286 -0.08652996 0.2096569
000260 28 ab 6b be 1f a6 ca 3e 1e b7 68 3e bd 85 a6 be
       -0.2301451 0.39579865 0.22726104 -0.3252391
000270 6e 3e 27 3e 59 a0 ad 3c 88 a9 09 be f6 30 8c 3d
       0.16332409 0.021194624 -0.13443577 0.06845276
000280 11 d3 db 3d ce 48 ee bd 94 37 d5 bc ed cc 2a 3d
       0.10733617 -0.1163498 -0.026027478 0.04169934
000290 70 db 01 3a 41 40 fd be bf 7b 81 3d 5a 13 a0 be
       0.0004953658 -0.49463084 0.06322431 -0.31264764
0002a0 d7 6e 93 3d 6f 57 b8 bb 15 6e 28 be 84 c6 88 be
       0.071988754 -0.0056256573 -0.16448243 -0.26713955
0002b0 8b a6 32 be 9f 09 84 3e ea 99 bb bd 6b 00 60 3e
       -0.17446344 0.2578859 -0.09160216 0.2187516
0002c0 93 26 4d be 92 01 0a 3e 23 c0 2b 3d 77 bc 3d be
       -0.20034246 0.13477162 0.041931283 -0.18528925
0002d0 80 14 45 3e 1f eb 1f 3f 0a 02 61 be e3 32 03 3e
       0.19246101 0.6246814 -0.21973434 0.1281238
0002e0 1e aa db 3d a5 88 7e bc aa 53 c8 bb b3 31 a0 3e
       0.10725807 -0.015535508 -0.006113489 0.31287917
0002f0 be 9e 42 3d 0d a9 a2 bd 14 3f 1f 3e 60 11 af 3e
       0.04751467 -0.079424 0.15551406 0.34192944
000300 ae 8e dc 3d 21 bb e9 bd ea f3 66 be af c7 48 bd
       0.107694015 -0.11412645 -0.22553983 -0.049018558
000310 82 48 c0 3d 3b 50 75 3e 86 1e e4 3d c2 72 7a bd
       0.0938883 0.23956387 0.111386344 -0.061144598
000320 fd c6 cd 3d ef 79 32 bd 4b bf 46 3e 80 fa 61 3f
       0.1004772 -0.043573316 0.1940891 0.8827286
000330 43 a4 14 3d a6 7c b7 be 49 16 d4 3e 61 e8 4d bd
       0.036289465 -0.35837287 0.41423252 -0.050270442
000340 3d c0 5a bd a6 d9 ef 3e 03 02 15 bd 6c 5d ca 3e
       -0.05340599 0.4684574 -0.03637887 0.395244
000350 58 6d 15 3d 6f 14 63 3c 55 64 00 be 5b f5 ed 3e
       0.03648123 0.013859852 -0.12538274 0.46476254
000360 37 2a a2 bc 32 63 36 bf 92 2f 96 3e cc e6 29 3e
       -0.01979552 -0.7124511 0.29333168 0.16591948
000370 57 81 11 3e 1b 38 ac 3e 90 8a 39 3e f4 97 37 3e
       0.14209495 0.33636555 0.18119264 0.1792906
000380 67 e5 e6 bd 7e 7d e0 be 70 8c 96 bb b0 45 bf 3e
       -0.11274224 -0.43845743 -0.004594378 0.37357855
000390 2e d8 29 3d cc 9c 79 3d b1 ec bb bd 14 99 92 3e
       0.04146593 0.06094055 -0.09176005 0.28632414
0003a0 47 4b a3 3d b1 16 a4 3d 75 4c e1 3d 1a d4 b0 be
       0.079733424 0.080121405 0.11000911 -0.3453682
0003b0 5a 9c 18 3d 7e d0 a7 be 53 81 43 3e e4 7a 46 3e
       0.037258483 -0.32776254 0.19092302 0.19382817
0003c0 c8 1d 51 be c8 d6 09 bf 2c 1a ad be 0b 17 4e bd
       -0.20421517 -0.53843355 -0.3380903 -0.050314944
0003d0 bf 20 d9 bd 3e 32 36 3f 6a 69 15 be 52 f8 02 3e
       -0.10601949 0.71170413 -0.14590994 0.12790039
0003e0 bf 20 a9 bd 3b 27 7e 3e 64 f2 02 3d 80 68 1e be
       -0.08258199 0.24819653 0.031969443 -0.15469551
0003f0 98 18 91 3e 77 93 80 3f d3 97 8c be 6b 4e b6 bd
       0.28339076 1.0045003 -0.27459583 -0.08901676

model.dense1.bias f4 [32]
000000 de 69 f5 3d 1c 93 e4 bd c5 d3 0b be a9 c4 b7 3d
       0.11983083 -0.111608714 -0.13655002 0.08973057
000010 35 f4 82 3e 06 36 3f 3e f2 cb a1 3e f0 05 f3 3c
       0.2557694 0.18672952 0.3160091 0.029665917
000020 f7 d2 7a be 71 95 50 bc 20 8d f6 bd 26 c8 1b 3e
       -0.24494539 -0.012730942 -0.12038636 0.1521307
000030 2b 46 0f be 5a af 28 3e d2 6d dd bd 0f 3f 77 ba
       -0.1399161 0.16473141 -0.10811962 -0.00094316987
000040 42 33 e5 3c cd 82 82 bc e1 6c 43 be 3d 2a e3 3d
       0.027978543 -0.015931511 -0.19084503 0.11092041
000050 1c ca 46 3d 80 d3 89 3e 98 28 52 3e ec 96 80 3e
       0.04853259 0.26919174 0.20523298 0.25115144
000060 e1 ba 6f 3e 51 d9 9c bd ce 89 78 3e aa 78 80 3e
       0.23411132 -0.07658637 0.24271318 0.2509206
000070 16 57 90 3c 4b 1e 6a 3e 35 87 7e 3e 2b 42 50 3e
       0.01761965 0.22863118 0.24856265 0.20337741

model.dense2.weight f4 [16, 32]
000000 b0 98 09 be 35 bf 21 bd 87 29 e5 be a2 27 e2 3e
       -0.13437152 -0.03948899 -0.44758245 0.44170862
000010 8a 56 7f 3f ef f9 bf 3e 6f 85 a3 be a5 dc 1f bd
       0.99741423 0.37495372 -0.3193774 -0.039028782
000020 98 1a c1 3d 18 14 fd bd cd a1 24 3f e6 58 a4 3d
       0.094289005 -0.12357348 0.6430939 0.080247685
000030 c9 17 c9 bc 5f d2 de bd 79 2f ed bd 89 3f 03 3e
       -0.024547474 -0.10879969 -0.1158132 0.12817205
000040 dc a6 9a bb 6d 61 48 3d bc 88 98 3e 01 5b eb 3d
       -0.004719598 0.048921037 0.2979182 0.11491967
000050 19 77 d9 3e 88 2d c1 bd fd 1d d2 3d be 59 23 be
       0.42473677 -0.094325125 0.10259626 -0.15952203
000060 56 d4 a3 be da 62 46 be 5c 03 04 3e f4 c2 2f be
       -0.31997937 -0.19373646 0.12891906 -0.17164212
000070 42 f5 da 3e 70 04 9c 3e 3d b1 e9 3e 5f 1c 3f be
       0.42765242 0.30472136 0.45643035 -0.18663166
000080 e2 b0 d0 3e 56 23 92 bd 3a 97 ba bd da cd 4b 3e
       0.4075995 -0.07135646 -0.091108754 0.19902745
000090 e2 5c af 3e 1a 05 3d 3e 6e e3 08 3e 9c de d4 be
       0.3425055 0.18458977 0.13368008 -0.41576087
0000a0 e7 b4 4c bf eb d8 24 3e 40 92 38 bf 29 95 92 3e
       -0.79963535 0.16098373 -0.7209816 0.28629425
0000b0 27 64 4c 3e 9b f8 a7 be 85 3b 6d 3c 63 5d 82 be
       0.1996008 -0.32806858 0.014479523 -0.25461873
0000c0 09 99 34 3e f4 86 73 be fd fa 06 bd b9 3e 81 3e
       0.17636503 -0.2378195 -0.032954205 0.25243166
0000d0 e9 33 1a 3e d6 e8 8b be 63 94 4c 3e 95 10 7a bd
       0.15058865 -0.27326077 0.1997848 -0.06105097
0000e0 2d 82 15 be 46 e8 9c 3e 40 4e 56 3e c0 e6 84 3e
       -0.1460044 0.3064596 0.20928288 0.25957298
0000f0 00 18 a4 3e 79 95 68 3e 16 2a 35 be e9 b1 14 3f
       0.3204956 0.2271327 -0.17691836 0.5808397
000100 4e 45 5d 3e 4e d2 1e bd 89 c4 d6 3e de 25 0d bf
       0.21608469 -0.03877478 0.4194682 -0.55135906
000110 85 12 35 bf 7e 51 37 3c 8e d6 20 be cd b0 8f 3d
       -0.70731384 0.011188863 -0.15706846 0.07016144
000120 24 59 cc 3e 12 37 16 3d 40 46 26 3f e4 70 60 bc
       0.3991176 0.036673613 0.64950943 -0.01369879
000130 86 30 8f 3b a3 d2 54 3e 98 df 4f be 6e 74 ef bd
       0.004369798 0.20783477 -0.20300138 -0.11692129
000140 0b d7 82 bd cb 31 25 3e 52 60 01 3e 0d d5 d0 3e
       -0.063886724 0.16132276 0.126344 0.40787545
000150 97 89 5c 3e ec 83 fa 3e 70 c0 81 3d 44 43 43 3e
       0.21536861 0.48928773 0.06335533 0.19068629
000160 f1 24 c1 3d 5f 7a bf 3d 13 77 a8 3d 9c bb 23 bd
       0.09430874 0.09349512 0.082258366 -0.03997384
000170 fa e1 00 be 8a 03 bb be 33 34 2f be 15 47 5d be
       -0.12586203 -0.36526138 -0.17109756 -0.21609147
000180 6c f8 a6 be 61 dc 28 be 17 71 b0 be ca 89 f2 be
       -0.32611406 -0.16490318 -0.3446128 -0.4737075
000190 1e c3 41 3e 95 b9 00 3f 43 d1 c3 3e 84 f2 1b 3d
       0.18922088 0.50283176 0.38245592 0.038073078
0001a0 2c 1b 5e 3e 31 43 82 3d 23 79 1f 3e 63 03 85 3e
       0.21690053 0.06360472 0.15573554 0.25979146
0001b0 ba 72 19 3d c8 d2 5a bd bf 75 ab be bd 97 cd be
       0.037462927 -0.053423673 -0.3348827 -0.4015483
0001c0 20 e6 cb bd bd 52 39 be 9f c5 ce 3d 3c 92 ed 3e
       -0.09956002 -0.18097968 0.10096287 0.4640063
0001d0 79 31 83 3e ae a6 cf 3e f9 08 d7 3e ae 01 1e 3e
       0.25623682 0.40556854 0.41999033 0.15430328
0001e0 b8 c1 54 be 69 4d e0 bd 9b e1 fe 3e d8 ec 46 be
       -0.20777023 -0.10952265 0.49781498 -0.19426286
0001f0 18 a4 8a 3d 91 25 72 bd e3 15 e1 bd e0 94 67 3e
       0.0676958 -0.059117857 -0.10990503 0.22615385
000200 d0 09 15 bf 76 27 e3 3c 32 4e d9 3e dc 86 fb 3e
       -0.582181 0.027728777 0.4244247 0.49126327
000210 e5 8d 6f be b3 dc b5 3e 77 dd e1 3e 5a 17 9d 3e
       -0.23393972 0.35519943 0.44114277 0.30681878
000220 c3 b0 b4 be 3d fc e3 bd 0b 58 58 bf 0d a6 09 3f
       -0.35291108 -0.11132095 -0.8450934 0.53769
000230 a8 8d b8 bd 45 6f 08 bf 05 83 07 3f 69 aa cd 3e
       -0.09011394 -0.53294784 0.52934295 0.40169075
000240 d3 af 99 3d 9a ae f5 3d a8 7e 16 be 33 bc a7 3d
       0.07504239 0.11996193 -0.14696753 0.08190193
000250 7d b8 06 be ce 9c ff 3c 0f 70 f6 be 28 ee ca 3e
       -0.13156314 0.0312027 -0.4813237 0.39634824
000260 31 25 b8 3e dc cd a2 3c ff 7e 1b 3e e1 4b bf 3d
       0.35965875 0.019873552 0.15185164 0.09340645
000270 80 ea 48 bf 1a ff b7 3e 7d 7d 9e bd 67 ed 4e 3e
       -0.7848282 0.35936815 -0.07738779 0.2020775
000280 95 7b fd 3e 59 be b4 3d b7 c3 c4 3e 86 da 51 be
       0.49508348 0.088253684 0.3843057 -0.20493516
000290 10 97 c4 3e 12 7c 56 be fa d6 71 3c ff 65 0d 3e
       0.38396502 -0.20945767 0.014760727 0.1380844
0002a0 d0 cc aa 3e 14 0d 20 be 05 c5 b1 be 40 b0 86 3e
       0.33359385 -0.15629989 -0.34720626 0.26306343
0002b0 fb c8 b5 bd e4 1b 5b bc 6f 6a 75 3e b2 6a 22 be
       -0.088762246 -0.013373349 0.23966382 -0.15861014
0002c0 e2 95 11 3e 9f 17 e5 be 7b 02 3a bd c7 6c c5 be
       0.14217332 -0.44744584 -0.04541252 -0.38559553
0002d0 9c 1c 8a be 27 78 55 3e f3 ef 88 be 94 8d 88 3c
       -0.26974952 0.20846616 -0.26745567 0.016669072
0002e0 16 21 32 bd d4 ec b6 3d 25 61 fc 3e ff 0a 14 bd
       -0.043488584 0.0893189 0.49292865 -0.0361433
0002f0 ae 62 70 be 7b 2a 1e bd 0d 08 95 3e 00 b0 b9 3e
       -0.23475143 -0.03861473 0.29107705 0.3626709
000300 53 29 f0 3e f9 31 89 3c d0 73 40 3f 68 4a 2c 3e
       0.46906528 0.016747462 0.75176716 0.16825259
000310 36 31 90 be f9 ef 99 be c1 c3 98 be ce 5d e0 be
       -0.28162545 -0.30065897 -0.29836848 -0.43821567
000320 64 63 af 3e 15 84 ce bd eb f8 1c 3e af 59 89 3e
       0.34255517 -0.100837864 0.1532933 0.26826236
000330 46 f2 06 3e a8 d4 f1 3d 66 a3 b6 3e c6 dc 53 3e
       0.13178357 0.11808139 0.35671538 0.20689687
000340 08 b9 ea 3d 66 4f 97 3e 94 d4 a5 3e 4d 95 af 3d
       0.11461073 0.29552764 0.32388747 0.08573399
000350 bd d4 7b 3c 4c 30 bc be f8 e2 08 be 05 72 82 bd
       0.015370545 -0.36755598 -0.13367832 -0.06369404
000360 24 7b 27 be 07 03 29 3d ca 0a 9b 3d 9f e8 97 3d
       -0.16355568 0.041262653 0.07570417 0.07417416
000370 26 81 87 3e b6 9d e4 bc 12 60 14 bf d0 ea 9f 3e
       0.2646572 -0.027907234 -0.5795909 0.31233835
000380 15 c8 35 3f 11 12 a4 3d 2f 77 d6 3e 4c 15 d3 be
       0.71008426 0.080112584 0.41887805 -0.41227186
000390 f2 51 a1 3d f0 1b 0b bd 8e 66 82 3e 81 f5 01 be
       0.07876958 -0.03396219 0.25468868 -0.12691309
0003a0 26 3f fa 3a cd 7a 7f bd 4d 5e 97 3d ab ce 5e 3e
       0.0019092306 -0.06237297 0.07391033 0.21758525
0003b0 63 5b 00 be 19 6f 27 3f 45 00 3d 3f 0b 14 85 3e
       -0.12534861 0.65403897 0.73828536 0.25991854
0003c0 37 77 45 3e 2b f1 cc 3e 24 d4 82 3e d1 73 9e be
       0.19283758 0.40027747 0.25552475 -0.30947736
0003d0 34 fa 8b be 07 2e aa 3e 99 e5 ed 3e b5 cd 42 3e
       -0.27339327 0.3323824 0.46464232 0.19023784
0003e0 8a ec e7 3e 15 bc f5 3d ef c9 16 be 3c 20 d6 be
       0.45297652 0.119987644 -0.14725469 -0.41821468
0003f0 a6 ae 50 3d 79 51 0b 3f e7 72 07 bc ca be 89 be
       0.050947808 0.5442119 -0.008267141 -0.26903373

model.dense2.bias f4 [16]
000000 1a 9e e4 bc 22 9b 54 3e 2e 44 2a be 49 98 9b 3e
       -0.02790742 0.20762303 -0.16627571 0.30389622
000010 02 fa 99 3e c2 2a ff 3d 0d 4f 26 bd 77 dc cb 3d
       0.30073553 0.12459327 -0.040602732 0.0995416
000020 99 8c 05 3e e6 4a 39 3e e6 7d e9 bd bd ad 10 3e
       0.13041915 0.18094978 -0.11400966 0.14128776
000030 6c 7c 05 be b3 88 9a bd 8e 56 46 3e 4b 1d a3 3e
       -0.13035744 -0.075456046 0.19368955 0.31858286

model.output.weight f4 [10, 16]
000000 ca e0 a5 3e 35 57 37 bf a9 48 96 3e c8 b0 ae 3d
       0.32398063 -0.7161744 0.2935231 0.08529812
000010 3d f2 38 bf b6 ea a0 bc 5e 02 b4 3e 6f 78 db be
       -0.72244626 -0.019643169 0.35158056 -0.4286532
000020 3b 83 c0 bd 4f e6 ab be 47 4a 29 be 60 c4 8a 3e
       -0.0940003 -0.3357415 -0.16532241 0.27102947
000030 71 e1 4a 3d 47 8d 54 3e 05 1d f8 be 6d 37 d8 3e
       0.049531404 0.20757018 -0.4845964 0.42229787
000040 a0 7d 67 bd ec e2 25 bf 35 41 0b bf 1e dd ff be
       -0.05651629 -0.6479938 -0.54396373 -0.49973387
000050 41 99 cd 3e f8 3c 11 3f 44 c7 df be a7 77 23 3e
       0.40155986 0.56733656 -0.43706715 0.15963612
000060 29 4f 6d be b8 0a 03 3f eb 20 85 be c8 b3 a9 3d
       -0.23174728 0.5118823 -0.26001677 0.08286244
000070 3f fa ae 3c cf d5 66 3d 1a 5d 9d be bf b5 71 be
       0.021359561 0.056356248 -0.30735093 -0.23604487
000080 cd 0d b3 be 77 f2 c6 3d 62 3e a6 bd 2b 72 8d 3d
       -0.34971467 0.09714215 -0.08117367 0.069065414
000090 3e 96 94 be b5 3e de 3e ed d6 b9 3e 31 ba be 3e
       -0.29020876 0.43407217 0.36296788 0.37251428
0000a0 03 64 04 bf 9d 0d d8 be 44 23 5a be c9 01 81 be
       -0.51715106 -0.42197886 -0.21302515 -0.25196674
0000b0 55 df 35 be 6c f9 dd bb 7d fd 6a 3e 3f ca 37 3e
       -0.17760976 -0.006774118 0.2294826 0.17948245
0000c0 42 4d a0 3e 79 6c 9e be ff 9f d3 bd 38 bf 8b be
       0.31308943 -0.30942133 -0.10333251 -0.27294326
0000d0 9d a2 c1 3e 8b b2 dc be e0 47 3f 3e 9a 46 83 3e
       0.37819377 -0.43104967 0.18679762 0.25639802
0000e0 8e b4 dd 3d 41 f9 60 bf 70 88 df ba fa 4b 59 bf
       0.10825454 -0.8788033 -0.0017054211 -0.84881556
0000f0 2f 4b 5d be 32 73 19 3e c7 ce c5 3d 3e 89 7c be
       -0.21610712 0.1498535 0.0965858 -0.24661729
000100 d7 bc cd 3e de d2 be 3e 10 35 76 be ba ba ba 3e
       0.40183136 0.37270254 -0.24043679 0.36470586
000110 63 92 5e bf 3f 1a 94 be 79 d5 03 bc 29 0c 47 be
       -0.8694212 -0.28926274 -0.008046501 -0.19438232
000120 fe a6 86 be f1 da 00 3f 2b b9 c6 3c a7 c1 d1 bc
       -0.2629928 0.5033408 0.024258217 -0.025605036
000130 44 fc 32 be 8f cc af bd a2 0d d4 be d7 9e 8c be
       -0.17479044 -0.08583938 -0.4141665 -0.27464935
000140 33 76 6a bb 54 cb 28 3f 6d 43 d3 be 74 37 07 bf
       -0.0035776019 0.65935254 -0.4126238 -0.5281899
000150 46 3b 94 bc e8 dd 02 be f8 21 8f 3e 35 d0 2a bf
       -0.01809467 -0.12779963 0.27955604 -0.6672395
000160 50 ee c1 3e 02 da 1c bf d0 ba 6e 3e 88 2c a6 3c
       0.3787713 -0.61270154 0.23313451 0.020284906
000170 0c 52 dc be 35 51 5c be 88 42 26 3d c4 38 c9 3e
       -0.43031347 -0.21515353 0.040590793 0.3930112
000180 3e 1e 54 3e 92 50 91 3e 73 7d 24 be ca ec e1 3e
       0.20714661 0.28381783 -0.1606348 0.44125968
000190 f0 2a eb bd 0d 5c e4 3e 71 25 a4 be 9f f9 7f bf
       -0.11482799 0.4460148 -0.32059816 -0.99990267
0001a0 5c 6a 1c bf 0d d4 dc bd d7 8d 0d bd d9 65 d6 3d
       -0.6109979 -0.10782633 -0.034559097 0.10468645
0001b0 91 31 1c be 30 85 1f be 1a 52 4b 3d b5 27 db 3e
       -0.15253283 -0.15578151 0.049638845 0.42803732
0001c0 0b ce 6c be ff 37 9b 3e 86 6a 4c 3e 0f cd 3b bf
       -0.23125474 0.3031616 0.1996251 -0.7335977
0001d0 9c 47 02 bf 22 8f b6 bd 45 a2 2a 3f 1d ea ab 3e
       -0.5089052 -0.08914019 0.66653854 0.33577052
0001e0 24 e9 f2 3d 88 d0 9b 3d 35 9c 6e 3e dd d0 2c 3e
       0.11860874 0.076081336 0.23301776 0.1687655
0001f0 6d d6 c8 be d1 b5 eb bd 3f 97 48 bf f1 57 70 bf
       -0.39226094 -0.11509288 -0.78355783 -0.9388419
000200 fc 9b 26 bf 8a d4 86 be 33 31 48 3e 1b 68 87 3e
       -0.65081763 -0.2633403 0.19550018 0.26446614
000210 3b 00 8e 3c 30 7e 0d bf 44 57 29 bf c7 c4 90 bd
       0.017334094 -0.5527067 -0.6614878 -0.07068782
000220 df 91 4a 3e 50 87 ad bc 88 be 91 3d 64 54 c4 bc
       0.19782208 -0.021182686 0.07116419 -0.023966022
000230 d7 12 f8 bd 04 f9 40 3c e1 c5 c3 3e bc 30 7f 3e
       -0.121129684 0.01177812 0.38236907 0.24920934
000240 dd 95 eb 3e c7 0c 78 bf dc 0a 9c bd 79 91 68 3d
       0.46012774 -0.96894497 -0.07619259 0.05677936
000250 e7 7d 38 bf 7b a2 7c bf c4 43 90 be 66 21 09 3e
       -0.7206711 -0.98685426 -0.281767 0.13391647
000260 79 6f 8b 3e f5 9b c1 be ca 97 56 3e 69 ae ac 3e
       0.27233484 -0.37814298 0.2095634 0.33726814
000270 c3 b7 5a be dc f3 c8 bc 5c d1 b2 3d b1 67 d1 be
       -0.21359162 -0.024530344 0.087313384 -0.40899423

model.output.bias f4 [10]
000000 8b 17 2e be 44 2f 8f 3e 55 8d c2 bd 7c df 07 be
       -0.17001168 0.27965748 -0.09499613 -0.13268846
000010 f1 a1 04 3e f6 dc b0 3e f0 81 35 3e 37 3d c8 bd
       0.129524 0.3454358 0.17725348 -0.09777301
000020 51 2b c4 3d 53 8f 06 3e
       0.095785744 0.13140611
