Models/model_optSGD_ep40_neu256_lay1_acc0.9620.pth (torch, 943816 bytes, 6 tensors)

model.input.weight f4 [256, 784]
000000 30 4c 4f 3b 4a 73 92 3c 75 cd 00 3d 14 74 24 3c
       0.0031631105 0.01787724 0.03144594 0.010037441
000010 e0 af 20 bc 65 7e c9 bc 60 5a 8b ba c8 b4 b7 bc
       -0.009807557 -0.024596402 -0.0010631792 -0.02242507
000020 75 ed 0a 3d 68 fe bf 3c a0 81 d6 3a 87 73 07 3d
       0.033917863 0.02343674 0.0016365536 0.03306916
000030 dd e6 63 3c 28 bc 9c 3c a0 5c d7 3a 46 7c c3 3c
       0.013910023 0.019132689 0.0016430803 0.02386297
000040 61 35 0d 3d 85 53 96 bc 04 5e 1e 3c 54 81 04 bd
       0.034474734 -0.018350372 0.00966597 -0.0323499
000050 a8 37 2e 3c 70 0a 48 3b 30 03 37 3c c0 2c be bc
       0.010633387 0.00305238 0.011170194 -0.023214698
000060 6e 2f 63 bc 08 fa ba 3c 83 bf 92 bc f6 ee b0 3c
       -0.013866289 0.022824302 -0.017913586 0.02159832
000070 7e 1e ae bc 1c 30 ec bc 40 8a b8 3c 8e 1e 58 bc
       -0.021254774 -0.028831534 0.02252686 -0.013190879
000080 3f 42 08 3d 00 e2 9a bb 6a 5e b3 bc 2c fd d1 3c
       0.033266302 -0.0047266483 -0.021895606 0.025633417
000090 d9 d0 97 3b e1 ce e3 bc 5c f4 3e 3c af 63 0b bd
       0.004633051 -0.027808608 0.0116549395 -0.034030613
0000a0 f9 97 7e 3c f4 ad ec 3c 2f d6 fe bc 55 e4 9a 3c
       0.015539163 0.028891541 -0.03110799 0.018907705
0000b0 3e 7f 00 3c 9e 82 49 3c d0 a4 a6 3b 0e be 0b 3d
       0.007842837 0.012299208 0.005085565 0.034116797
0000c0 4f 01 15 3d ca bf 30 ba be b3 e1 bc be 4c 17 bc
       0.0363782 -0.0006742446 -0.027551528 -0.009234605
0000d0 f8 3d ac 3c 80 94 8a 3b 20 13 76 3c a7 c4 03 3d
       0.021025643 0.0042291284 0.015019208 0.032169964
0000e0 10 0d 0c bd d8 3c 87 bb ea 6c 11 bc 94 a9 6b 3c
       -0.034192145 -0.004127126 -0.008876065 0.014383692
0000f0 bd f9 85 bc ad e9 ac bc d5 7a b8 bc c8 99 86 bc
       -0.016354436 -0.021107519 -0.022519508 -0.01643075
000100 72 17 e2 3c 2c bd d4 bc aa 3d 92 3b 8d d3 e9 bc
       0.02759907 -0.02596911 0.0044629173 -0.028543258
000110 12 f8 8d bc 5a 96 15 bd 10 ed d3 bb 37 88 bd 3c
       -0.017330203 -0.03652034 -0.006467469 0.023136241
000120 f5 df 15 3c c3 51 e2 bc d5 d4 53 bc 53 4c 23 bb
       0.009147634 -0.027626878 -0.012929161 -0.002491732
000130 fc 12 c9 ba c0 29 07 3d 5f bb 77 3c 2b 54 e4 bc
       -0.0015340741 0.0329988 0.015120356 -0.027872166
000140 af e8 bd 3c c5 5a d9 3c 00 f4 16 bc 48 c8 82 bb
       0.023182241 0.02653254 -0.009213448 -0.0039911605
000150 20 47 97 3a e8 7a 8e 3c 3a ac 88 bc d5 81 d6 3c
       0.0011541583 0.01739259 -0.016683687 0.026184956
000160 ac 3a a0 3c c2 48 a9 bc 9d 79 9c bb 49 c8 0c bb
       0.019559227 -0.020664576 -0.0047752396 -0.0021481684
000170 cd 32 91 bb 1a 87 2a bc 4f 0e 9d bc 3c 47 87 bb
       -0.0044311048 -0.010408187 -0.019171862 -0.004128365
000180 a7 84 ab bc a5 fd a6 bc 5a fa f0 bb 7f c0 3f bd
       -0.020937277 -0.020384619 -0.007354063 -0.046814438
000190 5c 5a 74 bd 3b 11 65 3c ea 81 97 bb 24 78 a8 3c
       -0.059656486 0.013981159 -0.0046236413 0.0205651
0001a0 ad 6b 0d bc f8 47 0e 3d 10 ed 88 bb a3 be 41 bc
       -0.008631629 0.034736603 -0.0041786507 -0.0118252365
0001b0 a8 e2 06 bd 8c 9f 89 bb b2 3b 03 bc b0 14 88 bb
       -0.032931 -0.0041999277 -0.008009838 -0.004152857
0001c0 f0 22 33 3b d3 17 02 bd aa 86 31 bc 82 ec ab 3c
       0.0027334057 -0.031761 -0.010835329 0.0209868
0001d0 ff 70 f2 3c 7a 12 3c 3a bc 4a de bc ee e5 b4 bc
       0.029594896 0.0007174384 -0.027135246 -0.022082295
0001e0 b6 c6 0d bd 6b dc 47 bd 0e fc a8 bb 37 27 92 bd
       -0.034613334 -0.04879419 -0.0051570004 -0.07136386
0001f0 61 04 59 bd 96 89 b1 bb 95 4b a2 bc 18 61 d4 3c
       -0.05298269 -0.005418013 -0.019811431 0.025925204
000200 3b 64 da 3b 4c bf 34 3d 15 bb 33 3d f8 f4 3c 3d
       0.0066647804 0.044127747 0.043879587 0.046132058
000210 da 10 99 bc f0 9d 51 3d 4c 03 a4 3b 71 98 c6 3c
       -0.018684793 0.05117601 0.005005276 0.024242612
000220 fe 34 e7 3c 41 f0 06 bd 32 ef 0e 3d b0 cd ba 3b
       0.02822351 -0.032943968 0.034896083 0.0057007894
000230 80 d5 08 3b a0 f4 e5 ba b4 bd 96 3c 67 7c ec bc
       0.002087921 -0.0017544217 0.018401004 -0.028867913
000240 21 7b 27 bc 73 2a 32 bd 4c 26 01 3c ea 02 fd bc
       -0.010222227 -0.043497514 0.007882666 -0.030885179
000250 82 c9 c4 bb f9 0f 02 bd cc 3e 49 bc 0e bd 44 3c
       -0.006005467 -0.031753514 -0.012283038 0.012007965
000260 1d a4 7b 3c 04 77 1f 3d 9e fe 48 3d 6c 82 3d 3d
       0.015358952 0.03893186 0.049070947 0.046266958
000270 a6 9b 4f 3c 72 54 1e 3c 5c 22 3d 3b 32 91 fe 3c
       0.012671387 0.009663688 0.002885959 0.031075094
000280 00 5d f5 3c 0b 94 af 3c 0c 67 f0 bb 47 3b e5 bc
       0.029951572 0.021432897 -0.007336503 -0.027982367
000290 03 e1 f8 bb 17 e5 36 3b ba e3 15 3d 58 a7 78 bb
       -0.007595183 0.0027907544 0.03659413 -0.0037941542
0002a0 40 85 c9 ba d2 c1 5f bc 45 ae 89 bc f7 59 27 bd
       -0.0015374795 -0.01365705 -0.016806731 -0.04085728
0002b0 ef 7b 4e bd 61 01 16 bd b1 3b 44 bd 15 5f 15 bd
       -0.05041116 -0.03662241 -0.04790849 -0.03646763
0002c0 fe cb 89 bc d6 4a a6 bc 9a 48 62 3a d7 1f 68 3d
       -0.016820904 -0.020299356 0.00086320343 0.05667099
0002d0 64 14 fa 3c 0f 95 be bc 96 b7 82 3d d6 e8 17 3d
       0.030527301 -0.023264436 0.063826725 0.037087284
0002e0 50 3a bc 3d f1 a2 b4 3d cf 39 de bc 6a c1 5c 3d
       0.0919081 0.08820141 -0.027127175 0.05389539
0002f0 b3 c5 88 3c 98 3e 50 bd 17 c9 c0 bb 35 98 2f bd
       0.016695833 -0.050840944 -0.005883347 -0.042869765
000300 86 a2 b0 3c 1f b8 84 b9 e1 d6 c2 bc 83 a9 12 bd
       0.021561872 -0.00025314183 -0.023784103 -0.03580619
000310 85 aa ec 3b bc 35 f2 bc d2 c0 c6 3c ff 29 17 3a
       0.007222476 -0.029566638 0.024261866 0.0005766451
000320 25 e8 8a bb 13 f1 39 bd 81 3f 8a bd 06 6d 1d bd
       -0.0042390996 -0.045395922 -0.06750394 -0.03843405
000330 9b 6a 8d bb 19 91 8b 3d 4a 43 f2 3c 9c 5e 99 3d
       -0.004315687 0.068147846 0.029573102 0.074887484
000340 d8 92 0b 3d 93 76 c3 3c 62 66 b7 3c 1d 1b a0 3d
       0.034075588 0.023860252 0.022387687 0.078176714
000350 0c 47 c1 3d bd 66 34 3d db dd 33 3d 00 82 29 3d
       0.09437379 0.04404329 0.04391275 0.041383743
000360 1b 1a 26 bc 68 65 ad 3c a2 1d d9 3c f0 49 a9 3c
       -0.01013806 0.021166518 0.026503388 0.020665139
000370 06 4c 3a 3d cf cd da 3c 48 2a a0 3c bf 0d 63 b8
       0.045482658 0.026709465 0.019551411 -5.413382e-05
000380 d9 a4 54 3c a4 c7 17 bd a5 db 1c bb a9 5b 11 3c
       0.012978756 -0.037055627 -0.002393463 0.008871951
000390 a1 0c 1c bd e8 ad 50 bd 49 fd 70 bd bb fa 31 ba
       -0.03809798 -0.0509471 -0.0588353 -0.0006789376
0003a0 99 fd 61 3d 52 e5 6e 3d fa 88 18 3d da 25 17 3c
       0.05517349 0.058324166 0.037240006 0.009225333
0003b0 73 fd 24 bd a5 dc 01 bd e0 67 d0 3b ad fb 11 3d
       -0.04028077 -0.031704564 0.006360039 0.035640407
0003c0 e3 4c f2 3d e2 06 1e 3d fb e1 0a 3c ce bc a3 3c
       0.11831071 0.038580783 0.0084767295 0.01998749
0003d0 67 26 e0 3c 90 e4 e2 3a d7 74 57 bc d9 20 ae 3c
       0.027362062 0.0017310549 -0.013150415 0.021255897
0003e0 71 b0 68 3d c7 34 5e 3d 0d 33 1a 3d 88 b9 08 bd
       0.056808893 0.05424955 0.037646342 -0.03338006
0003f0 a5 56 58 bb a7 8c 3a bc 09 0e d1 bc df 08 12 bd
       -0.0033010629 -0.011386073 -0.025519388 -0.03565299

model.input.bias f4 [256]
000000 10 ef a6 3d d7 3e 34 3c a8 fd d1 bc d1 bd e9 bc
       0.08151066 0.01100131 -0.025633648 -0.028532894
000010 63 05 30 3d 24 2d 1a bc a1 41 8b 3c 26 1a af 3d
       0.042973887 -0.009410176 0.016999068 0.08549909
000020 4c 00 ab 3a da 48 74 bc 98 b3 ab 3d 16 78 d3 bd
       0.0013046353 -0.014909947 0.08383864 -0.10325639
000030 26 50 81 bc 92 bc e0 3c e7 bd 1f 3c 4c 13 8a 3d
       -0.015785288 0.027433667 0.009749866 0.06741962
000040 40 e8 00 bd b4 e3 48 3d 3e 52 8f 3c 04 94 52 bc
       -0.03147149 0.04904528 0.01749527 -0.0128526725
000050 b5 65 65 3a 6f 51 ff bc bb 83 e7 3c 9b 96 10 3d
       0.0008750812 -0.03116676 0.028261056 0.03529988
000060 55 de c9 3b 10 ce ee b8 b8 fe 6c bc 28 0b 9d 3c
       0.0061605372 -0.000113871065 -0.014465027 0.019170359
000070 db 40 31 3d 10 11 86 3b 3c 2a 42 bc 24 7a 8e 3d
       0.04327474 0.0040913895 -0.01185089 0.0695689
000080 83 56 ee bc f7 a2 15 3d 26 03 86 3a 55 e3 06 3d
       -0.029093986 0.03653237 0.0010224327 0.032931644
000090 f1 8b 61 3c 58 6d 73 bc d9 77 d6 3c aa cc 0e 3c
       0.013766275 -0.014857613 0.026180195 0.008715788
0000a0 41 69 2e bd bf 02 d7 3c 99 30 77 3c bb c2 47 3d
       -0.042580847 0.026246427 0.01508727 0.048769694
0000b0 07 fd a5 3b 6f a0 8c 3c 7a 5e 6c bc db 5d f2 3c
       0.0050655636 0.017166344 -0.014426822 0.02958577
0000c0 fe 2d bd bc 8f ad e0 bc 7c ff 09 bc 88 fa 3f 3b
       -0.02309322 -0.02742651 -0.008422729 0.0029293615
0000d0 a4 8d d7 3b d5 12 ad 3c ab 62 ae 3b 58 2d d6 3d
       0.006578164 0.021127144 0.0053218207 0.104578674
0000e0 4b e3 3b 3d c6 b6 6d 3a d2 4d 18 bd 02 e2 c8 bc
       0.04587106 0.0009068068 -0.03718359 -0.024521831
0000f0 26 f6 ae 3d 47 f4 8b 3c 9b 31 ac 3d 82 be 6e 3c
       0.08543043 0.017084254 0.08407899 0.014571788
000100 5b f9 3e bc 14 2e 47 3c d7 a0 bc 3c 64 51 b4 3c
       -0.011656131 0.012156982 0.023025913 0.022011466
000110 7d 5c d8 3c db 95 18 bc 32 3b 3c bd c1 f0 e9 3c
       0.02641129 -0.009313072 -0.04595489 0.028557183
000120 16 b4 a7 3d 43 de 51 3d 61 09 38 3d 92 12 26 bc
       0.081886455 0.051237356 0.04493082 -0.010136263
000130 e6 e8 87 bd 64 eb c5 3d 85 62 16 3c 82 9b 6c bc
       -0.06636219 0.09664038 0.009178762 -0.014441373
000140 a2 7c 5a 3d 79 8b 1f 3d b8 03 d6 bc b7 31 9b 3c
       0.053341515 0.03895137 -0.02612482 0.018944604
000150 92 28 ca 3d db c4 8d 3d ae 89 da bc 20 33 5a 3a
       0.098710194 0.06922313 -0.026676979 0.0008323658
000160 40 d3 64 bd 48 9e 7e 3d 91 3d d4 3d 37 0e 67 bc
       -0.055865526 0.062162668 0.10363305 -0.01410251
000170 dd ac ab 3d f6 9b 64 bc eb 80 09 3c 7a 39 a6 3d
       0.083825804 -0.0139532 0.008392553 0.081164315
000180 8b 9f 86 bc b7 dc f9 3c ed 7c 04 3c 01 9b 92 3d
       -0.016433498 0.030500753 0.008086425 0.07158471
000190 bf 94 f2 3c 0c 62 79 3d b1 6a 9c bd a7 7b de 3c
       0.029611943 0.06088452 -0.07637537 0.027158571
0001a0 c8 d5 df 3d d3 cf cf 3d 39 ec dd 3c ca 7b 88 3d
       0.109294474 0.10147061 0.027090179 0.06664236
0001b0 cf 8d c4 3c 79 8b bb 3c 60 92 25 3d 7f 79 e6 bc
       0.0239934 0.022893654 0.040422797 -0.028134106
0001c0 f7 ed 73 bc da 67 3b bc 79 21 74 bc 25 0d 29 3d
       -0.014888278 -0.011438334 -0.014900559 0.0412723
0001d0 92 aa 0b 3d be ce a4 3c d5 62 ca 3a fc 7b 86 3a
       0.034098215 0.020118114 0.0015440831 0.0010260339
0001e0 23 c5 53 bb a8 cd 17 3e 01 8e e4 bd 23 21 49 3d
       -0.0032313548 0.14824545 -0.111598976 0.049103867
0001f0 20 67 07 3d a7 2c a9 3c f8 fc bd 3d f6 3e 2e 3c
       0.033057332 0.020651175 0.092767656 0.010635128
000200 26 e7 e5 bb b7 bb 31 3d 2c 87 ff 3c 7d 85 7f 3c
       -0.0070160804 0.04339191 0.031192385 0.015595791
000210 01 c2 b0 3d 5b 25 22 bc ec f2 d4 bc 2d ee 62 bc
       0.08630753 -0.009896602 -0.02599474 -0.013850731
000220 66 af b7 3a d0 84 f7 3a d5 14 2f 3d e5 dd 78 bc
       0.0014014065 0.0018884186 0.042744476 -0.0151896225
000230 95 de 93 bc 4a 18 57 bc 0d eb 4b bd 49 cf d4 3c
       -0.018050471 -0.01312835 -0.04978471 0.025977748
000240 81 97 5e 3c 8d e4 ab 3d 45 74 b3 3c cb a2 c0 bc
       0.013585926 0.08393202 0.021906028 -0.023515126
000250 4d bb 8f 3c 9a 93 42 3a ea d5 b9 3b c9 52 35 3c
       0.017545367 0.0007422507 0.0056712525 0.011067101
000260 cd ad 48 3c 3a 17 5f 3c d5 41 b3 3c 9f 11 f6 3c
       0.012248469 0.0136163775 0.021881977 0.0300377
000270 b9 87 99 3d 3e 80 52 3d 05 9e 39 3d 72 8c f1 3d
       0.0749659 0.051391833 0.045316715 0.11794366
000280 70 67 45 3d 4e ee 07 3c a9 d6 e9 3d 3e e5 ae bc
       0.04819435 0.008296562 0.11417896 -0.021349546
000290 5c 6a 34 3c 22 06 01 bc 23 5b 62 3b 6a 6d 5a 3d
       0.011011686 -0.007874997 0.0034539185 0.053327
0002a0 28 51 9e 3d 91 62 df bc 47 74 ac 3d 0f 71 28 3d
       0.07730323 -0.02726868 0.08420616 0.041123446
0002b0 bc b6 a7 3d ea 7f 62 3d be f9 95 3c 78 4f 3a bd
       0.08189151 0.05529777 0.018307563 -0.045485944
0002c0 3c e2 a0 3b 4d 65 1b bc f0 30 a4 bc b2 f4 25 3c
       0.0049097817 -0.009484601 -0.020042866 0.010129141
0002d0 5c 86 9e bd b3 af c7 3c 17 6f b1 bc 16 5e d8 bc
       -0.07740471 0.024375772 -0.021659417 -0.026412051
0002e0 d9 e1 12 bd 4a b1 2f bb 3c 97 30 3d 15 f4 82 3c
       -0.035859916 -0.0026808553 0.04311298 0.015985528
0002f0 5a b3 0f bd c2 72 61 3d e0 b9 d2 3d 28 3a 34 3d
       -0.035083152 0.055041082 0.10289359 0.044000775
000300 4f 0b c3 ba 4d 99 85 bc b6 45 a0 3d 20 b0 4f 3c
       -0.001488069 -0.016308451 0.07825796 0.012676269
000310 d5 86 db ba 80 09 5b 3d 6a 71 70 3b 4b 1e 52 3d
       -0.0016748557 0.053475857 0.0036688694 0.05129842
000320 1a 58 af 3d 5b 74 9c 3d b4 0e 33 bd ec a7 c9 bc
       0.08561726 0.076393805 -0.043715194 -0.024616204
000330 95 7a a9 3d 2a d1 3e 3d f9 24 03 3d 99 5d e3 bd
       0.08275334 0.046586193 0.03201768 -0.11101837
000340 3f 5b e8 3c b4 fb ac 3c 4b 66 24 3d 9f 8a 5e 3c
       0.028363822 0.021116115 0.040136617 0.0135828545
000350 44 ff fe 3d 52 7b 99 3d fa b3 7b bd 8e 26 2f bd
       0.12451032 0.074942246 -0.061450936 -0.042761378
000360 eb ec 8f 3d ad ea 82 3d c7 e7 d1 3a b6 c9 b2 bc
       0.070276104 0.06392417 0.001601451 -0.021824699
000370 61 0a bf 3d be 67 26 3c a5 38 08 3d 28 3e ab bc
       0.093281515 0.01015657 0.033257145 -0.020903662
000380 1d aa 7c bd 95 36 79 3d 42 0e 49 3d 04 09 8c bc
       -0.06168567 0.06084307 0.049085863 -0.017094143
000390 f1 50 ad 3c 60 93 aa 3c c7 c0 5a bc 72 e4 b5 3d
       0.02115676 0.020822227 -0.013351626 0.08881463
0003a0 15 12 3f 3d f2 ec fe 3b db 17 b7 3c e4 c0 ad 3d
       0.046648104 0.007779711 0.022350242 0.084840566
0003b0 6e 7c 41 bc c7 e0 73 3d 04 ef 2f bd e4 87 d8 3b
       -0.0118094515 0.059540536 -0.042952552 0.0066079963
0003c0 b1 9e a0 3c d7 51 96 bc 5e c0 a8 3b 8e 40 82 bd
       0.01960692 -0.018349571 0.005149885 -0.06359969
0003d0 77 4f d4 bb 67 fe 96 3d 83 b7 66 3d 05 e8 9e bc
       -0.0064791995 0.07372742 0.056327354 -0.019397745
0003e0 06 76 83 bd a7 44 11 3d 2f 5a b0 3d 2c 8b a9 bb
       -0.064189956 0.035465863 0.08610951 -0.0051740613
0003f0 42 b8 d8 3c 0e 51 84 3d 15 7a 78 3d 9d 33 d1 3c
       0.026455048 0.064607725 0.0606633 0.025537306

model.dense1.weight f4 [128, 256]
000000 be eb e9 3c eb 1d 1f 3c 16 2c 71 3c 36 18 93 bd
       0.028554793 0.009711723 0.014719984 -0.07182352
000010 f8 59 3e 3c af 07 2d 3d 27 f8 a6 3d ed e8 26 3d
       0.01161813 0.042243656 0.081528 0.04074948
000020 11 ee df 3d 20 b8 1c 3b 4b 11 22 3c fb 1a 31 3d
       0.109340794 0.0023913458 0.009891818 0.04323862
000030 4d 58 10 3d df 91 37 bd d9 86 31 3d 59 49 28 3d
       0.03524046 -0.044816848 0.04334149 0.041085575
000040 5b 81 b0 bd 8f 11 18 3d 4f 60 27 3c 24 3a 26 3d
       -0.086184226 0.03712612 0.010215833 0.04058279
000050 08 ff 35 bd de cd 98 3c d6 1f d3 3c 4e 2f cd 3c
       -0.04443267 0.018652853 0.025772016 0.02504697
000060 be 47 46 bc f7 a6 a2 bc fd 06 b6 bd 39 84 23 3d
       -0.012102066 -0.019855006 -0.08888052 0.03992102
000070 2f 23 b2 bb 5e 2d b3 bd b9 2b 23 3d d1 22 01 bd
       -0.005436323 -0.087488875 0.03983662 -0.031527344
000080 5f ab 11 bd 09 4e 2d bc ef 67 83 bd 02 c2 88 3d
       -0.035563823 -0.010577687 -0.06416308 0.06677629
000090 35 63 a0 3c 7d f5 de 3b 14 0e 73 3d 01 df 81 3c
       0.019578556 0.006804167 0.059339598 0.015853407
0000a0 62 95 fe 3c 1b 12 38 bd be 18 b5 3d 5f 98 10 3e
       0.03107709 -0.04493914 0.0884261 0.14120625
0000b0 0f 9c 4f bd d2 c0 d1 bd f9 33 8f bd d6 c4 5f bd
       -0.05068594 -0.10241856 -0.06992335 -0.054631077
0000c0 06 5a 23 bd cc da 13 3d fd f0 f4 bc 96 2f db bc
       -0.039880775 0.036097333 -0.029900068 -0.02675609
0000d0 b6 59 1c bd 1d 7f 9b bc 0a f7 ca 3d 70 1c 16 3e
       -0.038171493 -0.01898151 0.099104 0.14659286
0000e0 25 64 9e bd 2b 4f 21 3c 3b 57 0a bc 56 50 bb bd
       -0.07733945 0.009845535 -0.008443649 -0.09146182
0000f0 7e 2f 87 3d 7d d9 6e 3b a1 5e fa 3c 39 3f a7 bc
       0.06600855 0.003644555 0.0305627 -0.02041589
000100 c6 fa 6a 3d ea dd f4 bc b8 9a cf 3d 66 1f 8b bd
       0.057368062 -0.029890973 0.10136932 -0.06793098
000110 48 03 8b 3d 39 b5 85 bb 8e eb 8d bd 78 43 cc 3c
       0.06787735 -0.0040804413 -0.06929694 0.024934515
000120 0f 53 4a 3c 69 99 53 3c 08 0b d4 bd 38 20 ed bc
       0.012348904 0.012914994 -0.103536665 -0.028946027
000130 43 2e 09 3c c8 a7 6d bd c5 73 07 bd 9f ae 88 3d
       0.008372846 -0.058021337 -0.03306939 0.06673931
000140 ad ea 17 3d 1b 7f a5 bd 6d 30 e4 bc 7a fa 18 3d
       0.03708904 -0.08080884 -0.027855122 0.037348248
000150 24 b6 ce 3c 2c 8e cb bc 4f 5f 95 3d c2 3c 47 3c
       0.025233336 -0.024848066 0.07293569 0.012160482
000160 29 5c 33 bd b9 57 0a bd c9 14 81 3d c7 d3 c7 3c
       -0.043789063 -0.033775065 0.063027926 0.024392975
000170 94 52 fc 3d aa 76 9d 3b fe 0c a6 3b 83 b0 94 3d
       0.12320438 0.0048054056 0.0050674668 0.072602294
000180 b4 98 07 3d 54 1b 59 bd 0a 53 ab bd c8 ac b7 bd
       0.033104613 -0.053004578 -0.08365448 -0.08968502
000190 84 22 96 bd 3b f0 9d 3d 4c 7b d2 bd da cc 56 bd
       -0.07330802 0.07711836 -0.10277423 -0.052441455
0001a0 3f be c6 3d 37 db 61 bd bf d3 87 bc ac 2c ef 3c
       0.09704255 -0.0551407 -0.01658046 0.029196106
0001b0 da 0c 8e 3c 61 71 b7 3d 3e 8b 05 3d 73 2a b7 bc
       0.017340112 0.08957172 0.032603495 -0.022359109
0001c0 d4 ce 56 3c 83 4e 8b bc 39 d6 e1 bc dc 59 b2 bc
       0.013110835 -0.01700521 -0.02756797 -0.021771364
0001d0 a7 82 4a 3d 40 fe db 3c ce 8a a0 bb 75 a1 fb bc
       0.049441006 0.026854634 -0.0048993593 -0.030716637
0001e0 54 e5 28 bd da 14 93 bb 57 08 34 be 9f b1 ff 3d
       -0.04123433 -0.0044885697 -0.17581306 0.124850504
0001f0 ea ad 1b bd 7f 8a f5 3c 6d f0 56 3d b1 67 29 3d
       -0.038007654 0.029973267 0.05247538 0.041358653
000200 d1 65 1c 3d 2b c2 30 bc 92 49 51 3d 5c 9a a0 bd
       0.038183037 -0.010788481 0.051095553 -0.07841942
000210 e7 7b 23 bd ce 8c 72 3c 8b 97 38 3c 5e 67 79 bd
       -0.039913084 0.014804078 0.011266599 -0.060889594
000220 71 5e fe bc 31 05 4b bd 2c 0a 4d bd e3 91 16 3d
       -0.031050893 -0.049565498 -0.05005853 0.036760222
000230 51 7e 51 bd 20 6f 71 bc f7 16 e4 bd 32 2d 45 3c
       -0.051145855 -0.014735967 -0.11137193 0.012034701
000240 e9 f1 d1 3c 84 84 da bc ce 47 af 3b 26 93 3f 3c
       0.025628047 -0.026674516 0.005349136 0.011692798
000250 b7 9b c8 bc bc 81 42 3d e2 af f3 bc 3a 95 0e be
       -0.024488313 0.047487006 -0.029746953 -0.13924113
000260 b5 ff 2d 3d c2 55 0f 3d 3f 67 87 3c 4f 5a 2a 3d
       0.04248019 0.034993894 0.016528724 0.04159003
000270 08 5f 28 3d 61 18 22 bc 37 73 8b bd fe a9 74 3d
       0.041106254 -0.009893508 -0.06809085 0.05973243
000280 a6 00 cf 3c 5d 47 4e bb 24 3b 4a 3d 49 98 2f 3d
       0.025268864 -0.0031475641 0.049372807 0.04286984
000290 8a 54 d3 3d d7 ad 2d 3d 5e 4c 5b 3d a9 68 80 3d
       0.10318859 0.042402115 0.053539626 0.06269962
0002a0 f2 4f 04 3e ad 6d 0c 3c 9e 18 19 3d 64 a4 99 3d
       0.12921122 0.008571071 0.037376992 0.07502058
0002b0 5c 56 ed 3d 88 47 08 37 fd 2f 57 3d 55 98 6a bc
       0.11588737 8.122886e-06 0.052536 -0.014318545
0002c0 63 03 50 3b ce 1f 69 bd 5f 35 86 3d ba 61 83 3c
       0.00317403 -0.056915097 0.065531485 0.01603781
0002d0 23 c2 e2 ba 70 b2 9e 3d 7f b4 cf 3d 48 ef f1 bd
       -0.0017300289 0.07748878 0.10141849 -0.118132174
0002e0 1a ac 07 bd c7 14 c3 3d 99 a9 2f bc 5c 23 5a 3d
       -0.033123113 0.09525447 -0.010721588 0.053256378
0002f0 53 5d 8d bd f7 c2 b6 3c 4b dc ff 3a ea 38 83 bc
       -0.06902566 0.022309763 0.0019520608 -0.01601835
000300 d3 62 3d bd 08 71 94 3d b2 10 2b 3d 0c e9 17 3c
       -0.046236824 0.072481215 0.04176397 0.009271871
000310 68 f7 12 3d a3 be 77 bd 48 c8 5c bc 07 31 26 3d
       0.035880476 -0.06048454 -0.013475485 0.0405741
000320 d9 68 ac 3d 64 42 4b 3d f0 79 14 3d c1 b9 ba bc
       0.084184356 0.049623862 0.0362491 -0.022793652
000330 05 6a ed 3c 37 41 4c 3c fc 52 88 3d f7 8e 86 3d
       0.028981218 0.01246672 0.06656453 0.06570237
000340 d1 e9 19 bd 49 3a 77 bd 00 7f cd 3d 23 5c b2 bc
       -0.0375765 -0.06035832 0.10033989 -0.02177245
000350 3e b3 ee 3d c1 c9 b9 bc 04 f5 d0 bd e4 18 bf bc
       0.116552815 -0.022679212 -0.10202983 -0.023327298
000360 8f ea ba 3c 6c b0 ee bc 15 db 0a 3c 09 03 d2 3c
       0.022816924 -0.029136859 0.008475085 0.025636213
000370 88 22 8f 3b 37 5e 91 bd 27 12 05 3c 62 2c 92 3d
       0.00436813 -0.07098048 0.008122004 0.071373716
000380 4c 5c e5 bc 66 2c af 3d c5 17 e7 3c 67 19 a2 bd
       -0.027998112 0.0855339 0.028209576 -0.07915001
000390 44 de 14 3e b9 4b 03 3c 35 3d 36 3d e1 7b 55 bd
       0.14537913 0.008013659 0.044491965 -0.052120093
0003a0 50 d6 a2 3d db 8d ff 3b f0 80 91 bd 82 25 6e 3d
       0.07951033 0.007798893 -0.07104671 0.05814124
0003b0 d5 b6 8c bd e4 5d be 3c a8 2f d4 bc 5a 55 29 3c
       -0.0687081 0.02323813 -0.02590163 0.010335291
0003c0 29 59 17 3d e0 e5 a2 3c 17 ef 0d 3e 96 65 f4 bc
       0.036950264 0.019885004 0.13860737 -0.029833596
0003d0 89 ca c1 ba 6f fb 89 3b d8 62 3f 3c 74 29 5a 3c
       -0.0014785092 0.0042108814 0.011681281 0.013315547
0003e0 b2 9c ad 3d 6c c2 d0 bc d0 f4 19 3d 70 09 db bd
       0.08477153 -0.025483333 0.037586987 -0.106951594
0003f0 c3 22 f6 3d fd ff e1 bc 10 70 de 3c 3d d0 62 3d
       0.12018349 -0.027587885 0.027153045 0.055374373

model.dense1.bias f4 [128]
000000 33 fc a7 3d 74 30 4b 3c e5 67 3c bd 84 8d 0e 3c
       0.082024 0.012401689 -0.04599752 0.008700732
000010 2b 3f 1f 3c c5 7b 58 3d d3 44 f5 3d 4a af 15 bd
       0.00971965 0.05285241 0.11976018 -0.03654412
000020 cf 56 4f bc 64 2e a7 bc 81 0b fa 3b 42 f0 81 3d
       -0.012654974 -0.020407863 0.007630766 0.06344654
000030 1a 98 92 3d b2 d2 fc 3d 76 38 5a 3d 4f 69 03 3d
       0.07157917 0.123448744 0.0532765 0.032082852
000040 26 4a 25 3e 6d 28 23 bd 46 41 d9 bc d7 2e bd 3d
       0.16141567 -0.039833475 -0.026520383 0.092374496
000050 bc 64 96 3d 44 18 a4 3d aa db e8 3b 14 6e 8b bd
       0.07343432 0.08012441 0.007106264 -0.06808105
000060 d4 58 8c 3d 02 5c 92 3b a6 49 ce 3d 86 ea 5c bd
       0.0685288 0.0044665346 0.10072641 -0.053934596
000070 43 c0 e3 bc 52 b5 05 bc 1e 02 dd 3d fe 95 01 3d
       -0.027801638 -0.008160906 0.107914194 0.031637184
000080 d9 29 98 3c 30 f2 79 3d f4 48 c2 3b e9 8a e4 bb
       0.018574642 0.061021984 0.005929107 -0.006974567
000090 8d fd 62 3d 11 63 1f 3d b5 a9 0f 3d 14 2e 3d 3d
       0.055417586 0.038912836 0.035073955 0.04618652
0000a0 a0 5c 15 bb 72 39 d0 3d cf 1c b5 3c 45 05 f0 3d
       -0.0022790805 0.10167207 0.022108464 0.11719755
0000b0 a2 bd ff 3d 7a 89 97 3d 38 67 73 3d b8 ec 82 bc
       0.124873415 0.073992684 0.05942461 -0.015982017
0000c0 92 88 ad 3d e5 9a 0a 3e 72 b8 17 3e 22 2c 3b bd
       0.08473314 0.1353565 0.14816454 -0.045696385
0000d0 86 39 08 bd 02 ac 0e 3e 0e 22 95 3d f3 6f d9 bb
       -0.033257984 0.13932803 0.07281886 -0.00663566
0000e0 db 4e ce bc 26 49 bd 3c 4c 58 12 3d cf 41 6a 3d
       -0.025184086 0.023106169 0.035728738 0.057191666
0000f0 7b 29 e8 3d cc 73 4f 3e 27 d9 10 3d 77 6b b2 bb
       0.11336037 0.20259017 0.035363343 -0.0054449397
000100 85 60 b1 bd c7 eb 83 bd d7 13 79 bc 8f d5 c8 3d
       -0.08660988 -0.06441455 -0.015202484 0.09806358
000110 82 16 f5 3d b1 85 5e bd 90 49 a7 3d 68 25 cb bc
       0.11967184 -0.054326717 0.08168328 -0.02479811
000120 93 b5 19 3d 53 ff 79 3d 6f 92 db 3d 90 20 80 3d
       0.03752668 0.06103451 0.10721289 0.06256211
000130 65 13 39 3d 14 38 17 bd df 6f 09 3d e2 3b dd 3d
       0.04518451 -0.036918715 0.033553954 0.10802437
000140 57 b9 8e 3d ce d5 c0 bc 10 d8 2a bd ef 1d 2b 3e
       0.069689445 -0.02353945 -0.04170996 0.16710638
000150 e2 e6 67 3d f9 3b 9d bc 08 0d bd bc e5 7c ff 3d
       0.05661667 -0.019193636 -0.023077503 0.124749936
000160 86 2a e6 3c f4 f8 f0 3d 5c 09 01 3d 35 4a 68 3d
       0.028096449 0.11766234 0.031503066 0.056711394
000170 98 f0 db bc bb b7 49 bb 65 6c 70 3d 5e c4 43 3d
       -0.026848122 -0.0030779678 0.058697123 0.047794692
000180 83 a2 54 bc a3 43 7a bc 13 02 66 3c e9 4b 96 3d
       -0.012978199 -0.015274915 0.0140385805 0.073386975
000190 7b 47 f5 3d a8 06 8b 3d 2e e0 6d 3d e6 79 58 3d
       0.119765244 0.06788379 0.058075123 0.052850626
0001a0 41 3f 1a 3d 0c ce 82 3d e2 69 57 3e 48 50 ad 3d
       0.03765798 0.063869566 0.21036485 0.08462578
0001b0 2c 47 50 bc aa cb 99 bc 47 5f 8f 3d 8b a1 9c 3d
       -0.012712281 -0.018773872 0.070005946 0.076479994
0001c0 1e 56 91 3c 54 45 a5 3d fe 7a 94 3d f0 ba 81 bb
       0.01774126 0.08069864 0.072500214 -0.0039590523
0001d0 b4 2d 8e bc 53 af c6 b5 a1 c7 0a 3d 1c 71 bf 3d
       -0.017355777 -1.4803176e-06 0.033881787 0.09347746
0001e0 4e 7f 0a 3d 0b 91 d0 3d 8b f6 08 3e 8c 06 d6 3d
       0.033812813 0.10183915 0.13375299 0.104504675
0001f0 f3 e1 be 3b 05 fe a7 3d 7f 21 9a 3d 03 bb 35 bd
       0.005825275 0.08202747 0.0752592 -0.0443678

model.output.weight f4 [10, 128]
000000 d1 e9 c7 bc b2 9d c6 bd 29 26 93 bd 67 fd 49 3d
       -0.024403485 -0.09698047 -0.07185013 0.04931393
000010 dc 96 97 3e 0a 07 9f 3d 4d 64 51 be 05 80 13 be
       0.29607284 0.077650145 -0.20448418 -0.14404304
000020 b8 b2 1e bd b8 38 19 3d f4 3a d0 bd ab f4 42 3e
       -0.03874466 0.037407607 -0.101674944 0.19038646
000030 88 60 60 3e ec 14 49 be a1 a1 40 be 28 8f 88 3e
       0.21911824 -0.19636887 -0.18811657 0.2667172
000040 1d de ee bc 02 0f fc 3c bf b7 52 bd 8d 79 81 be
       -0.029158646 0.030768875 -0.051444765 -0.25288048
000050 7b b3 9a bb c3 95 c7 3e 90 29 d8 3d cf d9 87 bd
       -0.004721103 0.38981447 0.105548024 -0.066333406
000060 0f 68 fb 3e d5 72 4d bc f4 8f 07 be 04 aa 98 3d
       0.49102828 -0.012539585 -0.13238508 0.07454303
000070 05 dd a0 3d 3d ae d7 3e 3b 89 69 3d 8e 8c 13 3d
       0.07854656 0.4212512 0.05701564 0.036022715
000080 46 37 0c be b1 c8 59 be aa d5 09 bd d4 14 f4 3d
       -0.1369296 -0.21267964 -0.03365103 0.11918035
000090 03 4a 2b bd a3 96 d5 be 80 e8 57 3e 94 b4 36 3e
       -0.04181863 -0.4171649 0.21084785 0.17842323
0000a0 de 96 8c be 38 ec 6e be 0d 5a ab 3d 0d f3 9e bd
       -0.27458853 -0.23332298 0.08366785 -0.07761202
0000b0 34 90 b7 be 63 da a4 bd fb ce 69 3d 15 90 78 3d
       -0.35852206 -0.080494665 0.057082158 0.060684282
0000c0 af ef db 3c de d1 a7 be b7 17 35 be 21 9a e4 3e
       0.026847688 -0.32777303 -0.17684828 0.4464884
0000d0 d9 39 89 bd 42 ff 96 be ea 6e 59 be 85 41 7d be
       -0.06700487 -0.2949162 -0.21233717 -0.24732025
0000e0 9a 2d 43 3e 15 f5 d4 3e f2 d0 4c 3d e7 56 6c bd
       0.19060364 0.41593233 0.050003953 -0.057700064
0000f0 18 26 0b 3e 14 58 12 bf d1 91 a2 3e 92 52 76 3c
       0.1358875 -0.57165647 0.31751874 0.015034335
000100 45 03 d5 3e f5 9f c4 bc 14 7f 02 bc c2 cb 2a 3d
       0.41604057 -0.024002055 -0.007964868 0.041698225
000110 1d c3 30 bd ce 77 b0 3d 58 c3 98 3e ce 2f f4 ba
       -0.043154825 0.08616601 0.29836535 -0.001862997
000120 1b 4a 1a 3d c6 94 4e bc 7c 46 31 3e 1c f0 89 be
       0.03766833 -0.012608713 0.17312044 -0.26941
000130 18 0f 7d bd fc ff 55 bd df 10 33 3e 9a 77 83 3e
       -0.061781973 -0.05224608 0.17486905 0.25677186
000140 6e 50 b2 3e 41 54 09 bd eb 37 5e 3d 61 91 51 be
       0.34826988 -0.033527616 0.054252546 -0.20465614
000150 d5 75 3f 3e d3 bd 65 3d 33 74 8d 3e 99 e3 48 bd
       0.18697293 0.056089234 0.27627715 -0.04904518
000160 2d 7f d5 bd 89 ff af be 84 2c 6e 3e eb 63 1c be
       -0.104246475 -0.34374645 0.23259169 -0.1527249
000170 f7 2b 89 bd 67 5f 8e bc 4a 05 dd be 9c fb 8e 3b
       -0.06697839 -0.017379476 -0.43168098 0.0043634903
000180 23 3f 64 bd 75 51 8b 3d de 9d 26 3e 02 f3 b3 bd
       -0.055724274 0.06802646 0.16271159 -0.087865844
000190 57 c6 fc be eb 4c 19 3e dc 7e c6 3d ab 41 a9 bd
       -0.4937007 0.14970748 0.09692165 -0.08264478
0001a0 fd eb 58 3d bc a7 f8 bd 48 7f 23 bf c9 65 12 3e
       0.05295943 -0.12141368 -0.6386609 0.1429664
0001b0 18 a6 33 3e 53 2e 6a bc 77 08 28 bd ae 2a 26 3e
       0.17543828 -0.014293271 -0.041023698 0.16227219
0001c0 92 0e d5 bd 56 36 5a be b6 16 02 bf bb 0c 05 3f
       -0.1040317 -0.2130979 -0.50815904 0.5197255
0001d0 af 88 8f 3d 0c b2 6c 3d ee a4 8c be 16 88 1c 3e
       0.07008492 0.057786986 -0.2746958 0.15286288
0001e0 36 9e 6d 3e 57 fb 8e 3e a7 06 1e 3d 65 c8 89 be
       0.23204884 0.27926132 0.038580563 -0.269107
0001f0 cb 94 59 be 46 8c e1 bd 34 48 34 bd 3e 3b 37 3d
       -0.21248166 -0.11013083 -0.04401417 0.044734232
000200 47 81 1c be 30 44 9d 3e ef 2a bb bc 08 c7 c8 bc
       -0.1528369 0.30716085 -0.02284762 -0.024508968
000210 b0 8e 15 be b5 6f 23 be b2 3e 41 3e 27 6a 26 bc
       -0.14605212 -0.15960582 0.18871573 -0.010157145
000220 54 ea 65 3d 62 26 40 3e d2 57 cf 3d 77 7a 2f 3e
       0.056131676 0.18764642 0.10124172 0.1713656
000230 fc 2f d4 be 4d 6c 28 bc 1e 77 b8 bd cd 94 05 3d
       -0.4144286 -0.010279727 -0.09007095 0.03261261
000240 a5 ad fd bd f3 73 68 3c f2 c0 9a bc f8 5f e2 3d
       -0.12386636 0.014187801 -0.018890832 0.11053461
000250 ed 4b 7b 3d 71 9b ca be 02 41 85 3e 72 4e d0 3c
       0.061351705 -0.39571717 0.2602616 0.02542803
000260 22 6e d8 be dc a3 bc 3c fc 23 d2 3e 05 5a 27 bd
       -0.42271525 0.023027353 0.4104308 -0.040857334
000270 61 42 84 3d 04 b8 bb 3c 41 e6 d8 bd aa 51 6f 3e
       0.06457973 0.022914894 -0.105907924 0.23370996
000280 67 1e 9b bd 8b f8 83 3d e7 3f cd 3d 8a b2 f8 bd
       -0.07574158 0.0644389 0.10021954 -0.121434286
000290 c3 9f 2b be 85 cf 88 be fa a7 be be d8 72 5c bd
       -0.16760163 -0.26720825 -0.3723753 -0.05382046
0002a0 6c 28 80 be 7e 2e 26 be 12 fa 9d bd e1 49 70 be
       -0.2503084 -0.16228673 -0.07713713 -0.23465683
0002b0 ec 53 33 3e b0 0f 95 be d8 bf f6 3c ae 96 50 bd
       0.17512482 -0.2911353 0.030120775 -0.05092495
0002c0 d6 94 d6 3c 6d ce 90 3e e9 2a fe 3c 8e 45 2e 3d
       0.026194017 0.2828249 0.03102632 0.0425468
0002d0 37 58 54 bd 55 1f d3 3d 6d 2b 95 be 6b e0 a8 bd
       -0.05184194 0.103087105 -0.29134694 -0.08245929
0002e0 a1 a7 80 be 41 a6 a9 bd b0 fc ee 3e f4 9e 5c be
       -0.2512789 -0.082836635 0.4667716 -0.21545011
0002f0 38 7e f6 be 4f e0 77 3e e8 83 47 3d dc bc bc bb
       -0.48143172 0.2420666 0.04870978 -0.0057598185
000300 6f fe 57 3d 74 8e a8 3a 29 65 aa 3d 8e 97 92 be
       0.05273288 0.0012859837 0.08320076 -0.28631252
000310 e0 c8 16 3f 8f 00 08 bd 81 5f 68 be ee 41 7e bc
       0.5890026 -0.033203658 -0.22692682 -0.015518649
000320 fd 83 48 be c4 c3 06 3f 19 dc 88 be eb 0a 83 bd
       -0.195816 0.52642465 -0.2673042 -0.06398567
000330 6b 76 4f be 31 9e 00 3e 79 a6 f6 3b 0d 30 c8 bd
       -0.20260017 0.12560345 0.0075271693 -0.0977479
000340 5c 7e b9 bc 49 85 40 bd c6 c3 87 bd a7 38 99 3e
       -0.02264326 -0.04700211 -0.06629138 0.29926035
000350 ea 81 bf bd b6 08 64 be ed 26 25 3d 5a 65 0f 3f
       -0.09350951 -0.22268948 0.040320326 0.56014025
000360 9f 9b e0 3d bd 30 eb 3e 22 7e 76 3e 31 d3 9f be
       0.10967182 0.45935622 0.24071553 -0.31215814
000370 99 1f 1b be 4d 6a 10 3e 52 ff 8a 3e 89 c6 50 be
       -0.15148772 0.1410305 0.2714792 -0.20388235
000380 2b cb 16 3d e6 c5 af bc 30 9f 9d be 90 2c 0f 3f
       0.03681485 -0.02145667 -0.30785513 0.5592737
000390 b9 d3 98 3e a0 af ad be 02 2b 4b be c7 7d cf 3e
       0.29849032 -0.33923054 -0.19840625 0.40525648
0003a0 eb 8a a5 bd 3a 23 2a 3e 64 0a 95 3e 78 92 14 3d
       -0.08083137 0.16615 0.2910949 0.036272496
0003b0 9b 30 b1 3e 4f 6e 0d 3d b9 fd ff bc 22 55 9b be
       0.34607396 0.034529027 -0.031248914 -0.3033839
0003c0 87 87 9f bd 48 49 cc bd 47 da e0 3e 0b 6f 20 be
       -0.07789522 -0.09974915 0.43916532 -0.1566736
0003d0 4c 22 58 bd 78 18 7e bd bf d7 b5 bd e4 9e c3 be
       -0.052767083 -0.062035054 -0.08879041 -0.3820716
0003e0 6c 21 92 be 3e 28 ae bd dd 6b ed 3e 37 91 2a bd
       -0.28541124 -0.08503769 0.46371356 -0.041642394
0003f0 30 7c 76 be 6a 05 b1 be 3e 3e 9d bc bc d8 8a 3d
       -0.24070811 -0.34574443 -0.019194718 0.0677962

model.output.bias f4 [10]
000000 46 9c 69 be c5 44 b9 3e 36 a1 93 bc c1 80 3f 3b
       -0.2281352 0.3618528 -0.018021207 0.002922103
000010 e6 b6 4a bc 33 44 1b 3e 59 6e 26 bd ea b6 72 3c
       -0.012372708 0.15162735 -0.04063258 0.014814118
000020 c4 a6 cc bd 05 86 ad bd
       -0.099927455 -0.08472828
