Models/model_optAdam_ep70_neu64_lay3_acc0.9474.pth (torch, 217720 bytes, 10 tensors)

model.input.weight f4 [64, 784]
00000000: b6ef ff3c 4e0e 0ebc bcad 9ebc 78e1 1a3c
00000010: 0066 6c39 f8ad 95bb e859 b43b b8de d1bb
00000020: e0af df3a 2b43 0b3d 8bd6 02bd c017 b03a
00000030: 3492 393d 8bb6 223d d745 1abb 7a37 2d3d
00000040: c096 54ba 981f 5abc c0c5 e7ba 8c73 e3bc
00000050: f069 62bb 4444 033c 4185 f0bc 58e1 6b3c
00000060: fcb2 383c c884 2f3c cbe2 013d e06a 68bc
00000070: f8a3 8a3c 1c65 033c 3821 55bc 14c4 913c
00000080: 9ec2 80bc ec86 183d 636a 803e 4b7f bd3e
00000090: 3aae d03e 9a3a cb3e d15d 463d 9723 e73d
000000a0: f71d ee3d 3fd4 893e bcf7 fdbc 0d68 d4bd
000000b0: c495 62bd 38c0 7abc 5348 6e3e f4c4 a73e
000000c0: 4dbf a73e 2601 4b3e 9899 313e e2f9 363e
000000d0: 701f 6a3c 9ef4 b53c 673e a3bc aebf 02bd
000000e0: 40b7 3a3c 58e2 a9bc eeb2 19bc ffa6 013d
000000f0: 3c9a f13d d553 413e 91ab 923e f855 d03e
00000100: e91f 0b3f 20c9 033f 56e3 d33e d270 d63e
00000110: 6ce6 a53e 2a89 783e a8d9 1ebe c88f 3bbe
00000120: c262 11bc 2ac8 963e 6741 be3e d5df b73e
00000130: cb52 233e 6c03 283e 943f 8b3e cf56 e33e
00000140: 2095 d43e 8318 763d f81a 1fbc 3080 c7bc
00000150: a0c7 6dbb 5e38 983c 6fbe 07bd 52dc d23d
00000160: 74e9 633e dd0b 50be 69a2 58be b006 1dbe
00000170: f129 ff3c d603 323d 9868 633d 484e 113e
00000180: 2266 0d3e 835b 843e 9e5a 0ebd 8081 563e
00000190: 532d 1c3e 13a5 283e 315c d23e 909f 163e
000001a0: b75f a03e c013 363e c997 e13e c873 073f
000001b0: 4bcd f03e 8f97 103e 05d6 063d d9dd 053d
000001c0: ea51 e53c 26d4 d83c 1860 963b 99ed 163e
000001d0: 4bd5 873e 5408 e53d 0d4b 803e 0f1a 913e
000001e0: 8d55 993c afc5 3fbc e7b4 843c 472e 4a3b
000001f0: 0c93 78bd b085 6ebe 58ca c2bc 5198 a7bd
00000200: e0e4 273e c83b 2c3e 7588 d0bb 3191 dc3c
00000210: 46ae e9bd 5627 51be 1fae 02be 2088 fc3d
00000220: bfcc 663e 55ad 203e 4c43 bd3a 20b4 00bc
00000230: 8631 f03c bea7 bc3c 006d 3dbe 240f 68be
00000240: 2218 903e d7b1 e23d 834d 473e 3ae7 3f3e
00000250: d18a 6d3e a5fc 113d 2a62 4f3e 2357 48bd
00000260: 03f4 07bd a906 8fbd cd95 233d 2b38 1a3c
00000270: 3dde c43d f949 91bd 5562 c3bd 0602 1cbe
00000280: 2ddc a6bd 29f6 56be 7e8e e2be 5b4c fdbe
00000290: 848d fdbd a548 493e 5cd7 6a3e c3e6 093d
000002a0: caf1 88bc 5070 743b 8219 b13d c8e4 ebbd
000002b0: 41ee a63e 3a11 033e 0b1c 9dbc 5728 27bd
000002c0: 962c af3d b945 943d 2317 963c 87ce 89ba
000002d0: ff93 6b3d 90b7 f2bd ef8b 27be 0ca9 8ebe
000002e0: af50 46be 5cb2 86bd 354a 5abd c14d c93d
000002f0: f38a 65be be71 7bbe d8f5 71be 5bf1 50bd
00000300: 2faa a03d cc44 cc3e ffad bb3e 6034 ab3e
00000310: 0687 9cbc 7321 d13d 1246 d0bc 7eb9 ecbd
00000320: 30b8 6c3e b5af 643d 9f68 0cbe e956 98bd
00000330: 8ed5 753e cd03 193e d907 233e 14bc 9d3b
00000340: 2b7e 093c 088b 5bbd aa2d 22be 6629 30be
00000350: 4092 d5bd 68b1 34bd 36a9 053e d938 413d
00000360: 55c8 28be 4483 29bd 256b b6bd d880 99bd
00000370: 6c51 873d bb04 963e a14b b03e 85e1 033f
00000380: 6a8e 7139 d3b0 893b 51a1 a1bd 9fcc c63e
00000390: d860 213e 1211 2c3d d4c6 f33c fcac df3d
000003a0: c940 50bd 497b f63d 03b9 3e3d bbf6 5f3c
000003b0: 7227 f83c f9e7 35bd 389c 70bd dc80 d1bd
000003c0: abb3 aabd 878c 9abd 929c e83d 2e73 223e
000003d0: df86 063e 1360 f13c 382e 53bc caea bf3d
000003e0: b765 e53d a261 7a3e d12f cf3c f7ed c23c
000003f0: a994 863b cebc 92be ba47 7f3e 56df dd3e
0.031242233 -0.008670403 -0.019369952 0.00945317 0.00022544712 -0.004567858 0.0055038817 -0.006404724
0.0017065965 0.033999603 -0.031942885 0.0013434812 0.045305446 0.039724868 -0.0023540163 0.042289235
-0.00081096217 -0.013313197 -0.0017682835 -0.027765058 -0.0034548007 0.008011881 -0.029360415 0.014396988
0.011273142 0.01071281 0.031710427 -0.014185637 0.01692389 0.008019712 -0.013008408 0.017793693
-0.0157178 0.037238047 0.25081167 0.3701118 0.40757924 0.39693147 0.048429314 0.11286085
0.11626809 0.26919743 -0.031001918 -0.103714086 -0.05531861 -0.015304618 0.23269777 0.3276745
0.32763138 0.19824657 0.17343748 0.1786876 0.014289722 0.02221137 -0.019927217 -0.03192108
0.011396229 -0.020737812 -0.009381039 0.0316534 0.11796996 0.18879636 0.2864652 0.4069059
0.54345566 0.5147877 0.4138438 0.4188295 0.3240236 0.24271074 -0.15512717 -0.18316567
-0.008873643 0.29449588 0.37159273 0.35912958 0.15949552 0.16407555 0.27196944 0.44402167
0.41520023 0.06008197 -0.00971102 -0.024353117 -0.0036282316 0.018581565 -0.033140596 0.10295929
0.22257024 -0.20317025 -0.21155705 -0.15334582 0.031147929 0.04346069 0.05551967 0.14190018
0.13808492 0.25851068 -0.034754388 0.20947838 0.15251665 0.16469221 0.4108596 0.14709306
0.31323025 0.17780972 0.44061115 0.52911043 0.47031626 0.14120315 0.03291895 0.032682274
0.027993161 0.026468348 0.004589092 0.14739074 0.26529917 0.11183229 0.2505726 0.28340194
0.018717552 -0.011704846 0.016199542 0.0030850337 -0.06068711 -0.23293185 -0.023778126 -0.08183349
0.16395903 0.1681968 -0.006363923 0.026924701 -0.11410193 -0.20425162 -0.12761734 0.12330651
0.22539042 0.15691121 0.0014439612 -0.007855445 0.02932049 0.023029204 -0.18498611 -0.22662026
0.28143412 0.110690765 0.19463162 0.1874055 0.23197486 0.03564133 0.2025229 -0.048911225
-0.033191692 -0.06983692 0.039937783 0.009412806 0.09612701 -0.07094187 -0.0954024 -0.15235147
-0.08147464 -0.2099234 -0.44249338 -0.49472317 -0.123805076 0.19656618 0.22933716 0.033667337
-0.016716857 0.0037298389 0.08647443 -0.11518246 0.32603648 0.1279954 -0.019178411 -0.040809955
0.08553426 0.07239861 0.01832158 -0.001051382 0.057514187 -0.11851418 -0.16361974 -0.27863348
-0.19366716 -0.06576988 -0.053293426 0.098292835 -0.22416286 -0.24555108 -0.23628938 -0.051011425
0.0784496 0.39896238 0.36656186 0.33438396 -0.019107353 0.10211458 -0.025424037 -0.11558817
0.23117137 0.05583163 -0.13711785 -0.07438452 0.24007246 0.14942856 0.15920962 0.0048136804
0.008391897 -0.053599387 -0.15837732 -0.17203292 -0.104282856 -0.0441145 0.1305283 0.047173355
-0.1648267 -0.04138495 -0.08907155 -0.07495278 0.06607327 0.29300484 0.344327 0.5151599
0.00023036604 0.0042019873 -0.07892097 0.38827989 0.15759599 0.042008467 0.029757895 0.10921666
-0.050843034 0.120352335 0.04656316 0.013669665 0.030292246 -0.04441068 -0.05874273 -0.10229656
-0.0833505 -0.07546335 0.113579884 0.1586425 0.13137387 0.029464757 -0.012889437 0.09370954
0.11201041 0.24451306 0.025291355 0.023795111 0.004107077 -0.28659672 0.24929705 0.43334454

model.input.bias f4 [64]
00000000: 2487 d2bc 46cd a93c 159f 923d 5f52 3b3d
00000010: 9e74 b63a 9874 c23c 1b7c a43d e9f3 843e
00000020: 7a76 3fbd afb7 2a3d daab 8a3e 2d37 3e3c
00000030: 3ef2 403e 94db fabc 4f16 11bd 8447 79bd
00000040: c9af 30bd 1554 63bc 0aad 953d 0108 e9bd
00000050: 42f2 973d 72f0 e2bd c01b 9abd 6b0a c93b
00000060: 733c 663d c5d6 173e 6eb9 113e acb9 c8bc
00000070: 37d2 f33c 8b3e 59bc 0a75 90bd fef5 0b3e
00000080: fd14 b2bd 5542 a73d 4ad6 153e 4589 17be
00000090: b28d 263e d5bb b53d 91ee 4b3e fb8f 9bbd
000000a0: 252b 093e fb28 dfbd 6ffe 193e 098e eb3d
000000b0: f832 543d 633c fe3c 5f78 d43d 6a54 28bd
000000c0: e6de 903c 26df 5f3c 3e59 753d 885e 26bc
000000d0: b650 4e3e d52e 483d 6ede 233e 15d1 a53d
000000e0: 634f a2bd c826 4f3e 54a9 013e fc0c dabc
000000f0: 4340 d8bd cce5 013e 936b 1a3e 3bca 983d
-0.025699206 0.020727765 0.07159249 0.045732852 0.0013920253 0.023737237 0.08031484 0.2596734
-0.046743847 0.04167908 0.27084237 0.011609835 0.18842408 -0.030622281 -0.035421666 -0.06085922
-0.04313639 -0.013875027 0.07308395 -0.1137848 0.07419254 -0.110810176 -0.07524824 0.006135275
0.056209993 0.14828022 0.14230892 -0.024502598 0.029763324 -0.01325954 -0.070535734 0.13668057
-0.086954094 0.08166949 0.14632526 -0.14798458 0.1626499 0.08873717 0.19915225 -0.075958215
0.13395365 -0.10896488 0.15038465 0.115017004 0.05180642 0.031034654 0.103745215 -0.04109613
0.017684411 0.013664043 0.05989956 -0.010154374 0.20147976 0.048872788 0.16002819 0.0809652
-0.07925298 0.20229638 0.1266225 -0.02661752 -0.10559132 0.12685317 0.15080099 0.074604474

model.dense1.weight f4 [32, 64]
00000000: b818 cebc b2e5 36bd 944d 41be e753 81bd
00000010: a2f3 ee3d a839 07be ec63 943e 4499 313e
00000020: c525 a8bd 429c b33d 5918 003e baf7 203d
00000030: 2a1a 2e3d 96bc ae3d 3ac5 f83d 9357 f9be
00000040: 503d 893e 0824 233d 0e02 e03e d348 853d
00000050: f5ec 2f3e 7724 bebd 3f03 dfbc 61f0 2d3e
00000060: ebeb c3be bbfc c53e 81a9 e3bd 4b4e 013d
00000070: 4790 1bbf 5379 bd3e 9084 c63d a589 b33c
00000080: 1926 ecbd d9b8 47be 15f4 583d 79b1 2dbe
00000090: d05a 723e fe0d 0e3d 154b 793d 4bcb 013d
000000a0: 2098 0e3e 6533 973e 4c9c 933e 3afa 23be
000000b0: 0312 9cbe e3ca 703e 739a 05be fa78 3a3d
000000c0: 3772 1d3e 8c4c a23d f14b 7f3e 1029 d2bd
000000d0: 94f0 8a3d b78e 4f3d b36e 9fbe 042f f2bd
000000e0: 6258 703d 398b 02be 9529 1fbf cdfe 3cbe
000000f0: ddb6 d43e b309 39bf 40e0 fa3d 6be4 b33e
00000100: 02ae 083e c9e3 38bd c7e4 d93d 3d9e 54bd
00000110: 662c c83d 4902 8b3c 010c a2be 21be 34be
00000120: 2027 08bb e4f5 a03e cc51 2f3b 7ce2 08bd
00000130: a0e0 023e 3b23 503d 6167 f53d 12be a3bd
00000140: fd88 41bd d0da 55bd 572f 27be ab05 8f3e
00000150: 6a77 c6be 64a9 f53d a70d 073c ca2f 193f
00000160: adad 38be 7b7e e6be 51ce 4d3e ad4e e53e
00000170: d258 09bf 730d 863e fddf 0c3c 2d20 293d
00000180: e2ca b33e f9d5 333d 6b2e 03be 8412 ef3c
00000190: 67e1 20be 0478 913d 11ae bc3d df30 8f3d
000001a0: 4e7e 8d3c 7da4 5c3e 0664 44bd a76b dfbe
000001b0: 9d3e 943d 966a ba3d 9ed7 47be 6104 483e
000001c0: c230 4abd 9ae8 63bd 8b76 a5bb 57f5 993d
000001d0: ddf8 d5bd 7209 0d3e 70a0 38be 56b7 cf3e
000001e0: 9fff ee3d e996 bb3e b286 38bf 03ca ba3d
000001f0: e751 363f a4da 9cbe cc7a 2f3e 30ea 503e
00000200: 051f 1e3e b4df 8c3e e249 0bbe a3be a13d
00000210: 8077 51bc 2c81 983d 879c d93e 2f4d ad3e
00000220: 7c82 4c3d fcf2 683e 1bb1 d1bd 8dee 2a3a
00000230: f355 123e 30c9 a03c fd2b 683e 421a b5be
00000240: b4c6 b53e 94dc 8dbd b985 1e3f 4cde dcbe
00000250: 5119 593e c36f ecbd 400a 83be 33cf 913e
00000260: 43b1 e8bd 5843 f43e 7889 013e ba7e c5be
00000270: 4233 e9be 5bff 7b3e e763 5a3d 0dd7 4fbb
00000280: 184a 0ebe 2c02 d4be 729c d03d 0530 ac3d
00000290: f588 ac3e 3c87 db3e 7072 423e bbf0 303d
000002a0: 3a9b 463c 1922 ffbc c05c b63e 1b6b 3c3e
000002b0: 554b bbbb 16c3 e53d 0400 813d d9f0 003e
000002c0: c498 25bd 990b 093d 0287 24bd 1296 7f3d
000002d0: 8926 40be 2ef9 91bd 7d36 2dbd 13e7 3bbf
000002e0: fa1c 6b3e cf51 6bbf 2931 8c3e ebea 89be
000002f0: 1085 2d3e aba5 27bf dad4 403e 71d1 e53e
00000300: d738 11be 1fb1 b4bd fddb 6fbd 9359 48be
00000310: 776e af3d 9246 3ebd 0aea 8ebd 6bdc 2fbe
00000320: aa23 433d 28f2 18bd 9948 00be f438 d13d
00000330: ec0a d2bd 8421 1cbd fe01 8dbd bea5 23be
00000340: 08e5 ea3c ef05 d53d 22a5 01be a84d 8c3c
00000350: 56bc 703d cf4a 17be 6982 983c bec2 a8bc
00000360: 4b4e 09be ecd8 d0bd fb9e 02bd 2e0e 28bd
00000370: bce3 b63d 0ddb ce3c a86d 1a3d b01b 74bd
00000380: a26d 453d 19c7 15bd 8d19 05bd 8db9 edbc
00000390: 5e8a 203d edab 51be bfab 913d df43 6abe
000003a0: bcbd e5bd 71ce a3bd cdbc 383c 897f adbc
000003b0: 4822 48be 27e3 d4bd 8a11 27bd 3dc6 21bb
000003c0: e7fe acbc c859 97bd fb09 aabc 96dc 77bd
000003d0: 5934 983c 417b 26be c37f adbd ff27 28bd
000003e0: 70dc c0bd 00eb e5bd e40c c93d d927 29be
000003f0: 5d23 05be f103 3c3d 8a3e 223d 504c 33be
-0.025158271 -0.04465265 -0.1887725 -0.06314831 0.11667563 -0.13205588 0.28982484 0.17343622
-0.08210329 0.08770038 0.12509288 0.03929875 0.04250542 0.08532064 0.12146993 -0.48699626
0.2680459 0.039829284 0.43751568 0.06508031 0.17180236 -0.09284299 -0.027223228 0.16986229
-0.3826593 0.3866938 -0.11116315 0.031568807 -0.60767025 0.37006626 0.09693253 0.02191622
-0.11530704 -0.19504108 0.05296715 -0.16962232 0.23667455 0.034681313 0.06086262 0.031688016
0.13925219 0.29531398 0.28830183 -0.16013423 -0.30482492 0.23514895 -0.13047199 0.04552553
0.15375601 0.079247564 0.24931313 -0.10261738 0.06784168 0.050673213 -0.31139144 -0.11825374
0.05867804 -0.12748422 -0.62172824 -0.18456574 0.41545764 -0.72280425 0.122498035 0.35135207
0.13347629 -0.045139108 0.10639339 -0.05190872 0.09774093 0.016968863 -0.31649783 -0.17650653
-0.0020775273 0.314376 0.0026751636 -0.033419117 0.12781 0.05081485 0.119826086 -0.079952374
-0.047249783 -0.05221063 -0.16326652 0.27934012 -0.3876298 0.11995199 0.008243001 0.59838545
-0.18035002 -0.45018372 0.20098235 0.44786587 -0.53651154 0.26182136 0.008598325 0.04129045
0.35115725 0.043905232 -0.12810676 0.029183634 -0.15710984 0.07102969 0.09212888 0.06991743
0.01727214 0.21547122 -0.047946952 -0.4363682 0.07238505 0.09102361 -0.19515845 0.1953292
-0.049362905 -0.055641748 -0.005049532 0.07517498 -0.104478575 0.13773134 -0.18029952 0.40569562
0.116698496 0.36638573 -0.7208053 0.09120562 0.71218723 -0.3063556 0.17136687 0.20401835
0.1544152 0.27514422 -0.13602403 0.07897689 -0.012784839 0.074465126 0.42502233 0.3384795
0.049929127 0.22748941 -0.10238858 0.0006520532 0.142906 0.019627184 0.2267303 -0.35371596
0.3550316 -0.069268376 0.61922795 -0.4313835 0.21201064 -0.11544754 -0.25593758 0.28478393
-0.11361935 0.4770763 0.12650096 -0.38573247 -0.4554692 0.24609129 0.05331793 -0.0031713874
-0.13895452 -0.41407907 0.101860896 0.084075965 0.3369824 0.42876613 0.18988967 0.04319833
0.01212197 -0.031144189 0.35617638 0.18400232 -0.0057157674 0.1121885 0.06298831 0.12591876
-0.04042889 0.033458326 -0.040167816 0.062398978 -0.187647 -0.071276054 -0.042288292 -0.73399466
0.22960272 -0.91921705 0.27381256 -0.2693704 0.1694529 -0.65487164 0.18831196 0.44886354
-0.14181839 -0.08822846 -0.058559407 -0.1956542 0.08565991 -0.04645402 -0.06978233 -0.17173927
0.047641434 -0.037340313 -0.12527694 0.10215941 -0.102559894 -0.0381179 -0.068851456 -0.15981194
0.028673664 0.10401522 -0.1266065 0.017126873 0.05877336 -0.14774631 0.018616872 -0.020600673
-0.13408773 -0.101976246 -0.031889897 -0.041029148 0.08930156 0.025250936 0.037702233 -0.059596717
0.048200257 -0.036566827 -0.03249507 -0.029019142 0.039194457 -0.2047574 0.07112836 -0.22877453
-0.112178296 -0.0799836 0.011275482 -0.021178978 -0.19544327 -0.10394888 -0.04078821 -0.002468481
-0.02111764 -0.07390171 -0.020756712 -0.0605131 0.018579649 -0.16257955 -0.08471634 -0.04105377
-0.09417045 -0.11226463 0.09816912 -0.16519107 -0.13001771 0.045902196 0.039610423 -0.1750958

model.dense1.bias f4 [32]
00000000: 3de1 953d de17 91bd 52b5 383d 41ed 22bd
00000010: 2e5c 533c 2707 013e 2d13 e83d 85d7 d0bc
00000020: 5929 1a3e d49c fe3c 2f96 103c 2724 27be
00000030: 1f0c e63d 09f2 b03e 3c45 813d 5862 2a3d
00000040: d78e 913d 436f 9f3d 0e50 ebbd 2e3a 37bd
00000050: 4c90 fabd 5383 233e a123 313e cfda b53d
00000060: 1bc2 80bc b959 25be 8946 ea3b 155b 1c3e
00000070: b98c b03d 6193 ddbd ce78 883c 3135 773e
0.073183514 -0.070846304 0.045094796 -0.039777044 0.012900395 0.12600385 0.113317825 -0.025493393
0.15054835 0.03108064 0.008824869 -0.16322385 0.11232781 0.34559658 0.063120335 0.041597694
0.07107323 0.07784893 -0.114898786 -0.04473322 -0.12234554 0.15968065 0.17298748 0.08879625
-0.015717557 -0.16147508 0.0071495217 0.1526912 0.08620591 -0.10819126 0.016659167 0.24141385

model.dense2.weight f4 [16, 32]
00000000: dba6 0e3e 4d3d 16be 5cb4 d63d 43d8 953d
00000010: e654 a3be d65c 2abe e749 c0be 39dc ed3e
00000020: 2859 99be 289e 2cbd 258a 8fbe b560 30bd
00000030: 0315 c83e 6725 823e 6c20 503e f1cb 6ebd
00000040: 13c9 c13d 652b 2e3e 97f8 a43d 6bf4 7ebe
00000050: 377f d7bb 03bb d73d b4a5 c03e 8019 afbe
00000060: abce 003f 65e7 933d 6625 acbd 04f9 b73e
00000070: d469 8ebe daab 213d 0b18 913d cd93 743d
00000080: f9b4 94bb 0448 18be 5dc4 8e3d 04e8 ae3d
00000090: b5a8 28be f658 003e 1fde 98be e100 f03e
000000a0: e8d4 00be 913e 31be 30f5 0c3f 0bd1 323e
000000b0: 079b ac3e 5558 723e 49ec 783a 76ff 1a3f
000000c0: 8719 633e 5ea2 703e c0b0 86bd c4df 96be
000000d0: ed7e a23e 2f97 863c ce2f a4bd 6c90 c13d
000000e0: c24e 943e 836d 09bd 67ca 97be 8e57 593e
000000f0: 85f4 2e3e c59a 01be 0454 19be cb3a dbbd
00000100: 706b dfbe 1ccb 2dbe aaf2 a3be 2724 843e
00000110: 2ccc 76be a189 f03b b741 233f 56b0 2c3f
00000120: b1b5 4b3e 21de 103d 1f6b 213d 2e75 fcbd
00000130: 0ea0 983d 4b55 9b3e d5c7 443e 15ad c9be
00000140: 1c24 843e ebd0 563e 1bf5 05be 1cc0 563c
00000150: 7373 8fbe c5b7 923e 96f8 293f 07ee cfbb
00000160: 93e6 9bbc 8723 03be 868b 633e d4ed e23d
00000170: 0f09 2d3f 5814 a83d 1e15 8dbe ae40 2f3e
00000180: c4dc a1bd f03f dcbd d82a 8c3e 67d9 1bbe
00000190: 458e e0bd b654 ab3e df78 843e e93d 2abf
000001a0: c356 833e f6a2 063d 10b4 103e 9c88 c33e
000001b0: d93c 81be f981 243c 226b c03d d1ba 843e
000001c0: 8609 80be d63b b6bc d552 fe3d caac cc3e
000001d0: d632 823e 7895 6e3e 38ca 8abe a07a dbbd
000001e0: 5649 cc3e ec81 fb3c 1232 a7bd ea4d f93e
000001f0: d92d 5e3f 1e37 0a3d c92f 9d3e 2a87 d2bd
00000200: 773e c9be df80 3abe 86ab 623c 9907 60bc
00000210: 11ab debc e3fb 0a3f a41a cb3d 39fa 3b3f
00000220: 56ec 96be 24bc 98be 4da1 cd3e 03bd 533e
00000230: 75b1 b63e 69ab 113e a247 563e acde ef3e
00000240: ca1e 223e 0807 9b3e 0fbc 033e 3d7d 23be
00000250: bdd9 82bc 24ea c63d cc81 a73d 065a 7fbd
00000260: d6d4 8d3e 0d80 30bd e25b 30bd ccd8 bb3c
00000270: 0604 5d3e 2855 dfbd 04c4 4ebe d2ae e23c
00000280: 5671 38be 8bf9 8fbe e369 883e bfc1 e9bd
00000290: 06ea dfbe 88e7 883e 9798 773d 6b54 1abe
000002a0: c34d 30bd 4761 94be 6b04 dfbe 7a49 50bd
000002b0: 4491 573e 29a7 553d b8bd 4fbe 0131 b93e
000002c0: 5b89 79be 2359 083e 17fd 8c3d 3728 cbbc
000002d0: b4e3 c83d 8672 5f3e de1f e6bd 91ec 58bd
000002e0: 7086 c33d 6807 2bbe f7ce 98be a0f7 eb3c
000002f0: ebf0 623c 1ae8 ea3e 08fd 923d a70e 0dbe
00000300: 5c37 013f 09b2 0fbe 1c94 503e b4c3 9f3d
00000310: 63ea 813e 67fe afbe f3ca bc3d 79fe ebbe
00000320: 98cb f53e f020 b83e f037 b7be 0c77 e83d
00000330: 27bb 523e 38a5 1b3e a67b a73d c03c 09bf
00000340: d35d cabd 61b7 833e 9f3f eb3d 22d3 833d
00000350: ff32 7abe d082 873e d871 a43d 5784 b53d
00000360: 0054 b3bd fc6d 0bbe 0d8c 623e bbee 8b3e
00000370: b0e0 30be aa5d 1f3e b115 4cbe e4d1 673e
00000380: 7d16 0cbe 7442 a7bd 3c30 ebbd 9862 103d
00000390: b34d 443e f7df 5c3e 9f23 a2be 35bf 8ebf
000003a0: 6221 1c3e dfab 883c 0827 49bf d367 fa3d
000003b0: 8d86 e7ba cd98 e83d 8de9 603e 919c 94be
000003c0: f441 1abe 2c85 6b3e 0a68 0fbe c6e2 b5bd
000003d0: 7c61 5d3c e0c3 76bb b600 873e 82c3 e1be
000003e0: e884 803e 151d b23d 115d 743e b820 b53e
000003f0: c537 69bf 92ee 283d e939 b23e a45e 383e
0.13930838 -0.14671822 0.104836196 0.07316639 -0.3190071 -0.16636977 -0.37556383 0.4645708
-0.29950833 -0.042143017 -0.28035083 -0.043060977 0.3907853 0.2541916 0.20324868 -0.058299962
0.0946218 0.17008741 0.08055227 -0.24897926 -0.0065764445 0.105337165 0.3762642 -0.34199142
0.5031535 0.072218694 -0.08405571 0.3593217 -0.27815115 0.03947053 0.07084664 0.059711266
-0.004538175 -0.14871222 0.06971047 0.08540347 -0.16470607 0.12533936 -0.29856965 0.4687567
-0.12581217 -0.17309023 0.55061626 0.17462556 0.33712026 0.23666508 0.00094956585 0.6054605
0.22177707 0.23499438 -0.06576681 -0.29467595 0.31737462 0.016429512 -0.080169305 0.094513744
0.28966337 -0.033551704 -0.29646608 0.21224806 0.17085464 -0.12656696 -0.14973456 -0.10704573
-0.43636656 -0.16972011 -0.32021075 0.25808832 -0.24101323 0.0073406254 0.6377215 0.6745657
0.19893529 0.03536809 0.0394088 -0.12327038 0.07452403 0.3033851 0.19216855 -0.39389864
0.258088 0.20978133 -0.13081782 0.013107326 -0.28017768 0.2865583 0.6639494 -0.0063455137
-0.019030845 -0.12806521 0.22221193 0.11080518 0.6759195 0.08207005 -0.27555174 0.17114517
-0.07903436 -0.107543826 0.27376437 -0.15219651 -0.10964636 0.33463067 0.25873467 -0.6650072
0.2565213 0.032870255 0.14131188 0.38190162 -0.25241736 0.0100407535 0.09395434 0.2592378
-0.25007266 -0.022245329 0.12418143 0.39975578 0.2542941 0.23299205 -0.27107406 -0.10716748
0.398997 0.0307016 -0.08163847 0.48692256 0.8678871 0.03374397 0.3070052 -0.10279687
-0.3930547 -0.18213223 0.01383484 -0.013673686 -0.02718118 0.542906 0.09917191 0.73428684
-0.29477185 -0.2983104 0.40162125 0.20677571 0.35682264 0.14225544 0.20925763 0.46849573
0.15832058 0.30278802 0.12864707 -0.15965743 -0.015972966 0.097126275 0.08179054 -0.062341712
0.27701443 -0.04309087 -0.043056376 0.022930525 0.21583566 -0.10904914 -0.20191962 0.027671251
-0.18011984 -0.28120074 0.26643285 -0.11413907 -0.43733233 0.26739144 0.060448255 -0.15071265
-0.04304291 -0.28980467 -0.43558058 -0.050851323 0.21051508 0.05216137 -0.20287216 0.361702
-0.24368803 0.13315253 0.068842106 -0.02479945 0.09809056 0.21821031 -0.11236547 -0.052959982
0.09547126 -0.16702044 -0.29845402 0.0288046 0.013851385 0.45880204 0.07177168 -0.1377512
0.50475097 -0.14032759 0.20368999 0.07800999 0.25374135 -0.3437378 0.09218397 -0.46092585
0.48006892 0.3596263 -0.35784864 0.113508314 0.20579205 0.15199745 0.08177881 -0.5360832
-0.09881177 0.25725845 0.11486744 0.06436755 -0.24433516 0.2646699 0.080295265 0.088631324
-0.08756256 -0.13616174 0.22123738 0.27330574 -0.17273211 0.15563074 -0.1993015 0.2263866
-0.13680454 -0.08166972 -0.11483809 0.035250276 0.19170265 0.21569811 -0.31667802 -1.1152102
0.1524711 0.016683517 -0.7857518 0.12226834 -0.0017664001 0.113572694 0.21964093 -0.290257
-0.15064222 0.2300002 -0.14004532 -0.08881144 0.013512012 -0.0037653372 0.2636773 -0.44094473
0.251014 0.08696953 0.23863627 0.35376525 -0.9110072 0.041243143 0.34809807 0.18004853

model.dense2.bias f4 [16]
00000000: 0520 3dbd b07f 353e 58bd 03be 86a4 96be
00000010: 791c 3b3e 0181 f73d c8d0 f43d 2d91 30bd
00000020: 71db ce3d 5085 28be 0f36 68bd 51b3 003f
00000030: a45b 7dbe 765a 733e 2501 123d 0abb 583e
-0.046173114 0.1772449 -0.12865198 -0.29422396 0.1827258 0.120851524 0.11953884 -0.0431072
0.10100449 -0.16457105 -0.05669218 0.50273615 -0.2474199 0.23764977 0.035645623 0.211651

model.dense3.weight f4 [16, 16]
00000000: 4f74 79be fbbf 5abd 4dc1 933e 923d da3e
00000010: aac1 1c3e bbb3 3e3e dc79 d93d ebf4 2fbf
00000020: 1401 c8bd 8301 863e c410 b5bd 79d9 68be
00000030: 1cc5 fdbd 1399 b7bc 97d1 de3e ef35 cdbd
00000040: 5350 49be d831 2abe 33b7 47be df0b 693e
00000050: f85c b3be a735 fe3a c5ae 083f 722e 693c
00000060: 2af9 803e aef0 da3d a2d5 da3d 8d37 e03d
00000070: 166d 8c3d e991 023f 574c 7d3e f8b6 83be
00000080: 8e6c 043f 944a 9f3e 28df 0e3f 0fff 3e3d
00000090: d0cd 4e3e 88db 883e 4971 d33e d331 1cbf
000000a0: e738 053f 53a2 10be e469 1b3e ee22 cabd
000000b0: b813 a9be f884 1a3e fed8 81be 997f b23e
000000c0: 9b11 9c3e 8b25 b93e c3a5 743e 4128 f8bc
000000d0: 710d f43e 5311 afbe 4490 a6bd 3b62 83bd
000000e0: 2bae eebd 9150 1dbd a6bf b7bd 6c34 f23d
000000f0: f519 a83e 9fb0 b5be da1f dc3d 27ef e53e
00000100: b6e8 8abe 343d be3e 6cce 01bf 588f 1f3f
00000110: 5e8a 003e 7dfe d33e 67e0 50be ca8b 9cbe
00000120: 59b9 1d3e 6e52 f93d 3b30 3fbe 3077 cdbe
00000130: 207b 663e 8f60 ad3e e2cf da3d 3cea 803e
00000140: 54ee d93d 13d0 23be 93f7 90bd cddf 943e
00000150: 6376 f53d 8919 fb3e 53a9 b2be fa8f 313f
00000160: ca84 893d ec1b 6a3e ab28 cebd dd4c d2be
00000170: 9b74 77be edd2 0dbd 2d57 28be e4f8 c63d
00000180: 300f 2cbe 217b b8bb abb3 3d3e f89a 8ebe
00000190: e4ea c53d f07d 94bd fe64 da3e 3746 933d
000001a0: 34da a93e 318f 38bc cec8 80be 94db e73e
000001b0: e632 01bf f30e 683e f6fe c7be 3e64 153f
000001c0: a7ba e83e 1470 0c3e 4d51 0dbe 2159 d43e
000001d0: 5856 b7bc f258 153f 8398 ce3e 0ed0 5c3f
000001e0: af8f 663e 5098 7cbd 1c3a 1e3d 0834 d4be
000001f0: f86f 85bc b672 bf3e 52db 96bd d76d 02be
00000200: cbd9 8bbe 9358 abbe 47f9 993e 0c03 cf3e
00000210: 2058 123e b8ee e93d 281f ab3e 4d3d 043f
00000220: 9630 833e c77b d93d 8a57 d4bd 3c08 893e
00000230: c93c c4bc 0bf6 9ebe 080e f63e 69d6 aa3d
00000240: b736 fc3d 138d 943b 02c8 14bd 6a88 a3bd
00000250: a774 bdbc bf0b 49be be0f 8bbe cef9 ab3d
00000260: 0907 f2bd d67b 74be 2ef3 5abe d7b0 c2ba
00000270: b115 f4bd 7817 55be cf2c e63d cb56 90be
00000280: 56b4 bf3d 0a6a bebe 946a c13c b644 23be
00000290: c2c2 97be cab7 50be afd3 bb3e f502 213f
000002a0: 89f1 c2bd dac2 9dbd b55a 83bd 6dbb f23e
000002b0: e00b 943e 6030 fa3d 96a2 653e 3db6 1f3e
000002c0: 38cf 213e 1093 d23e 138e 7dbe e8d2 15be
000002d0: 8bc5 973e 6808 0fbe 8946 7fbe c49c 0dbe
000002e0: 8cf6 d03e 48f9 253d f07b 413f 9027 9a3d
000002f0: 706c de3e 44b2 963e 4345 cbbc 4f18 aabe
00000300: e13b fd3e 4ca0 8c3e b8c5 1b3e f76f 9e3e
00000310: 5e8a 063f 762c db3b 7d52 ddbe a797 4b3e
00000320: c8b0 0dbe 6bbe c8bd 1b74 95be d635 283e
00000330: bc1f 8e3e 4ef6 83be f8a5 4bbe ff7a 943e
00000340: 93a0 dcbe b069 b4be 2d1e 673e 7405 00bd
00000350: b363 f3bd 07cb 16bd 7df7 173e badf 60bc
00000360: ec3d b9bd 6501 1dbd 2315 923b d34d 023f
00000370: bbb5 dc3d 8930 40be 294c 053f 78b6 b1be
00000380: abe5 26be 3a6e 5abe e5ad bbbc edeb b9bd
00000390: b830 303e 2f40 c5be ec6b c73c 76d8 25be
000003a0: a542 ce3e f984 573d 074e 213f 903f 4fbe
000003b0: 00df 833e 59e6 0c3e b8bb 0a3e a805 173e
000003c0: 0faf 63be d98d 8fbe d565 b43e 10f3 1d3e
000003d0: 20a6 5dbd 6444 04bf f786 02be 3ded a5be
000003e0: c58a 30bd 1378 8abc ab8d 5c3e 0ac8 133d
000003f0: ae8d 143f 78e6 993d 2a6a d93e 3c5b 453c
-0.24360774 -0.053405743 0.28858414 0.426251 0.15308252 0.18623249 0.10618946 -0.6873309
-0.09765831 0.26173028 -0.088410884 -0.22739209 -0.12391111 -0.022411859 0.4351928 -0.10020053
-0.19659548 -0.16620576 -0.19503479 0.22758435 -0.35031867 0.0019394652 0.5339168 0.014232265
0.25190097 0.10690437 0.106852785 0.109480955 0.06856744 0.5100389 0.24736153 -0.25725532
0.5172814 0.31111586 0.5580926 0.04662996 0.20195699 0.2672999 0.41297367 -0.61013526
0.5203995 -0.14124422 0.15177113 -0.098699436 -0.33022857 0.15089786 -0.25360864 0.34862974
0.30482182 0.36161456 0.23891358 -0.030292632 0.47666505 -0.34192905 -0.08132985 -0.0641522
-0.11654314 -0.038406912 -0.08972101 0.11826405 0.32832304 -0.35486314 0.10748263 0.4490902
-0.2713067 0.3715607 -0.507056 0.623281 0.12552783 0.41405097 -0.20398103 -0.305754
0.15402736 0.12173925 -0.18670742 -0.40129995 0.22507906 0.3386273 0.10684182 0.25178707
0.106411606 -0.15997343 -0.07078471 0.29076996 0.11985471 0.4904292 -0.3489481 0.69360316
0.06714781 0.22862214 -0.100663505 -0.41074267 -0.24165575 -0.034624983 -0.16439505 0.09715441
-0.16802669 -0.0056299125 0.18525569 -0.27852607 0.096639425 -0.07250583 0.42655176 0.07191127
0.33174288 -0.011264608 -0.25153202 0.45284712 -0.5046829 0.22661953 -0.39061707 0.5835608
0.45454904 0.1371463 -0.13800545 0.4147425 -0.02238004 0.58338845 0.40350732 0.86254966
0.22515748 -0.061668694 0.038629636 -0.41445947 -0.016288742 0.37392205 -0.07366051 -0.12737213
-0.273146 -0.33466014 0.30072996 0.40432012 0.1429143 0.11422485 0.33422208 0.5165604
0.25623006 0.10619312 -0.10368259 0.26764095 -0.023954766 -0.3104709 0.4805758 0.08341677
0.123151235 0.004533419 -0.036323555 -0.07985003 -0.023126913 -0.19633387 -0.27160448 0.08397256
-0.11817748 -0.23875365 -0.21381828 -0.0014853728 -0.119182 -0.20809734 0.11239015 -0.28191218
0.09360568 -0.37190276 0.02361039 -0.1594418 -0.29640776 -0.2038261 0.3668494 0.6289514
-0.095187254 -0.077031806 -0.06413785 0.4740862 0.2891531 0.12216258 0.22425303 0.15596862
0.15801704 0.41127825 -0.24761228 -0.14631236 0.296429 -0.1396805 -0.24929251 -0.13829333
0.408131 0.040520936 0.7557974 0.07527077 0.43442106 0.2943288 -0.0248133 -0.3322167
0.49459746 0.27466047 0.15212142 0.30944797 0.5255488 0.0066886498 -0.43226996 0.1988207
-0.13836968 -0.09801944 -0.29190144 0.16426787 0.27758586 -0.25773853 -0.19887531 0.2900009
-0.43091258 -0.35236883 0.22570105 -0.0312552 -0.118842505 -0.036814716 0.14840503 -0.013725216
-0.09045014 -0.038331408 0.004458086 0.509 0.1077685 -0.18768515 0.52069336 -0.34709525
-0.16298549 -0.2133111 -0.022910068 -0.090782024 0.17206085 -0.3852553 0.024343453 -0.16195855
0.4028522 0.052617047 0.63009685 -0.20239091 0.25756073 0.13759746 0.13548172 0.14748251
-0.22234748 -0.2803791 0.35233942 0.15424752 -0.054113507 -0.51666856 -0.12746798 -0.3240756
-0.04310109 -0.016902959 0.21538417 0.036079444 0.58028686 0.075146616 0.4246381 0.012045678

model.dense3.bias f4 [16]
00000000: 59f3 a0ba d73f 353e 417f aabd dde1 8e3e
00000010: 422c 8b3e 34b4 60be 1f02 163f 6d3a 913d
00000020: 3375 bcbe f28c 47be d500 8d3e 123c bbbd
00000030: 490c 4cbe f298 363f 9878 87be caac 833d
-0.0012279555 0.17700134 -0.08325053 0.27906695 0.27182204 -0.21943742 0.58596987 0.07091222
-0.36808166 -0.1948736 0.27539697 -0.09142317 -0.19926561 0.71327126 -0.26459193 0.06429441

model.output.weight f4 [10, 16]
00000000: 2ff7 9abe 6014 37bf 36e3 d7bd 0ce0 943d
00000010: 0ea9 643e badc 033f b868 3ebf 7ad7 6c3e
00000020: 849f 70bd 2b7a 493b 722c b5bc a7ec 80be
00000030: b017 9b3e a9aa 1fbe c470 99be f7ec 10bf
00000040: e82e 76bf a615 aa3d 52f1 fdbe d6ce 5ebe
00000050: f3f6 28bf cb62 66bf fd95 743b 3cb5 14bf
00000060: 2f54 d6be a4b2 17be 17d7 053f 62bf dd3e
00000070: 0093 aebe bada f43e 9a49 0c3e bedd a03e
00000080: feef f33d 7e1d aabe cd7f d4be 46df 783e
00000090: fa2d d23e 1e54 9dbe cfc9 6abe 06f4 ddbe
000000a0: 155b 48bd 2721 923b 9823 20be e803 283d
000000b0: bf11 783e 96ce 313e 55c4 ba3d aa5a 963e
000000c0: ee93 29be ab09 923e 4370 debd b8bd e8be
000000d0: 7d05 1f3e b3a8 f0be 2042 a6be 40df 413e
000000e0: d661 66be 8bac b5be b831 603e 3652 513d
000000f0: 085f a8be 379e 67be 3dda e03d 3818 ab3e
00000100: d63f f9be 3820 14bf 6e92 c43e 9ab4 833e
00000110: 2666 d8be eae0 f9be 85b2 b13e 64df 3dbf
00000120: b630 9cbd d334 a83c ac97 bf3d 60b1 48bf
00000130: 593a 7b3e 954a 58be dfda 793d b736 89be
00000140: 99e1 403d dd6e bd3b e9ba c33e c0ac 76bd
00000150: 9ee3 833e 676c dcbe 7b3c 543e 4576 a03d
00000160: bdf8 28bf cb6f 903c f55e 57bf ee90 833e
00000170: a924 67be 4c47 15bf 527b 4a3e dab6 b8be
00000180: f067 c4bd 63de 16bf 54e0 3c3e 5bde d93e
00000190: 6009 c6bd 0145 0ebf a74e abbe 3499 54be
000001a0: 63d4 65bf 95f9 313e 26e1 0cbf 2b4a 003d
000001b0: 785b 043f 14d5 0abe 2a04 78be 80d2 09bd
000001c0: 6a3e 123f 1934 b2bd 9170 b03d b2b2 23bd
000001d0: 4ab6 46be 99b0 37be 6248 b6be a03a 84be
000001e0: ebac b13e e59f 68be ec2c 15be 4532 05bf
000001f0: 1d3f d2be 8897 ce3e 8f64 89bd 5765 c23e
00000200: 8291 f6be 9781 4cbe afb8 493e 021c e53d
00000210: e1cd 03bf bfe4 8cbe 24a8 89be e898 443c
00000220: 2d4f b23d a4e4 ab3d 1e18 7f3d 8925 4c3e
00000230: 80b2 443d d601 b3be 62de 9a3e 9d16 003d
00000240: 78f3 5abf 7809 1ebd c75c 863c 2d7b 6cbe
00000250: 0e1c 643e f661 ee3d 5d85 863e a99b 723e
00000260: e4f9 943e 94e5 893e a678 133e 7feb 31bf
00000270: 2f2e 01be ea39 263e d7d9 9dbe 84f9 14bf
-0.3026671 -0.71515465 -0.10541384 0.07269296 0.22330114 0.51508677 -0.7437854 0.23129073
-0.058745876 0.0030742984 -0.02211592 -0.2518055 0.3029151 -0.15592445 -0.29968846 -0.5661158
-0.96165323 0.0830491 -0.49598175 -0.21758589 -0.66001815 -0.89994496 0.0037320845 -0.5808904
-0.41861102 -0.1481424 0.52281326 0.43310076 -0.34096527 0.47823125 0.13699952 0.31419176
0.11911009 -0.33225626 -0.41503754 0.24303922 0.41050702 -0.3072824 -0.22928546 -0.43350238
-0.048914988 0.0044595185 -0.15638578 0.04101935 0.2422552 0.17363963 0.091194786 0.29366046
-0.16560337 0.28523 -0.10861256 -0.45457244 0.15529437 -0.47003707 -0.32472324 0.1893282
-0.22498259 -0.35483202 0.21893966 0.051103793 -0.32885003 -0.22618948 0.10979126 0.33416915
-0.48681515 -0.5786166 0.38392967 0.25723726 -0.42265433 -0.48804408 0.34706512 -0.7416899
-0.076264784 0.020533001 0.09355101 -0.7839565 0.24533977 -0.21122201 0.060999747 -0.26799557
0.047090147 0.005781038 0.3822854 -0.06022334 0.25759596 -0.43051454 0.20726196 0.07835058
-0.66004544 0.017631432 -0.8412927 0.2569651 -0.22572578 -0.58311915 0.19773605 -0.36077005
-0.09590137 -0.58933085 0.1844495 0.42552456 -0.09669757 -0.5557404 -0.33458444 -0.20761567
-0.897772 0.17380364 -0.5503105 0.031320732 0.5170207 -0.13557845 -0.24220338 -0.033648014
0.57126486 -0.08701343 0.0861522 -0.03996534 -0.19405475 -0.1793846 -0.356021 -0.25825977
0.34702238 -0.22717245 -0.14567918 -0.5202983 -0.41063777 0.40349984 -0.06708633 0.3796794
-0.4815789 -0.1997131 0.19699357 0.11186983 -0.5148602 -0.2751827 -0.26886094 0.011999346
0.08706508 0.08393219 0.06227886 0.19936194 0.048021793 -0.34962338 0.3024779 0.031271566
-0.85527754 -0.03858325 0.016401662 -0.23093863 0.22276327 0.11639778 0.26273623 0.23692192
0.290969 0.26932967 0.14401492 -0.69499964 -0.12615274 0.1623303 -0.3083026 -0.5819323

model.output.bias f4 [10]
00000000: 4e4f 3c3d 9493 3d3f 0e9b 96be 42d3 2dbe
00000010: 6764 d13e a99f 223f 0ac2 a9bd a248 453e
00000020: 1d6d 9fbe 9faf 51be
0.04597407 0.7405331 -0.29415172 -0.1697512 0.40896913 0.6352487 -0.08288963 0.19265988
-0.31137934 -0.2047715
