Models/model_optSGD_ep40_neu64_lay3_acc0.9544.pth (torch, 217706 bytes, 10 tensors)

model.input.weight f4 [64, 784]
0	0x3c3eb6b0	0.011640236
1	0x3ca49c98	0.020094201
2	0x3c23cd18	0.009997629
3	0xbac07120	-0.0014682151
4	0x3d0c04ab	0.03418414
5	0xbd0bce66	-0.034132384
6	0xbcfa04c5	-0.030519852
7	0xba94e0a0	-0.0011358447
8	0xbc6db380	-0.014508128
9	0xbc71cadc	-0.014757838
10	0x3cceeb40	0.02525866
11	0x3b2c8120	0.0026322082
12	0xbca3b4bc	-0.019983642
13	0xbc0c1e2a	-0.008552114
14	0x3c2f03ca	0.010682056
15	0x3d0ab7e7	0.03386679
16	0x3b958358	0.0045627765
17	0x3c579800	0.013158798
18	0xbccdb0de	-0.02510875
19	0xbc901990	-0.017590314
20	0xbba2c414	-0.004967222
21	0xbbe549f8	-0.006997343
22	0x3ce06452	0.027391586
23	0x3d122b07	0.035685565
24	0x3b07bff0	0.002071377
25	0x3ce7d58e	0.028300073
26	0x3ce5091e	0.027958449
27	0xbcbedc8e	-0.023298528
28	0xbcdef965	-0.02721853
29	0x3c7e12e4	0.015507434
30	0x3caa44ac	0.020784698
31	0xbacf1ac0	-0.0015800819
32	0x3cca4a16	0.02469353
33	0x3d029c2e	0.031887226
34	0x3cc9a23f	0.024613498
35	0x3bc83c30	0.0061106905
36	0x3cd9aae2	0.026570741
37	0x3b8eb708	0.004355315
38	0xbc07a8ae	-0.008279962
39	0xbbf1ffc7	-0.0073852274
40	0xbcfc0ca8	-0.030767754
41	0x3cae87b9	0.021304952
42	0x3cc03337	0.023461921
43	0x3cde4898	0.027134225
44	0xbc74388e	-0.014906062
45	0x3cf13758	0.029445335
46	0xbce5c0e8	-0.028046086
47	0xbc3f581a	-0.01167872
48	0x3c82f9f8	0.015988335
49	0xbc93bd7c	-0.01803469
50	0x3c90bb9c	0.017667584
51	0xbcc8f643	-0.02453149
52	0x3c2c8300	0.01052928
53	0x3c80d914	0.01572851
54	0x3c2e3a50	0.01063402
55	0xbcdd1788	-0.02698876
56	0xbc4befaa	-0.012447277
57	0x3cc4e3dc	0.024034433
58	0xbd11486c	-0.035469458
59	0x3d030133	0.031983566
60	0xbce26e18	-0.027640387
61	0x3d01317d	0.031541336
62	0xbc5d4555	-0.0135053
63	0x3c87f484	0.016596086
64	0xbc5ee8e9	-0.013605335
65	0x3cf9f4c3	0.03051222
66	0x3c9fa030	0.019485563
67	0x3d0197c6	0.031638883
68	0xbc0cf2ae	-0.008602781
69	0x3cf70893	0.030155456
70	0x3c194c0a	0.009356508
71	0x3b88716c	0.0041639116
72	0xbd31ac89	-0.043377433
73	0xbd28aa15	-0.041177828
74	0xbd0f6591	-0.03500897
75	0x3cd40103	0.025879389
76	0x3c363d46	0.011123007
77	0xbc65e8eb	-0.014032583
78	0xbc7c84d4	-0.015412528
79	0xbc8d8831	-0.017276855
80	0xbc175fbd	-0.009239134
81	0xbc075e24	-0.008262191
82	0x3b3930f0	0.0028257929
83	0xba0fd0c0	-0.0005486123
84	0xbceb5dcc	-0.02873125
85	0x3c81afae	0.01583084
86	0xbb23a980	-0.0024972856
87	0x3cf6d755	0.030131975
88	0x3bfa4a91	0.0076382835
89	0x3c7e73be	0.015530525
90	0xbc891b0b	-0.016736528
91	0x3b196d10	0.0023410954
92	0xbc699012	-0.01425554
93	0x3d199afa	0.037501313
94	0x3c64949b	0.013951446
95	0x3d917d56	0.07103984
96	0x3daf1048	0.08548027
97	0x3cf91f19	0.030410336
98	0x3c907912	0.017635856
99	0xbd52caec	-0.051463053
100	0xbd0bb037	-0.0341036
101	0xbd885cf5	-0.06658355
102	0xbc4bff59	-0.012451016
103	0xbd268927	-0.040658142
104	0xbbaba742	-0.0052384445
105	0xbc4401fd	-0.011963365
106	0xbd1ad305	-0.0377989
107	0x3b94f548	0.0045458414
108	0xbaa2e0a3	-0.0012426566
109	0x3b9119dd	0.004428132
110	0x3cce286e	0.025165763
111	0xbbfbb5d4	-0.0076815877
112	0xbba26edc	-0.004957063
113	0xbc61c8aa	-0.013780752
114	0x3d01decb	0.031706613
115	0xbce46545	-0.02788032
116	0xbc3c8b4b	-0.011507819
117	0xbb396943	-0.00282915
118	0xbcb8fa77	-0.022580368
119	0x3b69571b	0.0035604897
120	0x3d2f8e85	0.042860527
121	0x3cd7d373	0.026345944
122	0x3d9cdf8b	0.07659825
123	0x3e0a7b17	0.13523518
124	0x3df5c4d5	0.12000433
125	0x3c2c66ca	0.010522554
126	0x3c7cee0b	0.015437613
127	0x3b96cd24	0.0046020914
128	0xbd3c43fd	-0.045963276
129	0xbd668dc6	-0.05628755
130	0x3c665db3	0.014060426
131	0x3b47ada5	0.003046849
132	0xbc4dfa10	-0.012571827
133	0xbdaa5a1a	-0.08317967
134	0xbcabf0b1	-0.020988794
135	0xbccfdc60	-0.025373638
136	0xbc80a548	-0.015703812
137	0x3cf6b551	0.030115755
138	0x3b54a920	0.003244944
139	0xbd10deeb	-0.03536884
140	0xbcf49d81	-0.02986026
141	0x3c726934	0.01479559
142	0x3ca7ca24	0.02048213
143	0x3c5f8695	0.013642927
144	0xbc38dd40	-0.011283219
145	0x3cccb348	0.024987832
146	0xbc2cc5e7	-0.0105452305
147	0x3d5da45f	0.054111835
148	0x3cdfbf9f	0.027313052
149	0x3d9d4832	0.07679786
150	0x3da5196c	0.080614895
151	0x3d8fd492	0.070229664
152	0x3d6aa245	0.05728366
153	0x3de7d70a	0.11320312
154	0x3dc50007	0.09619146
155	0xbcee2339	-0.02906953
156	0xbdc23631	-0.094829924
157	0xbd9f13f8	-0.077674806
158	0xbca52d58	-0.020163223
159	0xbce77dc0	-0.028258204
160	0xbd5b276c	-0.053504393
161	0xbdd4ecf1	-0.103967555
162	0xbdc95a5c	-0.09831688
163	0xbd2d9e4d	-0.042387296
164	0x3c630d6a	0.013858179
165	0x3a71e701	0.00092278427
166	0x3b60da7d	0.0034309917
167	0xbb41f180	-0.0029593408
168	0x3c8dddcc	0.017317675
169	0xbc173312	-0.009228485
170	0x3b58d08e	0.0033083293
171	0xbb0d5948	-0.0021568108
172	0x3cdda140	0.027054429
173	0xbca30f21	-0.019904675
174	0xbd4826e0	-0.0488652
175	0xbd90f006	-0.07077031
176	0x3dad075f	0.084486715
177	0x3e078d7e	0.13237569
178	0x3deadd4f	0.114679925
179	0x3ca49ffe	0.020095821
180	0x3baddf74	0.0053061787
181	0x3e277b36	0.16355595
182	0x3dc273ce	0.09494744
183	0x3d576571	0.052586976
184	0xbd7c20d0	-0.06155473
185	0xbd0c643a	-0.03427527
186	0xbc26d730	-0.010183141
187	0xbda92368	-0.08258706
188	0xbc9675dc	-0.018366747
189	0xbd562422	-0.052280553
190	0xbdb47ac1	-0.08812476
191	0xbd45060a	-0.048101462
192	0xbcc09202	-0.023507122
193	0xbc19225b	-0.00934657
194	0x3b77bc6d	0.003780152
195	0x3c66d8ae	0.014089746
196	0x3cbf1dca	0.023329634
197	0x3b2495da	0.0025113733
198	0x3d3ee3f4	0.04660411
199	0x3c8764e0	0.016527593
200	0x3c978f7f	0.018501041
201	0x3ccc6066	0.02494831
202	0x3c9fa5a8	0.01948817
203	0x3d81e873	0.06343164
204	0x3e0c6a34	0.13712388
205	0x3e38ab1f	0.18034028
206	0x3e2921df	0.16516827
207	0x3d7dc527	0.061955597
208	0x3dea11dd	0.114291884
209	0x3de87977	0.113512926
210	0x3d9aedd0	0.075648904
211	0x3dbee462	0.09320904
212	0xbd375635	-0.044759948
213	0x3d80fe3e	0.06298493
214	0xbd00e6ef	-0.031470235
215	0xbcbaa233	-0.02278242
216	0xbce9765b	-0.02849882
217	0x3cb096cd	0.021556282
218	0x3c009b50	0.007849529
219	0xbc8b3f2a	-0.016997892
220	0xbcea3225	-0.028588364
221	0xbcdf1db2	-0.02723584
222	0xbcce254a	-0.025164265
223	0xbcb7763c	-0.022395246
224	0xbc751703	-0.0149591
225	0x3d11c5ae	0.035588913
226	0xbc4a6662	-0.0123535115
227	0x3d917695	0.07102696
228	0x3da87550	0.082255006
229	0x3c439a3a	0.011938626
230	0x3d6784a2	0.056522973
231	0x3bd5fb5f	0.00653021
232	0x3d4e0428	0.050296932
233	0x3df8c7ea	0.121475056
234	0x3e1db189	0.15399756
235	0x3df16d19	0.11788387
236	0x3dc1c536	0.09461443
237	0x3d602fdd	0.054733146
238	0x3e3e33ec	0.18574494
239	0x3e03342a	0.12812868
240	0x3df0c627	0.117565446
241	0x3d96e46b	0.07367786
242	0xbc428dfb	-0.011874671
243	0xbdc62f25	-0.09676961
244	0xbcfd40ac	-0.030914627
245	0xbd04562b	-0.03230874
246	0x3cb1b4bd	0.021692628
247	0xbc32b38a	-0.010907063
248	0xbcaed1ca	-0.02134027
249	0xbd089d71	-0.033353273
250	0xbc9978f4	-0.018734433
251	0xbbe53a06	-0.0069954423
252	0xbc2531ba	-0.0100826565
253	0x3d133148	0.03593567
254	0xbc7c1d55	-0.015387853
255	0x3d10c187	0.035340812

model.input.bias f4 [64]
0	0xbe1d0fd3	-0.15338068
1	0xbd023086	-0.031784557
2	0xbbab5817	-0.005229007
3	0xbdb2f7b9	-0.087386556
4	0x3d6522cf	0.0559414
5	0xbc141f0a	-0.009040603
6	0x3e32b483	0.17451672
7	0x3e7521b7	0.23938642
8	0x3d282c83	0.041058075
9	0xbd2ff1f5	-0.042955358
10	0xbd8a00f6	-0.067384645
11	0xbc18f392	-0.009335415
12	0xbd25aee2	-0.040449984
13	0x3db81226	0.089878365
14	0x3e39c157	0.1814016
15	0x3dd864d6	0.10566108
16	0x3ccf9c80	0.02534318
17	0x3d6f1d9b	0.058377843
18	0x3d364270	0.044496953
19	0x3e53f031	0.20697095
20	0x3e34451f	0.17604493
21	0x3d9aaa86	0.07552056
22	0x3d202701	0.039099697
23	0xbc193e7c	-0.009353276
24	0x3ceb4eb4	0.028724052
25	0xbe83adad	-0.25718442
26	0x3cf30693	0.02966622
27	0xbd99d658	-0.07511586
28	0xbe55389f	-0.2082238
29	0x3d86ed84	0.06588271
30	0xbd321679	-0.043478463
31	0x3d279c3d	0.040920485
32	0x3c75ecaf	0.015010043
33	0xbd7edf84	-0.06222488
34	0xbd564049	-0.0523074
35	0xbe38d093	-0.18048315
36	0xbe46c066	-0.19409332
37	0x3dc7bf5a	0.09753294
38	0x3db5e5a6	0.088816926
39	0xbe129bbc	-0.1431722
40	0xbd5dfef8	-0.054198235
41	0x3e910efa	0.2833174
42	0xbe3b0d8f	-0.18266891
43	0xbd2e904e	-0.04261809
44	0x3d36340b	0.044483226
45	0x3d804308	0.06262785
46	0xbdc4ce8e	-0.0960971
47	0xbde1fc5d	-0.110344626
48	0xbe2a13e5	-0.16609152
49	0x3e13f247	0.1444789
50	0x3d82ffc2	0.06396438
51	0xbdeb49b6	-0.114886686
52	0xbd80f78e	-0.06297217
53	0x3d47ed00	0.048810005
54	0xbd0a0131	-0.033692542
55	0x3daf8535	0.08570329
56	0x3ca563fe	0.020189282
57	0x3d3824bd	0.04495691
58	0x3ca52250	0.020157963
59	0xbd80e2d2	-0.062932625
60	0x3de5e294	0.11224857
61	0xbe419175	-0.18903144
62	0xbdebab36	-0.11507265
63	0xbc90b276	-0.017663222

model.dense1.weight f4 [32, 64]
0	0xbde4cc60	-0.11171794
1	0xbe2aedcf	-0.1669228
2	0x3e8e9cfd	0.27854148
3	0x3ef18e59	0.47178915
4	0xbe396b25	-0.18107279
5	0xbdc9efbc	-0.09860179
6	0x3cd48ad9	0.025945114
7	0xbe503def	-0.20336126
8	0x3ea21bcf	0.3166184
9	0xbed64bed	-0.41854802
10	0x3df6a5c9	0.1204334
11	0xbe0b0470	-0.13575912
12	0x3e8b2516	0.27176732
13	0x3d89261f	0.06696724
14	0x3dad8bbc	0.08473918
15	0x3c1e8888	0.009676106
16	0x3e81f5ea	0.2538293
17	0xbcd49f78	-0.025954947
18	0xbd400644	-0.046880975
19	0x3ed51f86	0.41625613
20	0x3ebcd293	0.36879405
21	0x3d2596c0	0.04042697
22	0xbed43b11	-0.41451314
23	0x3c8004cd	0.01562729
24	0xbef22fef	-0.47302195
25	0x3f0f972f	0.5609006
26	0x3d35f552	0.04442341
27	0xbe5cbbdb	-0.21556036
28	0x3e792e54	0.24334079
29	0x3d6f4f06	0.058424972
30	0x3cd20ddf	0.02564138
31	0x3de57c33	0.1120533
32	0x3e82397d	0.25434485
33	0x3e4b5074	0.19854909
34	0xbe98ce6c	-0.29844987
35	0xbe99fc0f	-0.30075118
36	0xbe1cb6f9	-0.15304174
37	0xbeee13e3	-0.46499547
38	0x3d8f7664	0.07005003
39	0x3df7a1e9	0.12091429
40	0xbd50cd45	-0.05097701
41	0x3e7f8455	0.24952824
42	0x3cc3ed3c	0.023916833
43	0x3e517bb3	0.20457344
44	0x3d8138fa	0.063096955
45	0xbdb109bb	-0.08644434
46	0x3e05cd04	0.13066489
47	0xbea0e90f	-0.3142781
48	0x3e5cc09b	0.21557848
49	0x3de0d364	0.109778196
50	0xbe11c75e	-0.14236209
51	0xbe052b23	-0.13004737
52	0x3d0f7606	0.035024665
53	0xbe107dba	-0.14110461
54	0x3e56b05d	0.20965715
55	0x3cd9c9fe	0.026585575
56	0x3e78b118	0.24286306
57	0xbdea3965	-0.114367284
58	0xbead4965	-0.33845058
59	0x3e266584	0.16249663
60	0xbe33cc1a	-0.17558327
61	0x3de0b4ad	0.10971961
62	0xbe84581d	-0.25848475
63	0xbea4dbc6	-0.32198924
64	0xbd9e264e	-0.0772215
65	0x3d02884a	0.031868257
66	0x3db8c08a	0.09021099
67	0xbc0be501	-0.0085384855
68	0x3dc687ea	0.09693892
69	0x3e140675	0.14455588
70	0xbd966622	-0.07343699
71	0xbe147e31	-0.14501263
72	0xbcd30f86	-0.025764238
73	0x3d33e3fc	0.043918595
74	0xbe04c739	-0.12966622
75	0xbb9d41f4	-0.004799122
76	0xbd8e0566	-0.069346234
77	0x3e0fa2e5	0.14026983
78	0x3c8974f0	0.016779393
79	0xbdaee269	-0.08539278
80	0xbd93f8de	-0.07225202
81	0xbc3bc62c	-0.011460822
82	0xbdac1d71	-0.08404053
83	0x3e41bd95	0.18919976
84	0xbe08e7ff	-0.1336975
85	0x3b1b445a	0.0023691864
86	0x3d9f02da	0.07764216
87	0xbd10cfef	-0.03535455
88	0x3cc2e77f	0.023792027
89	0x3a25a3e4	0.0006318672
90	0xbe13cb28	-0.14432967
91	0xbe26a734	-0.1627472
92	0x3cce9151	0.025215777
93	0x3e14225b	0.1446623
94	0x3d8b498e	0.06801139
95	0xbd78b702	-0.060721405
96	0xbd1edb8c	-0.038783595
97	0x3b014a89	0.0019728264
98	0x3cd7bfef	0.026336638
99	0x3d829463	0.06375959
100	0xbd8a7448	-0.0676046
101	0x3d708a70	0.058725774
102	0x3d732d6b	0.059369486
103	0xbdadbd8e	-0.0848342
104	0x3c9256e4	0.017863698
105	0xbe0f3ca2	-0.13987973
106	0xbde2c975	-0.11073581
107	0x3d580ce0	0.052746654
108	0x3e008db6	0.12554058
109	0x3e08db40	0.13364887
110	0xbd2599a4	-0.040429726
111	0xbdc2a6e3	-0.09504487
112	0xbda10428	-0.07862121
113	0x3d8fc524	0.070200235
114	0xba08168c	-0.0005191348
115	0x3c3152fd	0.010823009
116	0xbd91891a	-0.07106228
117	0xbd855793	-0.06510844
118	0x3cf30180	0.029663801
119	0x3e13856a	0.14406362
120	0xbdce3b28	-0.10069877
121	0x3d87a60a	0.06623466
122	0x3d75d292	0.06001527
123	0xbd08f15b	-0.0334333
124	0xbe68d215	-0.2273639
125	0x3c386163	0.011253688
126	0xbdb30ec4	-0.08743051
127	0xbd94dd41	-0.07268763
128	0x3d1bdff9	0.038055394
129	0xbe03db0b	-0.12876527
130	0xbd9e4c6a	-0.077294186
131	0x3d4349ad	0.047677685
132	0x3c07cfcc	0.008289289
133	0x3d1f09ca	0.038827695
134	0x3dde1e23	0.10845592
135	0x3c5a228e	0.013313903
136	0x3d60a880	0.054848194
137	0x3d59e320	0.05319512
138	0x3ddfe42f	0.109321944
139	0x3cfc6456	0.030809563
140	0x3c5ed99f	0.01360169
141	0x3d4be6b6	0.04978057
142	0x3c74b722	0.01493624
143	0xbcdc6052	-0.026901398
144	0x3e1b768d	0.15181942
145	0xbddc9542	-0.10770656
146	0x3dc021c9	0.09381444
147	0x3dad4fb9	0.084624715
148	0xbda586b8	-0.08082336
149	0x3dd65f74	0.10467425
150	0xbe30f9cf	-0.17282794
151	0x3cd58a69	0.026066976
152	0xbe9cdcc0	-0.3063717
153	0x3e106762	0.14101937
154	0x3eab717d	0.33485022
155	0x3daff498	0.085915744
156	0x3e5f8680	0.21828651
157	0x3e10100d	0.14068623
158	0xbe054b91	-0.13017108
159	0x3d080a25	0.0332128
160	0x3e066e16	0.13127932
161	0x3c34948d	0.011021745
162	0xbe8a580c	-0.270203
163	0xbc98f998	-0.018673703
164	0x3d59f624	0.053213254
165	0xbe1a3bd5	-0.15061887
166	0xbddb86f3	-0.10719099
167	0xbdbd6c10	-0.09249127
168	0xbe64fdb6	-0.22362408
169	0x3eb89f16	0.36058873
170	0x3d9300ef	0.071779124
171	0x3d15d894	0.036583498
172	0x3d4e79d5	0.050409157
173	0xbd7b6e3c	-0.061384425
174	0x3e82c199	0.25538328
175	0xbcfa188c	-0.030529283
176	0x3d759c11	0.05996329
177	0xbd2870c7	-0.041123178
178	0xbe0a27da	-0.13491765
179	0xbcfa5dfe	-0.030562397
180	0x3e3f87d5	0.1870416
181	0xbe8dcb37	-0.27694103
182	0xbda5fe80	-0.08105183
183	0xbe25d2a7	-0.16193639
184	0x3cfbd1e7	0.030739738
185	0xbe78246b	-0.24232642
186	0xbdcd9e08	-0.10039908
187	0x3d106fa7	0.03526273
188	0x3e4d69c0	0.20059872
189	0x3e4e8591	0.20168139
190	0x3d281ed8	0.04104504
191	0xbd9976bd	-0.07493351
192	0x3ceb7651	0.028742941
193	0x3daad2f5	0.08341018
194	0x3ccc7adc	0.024960928
195	0x3d3c766d	0.046011377
196	0xbc27b667	-0.010236359
197	0xbd824288	-0.06360346
198	0xbc4df417	-0.012570403
199	0xba19e663	-0.0005870817
200	0x3de0645d	0.10956643
201	0xbda22bad	-0.07918487
202	0x3dd5e482	0.10443975
203	0x3ddbcc5a	0.10732336
204	0xbd222567	-0.03958645
205	0xbbb8c548	-0.005638752
206	0xbe683010	-0.22674584
207	0xbdccc8e2	-0.09999253
208	0x3d10bbf2	0.03533549
209	0xbc9e3a6c	-0.019314967
210	0xbcee9d8c	-0.029127859
211	0x3d52e0bf	0.051483866
212	0x3d3711b2	0.04469461
213	0xbd93400e	-0.07189952
214	0xbe4056b4	-0.18783075
215	0x3d0cfa20	0.034418225
216	0x3cfdb458	0.030969784
217	0x3e3f23b0	0.18665957
218	0xba980203	-0.0011597279
219	0x3d323e61	0.04351652
220	0xbd69b18a	-0.05705408
221	0x3e55cde1	0.20879318
222	0x3ca2a6e1	0.019854965
223	0x3c57996d	0.013159138
224	0x3de1b34e	0.11020528
225	0x3e136a37	0.14395986
226	0xbce07901	-0.02740145
227	0xbca91abc	-0.02064263
228	0xbd882e36	-0.06649439
229	0x3c72adc2	0.014811935
230	0x3d64b711	0.05583865
231	0x3dc5bcc7	0.09655147
232	0x3e269ad7	0.16270004
233	0x3e0d1799	0.13778533
234	0x3dd9e9b8	0.106402814
235	0x3df83206	0.12118916
236	0xbca61c13	-0.020277059
237	0xbcf63541	-0.03005469
238	0x3dff36f5	0.12461654
239	0xbe09bfda	-0.13452092
240	0x3d37fe52	0.044920273
241	0x3e174b32	0.14774778
242	0xbd820fa3	-0.06350639
243	0xbd87084b	-0.06593379
244	0xbdba9e8e	-0.09112273
245	0xbdb23c4e	-0.087029085
246	0x3e57330a	0.21015564
247	0xbc6fca18	-0.014635585
248	0xbd0dcc7a	-0.034618832
249	0x3ddea32c	0.10870966
250	0xbd0c4df7	-0.03425404
251	0x3d1b7264	0.03795089
252	0xbcb32627	-0.021868778
253	0xbe13a3f1	-0.14418007
254	0x3d56da14	0.05245407
255	0xbe271fe5	-0.1632076

model.dense1.bias f4 [32]
0	0x3e1a7635	0.15084155
1	0x3d310c39	0.043224547
2	0x3e3c8475	0.18409903
3	0x3c5ed922	0.013601573
4	0x3da61418	0.08109301
5	0x3b0d1937	0.0021529922
6	0x3e8763a3	0.26443204
7	0x3db7f27e	0.089817986
8	0xbb3cb97e	-0.0028797085
9	0xbd70d330	-0.058795154
10	0x3e084292	0.13306645
11	0x3dc34a60	0.0953567
12	0x3e1370e8	0.14398539
13	0x3db07e3f	0.086178295
14	0x3e0893ef	0.13337682
15	0x3de1efd7	0.11032074
16	0xbdcce386	-0.10004334
17	0x3e12b869	0.1432816
18	0xbcae450f	-0.021273164
19	0x3e456a17	0.19278751
20	0x3dba6ac5	0.09102396
21	0x3e72bcf7	0.23704897
22	0x3d0095c6	0.031392835
23	0xbde2011b	-0.11035367
24	0x3e0742ee	0.13209125
25	0x3e1b509e	0.15167472
26	0xbdbc3186	-0.09189133
27	0xbda56397	-0.08075636
28	0x3ddb7b2e	0.10716854
29	0x3d9322da	0.07184382
30	0x3e7608a9	0.24026741
31	0xbd3ac219	-0.045595262

model.dense2.weight f4 [16, 32]
0	0xbe3e97a9	-0.18612541
1	0xbddced8a	-0.107874945
2	0xbe704494	-0.2346366
3	0x3d084378	0.03326747
4	0xbe3e8948	-0.18607056
5	0x3e608fb2	0.21929815
6	0xbeb3d234	-0.3512131
7	0x3f277206	0.6540836
8	0x3e867f66	0.26269072
9	0xbe659a7d	-0.22422214
10	0xbc8a3e0a	-0.016875286
11	0x3f13f71b	0.5779893
12	0x3de60245	0.11230902
13	0x3e16c1a6	0.14722309
14	0xbeb812d2	-0.3595186
15	0xbef19247	-0.47181913
16	0xbe1e71de	-0.15473124
17	0x3f0545e9	0.520598
18	0x3e8fa883	0.28058252
19	0x3deece6e	0.11660467
20	0x3cdc2593	0.026873386
21	0x3f21418e	0.62990654
22	0x3c4b762b	0.01241831
23	0xbe3c0eb8	-0.1836499
24	0x3dfb462d	0.12269244
25	0x3f24c44a	0.64362013
26	0x3e199fc4	0.15002352
27	0xbcea870c	-0.028628848
28	0x3e78a0e2	0.24280122
29	0xbe4fda42	-0.20298102
30	0x3ebacf6a	0.3648637
31	0x3e35eecc	0.17766875
32	0xbe278496	-0.16359171
33	0xbd9108c2	-0.070817485
34	0xbe24d4ee	-0.16096851
35	0x3da16251	0.078800805
36	0x3ed86ca8	0.42270398
37	0xbd9543d6	-0.07288329
38	0x3e8dc17c	0.2768668
39	0x3e934e2b	0.28770575
40	0xbe1b9fd9	-0.15197696
41	0x3e95582e	0.29168838
42	0x3f0ed202	0.55789196
43	0xbefb1ba6	-0.49044532
44	0x3f111084	0.56665826
45	0x3f1f3f9f	0.62206453
46	0x3dc8ba98	0.09801215
47	0xbe6b15bb	-0.22957508
48	0xbd23d103	-0.03999425
49	0x3e1ce4cd	0.15321656
50	0x3e5a6d94	0.21330863
51	0x3dfc9234	0.123325735
52	0xbee09681	-0.43864825
53	0xbee20c14	-0.4414984
54	0x3e0a79d2	0.13523033
55	0x3ddec256	0.108769104
56	0x3e9bbcf4	0.30417597
57	0x3d001076	0.0312657
58	0x3d3fd51d	0.0468341
59	0x3dc7cf1d	0.097563006
60	0xbd3ddfad	-0.046355892
61	0x3ecafb54	0.39644873
62	0xbea5148f	-0.32242247
63	0xbd8179ea	-0.063220814
64	0x3f813114	1.0093102
65	0x3dcfc9ae	0.10145889
66	0x3e563120	0.20917177
67	0x3ebda3ba	0.37038976
68	0x3de69202	0.112583175
69	0xbe3837a2	-0.17989972
70	0xbecce22f	-0.40016314
71	0x3e8640e3	0.2622138
72	0x3f66734c	0.9001968
73	0xbe065844	-0.13119608
74	0xbf19538f	-0.59893125
75	0x3ea0a1d4	0.31373465
76	0x3e2e1a5a	0.1700224
77	0x3d73a0cd	0.059479523
78	0x3eb4fc41	0.35348704
79	0xbdae6859	-0.085159965
80	0x3e0411b2	0.12897375
81	0x3d53e216	0.051729284
82	0x3ed2336a	0.4105485
83	0xbe9fd4da	-0.3121708
84	0xbe93e3f4	-0.28884852
85	0x3ec61ef4	0.3869549
86	0x3e97c5ba	0.2964304
87	0x3e15a5ca	0.14614025
88	0xbe3714af	-0.17878984
89	0x3e903f91	0.28173497
90	0x3e301575	0.17195685
91	0xbdad857b	-0.08472725
92	0xbed6aeba	-0.4193018
93	0x3f1b9b4a	0.6078383
94	0x3d410cf2	0.047131486
95	0xbe9c70aa	-0.30554706
96	0x3d98eb14	0.074667126
97	0xbe146189	-0.14490332
98	0x3f0100c1	0.50391775
99	0xbd342e83	-0.04398967
100	0x3ec96a01	0.39338687
101	0xbdd26729	-0.102735825
102	0x3f1852a5	0.59501106
103	0x3d0fae3a	0.035078265
104	0x3e83ad0d	0.25717965
105	0xbe350759	-0.17678584
106	0x3dd5b60b	0.104351126
107	0x3e127d78	0.14305675
108	0x3eaa0725	0.33208576
109	0xbf01b263	-0.5066282
110	0x3f21cc87	0.6320271
111	0x3f435f35	0.7631715
112	0xbe51bd96	-0.20482478
113	0x3d2b7968	0.04186383
114	0xbe6225d2	-0.2208474
115	0x3f056d0e	0.5211953
116	0xbf012fc2	-0.504635
117	0x3f0293db	0.5100686
118	0xbebd1fbc	-0.36938274
119	0xbbb83349	-0.005621348
120	0x3f1dc4b1	0.6162825
121	0xbe4bb31b	-0.19892542
122	0xbd581505	-0.05275442
123	0x3e075ce4	0.13219029
124	0x3eedd13d	0.464487
125	0xbee06be2	-0.43832308
126	0x3ea99785	0.33123413
127	0xbe170908	-0.14749539
128	0xbe54537d	-0.20734973
129	0xbd897683	-0.067120574
130	0xbdd93802	-0.10606386
131	0x3cef591f	0.029217301
132	0xbe945bcf	-0.28976294
133	0xbe06bb37	-0.13157354
134	0x3dbdc0f0	0.092653155
135	0x3e9ca694	0.3059584
136	0x3e2d054b	0.1689655
137	0x3d2801a1	0.04101718
138	0xbddb5573	-0.107096575
139	0x3e6a53f1	0.22883584
140	0xbcf9caa9	-0.030492144
141	0x3e99991b	0.29999623
142	0xbe27c80a	-0.16384903
143	0xbeac453d	-0.33646575
144	0xbcdffc95	-0.02734212
145	0x3db88e49	0.09011514
146	0x3d3e3229	0.046434555
147	0xbd15dcf2	-0.036587663
148	0x3bd48f44	0.006486805
149	0x3ed4222c	0.4143232
150	0x394ef60e	0.00019737353
151	0x3e0bf951	0.13669325
152	0x3d81d151	0.06338752
153	0x3e2b3e99	0.16723098
154	0x3d863143	0.06552365
155	0x3d01ba1c	0.03167163
156	0x3c04a86b	0.008096795
157	0xbd028e95	-0.031874258
158	0x3ebc24ea	0.36746913
159	0x3e9a029b	0.30080113
160	0x3ecd2343	0.40065965
161	0xbe6923a2	-0.22767499
162	0xbe27a095	-0.16369851
163	0xbe0785ee	-0.13234684
164	0x3e28c421	0.16481067
165	0x3d8a56cb	0.06754836
166	0x3e8a12e8	0.2696755
167	0xbe0488c3	-0.12942795
168	0x3e89c7a2	0.2691012
169	0x3e07cd22	0.13261846
170	0xbc4b1431	-0.012394951
171	0x3ead239d	0.33816233
172	0x3e08f817	0.13375889
173	0xbe87d84e	-0.26532215
174	0x3f0ae6ed	0.54258615
175	0x3ebd199c	0.369336
176	0xbcab58d6	-0.020916384
177	0xbd40cc69	-0.04706994
178	0xbd147072	-0.03624005
179	0x3e8bed48	0.2732947
180	0xbe124905	-0.14285667
181	0x3cf47dfc	0.02984523
182	0x3e89013d	0.26758757
183	0x3e353ca0	0.17698908
184	0x3d8e52c8	0.06949383
185	0x3e933799	0.28753355
186	0xbd98a312	-0.07452978
187	0xbe39d505	-0.18147667
188	0x3de65e29	0.112484284
189	0x3d7e2f1f	0.062056657
190	0xbe3d4870	-0.18484664
191	0xbe9626ff	-0.29326627
192	0x3f650c70	0.89472103
193	0x3ea3c31f	0.31984803
194	0x3f0711cd	0.52761537
195	0x3d676c2c	0.056499645
196	0xbe9d7b37	-0.30758068
197	0x3d365236	0.044511996
198	0x3f2d00b3	0.6757919
199	0xbdffe5cf	-0.124950044
200	0xbf1a0fa6	-0.6018013
201	0xbd9e638b	-0.0773383
202	0xbe903343	-0.2816411
203	0xbeab86c6	-0.3350126
204	0xbe457287	-0.1928197
205	0x3f04007f	0.51563257
206	0xbee10c3b	-0.43954644
207	0x3e54203c	0.20715421
208	0xbc98fb17	-0.018674416
209	0xbed2cd4c	-0.41172254
210	0x3f30067d	0.687599
211	0xbe76bc5d	-0.24095292
212	0x3f7ae588	0.98006487
213	0xbdf93841	-0.12168933
214	0x3de1c69a	0.11024208
215	0xbd964f03	-0.07339289
216	0x3e9cb987	0.30610296
217	0x3dbe9498	0.09305686
218	0xbe18a8bb	-0.14908116
219	0x3ded386f	0.115830295
220	0x3e4c0eda	0.1992754
221	0x3ee9004b	0.45508036
222	0x3f26c1dc	0.65139556
223	0xbd4ace82	-0.049513347
224	0xbe143c5d	-0.14476152
225	0x3df7f284	0.12106803
226	0xbd2a7d02	-0.041623123
227	0x3d10a53b	0.035313826
228	0xbe4304f2	-0.19044855
229	0x3e1658ea	0.14682356
230	0xbdd8a69f	-0.105786555
231	0xbc485c92	-0.012229102
232	0x3e8b3741	0.27190593
233	0x3e1cc93c	0.1531114
234	0x3d58cfcf	0.052932557
235	0xbe1ff80c	-0.15621966
236	0x3dc95b7a	0.09831901
237	0x3e6e064b	0.23244588
238	0x3dba92e2	0.09110047
239	0xbe64f7f5	-0.22360213
240	0xbc6d6d5e	-0.014491407
241	0x3e1e893f	0.15482043
242	0xbe1e9f97	-0.15490566
243	0xbe6803cc	-0.22657698
244	0x3dc3d2ae	0.09561668
245	0x3de10772	0.10987748
246	0x3e1c68ef	0.15274404
247	0xbe32736a	-0.1742684
248	0xbe1fd641	-0.15609075
249	0x3d94cf3e	0.07266091
250	0x3e363bf4	0.17796308
251	0x3e37bb44	0.1794253
252	0x3d975153	0.07388558
253	0x3e891c0d	0.26779214
254	0x3c70613f	0.014671623
255	0xbdde81c9	-0.10864598

model.dense2.bias f4 [16]
0	0x3e5007f5	0.20315535
1	0x3e573c2b	0.21019046
2	0xbd4ca1be	-0.049958937
3	0x3e882d0e	0.26596874
4	0x3e0ee5bd	0.13954826
5	0xbd05f81d	-0.032707322
6	0x3f18703a	0.59546244
7	0xbe72f58b	-0.2372648
8	0xbd81ffc0	-0.063476086
9	0xbe25f5e5	-0.16207083
10	0x3e006fe9	0.1254269
11	0x3e5dc641	0.21657659
12	0x3da81259	0.082066245
13	0x3e2f4f4f	0.17120098
14	0xbdcf8132	-0.10132064
15	0x3eaf60a6	0.34253424

model.dense3.weight f4 [16, 16]
0	0xbea75f53	-0.32689914
1	0xbd74ce58	-0.059767097
2	0x3dee9c03	0.116508506
3	0xbf4bd21e	-0.7961749
4	0xbe5c45d6	-0.21511015
5	0xbea7ea0c	-0.3279575
6	0x3f982341	1.1885759
7	0xbcfee537	-0.031115158
8	0xbe658120	-0.22412539
9	0xbf37fe8c	-0.7187278
10	0xbf28d133	-0.6594421
11	0x3e98fa68	0.29878545
12	0xbe2de102	-0.16980365
13	0xbeda56bc	-0.42644298
14	0x3d9fd780	0.07804775
15	0x3e609ec2	0.21935561
16	0xbe5c97be	-0.2154226
17	0xbe1c338f	-0.15254043
18	0x3e04edff	0.12981413
19	0xbe8b48bb	-0.27203926
20	0xbed304e2	-0.41214663
21	0x3f00fbf6	0.5038446
22	0x3e56dfb1	0.20983769
23	0xbe6052ca	-0.21906582
24	0x3d454040	0.048156977
25	0x3deb5b14	0.11491981
26	0xbed58979	-0.41706446
27	0x3ebdac9a	0.37045747
28	0x3eaafd51	0.3339639
29	0xbe81d2ee	-0.2535624
30	0xbde95c22	-0.11394526
31	0xbdb86655	-0.09003893
32	0x3d5d2101	0.053986553
33	0x3d746880	0.05966997
34	0xbe30934c	-0.1724369
35	0xbe0deb25	-0.13859232
36	0x3cb48964	0.02203817
37	0x3d8e8834	0.069595724
38	0xbdd1bc25	-0.10240964
39	0xbe53f298	-0.20698011
40	0x3bb42e40	0.0054986775
41	0xbcb2bc35	-0.02181826
42	0x3e0ea256	0.13929114
43	0xbd00c2d0	-0.031435788
44	0xbd9fba60	-0.0779922
45	0xbe500ff2	-0.20318583
46	0xbe3aebe4	-0.18254048
47	0x3da1eecc	0.07906875
48	0xbe910139	-0.28321245
49	0x3ebb05b8	0.365278
50	0x3ea2dbbb	0.31808266
51	0x3e9b4401	0.3032532
52	0xbe355a02	-0.17710117
53	0xbbb49cb6	-0.0055118455
54	0xbe822772	-0.2542072
55	0xbe0b8f48	-0.13628876
56	0xbe5e76ce	-0.21725008
57	0xbdc9c0cf	-0.098512284
58	0xbe1c41d4	-0.15259486
59	0x3e1750e5	0.14776953
60	0xbe40ee0f	-0.18840812
61	0x3e4b43ff	0.19850157
62	0x3e2af66f	0.1669557
63	0x3e8d3036	0.27575845
64	0x3e9f8798	0.31158137
65	0xbe6a3bd0	-0.22874379
66	0x3e8eee57	0.27916214
67	0xbe0f9302	-0.14020923
68	0x3eaaac55	0.33334604
69	0xbec61a1c	-0.38691795
70	0x3f58cf50	0.84691334
71	0x3e05cef0	0.13067222
72	0xbdb87386	-0.09006409
73	0x3c93a9e8	0.018025354
74	0x3f0c0d77	0.54708046
75	0xbddfd884	-0.10929969
76	0x3e1a5914	0.15073043
77	0xbe5296bb	-0.20565312
78	0xbcd6d9c9	-0.026226895
79	0x3c30c60f	0.010789408
80	0xbe34973b	-0.17635815
81	0xbe17f5e0	-0.14839888
82	0xbe47cf47	-0.19512664
83	0xbe4ea636	-0.20180592
84	0x3e097e4f	0.13427089
85	0x3d954af7	0.07289689
86	0x3d8cd51f	0.06876587
87	0xbe5970f9	-0.21234502
88	0x3d6c1c58	0.05764422
89	0xbdf1fb58	-0.11815518
90	0xbcab5c4b	-0.020918032
91	0x3e414fd3	0.18878107
92	0x3e7af385	0.24506958
93	0xbe37b852	-0.17941406
94	0xbe50d3d4	-0.20393306
95	0xbe5c26f1	-0.2149923
96	0x3f7fede0	0.99972343
97	0xbee9f629	-0.45695618
98	0xbefb74f4	-0.49112666
99	0xbe381ddb	-0.17980139
100	0x3ee6f120	0.4510584
101	0xbeb8d5e3	-0.36100683
102	0x3f46ac64	0.776068
103	0xbe67b597	-0.22627865
104	0xbe23555e	-0.15950534
105	0x3e21d35f	0.15803288
106	0x3e99692f	0.2996306
107	0xbf221490	-0.63312626
108	0x3f115e77	0.56784767
109	0x3d6a9261	0.057268504
110	0x3d9df867	0.077133946
111	0x3e79ce07	0.24395
112	0x3d395ec9	0.04525641
113	0x3f7dd904	0.99159265
114	0x3e217f0d	0.15771122
115	0xbf39efe2	-0.7263166
116	0xbdacb5ee	-0.08433138
117	0xbcc63073	-0.024193024
118	0x3f6c88dd	0.92396337
119	0x3d4eb6b2	0.0504672
120	0x3e629265	0.22126158
121	0x3e55de20	0.20885515
122	0xbe3d8e69	-0.18511356
123	0x3ee7c0b8	0.4526422
124	0x3ee49e8f	0.4465222
125	0x3f58bb86	0.8466114
126	0x3dd61fa6	0.10455255
127	0xbecf8492	-0.4053083
128	0xbe5ca71f	-0.21548127
129	0xbdb936f3	-0.09043684
130	0x3cb0de9b	0.021590522
131	0x3e9d967b	0.3077887
132	0x3e293bb7	0.16526686
133	0xbe81b710	-0.25334978
134	0x3f502c95	0.81318027
135	0xbe616ea1	-0.22014858
136	0x3e7c3d0b	0.24632661
137	0x3e32117a	0.1738948
138	0x3e578e1d	0.21050306
139	0xbebf7d2a	-0.3740018
140	0xbec2f9ac	-0.3808111
141	0x3dd69d31	0.10479201
142	0xbe7f3ff6	-0.24926743
143	0x3e731acf	0.23740695
144	0xbd7f609f	-0.062348004
145	0x3f04bbd5	0.5184911
146	0xbf687eca	-0.90818465
147	0x3f672deb	0.9030444
148	0x3ca679a5	0.020321677
149	0x3d354fdd	0.044265617
150	0x3e3b27a1	0.18276836
151	0xbca82204	-0.020524032
152	0x3df6d7dc	0.12052891
153	0x3f3dacf0	0.74092007
154	0xbd9beced	-0.076135494
155	0xbda79a4f	-0.08183729
156	0x3e9a5c7c	0.30148685
157	0x3efbb3ff	0.49160764
158	0xbbcbe83d	-0.0062227533
159	0x3ed17ea7	0.4091694
160	0xbe1e3860	-0.15451193
161	0xbded26c0	-0.115796566
162	0xbe12f192	-0.14349964
163	0xbd4bfc48	-0.04980114
164	0x3e47c8c0	0.19510174
165	0xbe42ba30	-0.19016337
166	0xbd04a178	-0.03238055
167	0x3dbd3dfc	0.09240338
168	0x3e4036f8	0.18770969
169	0xbcd6b860	-0.026210964
170	0xbe2e71c4	-0.17035586
171	0xbdc7fd6c	-0.09765133
172	0x3d95baa0	0.073109865
173	0xbe398a60	-0.18119192
174	0xbd96eeec	-0.073697895
175	0xbde358d8	-0.1110093
176	0xbf5c675e	-0.86095226
177	0xbe1b0c5d	-0.15141435
178	0xbeb781ed	-0.35841313
179	0x3f558a04	0.8341372
180	0xbe9a3ca0	-0.30124378
181	0xbe51dac0	-0.20493603
182	0x3f72fe28	0.9491906
183	0xbb86f855	-0.004118959
184	0x3d0b3292	0.033983774
185	0xbd990f2c	-0.07473597
186	0x3e627ad3	0.22117166
187	0xbe866d98	-0.26255488
188	0xbf6ed89b	-0.93299264
189	0xbe2f3953	-0.17111711
190	0x3c076cd3	0.008265692
191	0x3eacd509	0.33756283
192	0xbe5b98dc	-0.2144503
193	0xbea32b84	-0.31869137
194	0x3f42b9e2	0.76064885
195	0x3f14ac53	0.58075446
196	0xbebad230	-0.36488485
197	0x3f10fb1e	0.56633174
198	0x3ea4909d	0.3214158
199	0x3cb412aa	0.021981556
200	0xbe71aeda	-0.23601857
201	0x3e8d3259	0.27577475
202	0xbf2ba7df	-0.67053026
203	0x3ca7d3a1	0.020486655
204	0xbe1e0420	-0.15431261
205	0x3c5933ff	0.013257026
206	0xbd325672	-0.043539472
207	0x3ef2bf48	0.4741156
208	0x3f21f85b	0.63269585
209	0xbef7dbaa	-0.48409778
210	0x3d9425c6	0.07233767
211	0x3f813af4	1.0096116
212	0x3e24176a	0.16024557
213	0x3edd9d83	0.43284234
214	0xbf3a22e7	-0.72709507
215	0xbdfc2cd0	-0.12313235
216	0xbe3a5812	-0.18197659
217	0x3db1409c	0.086549014
218	0xbdbfa3dd	-0.09357426
219	0x3cfcb326	0.030847143
220	0x3f21bb3b	0.63176316
221	0xbec5bdbe	-0.38621324
222	0x3e233d40	0.15941334
223	0x3e24f3de	0.16108653
224	0x3ef7a056	0.48364514
225	0x3e22f490	0.15913606
226	0xbec363f4	-0.38162196
227	0xbf079312	-0.52958786
228	0x3e841f01	0.25804904
229	0xbea8a3c2	-0.32937437
230	0xbe752b6b	-0.23942344
231	0x3e96ca3c	0.29451168
232	0x3e0033a0	0.12519693
233	0xbe3d9f2d	-0.18517752
234	0x3edf3001	0.43591312
235	0x3d4c1f2e	0.049834423
236	0x3f09a1cb	0.537625
237	0x3ea56eed	0.32311192
238	0xbce4fb03	-0.027951723
239	0xbde9871e	-0.11402725
240	0x3ee6a0c5	0.45044532
241	0xbef0f644	-0.47062886
242	0x3fa0bf78	1.2558432
243	0x3d65cb89	0.05610231
244	0x3e3f8fff	0.18707274
245	0x3e81a97b	0.25324616
246	0xbe86f14e	-0.26355976
247	0x3eba602a	0.36401492
248	0x3d5b7fd3	0.0535887
249	0xbd4f8a02	-0.050668724
250	0x3f2726e2	0.65293705
251	0x3ead8479	0.3389013
252	0xbe49e33e	-0.19715592
253	0xbed68406	-0.418976
254	0x3d8a4c29	0.06752808
255	0x3ed01bda	0.4064625

model.dense3.bias f4 [16]
0	0x3f5ab384	0.8543017
1	0x3e90b574	0.28263438
2	0xbe0a3f37	-0.13500677
3	0xbe09624a	-0.134164
4	0xbeb5c31a	-0.35500413
5	0xbe4c0049	-0.19921984
6	0x3ce8325e	0.02834433
7	0x3e85e2e8	0.26149678
8	0xbe3d6469	-0.18495335
9	0x3e776883	0.24160962
10	0xbe091c90	-0.13389802
11	0x3f1fcd8f	0.6242303
12	0x3e9786eb	0.29595122
13	0x3e39d28e	0.18146726
14	0x3e58b44e	0.21162531
15	0x3dd6dd7b	0.10491463

model.output.weight f4 [10, 16]
0	0xbef42e36	-0.47691506
1	0xbd9a82a5	-0.0754445
2	0x3e4de862	0.20108178
3	0x3dd2bd4c	0.10290012
4	0x3e094e6e	0.13408825
5	0xbdacd4bd	-0.08439014
6	0x3f7d073c	0.98839164
7	0xbf40d072	-0.7531806
8	0xbe1c2032	-0.15246657
9	0xbeb80535	-0.35941473
10	0x3e0301ce	0.12793657
11	0xbe203d49	-0.15648378
12	0xbf7a147a	-0.97687495
13	0x3efbdfb3	0.49194106
14	0x3e81cfd7	0.25353882
15	0x3ecd0d1f	0.40049073
16	0x3f8e5eb5	1.1122652
17	0x3f1ebdb9	0.62008244
18	0x3e31ec9a	0.17375413
19	0x3bc40fc0	0.005983323
20	0xbe98a801	-0.29815677
21	0xbe1f8d09	-0.15581144
22	0xbf798d9a	-0.9748169
23	0x3f7b6604	0.9820254
24	0xbe92f586	-0.28702945
25	0xbf51d064	-0.81958604
26	0x3e55d046	0.20880231
27	0x3e361bed	0.1778409
28	0x3f14998f	0.5804681
29	0x3d3d65c3	0.046239626
30	0x3e9d7223	0.30751142
31	0xbe4ff45d	-0.20308061
32	0xbd6bf172	-0.057603307
33	0xbebade85	-0.36497894
34	0x3ddc86d0	0.10767901
35	0x3e269ff2	0.16271952
36	0x3f27d835	0.6556428
37	0x3e18783f	0.1488962
38	0xbca631b8	-0.02028738
39	0x3f1fe87c	0.6246412
40	0xbd036b15	-0.032084543
41	0xbf5d187f	-0.86365503
42	0xbe1fd444	-0.15608317
43	0xbde814a3	-0.11332061
44	0xbef81b94	-0.4845854
45	0xbf585790	-0.8450861
46	0x3edb62c3	0.42848787
47	0x3f5fc8a1	0.8741551
48	0xbe836466	-0.25662535
49	0xbe738ed0	-0.23784947
50	0xbe0aab02	-0.13541797
51	0x3e4bb290	0.19892335
52	0xbe4e8d53	-0.20171098
53	0x3e07c229	0.1325766
54	0xbe198296	-0.14991221
55	0x3f9ec6c9	1.2404414
56	0x3c991775	0.018687943
57	0x3f3b6b40	0.73210526
58	0xbe14d72a	-0.14535204
59	0xbe5f97db	-0.21835272
60	0xbee91e79	-0.4553106
61	0xbf4a96c8	-0.79136324
62	0xbd153727	-0.03642955
63	0xbf1d37b2	-0.6141311
64	0xbbbc3fcf	-0.0057449113
65	0xbe571487	-0.21003924
66	0xbe2cffe4	-0.1689449
67	0x3ec63ba8	0.3871739
68	0xbed4f88d	-0.4159588
69	0xbc7a9a4a	-0.015295574
70	0xbf792309	-0.97319084
71	0xbf693f96	-0.9111265
72	0x3eb01a72	0.34395176
73	0xbd8fb0f4	-0.07016173
74	0xbe62e778	-0.22158611
75	0x3f74f428	0.9568505
76	0x3f5e651d	0.86873037
77	0x3d35616b	0.04428236
78	0x3d5955e2	0.05306042
79	0x3f09e67b	0.5386731
80	0xbe538b5b	-0.20658629
81	0xbd87d1d2	-0.06631817
82	0xbdb4d0a8	-0.088288605
83	0x3de4f4c4	0.11179498
84	0xbf442fca	-0.7663542
85	0x3e14a274	0.14515096
86	0xbe58e056	-0.21179327
87	0xbca8d44d	-0.020609045
88	0xbf37e978	-0.7184062
89	0x3f80521c	1.0025058
90	0xba477600	-0.0007608831
91	0xbf2acd6c	-0.667197
92	0xbdcf2cca	-0.10115965
93	0x3f52b56d	0.82308084
94	0x3e92a548	0.28641725
95	0xbea211a1	-0.31654075
96	0xbe811a86	-0.25215548
97	0x3d9a59eb	0.07536682
98	0xbe7afadc	-0.24509758
99	0xbdbf3e5e	-0.093380675
100	0xbe1c688c	-0.15274256
101	0xbe15540c	-0.14582843
102	0xbefa9840	-0.48944283
103	0xbf3a28c2	-0.7271844
104	0xbf2d4130	-0.67677593
105	0xbeb99a07	-0.36250326
106	0xbe3c314c	-0.1837818
107	0xbf765b69	-0.9623323
108	0xbdc4d06d	-0.096100666
109	0x3f4837a9	0.7820993
110	0xbe958f03	-0.29210672
111	0x3f8b2c10	1.0872822
112	0x3f94f8b9	1.1638404
113	0xbee09724	-0.4386531
114	0xbe578150	-0.21045423
115	0x3d83939e	0.0642464
116	0x3eb89fd4	0.3605944
117	0x3e425aef	0.18980001
118	0x3ea9c534	0.33158267
119	0x3dc8d2f7	0.09805863
120	0x3ec702ad	0.3886923
121	0xbde37da0	-0.111079454
122	0x3c37a320	0.011208326
123	0x3f3a6442	0.7280923
124	0xbdf2f7aa	-0.118636444
125	0xbf3e7a4b	-0.74405354
126	0xbcf2dbcd	-0.029645825
127	0xbed487dd	-0.41509905
128	0xbf1ea46a	-0.61969626
129	0x3c18450c	0.009293806
130	0x3d072c07	0.033000972
131	0xbea26a4e	-0.3172173
132	0x3ee79335	0.45229498
133	0xbda694cb	-0.08133849
134	0x3ed35427	0.4127514
135	0x3f159449	0.5842939
136	0x3e3320b3	0.17492943
137	0x3e226649	0.15859331
138	0x3d77d1c8	0.060502797
139	0xbf48dbd2	-0.7846042
140	0x3f22fbdd	0.6366556
141	0x3cdcf3c3	0.026971703
142	0xbf603325	-0.8757804
143	0xbc9f8c43	-0.019476062
144	0xbf0a723b	-0.5408055
145	0x3e2b6ca5	0.16740663
146	0x3e1ea166	0.15491256
147	0xbe348c86	-0.1763173
148	0xbcf10cbc	-0.029425018
149	0x3e2ad6e1	0.16683532
150	0x3ea2b726	0.31780356
151	0xbec242b9	-0.3794153
152	0x3ed680e1	0.41895202
153	0x3f796e27	0.97433704
154	0x3e5da620	0.21645403
155	0x3f447486	0.767403
156	0x3e03c53e	0.1286821
157	0xbe464f73	-0.19366245
158	0x3e7d7f12	0.24755505
159	0xbf264f9d	-0.6496523

model.output.bias f4 [10]
0	0xbe334bc4	-0.17509371
1	0x3e9878af	0.29779574
2	0x3dd7e280	0.10541248
3	0x3e6bb586	0.23018464
4	0xbc87a665	-0.016558835
5	0x3e8a331b	0.26992115
6	0xbd5fb6b0	-0.054617584
7	0xbd57522d	-0.052568603
8	0xbf1ca776	-0.61193025
9	0x3d820a0f	0.06349575
