Models/model_optRMSprop_ep70_neu32_lay4_acc0.9208.pth (torch, 111842 bytes, 12 tensors)

model.input.weight f4 [32, 784]
0	0xbc8cd62e	-0.017191973
1	0xbc84e9e3	-0.016224807
2	0xbb093770	-0.0020937584
3	0xbcd70b20	-0.026250422
4	0x3cceaa4e	0.025227692
5	0xbccd8cdc	-0.025091581
6	0x3c84b362	0.016198818
7	0x3c78ff54	0.015197594
8	0x3ce050ea	0.027382333
9	0xbc9402b5	-0.018067697
10	0x3cd2a6ca	0.025714297
11	0x3c019a9c	0.007910397
12	0x3e65eddf	0.22454022
13	0x3e1b0be5	0.15141256
14	0x3d9aa032	0.07550086
15	0x3de0e9c3	0.109820865
16	0x38281400	4.0072948e-05
17	0x3c7ec118	0.015548967
18	0x3be5c0b8	0.0070114993
19	0xbb7cb220	-0.003855832
20	0x3cdf8caa	0.027288754
21	0x3c449664	0.011998747
22	0xbc578332	-0.013153838
23	0x3c04f674	0.0081154
24	0xbb071b20	-0.0020615533
25	0xbcfa3f6e	-0.030547824
26	0xbd00cd50	-0.0314458
27	0xbc926825	-0.017871926
28	0x3c7d8554	0.015473682
29	0xbc7588f4	-0.014986265
30	0x3a6afa00	0.00089636445
31	0x3cd4a7fc	0.025959007
32	0x3c41b848	0.011823721
33	0x3dd47edc	0.10375759
34	0x3ed68777	0.41900226
35	0x3ef7e8d0	0.4841981
36	0x3ef87fea	0.4853509
37	0x3ed1c89a	0.4097336
38	0x3dfdee99	0.123990245
39	0x3ebc4720	0.36773014
40	0x3ed28ab4	0.41121447
41	0x3ee3e47b	0.44510254
42	0x3e454049	0.19262804
43	0x3e9476f1	0.28996995
44	0x3e91ceb5	0.28478017
45	0x3e2fca6a	0.17167059
46	0x3e10dc09	0.14146437
47	0x3f117407	0.5681767
48	0x3ee646ab	0.4497579
49	0x3e94c0ad	0.2905325
50	0x3eb67dda	0.35642892
51	0x3e980664	0.29692376
52	0x3acd93a0	0.0015684254
53	0xbcb0cd5c	-0.021582298
54	0x3d116201	0.035493854
55	0x3cb828ba	0.022480357
56	0x3bb27728	0.0054463334
57	0xbcc93005	-0.02455903
58	0x3b94a570	0.0045363232
59	0xbc67054e	-0.014100386
60	0x3e4a6ec4	0.19768816
61	0xbd15bbf7	-0.03655621
62	0x3e7c979b	0.24667208
63	0x3ee6ec69	0.45102242
64	0x3d9cdf74	0.07659808
65	0xbbb80410	-0.0056157187
66	0xbdee73f2	-0.116432086
67	0xbeeb06e2	-0.4590369
68	0x3e38ffc8	0.18066323
69	0x3c5b9ee9	0.013404586
70	0x3dac2932	0.08406295
71	0xbd9d6e64	-0.07687071
72	0xbb37d92b	-0.0028053026
73	0x3e229d84	0.158804
74	0x3f110b77	0.5665812
75	0x3e4a9af5	0.19785674
76	0x3d339ff2	0.043853708
77	0xba8fc0e6	-0.0010967522
78	0xbe1ff66e	-0.15621349
79	0x3e53a3df	0.2066798
80	0x3e5fad72	0.21843508
81	0x3c86130e	0.016366508
82	0xbc8fcd5e	-0.017553981
83	0x3bb498b0	0.005511366
84	0x3b0293b0	0.0019924454
85	0x3c31539c	0.010823157
86	0x3c031ca8	0.008002438
87	0x3e210569	0.1572472
88	0x3ea5c126	0.32373923
89	0xbd2f41de	-0.042787425
90	0x3b62ceac	0.003460805
91	0x3e43ba7c	0.19114107
92	0xbdea8bec	-0.11452469
93	0xbeb1d9fa	-0.34736615
94	0x3d7efef9	0.06225488
95	0xbdc9d052	-0.09854187
96	0xbe43c1db	-0.19116919
97	0xbea4afcb	-0.3216537
98	0xbe8442fe	-0.2583236
99	0xbd3229ff	-0.04349708
100	0xbe4a0a76	-0.19730553
101	0x3ddbfb65	0.10741309
102	0x3eb927da	0.36163217
103	0x3ead706e	0.3387484
104	0x3eaf30f1	0.34217027
105	0x3f1f0097	0.62110275
106	0x3e489423	0.1958776
107	0x3f13049f	0.57428926
108	0x3f014f75	0.50511867
109	0x3e2ef69c	0.17086262
110	0x3caef412	0.021356616
111	0x3cdb3446	0.026758324
112	0xbaef95c0	-0.0018278882
113	0x3ccbec3a	0.024892915
114	0x3d0e0fe9	0.03468314
115	0x3e4a8207	0.19776164
116	0xbe93cf1e	-0.28868955
117	0xbea3fe90	-0.32030153
118	0xbe94811e	-0.2900476
119	0xbcc9bdf5	-0.024626711
120	0x3d6d67dd	0.05796038
121	0xbe186844	-0.14883524
122	0x3e0e4d0b	0.13896577
123	0xbe232dba	-0.15935412
124	0xbdd35566	-0.10319023
125	0xbdcf3888	-0.10118204
126	0xbcf351c6	-0.029702079
127	0xbd1d4e3a	-0.03840468
128	0x3ce3901f	0.027778683
129	0xbe07f8a9	-0.1327845
130	0x3e8178f3	0.2528759
131	0x3e701b0e	0.2344782
132	0x3c5bc4d5	0.013413628
133	0x3dc94b83	0.09828856
134	0x3d107fb3	0.035278033
135	0x3e997cd6	0.29978055
136	0x3e8094e1	0.25113586
137	0x3d90ba64	0.07066801
138	0xbecb88be	-0.39752764
139	0x3c885b6e	0.01664516
140	0xba39ecc0	-0.00070924684
141	0x3cdb5cd8	0.02677767
142	0x3ec24d05	0.37949386
143	0xbf1ed42e	-0.6204251
144	0xbebc0bae	-0.3672766
145	0xbf0cb47f	-0.54962915
146	0xbe245b80	-0.1605053
147	0xbb408b95	-0.0029380072
148	0xbead8761	-0.33892348
149	0xbdba06c8	-0.09083325
150	0xbce8a5bb	-0.028399339
151	0xbdd44f63	-0.10366704
152	0xbdb673c8	-0.08908802
153	0xbe2e1365	-0.16999586
154	0x3de15377	0.11002248
155	0xbdad5ae0	-0.08464599
156	0xbda5c745	-0.08094648
157	0xbcbbddc4	-0.022932895
158	0x3b1d0e12	0.0023964685
159	0x3cf5638d	0.029954696
160	0x3e37d0f6	0.17950806
161	0x3da96625	0.08271436
162	0x3e378f42	0.17925742
163	0xbd035400	-0.03206253
164	0x3e5a5d45	0.21324642
165	0x3e946a84	0.28987515
166	0x3f062e81	0.5241471
167	0x3ec4486b	0.383365
168	0xbc012e7c	-0.007884618
169	0xbc0bcdee	-0.008532984
170	0x3f25541d	0.6458147
171	0xbe973a38	-0.29536605
172	0xbe21a791	-0.15786578
173	0xbe46a6f9	-0.19399633
174	0xbd8a7270	-0.067601085
175	0xbddcd26e	-0.10782324
176	0x3da7d915	0.08195702
177	0xbd8e0ddf	-0.069362395
178	0x3e1192a6	0.14216098
179	0xbd9ca97b	-0.07649513
180	0xbd0b7614	-0.034048155
181	0xbd9e2dc6	-0.07723574
182	0x3d55171d	0.052023996
183	0x3dc633f2	0.096778765
184	0x3cbe1da5	0.023207495
185	0xbc6e21b2	-0.014534401
186	0xbd67a587	-0.056554344
187	0x38d6854d	0.000102291444
188	0x3e140a78	0.14457119
189	0xbcdd6790	-0.027026922
190	0x3dadb93f	0.084825985
191	0x3e96f87a	0.29486448
192	0x3da66fe9	0.08126814
193	0x3f2d1ebb	0.67625016
194	0xbd0b4d1b	-0.03400908
195	0xbd8ac165	-0.06775168
196	0x3cae72a4	0.0212949
197	0xbe238e6f	-0.15972303
198	0x3ec35c87	0.3815653
199	0xbe3d5aa0	-0.18491602
200	0xbe90d1da	-0.28285104
201	0x3d0d9682	0.034567364
202	0xbede7e8a	-0.43455917
203	0xbec27ce0	-0.37985897
204	0x3dabdd9a	0.083918765
205	0xbcf9a5b1	-0.030474516
206	0x3d14a544	0.036290422
207	0xbd464dce	-0.048414044
208	0xbdb6dec6	-0.089292094
209	0xbe4a9b2d	-0.19785757
210	0xbcb49898	-0.022045419
211	0xbcfa4094	-0.030548371
212	0x3da9a2a3	0.082829736
213	0xbd97ac27	-0.07405882
214	0x3de775e1	0.113017805
215	0x3e24d460	0.1609664
216	0x3dffe82b	0.124954544
217	0x3e0c4bc1	0.13700773
218	0x3e27bb86	0.16380128
219	0x3ea11266	0.3145935
220	0x3e3a7262	0.18207696
221	0x3eec8d8a	0.46201736
222	0x3e30ff57	0.17284904
223	0xbe41af42	-0.18914512
224	0x3d1228b9	0.035683367
225	0xbe8a3f96	-0.27001637
226	0xbed9adff	-0.4251556
227	0xbe29951c	-0.16560787
228	0xbdae155b	-0.08500167
229	0xbd6ee923	-0.058327805
230	0x3b03ed2f	0.0020130386
231	0x3e1727ff	0.14761351
232	0x3d2858a5	0.041100163
233	0x3c27563f	0.010213434
234	0xbded5000	-0.115875244
235	0xbce71358	-0.028207466
236	0x3d29b1ae	0.041429214
237	0x3e03fb29	0.12888779
238	0x3c0b3e0b	0.008498679
239	0xbe3b7614	-0.18306762
240	0xbd2d8a9f	-0.042368528
241	0xbd5641d2	-0.052308865
242	0xbd9760c3	-0.07391503
243	0xbd03bd8a	-0.03216318
244	0x3e223829	0.15841736
245	0x3e96af63	0.29430684
246	0x3d249111	0.04017741
247	0x3da8bcfd	0.08239172
248	0x3ed1ba39	0.4096239
249	0x3f0f27e4	0.55920243
250	0x3b4b08b5	0.0030980532
251	0x3c39a25f	0.011330216
252	0x3d7726b7	0.060339656
253	0x3e70bc31	0.2350929
254	0xbeb69b72	-0.3566547
255	0xbe96965d	-0.29411593

model.input.bias f4 [32]
0	0x3e0b8417	0.13624607
1	0x3dd27a91	0.10277284
2	0xbe126243	-0.14295296
3	0x3e000daf	0.1250522
4	0x3d927d51	0.071528085
5	0xbce96974	-0.028492667
6	0x3dc59b0b	0.09648713
7	0x3bfd11da	0.0077230753
8	0xbd189549	-0.037251744
9	0xbe02a470	-0.1275804
10	0xbe6293ee	-0.22126743
11	0xba79a7fd	-0.00095236284
12	0x3c2e7300	0.010647535
13	0xbdf0cc02	-0.117576614
14	0xbdabb49d	-0.083840586
15	0x3c5df3d2	0.013546901
16	0xbe22ee63	-0.1591125
17	0x3dc6727e	0.096898064
18	0xbe4b0345	-0.19825466
19	0x3e55db54	0.20884448
20	0x3e55e4ce	0.20888063
21	0x3e423ec6	0.18969259
22	0x3e111a4c	0.14170188
23	0xbd01e990	-0.031716883
24	0x3e27dadb	0.1639208
25	0xbe46faf6	-0.19431672
26	0xbd64ffa3	-0.055907857
27	0x3c55836c	0.013031822
28	0x3e46676c	0.1937539
29	0xbd81dea4	-0.063412935
30	0x3e3f10d4	0.18658763
31	0xbc7474c9	-0.014920422

model.dense1.weight f4 [16, 32]
0	0xbec59058	-0.38586688
1	0x3dcd1436	0.100136206
2	0x3e6d7239	0.23188104
3	0xbec09b67	-0.37618563
4	0x3d8e329e	0.06943248
5	0x3db537d0	0.08848536
6	0x3d80646e	0.062691554
7	0xbf41c58c	-0.7569206
8	0xbe2a7844	-0.1664744
9	0xbeeba997	-0.46027824
10	0xbed61941	-0.41816142
11	0x3f101cee	0.56294143
12	0x3efdb5f1	0.49552873
13	0xbefeb3ca	-0.49746543
14	0x3ec67faa	0.38769275
15	0xbe99f871	-0.30072358
16	0x3e8860c8	0.26636338
17	0x3e294cc5	0.16533192
18	0x3d356e0f	0.044294413
19	0x3ee9783f	0.45599553
20	0x3ea1453d	0.31498137
21	0x3d0182fb	0.031619053
22	0xbc214d62	-0.00984511
23	0x3ed3b48d	0.41348687
24	0x3e9465fd	0.2898406
25	0xbee29c35	-0.44259802
26	0xbd94a785	-0.07258514
27	0x3e32225e	0.17395923
28	0x3e72b5e4	0.23702198
29	0x3eb8fdbb	0.3613108
30	0x3db82980	0.089922905
31	0xbde22bfe	-0.11043547
32	0xbe2bb897	-0.16769634
33	0xbd2dad60	-0.04240167
34	0xbecea350	-0.40358973
35	0xbe307e39	-0.1723565
36	0xbe811bbe	-0.25216478
37	0xbe6ba54c	-0.23012275
38	0xbcea6f54	-0.028617539
39	0x3c53be9c	0.012923863
40	0xbde78fc7	-0.1130672
41	0xbf33e6f3	-0.70274276
42	0x3ce0d6af	0.02744612
43	0x3ee1e252	0.4411798
44	0x3f13b7b0	0.5770216
45	0x3f12b5d1	0.5730868
46	0x3e4551d3	0.19269495
47	0xbd9f5fa4	-0.07781914
48	0x3ef93985	0.48676696
49	0xbcab6f2e	-0.020927038
50	0x3e112333	0.14173584
51	0x3f35c036	0.70996416
52	0x3db78f75	0.08962909
53	0x3e37dd43	0.17955498
54	0x3dc9e888	0.09858805
55	0x3cc5441b	0.024080327
56	0x3d576f8d	0.052596617
57	0x3d9a61a2	0.07538153
58	0x3d8a2de0	0.06747031
59	0x3e9ebe18	0.31004405
60	0x3e7a4f81	0.24444391
61	0x3e1f0718	0.1553005
62	0xbe17d6dd	-0.14828058
63	0xbc5cb022	-0.013469728
64	0x3e3ed07a	0.18634215
65	0x3d927146	0.071505114
66	0x3c85d110	0.01633504
67	0xbea98f75	-0.33117262
68	0xbeeb18d3	-0.45917377
69	0xbceebd21	-0.029142918
70	0x3e9e56b9	0.3092554
71	0x3f22eb9b	0.63640755
72	0xbdf9ed96	-0.12203519
73	0x3d1078ff	0.03527164
74	0x3e585a43	0.21128182
75	0x3eb80dbf	0.35947987
76	0xbfab2bb3	-1.3372711
77	0x3ebcdf3a	0.36889058
78	0xbf4c7fab	-0.79882306
79	0x3e01c89b	0.12674181
80	0x3e13c805	0.1443177
81	0xbdc58690	-0.096448064
82	0x3e57800f	0.21044944
83	0x3ebc664c	0.36796796
84	0x3d8275d2	0.06370129
85	0xbe83bd04	-0.25730145
86	0xbea2f69a	-0.31828767
87	0x3e489e5a	0.19591656
88	0xbd979026	-0.07400541
89	0xbd2d3cab	-0.042294186
90	0x3e561b22	0.20908788
91	0x3d981d51	0.07427467
92	0xbf6bdc90	-0.92133427
93	0x3d33125e	0.04371869
94	0x3ce4232e	0.027848806
95	0x3df6f774	0.12058917
96	0xbdcac16b	-0.09900173
97	0x3c95f453	0.01830498
98	0xbeb68257	-0.35646316
99	0xbe8562dc	-0.26051986
100	0xbe123bc4	-0.14280611
101	0xbf267edd	-0.6503733
102	0x3ea790a1	0.3272753
103	0x3e5d8f37	0.21636663
104	0xbdf87b00	-0.121328354
105	0xbe133240	-0.14374638
106	0x3f41e06e	0.7573308
107	0x3d2d7d15	0.042355616
108	0xba966970	-0.0011475515
109	0x3edf93a3	0.43667325
110	0x3e0ef4e1	0.13960601
111	0x3e9d1299	0.3067825
112	0x3e2b1bc7	0.16709815
113	0xbdfd7359	-0.123755164
114	0x3f15893f	0.58412546
115	0x3d708090	0.058716357
116	0x3de9a2a1	0.11407972
117	0x3d01e226	0.031709813
118	0x3e1c13a0	0.15241861
119	0xbd0e6355	-0.0347627
120	0x3e6090e3	0.2193027
121	0x3f0ede62	0.5580808
122	0x3ce910d8	0.028450415
123	0x3eb5d4b4	0.35513842
124	0xbef40c59	-0.4766567
125	0xbe991a19	-0.29902723
126	0xbc224dd8	-0.009906255
127	0x3e1451ff	0.14484404
128	0x3e8923bc	0.26785076
129	0xbce52ff2	-0.027976964
130	0xbf39f6df	-0.7264232
131	0x3ea64266	0.32472533
132	0x3e9ae9f2	0.3025661
133	0xbdd643de	-0.104621634
134	0x3e29f3f8	0.16596973
135	0x3eadeed9	0.3397129
136	0xbd9038e0	-0.07042098
137	0x3ecb5a9e	0.39717573
138	0x3f1828ab	0.59437054
139	0xbe6fc624	-0.23415428
140	0x3e60529e	0.21906516
141	0x3ebe5b0b	0.37178835
142	0x3d1b16af	0.03786343
143	0x3cf4bc6a	0.029875
144	0xbea8a28d	-0.32936516
145	0xbe200e58	-0.15630472
146	0x3ee08927	0.4385464
147	0xbe395e0f	-0.18102287
148	0x3dfacda1	0.12246252
149	0x3de4b998	0.11168212
150	0xbd70441a	-0.058658697
151	0x3d4ace22	0.04951299
152	0x3e13f01d	0.14447065
153	0x3e8629e0	0.26203823
154	0xbdbbab57	-0.0916354
155	0xbd8ce6a4	-0.06879929
156	0xbdbfb57b	-0.093607865
157	0xbf4910a4	-0.78541017
158	0x3eb5bb4f	0.35494468
159	0x3e0d2c72	0.13786486
160	0x3d7c5167	0.06160107
161	0x3e66b43c	0.22529691
162	0x3e225004	0.15850836
163	0xbf06e74e	-0.5269669
164	0x3d3c64a4	0.045994416
165	0xbf525379	-0.8215862
166	0xbd1b261d	-0.037878145
167	0x3edb0fc2	0.4278546
168	0x3d825416	0.06363694
169	0xbe3e2619	-0.1856922
170	0x3f30adcf	0.6901521
171	0xbe2b0596	-0.1670135
172	0x3eccb262	0.39979845
173	0x3f01b09e	0.5066012
174	0x3ea58b38	0.32332778
175	0x3e9ff69d	0.31242839
176	0x3f0e9a2a	0.55703986
177	0xbe9f5301	-0.31118014
178	0x3ea03891	0.31293157
179	0x3edba062	0.428958
180	0xbea51aa1	-0.3224688
181	0xbe4be8ff	-0.199131
182	0x3ed36e27	0.41294977
183	0xbe6f78f3	-0.23385982
184	0xbe15f5db	-0.14644568
185	0x3ec3eb9e	0.382657
186	0xbd32ed71	-0.043683473
187	0x3f03e03f	0.5151405
188	0xbe16dc7e	-0.14732549
189	0x3e4d2145	0.20032223
190	0xbd889c30	-0.066704154
191	0x3e10ec22	0.14152578
192	0x3ec700ad	0.38867703
193	0x3d81c688	0.06336695
194	0x3ec99760	0.39373302
195	0xbe7fad56	-0.24968466
196	0xbea07ca0	-0.3134508
197	0x3e1ec400	0.15504456
198	0x3dfcfd2e	0.12352978
199	0x3ecb7a70	0.3974185
200	0x3c7a9366	0.015293932
201	0xbe00351d	-0.12520261
202	0x3efb60df	0.49097344
203	0x3e42b3f5	0.1901396
204	0xbf744dec	-0.954314
205	0x3efe9d6d	0.4972948
206	0xbd85f131	-0.06540144
207	0x3d94f8fd	0.07274053
208	0x3e330374	0.17481786
209	0xbd29b203	-0.04142953
210	0x3e66edfe	0.22551724
211	0x3ea6cc3c	0.32577693
212	0x3d7f6f48	0.062361985
213	0xbe8c4fc0	-0.27404594
214	0xbe105052	-0.1409314
215	0xbc3c6193	-0.011497873
216	0xbda95f52	-0.08270134
217	0x3ed3ea57	0.41389725
218	0x3e4a6102	0.19763568
219	0x3ddc1100	0.1074543
220	0xbec970d1	-0.39343885
221	0x3f0125cd	0.50448304
222	0x3dd0472d	0.10169826
223	0x3d4b630a	0.049654998
224	0x3d63979b	0.055564504
225	0x3dddf1ae	0.10837112
226	0xbf6861f7	-0.9077448
227	0x3df00255	0.11719195
228	0x3e5caec7	0.21551047
229	0xbe9200e3	-0.28516302
230	0x3cc4f43c	0.024042241
231	0x3eb212b5	0.34779897
232	0x3e02c3b2	0.12769964
233	0x3c8d19fd	0.017224306
234	0x3ed0aa5a	0.40754968
235	0xbe15abf7	-0.1461638
236	0x3ec7d734	0.39031374
237	0x3eed124b	0.4630302
238	0x3e6d4348	0.23170197
239	0xbcc92cc5	-0.02455748
240	0x3b66e85a	0.0035233707
241	0xbe1e108a	-0.15435997
242	0x3f0f4ae0	0.55973625
243	0x3cd102b2	0.02551398
244	0x3e6030e9	0.21893658
245	0x3e7729f3	0.24137096
246	0xbd4745fa	-0.04865072
247	0x3e1bd08c	0.15216273
248	0x3dd07744	0.10178998
249	0xbd6f4f76	-0.05842539
250	0xbebdf280	-0.37099075
251	0x3e9522fc	0.29128253
252	0x3df0f311	0.11765111
253	0xbf51569f	-0.817728
254	0x3e19a095	0.15002663
255	0x3df9b38a	0.121924475

model.dense1.bias f4 [16]
0	0x3e604457	0.2190107
1	0x3d2c33dd	0.04204165
2	0xbd3771cb	-0.044786256
3	0xbe2be8f2	-0.1678808
4	0x3c76f19c	0.015072253
5	0x3cb38601	0.021914484
6	0xbe3da467	-0.18519746
7	0xbcfe2bc7	-0.031026734
8	0x3d38e47b	0.04513977
9	0x3e968de3	0.29405126
10	0xbe286897	-0.16446148
11	0x3df7b930	0.120958686
12	0x3df861fa	0.121280625
13	0x3df45db1	0.11931933
14	0xbe0e6e50	-0.13909268
15	0x3dd3b6f8	0.10337633

model.dense2.weight f4 [16, 16]
0	0x3ed28bdf	0.41122338
1	0x3e9627f5	0.2932736
2	0xbe98d36e	-0.29848808
3	0xbeb191e1	-0.3468161
4	0xbe2e6b3f	-0.17033099
5	0x3eba79a0	0.36420918
6	0x3c0302e0	0.007996291
7	0xbed9accf	-0.42514655
8	0x3e92e6f0	0.28691816
9	0xbdee6261	-0.11639858
10	0x3e8e12cb	0.27748713
11	0xbebeb946	-0.37250727
12	0x3eeafe75	0.4589726
13	0x3e520bb8	0.20512283
14	0x3e6eca64	0.23319393
15	0xbe8e4f00	-0.27794647
16	0xbe669814	-0.2251895
17	0x3d560fc0	0.052261114
18	0x3e724770	0.23660064
19	0xbddddcc0	-0.1083312
20	0xbe48afbe	-0.1959829
21	0xbc063ba0	-0.008192927
22	0xbe777f18	-0.24169576
23	0x3e1e78ac	0.1547572
24	0xbcf8e350	-0.030381829
25	0xbe5b2098	-0.21399152
26	0xbe199510	-0.14998269
27	0xbe4b8a54	-0.19876987
28	0x3e10f168	0.14154589
29	0xbc5b2e40	-0.013377726
30	0xbe6ab326	-0.22919902
31	0x3e1a2bc2	0.15055755
32	0xbe3a6923	-0.18204169
33	0xbe4a674e	-0.1976597
34	0x3f2f16cc	0.6839416
35	0xbd188a4a	-0.037241258
36	0xbe65b5d3	-0.22432642
37	0xbdfefd3f	-0.124506466
38	0xbd852489	-0.06501109
39	0xbd51330f	-0.051074084
40	0x3e973679	0.29533747
41	0x3ed6d85f	0.41961953
42	0x3ef4c049	0.47802952
43	0x3e0692a5	0.13141878
44	0x3dfd8b2b	0.1238006
45	0x3e06b2d3	0.13154154
46	0x3e2cd9ad	0.16879912
47	0x3e7405ca	0.23830333
48	0xbd1155f1	-0.03548235
49	0x3e0477b6	0.12936291
50	0xbeaed8fc	-0.3414992
51	0x3e8ee051	0.27905515
52	0x3edb0936	0.42780465
53	0xbedf0d79	-0.43564966
54	0xbec2ae79	-0.38023737
55	0x3f2ff538	0.6873355
56	0xbdc062cd	-0.09393845
57	0x3e5b3f80	0.21410942
58	0xbf423e44	-0.7587626
59	0x3ecc8c9d	0.3995103
60	0xbf984926	-1.1897323
61	0x3eaea74c	0.34112012
62	0x3e0cd35b	0.137525
63	0x3f0a3aaa	0.53995764
64	0xbe7c380d	-0.24630757
65	0x3dd02973	0.10164156
66	0x3ea4d62c	0.3219465
67	0x3ee596c6	0.44841594
68	0x3e8f66d2	0.28008133
69	0x3f84964b	1.0358366
70	0x3e35aece	0.17742464
71	0x3d2004c8	0.03906706
72	0xbe03a0d5	-0.12854321
73	0x3dacb5b0	0.08433092
74	0x3d6b0be7	0.057384398
75	0x3ea57b9c	0.3232087
76	0x3ebeb3c7	0.37246534
77	0xbcf006d1	-0.029300125
78	0x3f22fa70	0.6366339
79	0xbe239b73	-0.15977268
80	0xbd6454d9	-0.05574498
81	0x3dc37358	0.095434844
82	0x3f27f0d3	0.65601844
83	0x3f024db2	0.50899804
84	0xbd1e237b	-0.038608056
85	0x3f9d094d	1.2268463
86	0x3f16489b	0.5870454
87	0x3e386efc	0.18011087
88	0xbd980f78	-0.074248254
89	0x3e30ef51	0.17278792
90	0x3d1277a7	0.03575864
91	0x3deb06a8	0.11475879
92	0x3eeadd5a	0.45872003
93	0xbe52fde0	-0.20604658
94	0x3ee82258	0.45338702
95	0xbbdc51e1	-0.006723628
96	0xbe09f976	-0.13474068
97	0x3cb9c3da	0.022676397
98	0x3e537038	0.20648277
99	0xbdc1ce32	-0.09463157
100	0xbe5111a0	-0.2041688
101	0x3c46ab03	0.012125733
102	0xbe5246c9	-0.20534815
103	0x3defc465	0.11707381
104	0xbc96cba4	-0.01840765
105	0x3bbc6834	0.0057497267
106	0xbe536f01	-0.20647813
107	0x3def8e9e	0.11697124
108	0x3e0288df	0.12747525
109	0xbd7b40a6	-0.06134095
110	0xbe1c57f2	-0.15267923
111	0xbdd332d8	-0.10312432
112	0xbe312071	-0.17297532
113	0xbd04b076	-0.03239485
114	0x3d2886bf	0.04114413
115	0xbe6ffd4d	-0.2343647
116	0xbe4b73f5	-0.19868453
117	0xbdd8c803	-0.10585024
118	0xbe06ce27	-0.13164578
119	0xbdc469c2	-0.09590484
120	0xbd4b9eee	-0.049712114
121	0xbd90f3b2	-0.07077731
122	0x3df6de70	0.12054145
123	0xbe1811dc	-0.14850563
124	0xbaea36cd	-0.0017869115
125	0xbe502b2f	-0.20328973
126	0x3d0b44eb	0.034001272
127	0xbe235bf3	-0.15953045
128	0x3e8a6748	0.27031922
129	0xbe09027f	-0.13379858
130	0x3fb5a2fc	1.4190364
131	0x3f1b6991	0.60707957
132	0x3d9304d8	0.07178658
133	0x3f1c6d3f	0.61104196
134	0x3effe523	0.49979505
135	0xbeba55b8	-0.36393523
136	0x3e9302e5	0.28713146
137	0x3ed8de64	0.4235717
138	0x3f5f5ce4	0.87251115
139	0x3f14dbd7	0.5814795
140	0x3fa1461b	1.259952
141	0x3ebccfe8	0.3687737
142	0xbe63103b	-0.2217416
143	0x3e3c2664	0.1837402
144	0x3ebfdfb7	0.37475368
145	0x3d312eb5	0.043257434
146	0xbe8949bf	-0.26814076
147	0x3f0f532a	0.55986273
148	0x3d39f035	0.045395095
149	0x3f091b34	0.53557134
150	0xbee00082	-0.43750387
151	0x3f10d1e4	0.5657027
152	0x3eb35bc2	0.35030943
153	0xbe13f17b	-0.14447586
154	0x3a353706	0.0006912801
155	0x3f22e682	0.63632977
156	0xbf7daa82	-0.990883
157	0x3de55a16	0.11198823
158	0x3f04e106	0.5190586
159	0x3e234116	0.15942797
160	0x3d6f8d02	0.058484085
161	0xbe6d2cb4	-0.23161584
162	0xbe13d679	-0.14437284
163	0x3d39e37f	0.045382973
164	0x3e13fdd2	0.14452294
165	0xbf060efb	-0.5236661
166	0xbea3eafa	-0.3201521
167	0xbe34bb71	-0.17649628
168	0x3ef83361	0.484767
169	0x3f0de717	0.5543074
170	0x3e2259fe	0.15854642
171	0x3d9f6a1c	0.07783911
172	0xbf08bcb2	-0.53412926
173	0x3e1a4eb4	0.15069085
174	0x3d31b882	0.04338885
175	0x3d911a68	0.07085115
176	0xbd559f34	-0.05215378
177	0xbdce06b6	-0.10059874
178	0x3e184408	0.14869702
179	0x3e3fff1b	0.18749659
180	0x3c31088f	0.010805263
181	0x3b5d5a8d	0.0033775896
182	0xbda41225	-0.08011273
183	0xbe87f060	-0.2655058
184	0xbe0f639e	-0.14002845
185	0xbe22e4a1	-0.15907528
186	0xbce1efd8	-0.027580187
187	0xbd0fc68d	-0.035101462
188	0xbd5d4848	-0.05402401
189	0xbdd73158	-0.105074584
190	0xbd337953	-0.043816876
191	0x3d1eb19b	0.038743597
192	0x3cba1633	0.022715664
193	0xbee0263a	-0.43779165
194	0x3ef02884	0.4690591
195	0xbe90cc61	-0.2828093
196	0xbde25ce1	-0.110528715
197	0xbf3aefb5	-0.73022014
198	0x3ee3ab2e	0.44466537
199	0xbe3fc1c7	-0.18726264
200	0x3e176715	0.14785416
201	0x3f048cbb	0.5177724
202	0x3e9341ee	0.28761238
203	0xbdb1ef77	-0.086882524
204	0x3f678325	0.90434486
205	0x3eb749a9	0.35798386
206	0xbda14ec2	-0.0787635
207	0x3ec56c45	0.38559166
208	0x3e8b72d6	0.2723605
209	0x3e3bc748	0.18337739
210	0x3e63b61b	0.22237436
211	0xbe0ff3e8	-0.14057887
212	0xbea4f951	-0.32221463
213	0xbdd7b37d	-0.105322815
214	0x3c577b32	0.013151931
215	0xbdb9382c	-0.09043917
216	0xbf04bc53	-0.5184986
217	0x3e0ea279	0.13929166
218	0xbe20d237	-0.1570519
219	0xbead9aa7	-0.33907053
220	0x3cbe66b7	0.023242338
221	0xbe367af0	-0.17820334
222	0xbedab188	-0.4271357
223	0xbe574eca	-0.2102615
224	0x3f003af8	0.5008998
225	0x3e2fcac7	0.17167197
226	0xbef0ace6	-0.4700691
227	0xbdcdaeca	-0.10043104
228	0xbe6bbf5f	-0.23022221
229	0xbed9b315	-0.4251944
230	0xbf099a34	-0.5375092
231	0x3e79257f	0.2433071
232	0x3eb40b52	0.35164887
233	0x3c46f1ab	0.012142579
234	0x3da154db	0.07877513
235	0xbcf50a36	-0.029912096
236	0xbe93aea1	-0.2884417
237	0x3ee733fa	0.45156842
238	0xbe7813ff	-0.24226378
239	0x3e49cf6e	0.19708034
240	0x3eb57da9	0.35447434
241	0x3f16722d	0.5876797
242	0xbe2256ca	-0.1585342
243	0xbd61b14d	-0.055100728
244	0xbd8a25fe	-0.06745528
245	0x3e7e06a8	0.24807227
246	0x3ea14dc5	0.31504646
247	0xbe5a288c	-0.2130453
248	0xbda4c37a	-0.08045097
249	0xbeb91a0c	-0.36152685
250	0x3f1a2a56	0.6022085
251	0x3ad5062d	0.0016252451
252	0x3f4d89f9	0.80288655
253	0x3eae4da3	0.34043607
254	0xbea592b7	-0.32338497
255	0xbd7081f6	-0.05871769

model.dense2.bias f4 [16]
0	0x3e62f776	0.22164711
1	0xbda7ea0c	-0.08198938
2	0x3c45806c	0.012054544
3	0x3e52912d	0.20563193
4	0xbd8b0b33	-0.067892455
5	0x3cc3dbe8	0.02390857
6	0xbe322b8f	-0.17399429
7	0x3e03fa41	0.12888433
8	0xbe3434bf	-0.17598246
9	0xbe8fcaef	-0.28084514
10	0x3e31e43b	0.1737222
11	0xbdacc282	-0.08435537
12	0x3e77b94a	0.24191776
13	0x3ea325e2	0.3186484
14	0x3ed91d6e	0.42405266
15	0x3e70f5c6	0.23531255

model.dense3.weight f4 [16, 16]
0	0xbcd3edc1	-0.025870206
1	0x3e7a2006	0.24426278
2	0x3e51f075	0.20501883
3	0xbe671326	-0.22565898
4	0xbdd064df	-0.1017549
5	0x3e40901c	0.18804973
6	0x3ddf8ab6	0.10915129
7	0xbe325042	-0.17413428
8	0x3eaca1bc	0.33717144
9	0xbe60e9ca	-0.21964183
10	0x3e07d08e	0.13263151
11	0xbc9ffb77	-0.019529087
12	0x3f365082	0.71216595
13	0x3f0dcb12	0.55387986
14	0xbe5e1ab2	-0.21689871
15	0x3db1cedd	0.08682034
16	0xbe55dcdf	-0.20885037
17	0xbe5a5a2e	-0.21323463
18	0x3f00e3a9	0.5034738
19	0xbdcdfbb0	-0.10057771
20	0x3e8df61f	0.27726838
21	0x3b6f3507	0.0036500113
22	0xbe060d1a	-0.13090935
23	0x3d5ba60e	0.05362516
24	0x3e3edcf0	0.18638968
25	0xbd42d249	-0.047563825
26	0x3f04bd26	0.5185112
27	0xbd21da1b	-0.039514642
28	0x3f06b39e	0.52617824
29	0x3ee71359	0.4513195
30	0x3e0a807b	0.13525574
31	0xbee15816	-0.44012517
32	0x3e5e017f	0.21680258
33	0x3e70dcbe	0.23521706
34	0xbf27bd40	-0.6552315
35	0x3e47f44c	0.19526786
36	0xbe73bb0f	-0.23801826
37	0x3e874425	0.26419178
38	0xbe562f3a	-0.20916453
39	0x3de96fce	0.11398278
40	0xbe92fe95	-0.28709856
41	0xbde6f666	-0.112774655
42	0xbf665d8c	-0.8998649
43	0xbe5ba870	-0.21450973
44	0xbe96dbd0	-0.2946458
45	0x3f8b2aed	1.0872475
46	0xbde2a99a	-0.11067505
47	0x3e614797	0.21999966
48	0xbf093258	-0.53592443
49	0x3dc49cec	0.09600243
50	0xbdd247eb	-0.102676235
51	0x3f58cf60	0.8469143
52	0xbd225a1b	-0.039636713
53	0xbe57f187	-0.21088229
54	0xbd357679	-0.044302437
55	0xbdf6d8b8	-0.120530546
56	0x3e02baf1	0.12766625
57	0x3f0f2c52	0.55927
58	0x3eddac1c	0.43295372
59	0x3c9c73e0	0.019098222
60	0xbd5d29e1	-0.053995017
61	0xbf0e4870	-0.5557928
62	0x3eff75b3	0.49894485
63	0xbe215343	-0.15754418
64	0x3f0c0c4c	0.54706264
65	0xbe1bc884	-0.1521321
66	0x3e6b7812	0.22995022
67	0xbe8b6f0f	-0.27233168
68	0xbe1e0df7	-0.15435015
69	0xbea38e50	-0.31944513
70	0x3e6efb57	0.23338066
71	0x3dc958df	0.09831404
72	0x3e57454f	0.21022533
73	0x3e2bf120	0.167912
74	0x3ddef358	0.10886258
75	0x3c1fd31d	0.009754923
76	0xbe9c17f3	-0.30487022
77	0x3f570ec7	0.84006923
78	0x3ebef3b7	0.37295315
79	0x3f198beb	0.5997912
80	0x3edc5187	0.4303095
81	0xbd7a2580	-0.06107092
82	0x3e83b028	0.25720334
83	0x3bb0e9f7	0.0053989845
84	0xbed50948	-0.41608644
85	0xbec9b0cb	-0.39392695
86	0x3e6e2b6b	0.2325875
87	0x3bf462f6	0.007458086
88	0x3e2c9099	0.16852035
89	0x3d7d991f	0.061913606
90	0x3d8bd72c	0.0682815
91	0x3e151ee2	0.14562562
92	0x3f01fa5b	0.5077264
93	0x3ec9f1d0	0.394423
94	0x3edba15f	0.42896554
95	0x3f08bc0c	0.53411937
96	0x3ee189b6	0.44050378
97	0xbdeb9740	-0.11503458
98	0xbcbf5876	-0.023357611
99	0x3e02bfc0	0.1276846
100	0xbe3ec107	-0.18628322
101	0xbe7c7802	-0.24655154
102	0x3de9a893	0.11409106
103	0x3e2b94c9	0.16755976
104	0x3e348c96	0.17631754
105	0xbe623f0a	-0.2209436
106	0x3e879ac2	0.26485258
107	0xbd203a9a	-0.039118387
108	0x3eeb417a	0.45948392
109	0x3f41c66f	0.7569341
110	0x3e8a7778	0.27044272
111	0xbcc32cd9	-0.023825096
112	0xbe3dee70	-0.18547988
113	0x3e506b9c	0.2035355
114	0x3b339680	0.0027402937
115	0xbe6f6c8a	-0.23381248
116	0xbe6cf4cc	-0.23140258
117	0x3e040548	0.1289264
118	0x3e5dc29e	0.21656272
119	0xbe066b18	-0.1312679
120	0x3cbff550	0.023432404
121	0xbe3045da	-0.17214146
122	0xbd9b1c10	-0.07573712
123	0xbdb20fb8	-0.08694404
124	0xbe4c08cc	-0.1992523
125	0xbd91226c	-0.070866436
126	0x3dd95ff8	0.10614008
127	0xbe6fb104	-0.2340737
128	0xbee8b8ae	-0.454534
129	0xbde20b40	-0.11037302
130	0x3e53a7e4	0.20669514
131	0x3e6b29c6	0.22965154
132	0x3f1a4129	0.60255677
133	0x3f2c5673	0.6731941
134	0xbe280998	-0.1640991
135	0xbd365706	-0.044516586
136	0x3e996943	0.2996312
137	0x3e7c7ad7	0.24656235
138	0xbc327f10	-0.010894552
139	0xbe13a090	-0.14416718
140	0xbe4a0b5a	-0.19730893
141	0xbf493725	-0.7859977
142	0xbea4f129	-0.3221524
143	0xbe83dfd0	-0.25756693
144	0xbeb8c79f	-0.360898
145	0x3c853ce0	0.016264379
146	0x3e882ff2	0.2659908
147	0x3ea2ada7	0.3177311
148	0xbc7a629b	-0.015282298
149	0xbd844d27	-0.06460028
150	0xbdf7eb34	-0.12105408
151	0xbb66e680	-0.0035232604
152	0x3e129150	0.14313245
153	0xbe9fdcad	-0.3122305
154	0xbe7a0a51	-0.24417998
155	0xbcc71260	-0.024300754
156	0x3c3b9811	0.01144983
157	0xbf37e39b	-0.71831673
158	0xbe7fb7e4	-0.24972492
159	0x3ea1ed4d	0.3162636
160	0xbe145e8b	-0.1448919
161	0x3e520bee	0.20512363
162	0xbc6440aa	-0.013931433
163	0x3e438ba5	0.19096239
164	0xbe242ac4	-0.16031939
165	0xbe2421c0	-0.160285
166	0xbd70d868	-0.05880013
167	0x3da6acac	0.08138403
168	0xbe19d1dc	-0.15021461
169	0xbe37f981	-0.17966272
170	0x3e1cd2aa	0.15314737
171	0x3dd344a8	0.103158295
172	0xbd9ca76b	-0.0764912
173	0xbe09858e	-0.13429853
174	0x3e49f3f9	0.19721974
175	0x3d6dc0e3	0.05804528
176	0x3d18f10d	0.03733926
177	0x3e4aef82	0.19817927
178	0x3f47e220	0.78079414
179	0xbe3e350f	-0.18574928
180	0xbe032016	-0.12805209
181	0x3e4c72c5	0.19965656
182	0xbe18ceac	-0.14922589
183	0xbdaec6e8	-0.08534032
184	0x3ea26ce8	0.31723714
185	0x3e9b960b	0.3038791
186	0x3f5cf820	0.8631611
187	0x3da82424	0.08210018
188	0x3ee7a5a0	0.4524355
189	0x3ea7b96b	0.3275865
190	0xbdad74f5	-0.084695734
191	0xbf07c6f1	-0.53037935
192	0x3f0343c4	0.5127528
193	0xbd47c400	-0.048770905
194	0xbe3ef0a6	-0.18646488
195	0xbecc6292	-0.39918953
196	0x3e884090	0.26611757
197	0x3f0917f2	0.5355216
198	0x3b95d631	0.0045726527
199	0x3e4544cf	0.1926453
200	0x3eac75e5	0.33683696
201	0x3ebb36e4	0.36565316
202	0x3d8431dd	0.06454823
203	0xbde0200b	-0.10943612
204	0xbed3c008	-0.41357446
205	0x3e74b4d5	0.23897107
206	0x3e0840d2	0.13305977
207	0x3f19497c	0.59877753
208	0xbc2944e0	-0.0103313625
209	0x3deb4a24	0.114887506
210	0x3ca31c50	0.019910961
211	0xbe198fd0	-0.14996266
212	0xbdaf579c	-0.08561632
213	0xbe3046f6	-0.1721457
214	0x3e4de530	0.2010696
215	0x3e444712	0.19167736
216	0xbe456036	-0.19274983
217	0xbd96abf8	-0.07357019
218	0x3e3c0dd4	0.1836465
219	0xbe420f64	-0.18951184
220	0x3e1c9e5c	0.15294784
221	0x3e35de2c	0.17760533
222	0xbdac84d0	-0.084237695
223	0xbe683dd0	-0.2267983
224	0x3e4ac635	0.19802172
225	0x3e090f2a	0.13384691
226	0xbd305935	-0.043053824
227	0xbec37616	-0.3817603
228	0x3f0ec30f	0.55766386
229	0x3ecb92d7	0.39760467
230	0x3db9e31e	0.09076522
231	0xbdf0b541	-0.117533214
232	0x3e59f378	0.21284282
233	0x3e756c5e	0.2396712
234	0xbe92f8f2	-0.28705555
235	0x3e70df8b	0.23522775
236	0xbdb90182	-0.09033491
237	0xbd39b458	-0.045338005
238	0x3e6d3502	0.23164752
239	0x3f107a78	0.5643687
240	0xbea372e3	-0.3192359
241	0x3e776d68	0.24162829
242	0x3ca5a5c5	0.020220647
243	0x3ec7fb80	0.39059067
244	0x3e87e4ce	0.26541752
245	0x3e9d5002	0.30725104
246	0x3db82b05	0.0899258
247	0xbe72e359	-0.23719539
248	0x3e36a3e6	0.1783596
249	0x3e907336	0.282129
250	0xbe9d8523	-0.30765638
251	0xbdf21413	-0.11820235
252	0xbe752a7b	-0.23941986
253	0xbf11a52a	-0.56892645
254	0x3e3f95e3	0.18709521
255	0xbe4be603	-0.19911961

model.dense3.bias f4 [16]
0	0x3e9c9088	0.3057902
1	0xbb140e85	-0.0022591662
2	0x3f095fe1	0.53661925
3	0x3e409e2a	0.18810335
4	0x3d39dc09	0.045375858
5	0x3e9a73e4	0.30166543
6	0x3ec8ad82	0.39194876
7	0xbdc304b0	-0.095223784
8	0x3e3a4d52	0.18193558
9	0xbe4b913d	-0.19879623
10	0xbdb5de35	-0.08880273
11	0xbee652de	-0.44985098
12	0x3da775d4	0.08176771
13	0xbe6e147a	-0.23249999
14	0xbde721ee	-0.112857684
15	0x3caf3511	0.021387609

model.dense4.weight f4 [16, 16]
0	0xbe6c1b56	-0.23057303
1	0x3e389062	0.18023828
2	0xbd4afdf8	-0.04955861
3	0xbe52f1ee	-0.20600101
4	0xbe5c2f4c	-0.21502417
5	0xbc400920	-0.011720926
6	0xbe1ae8bc	-0.15127844
7	0xbd02e318	-0.031954855
8	0xbe1150d8	-0.14190996
9	0xbc25cc40	-0.010119498
10	0x3ab9f700	0.0014187992
11	0x3e2b61e4	0.16736561
12	0xbd31a390	-0.043368876
13	0xbe0b8514	-0.13624984
14	0xbc9eb600	-0.019373894
15	0x3c539780	0.012914538
16	0x3f7b8f04	0.982651
17	0x3e903914	0.28168547
18	0x3f605596	0.87630594
19	0xbf10cf05	-0.56565887
20	0xbe391483	-0.18074231
21	0x3eac5db0	0.33665228
22	0x3dee6465	0.116402425
23	0x3dc1fb4c	0.09471759
24	0x3da8b2c5	0.082372226
25	0x3d7eec11	0.06223685
26	0x3d91fb8f	0.07128059
27	0x3ecf18a3	0.40448484
28	0x3e1c9833	0.15292434
29	0xbcea2f00	-0.028586864
30	0x3e137396	0.14399561
31	0x3e99cf02	0.30040747
32	0xbb9f99e0	-0.0048706383
33	0x3ee4c27f	0.4467964
34	0xbea31b02	-0.31856543
35	0x3e49d68c	0.1971075
36	0x3ea454a2	0.3209582
37	0x3eb93156	0.36170453
38	0x3ed14106	0.4086992
39	0x3e67d72e	0.22640678
40	0xbeaf981b	-0.34295735
41	0xbea57683	-0.3231698
42	0x3ea3559e	0.31901258
43	0x3ef3735f	0.4754896
44	0xbd00d69b	-0.031454664
45	0xbe0d86c8	-0.13820946
46	0xbe76b742	-0.24093345
47	0xbe99676f	-0.29961726
48	0xbe067b28	-0.13132918
49	0xbd33f05d	-0.0439304
50	0xbe239acd	-0.1597702
51	0x3eadd30c	0.33950078
52	0xbe4c2b1b	-0.19938318
53	0x3cdae63a	0.026721109
54	0x3c3930ff	0.0113031855
55	0xbe76f784	-0.24117857
56	0x3edf2347	0.43581602
57	0x3edcfce4	0.4316169
58	0x3d009d05	0.031399745
59	0xbdd16dac	-0.102259964
60	0x3cb61de6	0.022231054
61	0x3e7872d0	0.24262547
62	0x3de844f4	0.11341277
63	0x3e8f454f	0.27982566
64	0xbe334c36	-0.17509541
65	0x3ccf6748	0.025317803
66	0xbf18bccd	-0.5966309
67	0xbd7d7a5c	-0.06188427
68	0x3e30d9fe	0.17270657
69	0xbe97c557	-0.29642746
70	0xbe5070b7	-0.20355497
71	0xbe5aa8ce	-0.21353456
72	0x3ea7ab68	0.3274796
73	0xbefcd256	-0.49379224
74	0x3d8d227e	0.068913445
75	0x3e96357f	0.2933769
76	0x3ed4de9b	0.41576084
77	0x3e138d42	0.14409354
78	0x3e85c01a	0.26123124
79	0x3ddec803	0.10877993
80	0x3dfe1377	0.124060564
81	0xbe1ecf6d	-0.15508814
82	0x3e581f72	0.21105745
83	0xbe9d21d8	-0.30689883
84	0x3f13d2ef	0.57743734
85	0x3ec4a58a	0.38407546
86	0x3eaf96fc	0.3429488
87	0x3de2567c	0.11051652
88	0xbd046067	-0.0323185
89	0x3f031452	0.5120288
90	0x3d41e355	0.04733594
91	0xbcb7b2f5	-0.0224242
92	0x3ee6e0e6	0.4509346
93	0x3e1e7726	0.15475139
94	0x3eda105d	0.4259061
95	0xbe70f392	-0.23530415
96	0xbe2a5239	-0.16632928
97	0x3cc4a546	0.02400459
98	0x3f1e8b0e	0.6193093
99	0xbdedff78	-0.116209924
100	0xbe0d46c7	-0.1379653
101	0xbde2e19e	-0.11078189
102	0xbe73eeb6	-0.2382153
103	0xbe0de1c6	-0.13855657
104	0x3f117ac5	0.56827956
105	0x3eb4d097	0.3531539
106	0x3e41a4a5	0.18910463
107	0x3d156c23	0.03648008
108	0x3eadb617	0.33927986
109	0x3e4459f8	0.19174945
110	0x3f014816	0.5050062
111	0x3e02581b	0.12728922
112	0xbe99b6c6	-0.30022258
113	0xbe2ad450	-0.16682553
114	0xbf06598b	-0.5248038
115	0x3ef632ff	0.48085782
116	0xbe42c41a	-0.1902012
117	0x3de2b43c	0.11069533
118	0xbe098d36	-0.13432774
119	0x3dc27bb8	0.09496254
120	0x3ee17bfd	0.44039908
121	0x3cdb3c21	0.02676207
122	0xbd945ab3	-0.07243862
123	0xbda05c57	-0.078301124
124	0x3e954f6c	0.29162157
125	0xbe2b8d7c	-0.16753191
126	0x3e1da3b6	0.15394482
127	0x3efeeafc	0.49788654
128	0xbddb4999	-0.10707397
129	0x3d3c878f	0.046027716
130	0xbf189922	-0.5960866
131	0x3f488e86	0.78342474
132	0x3d559d28	0.05215183
133	0x3eba2374	0.36355174
134	0x3ec06f4e	0.3758492
135	0x3da71b6c	0.08159527
136	0xbe47f209	-0.19525923
137	0x3cf71338	0.030160531
138	0x3e5e9d0d	0.21739598
139	0x3df4203e	0.11920212
140	0xbe8695e1	-0.26286224
141	0x3d4b05d0	0.04956609
142	0xbe300f91	-0.17193438
143	0x3e5a84ef	0.21339773
144	0xbef04cfb	-0.4693373
145	0xbeaf8e56	-0.3428828
146	0xbf5b50b7	-0.85670036
147	0x3d9c2b64	0.076254636
148	0x3e251595	0.16121514
149	0x3df0e79c	0.11762926
150	0xbda77a58	-0.08177632
151	0x3e267536	0.1625565
152	0xbdb454df	-0.088052504
153	0xbf06f516	-0.5271772
154	0x3d46044b	0.048343938
155	0xbd8c09b4	-0.06837788
156	0x3ec96a2c	0.39338815
157	0x3da115a4	0.07865456
158	0x3ed93526	0.42423362
159	0x3eb4a872	0.35284764
160	0x3d9fd4b8	0.07804245
161	0xbf0fa79c	-0.56115127
162	0x3f4cc774	0.7999184
163	0xbe546396	-0.20741114
164	0x3e12d614	0.14339477
165	0x3e83490f	0.25641677
166	0x3e61ad2b	0.22038715
167	0x3e4fb6b0	0.20284534
168	0xbedcd79b	-0.43133244
169	0x3ea49b49	0.32149723
170	0xbdb28f9c	-0.087187976
171	0xbf25b517	-0.64729446
172	0x3e2b74cc	0.16743773
173	0x3e4cbac4	0.1999312
174	0xbc6eafed	-0.014568311
175	0xbc203d97	-0.009780309
176	0x3cd72a79	0.02626537
177	0x3e7693b4	0.24079782
178	0xbf190f2c	-0.59788775
179	0x3f2a554f	0.6653642
180	0x3d345dc5	0.044034738
181	0x3e571d16	0.21007189
182	0x3dab91e3	0.08377435
183	0x3e2b8ba0	0.16752481
184	0x3e00193e	0.12509629
185	0x3d21067b	0.03931282
186	0x3d62ad98	0.055341333
187	0x3e1e9098	0.15484846
188	0xbdf6ab0b	-0.120443426
189	0x3d442610	0.04788786
190	0xbe8b26e1	-0.271781
191	0x3e5ef2be	0.21772286
192	0x3d2c7268	0.042101294
193	0x3e3351c0	0.17511654
194	0xbc60fb20	-0.013731748
195	0xbe5a6056	-0.21325812
196	0xbda2b718	-0.079450786
197	0xbe244662	-0.16042474
198	0xbe2fc5f8	-0.17165363
199	0xbd1dc010	-0.038513243
200	0xbe714b48	-0.23563874
201	0xbe327a74	-0.17429525
202	0x3d643430	0.055713832
203	0x3e3f5868	0.18686068
204	0xbdbc12d0	-0.09183276
205	0xbd6d0870	-0.057869375
206	0xbdbeb954	-0.09312692
207	0xbe6ea6a0	-0.2330575
208	0xbe715029	-0.23565735
209	0x3e967210	0.29383898
210	0x3f44bc12	0.7684947
211	0x3ee460e5	0.44605175
212	0xbeb6ba95	-0.35689226
213	0xbe007158	-0.12543237
214	0xbdfc4bd4	-0.123191506
215	0x3cd9ce10	0.026587516
216	0x3ed2c1bf	0.41163442
217	0xbdb29a58	-0.08720845
218	0xbd9ed5a8	-0.077555954
219	0x3e9b5705	0.30339828
220	0xbd43568c	-0.04768996
221	0xbe157f8c	-0.14599437
222	0xbe84bdfe	-0.25926203
223	0x3ef2a83f	0.47393987
224	0x3d476bb6	0.048686706
225	0xbe156810	-0.14590478
226	0xbf1c36d6	-0.61021173
227	0x3e14653b	0.14491741
228	0x3f0f58e9	0.5599504
229	0x3e8ac77b	0.27105317
230	0xbceb8894	-0.028751649
231	0x3e138be2	0.1440883
232	0xbed606ac	-0.41801965
233	0x3cc994ae	0.024607029
234	0xbe93f59d	-0.28898326
235	0x3d027352	0.03184826
236	0x3eb81a69	0.3595765
237	0xbac31d00	-0.0014885962
238	0x3ebf84d2	0.3740602
239	0x3e0ad84d	0.13559075
240	0x3f36a87b	0.7135083
241	0x3f066b5a	0.52507555
242	0xbe3fa1d7	-0.18714081
243	0xbe9865d7	-0.29765198
244	0xbee82a73	-0.45344886
245	0xbd719c16	-0.058986746
246	0x3dfbc5cd	0.12293587
247	0x3be4a4c0	0.0069776475
248	0x3ec7d4f2	0.39029652
249	0x3dc69431	0.09696234
250	0xbca50907	-0.020145906
251	0x3ebba035	0.36645666
252	0xbe33c621	-0.17556049
253	0x3d161368	0.0366396
254	0x3d0dafa2	0.034591325
255	0x3e7a34eb	0.24434249

model.dense4.bias f4 [16]
0	0xbe55b95c	-0.2087149
1	0x3eaea881	0.34112933
2	0x3e842833	0.2581192
3	0x3cd29539	0.02570592
4	0xbf5021a1	-0.81301314
5	0xbdb53b74	-0.088492304
6	0x3ead4ddf	0.33848473
7	0x3db92895	0.090409435
8	0x3d5acf52	0.053420372
9	0xbe316af3	-0.17325954
10	0x3f659cd9	0.89692456
11	0xbf0f0b51	-0.5587664
12	0xbe3589a8	-0.17728293
13	0x3de35cae	0.111016616
14	0xbf2e64ec	-0.68122745
15	0x3ea6503e	0.32483095

model.output.weight f4 [10, 16]
0	0xbe4319ec	-0.19052857
1	0xbf715ddc	-0.94283843
2	0xbf0592c3	-0.52177066
3	0x3e3b26e2	0.18276551
4	0xbdb1e5eb	-0.086864315
5	0xbefb1e5b	-0.49046597
6	0x3d87fb5e	0.06639741
7	0x3eb4a7d5	0.35284296
8	0x3ed27b21	0.41109565
9	0x3eb71b44	0.3576299
10	0xc0138a70	-2.3053246
11	0x3de69a69	0.1125992
12	0x3e2a69ac	0.16641873
13	0x3e4551c8	0.19269478
14	0x3c953c81	0.018217327
15	0xbef1d5f9	-0.4723356
16	0xbda468c4	-0.08027795
17	0x3f22f0bd	0.6364859
18	0xbf007cab	-0.5019023
19	0x3da74a36	0.081684515
20	0xbc05f381	-0.008175732
21	0x3dc9ac2b	0.098472916
22	0x3e99ee1f	0.30064484
23	0xbe5fe677	-0.21865259
24	0xbf1d57a9	-0.61461884
25	0xbef214c2	-0.47281462
26	0x3f3d8d54	0.74043775
27	0xbf130564	-0.574301
28	0x3d8a6c74	0.06758967
29	0xbf1d61c5	-0.6147731
30	0xbedbfaeb	-0.42964873
31	0x3eb206c2	0.3477078
32	0xbe5e8150	-0.21729016
33	0x3e4c78ae	0.1996791
34	0x3dd0f900	0.10203743
35	0xbe165b8d	-0.14683361
36	0x3f0f5101	0.5598298
37	0x3e0c2796	0.13686976
38	0x3d248178	0.040162534
39	0xbe54f4f0	-0.20796561
40	0xbe3b843d	-0.18312164
41	0x3d8c7f74	0.06860247
42	0xbf645de0	-0.8920574
43	0xbe5cce84	-0.21563154
44	0x3d47ade8	0.048749834
45	0xbeb87df2	-0.3603359
46	0x3e95cf43	0.2925969
47	0xbdbde651	-0.09272445
48	0x3e71b80a	0.23605362
49	0x3e5070bd	0.20355506
50	0x3ecedd7c	0.40403354
51	0xbe9ce170	-0.30640745
52	0xbdc647bd	-0.09681652
53	0xbd1c702b	-0.03819291
54	0xbf2e0255	-0.6797231
55	0xbf20f276	-0.62869966
56	0x3e887680	0.26652908
57	0xbf480f88	-0.781487
58	0xbf0a3d80	-0.5400009
59	0x3e04ac50	0.12956357
60	0xbe03ebdc	-0.12882942
61	0xbef68478	-0.4814794
62	0x3e5a2455	0.21302922
63	0x3d3aa0fe	0.04556369
64	0x3e16b744	0.14718348
65	0xbf306e9a	-0.68918765
66	0xbec3c9c5	-0.38239875
67	0x3e6686ff	0.22512434
68	0x3e33bea6	0.17553195
69	0x3d9e29e7	0.07722836
70	0x3eb747f6	0.3579709
71	0x3e838d7d	0.25693884
72	0xbdc6474f	-0.0968157
73	0x3ee0b44c	0.43887556
74	0xbf472b19	-0.77800137
75	0xbeb04cb7	-0.3443353
76	0xbe115728	-0.14193404
77	0xbf028104	-0.5097811
78	0x3ea57ccb	0.32321772
79	0xbf0f4b1d	-0.5597399
80	0xbcbe21e0	-0.023209512
81	0xbe874b18	-0.2642448
82	0x3ec2f7f5	0.380798
83	0x3ddb7a10	0.10716641
84	0xbf5817b4	-0.8441117
85	0xbf6446af	-0.89170355
86	0xbf1be53b	-0.6089665
87	0xbdf10a5a	-0.117695525
88	0x3ee0ee55	0.43931833
89	0x3c012418	0.007882141
90	0x3e7ebf58	0.2487768
91	0x3e03b09c	0.1286034
92	0xbd9ffdc4	-0.07812074
93	0x3ecb2d52	0.39683014
94	0xbeff7297	-0.49892113
95	0x3e33f526	0.17573985
96	0x3c948e80	0.018134356
97	0xbe91f756	-0.28509015
98	0xbcd8a839	-0.026447402
99	0x3e579354	0.21052295
100	0x3ecaad63	0.3958541
101	0xbf57360f	-0.8406686
102	0x3ed1c9ff	0.40974423
103	0x3e761449	0.24031176
104	0xbeb75464	-0.35806572
105	0x3d97754a	0.07395418
106	0xc01e6082	-2.4746404
107	0xbd978d62	-0.074000135
108	0x3e742e5a	0.23845807
109	0x3eaf6f34	0.3426453
110	0xbf3edd83	-0.7455675
111	0x3e19db61	0.15025093
112	0x3e384708	0.17995846
113	0x3ebed403	0.37271127
114	0x3d846d6d	0.06466184
115	0xbf0f58fe	-0.55995166
116	0xbe8dc08c	-0.27685964
117	0x3ed27131	0.41101983
118	0x3e0300e2	0.12793306
119	0xbf1f1902	-0.62147534
120	0xbeac8f18	-0.33702922
121	0xbd9a1822	-0.07524134
122	0x3f24f28d	0.64432603
123	0xbf2ccd31	-0.675006
124	0xbdd112c8	-0.1020866
125	0x3ec36877	0.38165638
126	0x3d9db5cf	0.07700693
127	0xbd9e3843	-0.07725575
128	0x3e78f08c	0.24310511
129	0x3e998292	0.2998243
130	0xbdc60300	-0.09668541
131	0x3e99f3e0	0.30068874
132	0xbdbf93df	-0.09354376
133	0xbc8b90af	-0.017036764
134	0xbd8f62a1	-0.07001234
135	0xbe26b042	-0.16278175
136	0xbccd47e7	-0.0250587
137	0xbf186157	-0.5952353
138	0xbfbf04d4	-1.4923348
139	0x3e23fbcd	0.16014023
140	0x3e775d80	0.24156761
141	0xbdafca69	-0.085835285
142	0xbd4b9025	-0.049698014
143	0x3eb4862f	0.35258624
144	0x3e6f64c0	0.23378277
145	0xbea8ba32	-0.32954556
146	0x3e8f1c37	0.27951214
147	0x3e439073	0.19098072
148	0xbeb1df76	-0.347408
149	0x3dd76138	0.1051659
150	0xbe9a224a	-0.30104285
151	0x3c08e9b6	0.008356502
152	0x3ecd6520	0.40116215
153	0x3e5b4c27	0.21415769
154	0xbe6f3b21	-0.233624
155	0xbd1e0900	-0.0385828
156	0x3d178cb8	0.036999434
157	0xbe2f731f	-0.17133759
158	0x3dea9a14	0.11455169
159	0xbf227bef	-0.6347036

model.output.bias f4 [10]
0	0x3da7f7a6	0.08201532
1	0x3fb534ca	1.4156735
2	0xbf512e7c	-0.81711555
3	0xbe4bb004	-0.19891363
4	0x3e6cfbf8	0.23142993
5	0x3f8999c2	1.0750048
6	0xbf05e139	-0.5229679
7	0x3eb0d2db	0.3453587
8	0xbeaac613	-0.33354244
9	0xbed68a44	-0.41902363
