Models/model_optRMSprop_ep10_neu32_lay1_acc0.9294.pth (torch, 106534 bytes, 6 tensors)

model.input.weight f4 [32, 784]
00000000: 5041 ca3c 5ba8 013d 1e82 89bc b58e 093d
00000010: e001 61bc f09a d3bc 3028 a9bc 96bc 933c
00000020: a7a0 97bc 5e85 c6bc 1020 313b f5d3 98bc
00000030: c124 c7bc fb7d 04bd d11d 2d3c 2880 473d
00000040: 622f 0ebd 5055 4b3c 331d b1bc ae97 26bc
00000050: d0c3 003c d587 08bd 56b1 0abd 993a 0e3d
00000060: 4029 803c 35b2 d7bc c4be 1a3c f8c4 55bc
00000070: ee36 81bc b0a9 10bd 426a dc3c aa79 86bc
00000080: 85cd 8bbc 75f4 eebc 1c53 9ebb ad4b 71bd
00000090: ca8c 03be 062f c2bd d520 10bd 9f4a 2fbd
000000a0: 0466 b3bd 4736 bcbd 53d6 7e3d 8805 fe3d
000000b0: fc57 033e 1654 073c 6971 33be 5735 14be
000000c0: c3e3 0bbe 9387 05be 1f28 f7bd ac46 33bd
000000d0: ae87 75bc a8bf 603c 40d9 ab3c 836b f3bc
000000e0: 14fd 8d3c 26c3 14bc 8bf0 103d c8e2 7f3c
000000f0: a95b 09bc e049 a3bd 3fa1 c8bd e610 94bd
00000100: 4b91 59be 13b6 4cbe 6061 7dbd 1b3e 96bd
00000110: 3ff1 9e3d 781c d03b b383 3e3c 3a63 d93b
00000120: fa6c 663d d1ee 67bd c615 4e3b ca9e 7bbe
00000130: 611c bcbe c7ed a0be b61e 52be 1524 03be
00000140: afcf 05be 908c 48bd d00f 623c 0012 15b9
00000150: 2c16 c43c f537 86bc 4327 94bc be84 813c
00000160: 8ee7 06be 098b c53d 6183 703d ff1d f1bc
00000170: bb0d 0fbd 70ef 033a cd9d 433d e2f6 e2bc
00000180: 7fc4 173e a8cb 2a3d da33 453d edd1 d13d
00000190: e35a 273e ef7e 253e 482e 043c 7993 eebd
000001a0: 787d c4bc 4699 d6bc f8ad 24bd 6ec8 f03a
000001b0: cbf5 463d fc41 ccbd 30d0 d33b f939 0d3d
000001c0: c210 ab3c 74b8 03bd 2009 b3bc 4e4e 073e
000001d0: b699 f83d 4f5c cd3d 442d bb3c 6141 983d
000001e0: df08 ff3d d760 273e d042 a63d 6514 2d3e
000001f0: a309 293e 1c24 153d ed7d c23d 40aa 0f3e
00000200: d45a a23d ee42 5c3c d331 083e 8a61 25bd
00000210: 65bb 47bd 0a08 8e3b 98f3 d2bd 5224 11bb
00000220: 94fc 143e 637d 233e fa65 1cbb 77d2 113d
00000230: 943e f5bb e09e 23bb 2b66 2a3e a4d6 ea3d
00000240: 18c4 8cbd 4a12 31bd 8a6b 163d e50d 213e
00000250: e31b c73d a90c 1e3d ae2e 37bb 005f 0e3e
00000260: 233e d63d 9f05 443e 1870 8f3d 375e 5d3c
00000270: 8663 863d 2348 0ebd 5fca 2e3d d26e febc
00000280: f051 b7bd 6883 8dbd 7441 43be 44c8 65be
00000290: aa1a 05be c5ec 2d3c cfd7 47bc e99f 073e
000002a0: d531 f6bc 5012 00bb 1883 02bc d7b4 2b3e
000002b0: a0f0 edbd cba6 9cbd 6588 de3b 94cc 3bbd
000002c0: de6f 0d3d f296 123d 6268 e23d 6224 f63d
000002d0: ba6d bb3d b06d b53d 78af ea3d fffc d63d
000002e0: 6a2f cd3d 05c4 923d f0c9 a93d 1002 863d
000002f0: abb8 153d 88a9 44bd c99e 14bd 7440 50be
00000300: 64f4 5ebe 28de bfbd 133f 23bd 2bb8 06bd
00000310: ef1f 363c ac02 163e e84d 18be eab9 1b3e
00000320: 7e20 3bbd 8e1e 8dbd 0118 8fbc 6986 153e
00000330: 2b22 253e 3009 f23d 739a 883d a014 173e
00000340: 5b94 403e f456 fc3d c673 053e 116b 1f3e
00000350: cdb7 8c3d 3041 283d 627e 9c3d 1b0c b03d
00000360: 332d 00bc d18d d4bb 4d8b 6c3d 06f1 153d
00000370: 52a7 9dbd fedc 91bc b268 b0bd ad87 91bd
00000380: d69b 74bc 69c7 733d 315c 0abe f0a5 8c3e
00000390: 8cfc cb3d dc98 aabc c022 2d3e 9073 6f3e
000003a0: 99f9 763e 3ca8 053e 3669 4a3d f536 2c3e
000003b0: 8447 593e 4c87 373e 6954 733e 6d5d 503e
000003c0: 6fbf 5a3e c384 043e a6c2 4a3e 04b6 bd3d
000003d0: bdb5 943d 10ec a13d 1e61 ab3d 68ac dd3d
000003e0: fb1f 6e3d 12e3 973d ed8f 593d 2d0a 013e
000003f0: d7e5 b8bc 400f eb3d 1272 523e 66e9 933e
0.024689347 0.031654697 -0.016785678 0.03358336 -0.013733357 -0.025830716 -0.020649046 0.01803426
-0.018509222 -0.024233516 0.0027027167 -0.018655756 -0.024309518 -0.032346707 0.010566191 0.048706204
-0.034713157 0.012410477 -0.021620369 -0.010167999 0.007859185 -0.033332665 -0.033860527 0.03472385
0.01564467 -0.026330093 0.009444896 -0.013047449 -0.015773263 -0.035318077 0.026906136 -0.016415436
-0.017065773 -0.0291693 -0.0048316848 -0.05891006 -0.12846676 -0.09481625 -0.03518756 -0.042795774
-0.08759692 -0.0919004 0.062216114 0.12403399 0.12826532 0.008259794 -0.17523731 -0.14473473
-0.13661103 -0.13039999 -0.12068199 -0.04376857 -0.014985962 0.013717569 0.020977616 -0.029714352
0.017332591 -0.00907973 0.03538565 0.015618034 -0.00838367 -0.07973075 -0.0979638 -0.072297856
-0.21246831 -0.19991331 -0.061860442 -0.073360644 0.07760858 0.00635105 0.011628079 0.006634143
0.056256272 -0.056624237 0.0031446083 -0.24572292 -0.367404 -0.3143141 -0.20519528 -0.12806733
-0.13067506 -0.048962176 0.013797715 -0.00014216453 0.023936354 -0.016384104 -0.018085128 0.015810367
-0.13174269 0.096456595 0.058719043 -0.029433249 -0.034925204 0.00050329324 0.047757912 -0.027705614
0.14821051 0.041698128 0.048145153 0.10245118 0.16343264 0.16161703 0.008067675 -0.11649222
-0.02398561 -0.026196133 -0.040204972 0.001837028 0.04857425 -0.09973523 0.006464027 0.034479115
0.020882014 -0.03215833 -0.021854937 0.13213465 0.12138693 0.10027372 0.022848733 0.07434345
0.12452864 0.16345535 0.08118212 0.16902311 0.16507582 0.03641139 0.09496675 0.14029789
0.0792748 0.013443692 0.13300256 -0.040376224 -0.048762698 0.0043344544 -0.10300368 -0.0022146893
0.14549476 0.159658 -0.0023864494 0.035601106 -0.0074842665 -0.0024966523 0.16640536 0.11466721
-0.068733394 -0.043230332 0.03672365 0.15727957 0.09722116 0.038586292 -0.0027951407 0.13903427
0.104610704 0.1914277 0.07003802 0.013511232 0.06561951 -0.034736764 0.042673465 -0.031058703
-0.08951175 -0.069098294 -0.19067937 -0.22439677 -0.12998453 0.010615532 -0.012197449 0.13244595
-0.030053059 -0.0019542165 -0.0079658255 0.16768204 -0.11618161 -0.07649001 0.006791162 -0.045849398
0.034530513 0.035788484 0.11055066 0.12018658 0.09151788 0.08858812 0.11459249 0.10497474
0.10018809 0.07166294 0.0829047 0.06543362 0.036553066 -0.04801324 -0.03628424 -0.20337087
-0.21772915 -0.09368545 -0.039855074 -0.03289048 0.011116012 0.14649457 -0.14873469 0.1520764
-0.045685284 -0.068905935 -0.0174675 0.14602055 0.16126315 0.118181586 0.06670084 0.14753962
0.18806593 0.123212725 0.13032445 0.15568186 0.06870995 0.041077793 0.07641293 0.08596059
-0.007823276 -0.0064866324 0.057750035 0.03660681 -0.076979294 -0.017805573 -0.08613719 -0.07105956
-0.014929732 0.059516344 -0.1351173 0.2747035 0.09960279 -0.020824842 0.16907787 0.23383927
0.24118651 0.13052458 0.049416743 0.1681784 0.21218687 0.17922705 0.23762669 0.20348139
0.21362089 0.1294127 0.19800815 0.09263232 0.07261226 0.079063535 0.08368133 0.108238995
0.058135968 0.07416357 0.053115774 0.12601538 -0.022570534 0.11477518 0.20551327 0.28889006

model.input.bias f4 [32]
00000000: 4392 13be 558d d73d 5fc0 6e3d 463f 113e
00000010: 448f 703d e2f8 973d 869c 673d 857f a53c
00000020: 3454 81bd 37ff d73d cdce f23a ea21 b53d
00000030: 0f7c 8f3e e426 ce3d b628 4ebc a830 083d
00000040: 763d 0dbe 6acf b63d 6fbc 66be b1c6 6cbc
00000050: c366 103e 69e9 5a3e 5474 8d3e 04a8 5d3e
00000060: 02f8 b83e d1f3 7bbe fec9 58bd 3906 22bd
00000070: 0246 4dbd 2164 643e f6b2 38bd ef30 8a3e
-0.14411263 0.10525004 0.058288928 0.14184293 0.05873038 0.074205175 0.056545757 0.020202408
-0.063148886 0.10546725 0.0018524766 0.08844359 0.28024337 0.100660115 -0.012582948 0.033249527
-0.13792977 0.0892628 -0.22532819 -0.014451669 0.141017 0.21378101 0.27627814 0.21646124
0.36126715 -0.24604727 -0.05292701 -0.039556716 -0.050115593 0.22303821 -0.045092545 0.26990458

model.dense1.weight f4 [16, 32]
00000000: 40af cbbd 0740 513e 90f7 e0bd 3f70 b13e
00000010: 28e3 adbd 02e8 fd3d 734c 963e 328a d73d
00000020: 064c ae3e 5c4f 6e3e 2079 29be e408 b63e
00000030: b4ee 0fbe 4fcd fd3e 0963 203e c0c1 933d
00000040: 6e81 5f3d 8990 41be 0b43 0b3e f6d5 7dbe
00000050: b77a 81be 90aa 8dbd 10a6 db3d 37dd fe3d
00000060: c7cc 813e cede c4be e37c babe 670f 853c
00000070: 5ea8 b9be 7278 433e 828d 673d e85e 31be
00000080: cf26 6cbe 3af4 f4bd d6e2 a13e 9270 23be
00000090: 8642 123d 782c b1be d595 433d ad5c f5bd
000000a0: 5329 323e fe7b b0be 104d 01be 9af3 663e
000000b0: 1ecd a53e 8cfc ba3e 8b61 813e 2c0c 463e
000000c0: 1f17 e3bd 154e a83d 2de4 a63e e0c2 b1be
000000d0: 5c79 e93d 8a0c cbbc c0a5 393e c2a4 1fbe
000000e0: b6e2 9cbd 2e9a 7f3e 55a7 fcbc 9157 5d3d
000000f0: 1f50 8d3d 6d18 cf3d 7d88 c4be 770f e93e
00000100: b41c be3d ec7f 803d eea0 6fbe d30f 71bd
00000110: 7eb5 f7bd 24f0 963e ad33 643e 21fe 063e
00000120: b330 773c b6ff 393e 9287 8abc 5275 41bd
00000130: 15ec 453e af1c cb3d e834 533e 7dbb 473d
00000140: 4128 4abe 78df 1a3e e366 04be 6877 82be
00000150: 83f0 f43e ac3f ba3e b3f8 91bd 61d9 073d
00000160: 895d d63e 1568 a6be 5814 ae3e 6bbc f83d
00000170: f3fc e0be 4b3a 433e 38b1 503f 3be8 f83d
00000180: 706a 3ebd 0424 89be a217 5c3e 308f fd3d
00000190: 83c1 e1be 6ec8 263d b668 7ebe e8db 0dbe
000001a0: 8962 9dbe 3101 96be 8f16 b7bd 4290 b03e
000001b0: af81 2f3d c692 313e 129b 833e 5a53 72bc
000001c0: b3a7 7abe 8e27 debc 66dc 6d3d d17b 103e
000001d0: c90c b33e 396c b53c 39a8 7f3e b98d 203e
000001e0: c04e dc3e bca1 9cbd 25ca cebd 2a4f f53d
000001f0: 6832 993e bb5b 823e 5b42 653e cd18 65bd
00000200: 7f43 903e 484b a73e 3115 b63e 4b2a 9a3e
00000210: 5c6b 25be e4dc 0e3e c8e9 a6bd d61e 083e
00000220: a4dd 9b3e ee59 1f3e 3b88 16be 534a 06be
00000230: bf5a 43be 4daa 2ebf cf4e a13e c37f a2bd
00000240: daf5 03be 1e43 d43e 08df 4abe 6158 da3e
00000250: b53e 61be d085 b03e 4c47 3b3d 2af7 643e
00000260: 072c 963e ff21 5abd 60c0 403d 877d b0bd
00000270: 3eb5 e7be fd76 84be 7054 9bbe e821 b83d
00000280: 295b bcbe f71d 243e 3b7e 013e 6e62 9c3d
00000290: 96a0 1c3e 1e70 72bd b36b 573e a500 4c3c
000002a0: fbc8 a4be fa6e 533e e08c 67bd 28c3 3a3e
000002b0: 0f3d aa3e 3587 653e eea7 cdbe b90e 4c3e
000002c0: a18c 0abe b76f 07be b462 07be 5c79 5f3e
000002d0: 9101 11bf 46b7 973e e87e ad3e 4bf1 c03e
000002e0: cc1d 033e d1ef b0be 2f89 ac3d 6bd7 f6bd
000002f0: 1a3a 57be 3fc7 11be 941f 13bf a89f d53e
00000300: 1c9c 27be f196 9b3c 03b6 223e 479e c63d
00000310: 824b a03e 124e 153e 5879 013f 7238 aa3d
00000320: 18bf a7bc 5d12 e8bd 0fd8 073c 040c 733d
00000330: 80b8 873e dba1 513e 00d3 64bd ad1c 753d
00000340: 9c3a e2bb fa6c 983d 3c54 30bd 91af f73d
00000350: f9cf b2be 5dc7 a8bd 102b 23be 62d6 c83d
00000360: 4326 fd3d c475 82be 53c8 053e 3048 593c
00000370: b7ce 20bc 147d e9be 2cf2 d5bc 1e5e 243e
00000380: e4c7 273d 5cd4 33bd 9c86 34be c1df 80bd
00000390: 7102 1fbe b655 bdbc c32c 88bd 0b19 a3bd
000003a0: a435 ffbd b42f d13d 1033 21bd d8eb ea3c
000003b0: 9f81 1bbe de85 18be f144 273d 29b2 8b3d
000003c0: e95e d8bd 8683 b7bd 9b9e dbbd 68e7 a03c
000003d0: 20c8 e3bc 3c15 933d 7c91 2ebe 725e bb3d
000003e0: 2fad 0fbe 0428 463d d2d8 ca3d 90aa 20bc
000003f0: 8a8f 68bd 3828 6bbd 4c28 c5bd c50d 08bc
-0.09945536 0.2043458 -0.10984719 0.3465595 -0.08490592 0.123977676 0.293552 0.105244055
0.34042376 0.2327246 -0.16550112 0.35553658 -0.14055902 0.495707 0.15662779 0.07214689
0.054566793 -0.18902792 0.13599794 -0.24788651 -0.25288936 -0.06917298 0.10725033 0.12444537
0.25351545 -0.38451236 -0.36423406 0.016242696 -0.36261266 0.19088915 0.056531437 -0.1732136
-0.2306168 -0.11960645 0.31618375 -0.15960911 0.035707973 -0.3460424 0.047750313 -0.11980567
0.17398576 -0.344696 -0.12627053 0.22553864 0.32383054 0.36520803 0.25269732 0.1934058
-0.110883944 0.08218018 0.3259596 -0.3471899 0.114001006 -0.024786253 0.18129635 -0.15590194
-0.07660429 0.24961159 -0.030841509 0.054038588 0.069000475 0.10112081 -0.38385382 0.4551961
0.092828184 0.06274399 -0.23401234 -0.05885298 -0.12095164 0.29480088 0.22285338 0.1318288
0.015087294 0.18163952 -0.016910348 -0.047231026 0.1932834 0.0991758 0.20625651 0.048762787
-0.19741918 0.15124309 -0.12929873 -0.25481725 0.47839746 0.36376703 -0.07127514 0.033166293
0.41868237 -0.32501283 0.33999896 0.12145313 -0.43942985 0.19065206 0.81520414 0.121536694
-0.046488225 -0.2678529 0.2149339 0.123808265 -0.4409295 0.04071849 -0.24844632 -0.13853419
-0.3073924 -0.29297784 -0.089398496 0.3448506 0.042848285 0.17341146 0.25704247 -0.01479038
-0.24478035 -0.02711847 0.058071516 0.14109732 0.34970692 0.022146331 0.24966516 0.15679063
0.4302883 -0.07648036 -0.1009715 0.1197799 0.2992127 0.2546061 0.22388594 -0.055931855
0.28176495 0.32674623 0.35563043 0.30110392 -0.16154236 0.1395145 -0.08150059 0.13293013
0.30442536 0.15561649 -0.14700405 -0.1311429 -0.19077586 -0.6822861 0.3150544 -0.07934525
-0.12886754 0.41457456 -0.19811642 0.42645553 -0.21996577 0.3447709 0.04572229 0.2235991
0.29330465 -0.053255077 0.047058463 -0.086176924 -0.45255464 -0.2587203 -0.30337858 0.08990842
-0.367883 0.16027056 0.1264581 0.076359615 0.15295634 -0.059188955 0.21037178 0.012451326
-0.32184586 0.20647803 -0.056530833 0.18238509 0.3324971 0.22414859 -0.40167183 0.19927491
-0.13530208 -0.1322621 -0.13221246 0.21823639 -0.56643015 0.29632014 0.33885884 0.37684092
0.12804335 -0.34557965 0.08424603 -0.120528065 -0.21018258 -0.14236163 -0.5747006 0.4172337
-0.16368145 0.018992873 0.15889744 0.09698158 0.31307608 0.14580563 0.5057578 0.08311547
-0.020476863 -0.113316275 0.0082912585 0.05933763 0.2650795 0.20471899 -0.055865288 0.0598418
-0.0069039594 0.07442661 -0.043049082 0.120940335 -0.34924296 -0.082411505 -0.15934396 0.09806515
0.123608135 -0.25480473 0.13064699 0.01326184 -0.00981491 -0.4560324 -0.026116453 0.16051528
0.040962115 -0.043903694 -0.17629474 -0.06292678 -0.15528275 -0.02311216 -0.066491626 -0.07963761
-0.12461403 0.10214177 -0.039355338 0.028676912 -0.15186165 -0.14894816 0.040837232 0.06821091
-0.10564978 -0.08960633 -0.10723611 0.019641593 -0.027805388 0.071817845 -0.17047685 0.091488734
-0.14030908 0.048378006 0.099046364 -0.00980629 -0.056777515 -0.057411402 -0.09626827 -0.008304064

model.dense1.bias f4 [16]
00000000: 5168 c43e 8c12 173e 9f14 8e3e 705c a6bd
00000010: e1bd d13c 2f5b b53e a291 52bd 5d0e 2bbe
00000020: dce1 d8bd e11a c93d 6d98 1e3e fab5 513d
00000030: f2cc 6abd 3c82 1abc cfd4 62bd 7ee8 063c
0.38360837 0.14753169 0.27750108 -0.081231 0.025603237 0.3542113 -0.051408418 -0.16704698
-0.10589954 0.0981958 0.15487833 0.051198937 -0.057324357 -0.009430464 -0.05537873 0.008234141

model.output.weight f4 [10, 16]
00000000: 3c74 ce3e 328d 76be a750 553d 9a10 bdbe
00000010: c4e7 a63e 4cff e1be 9744 473d c51c 18bd
00000020: e2f6 f0bd 2d8e adbe 9ede 98be 32b4 7ebe
00000030: 3e33 9b3e 1207 6bbe 701e c3be 2fed dabe
00000040: 3dac 32be 8724 4b3e 3356 da3a 94b8 11bf
00000050: 4fbe d3be a634 6abe 42cb a1be 15cd 7ebe
00000060: b7c5 b0be c50c 413e 4ac1 e73e bbab e8be
00000070: aedf d9be 7b44 de3d 23aa 413e 29cc b8be
00000080: 89d6 8e3e 46ad f7be 7eea 1e3e 3adf ad3e
00000090: 5bdd c9be 6312 50bd e085 69be ba6b 913d
000000a0: ac3b a33e 13bd 51be a43e c63d 8885 02be
000000b0: d09f 673e 433b acbd 0d0b 3b3e 2d6d a8be
000000c0: 222b e4be df41 dcbe f684 1abe 246e b8be
000000d0: 6394 7d3e d16d 03bd 4f56 9b3e 07d3 32be
000000e0: abec f33e cd34 933b bff3 993e 2216 33bc
000000f0: fc45 91be 3544 9a3d ac92 4cbe 3f37 90be
00000100: d272 93bd acf0 99bd 7e6d 14bd 9d2e 1b3d
00000110: 8b38 0bbe 642d 183f 1704 87be 3ed8 97bd
00000120: 7760 2ebf 9f1a 8ebe f134 483e c815 693e
00000130: 3fb9 2c3e 1e4f 65be 3a44 b0be b428 48bd
00000140: 2257 963e 7c7e 15bf a70e ec3e 0239 efbe
00000150: 7bc9 a23e ecce a63e 84e0 8ebb 4498 0a3d
00000160: e514 83bd b7a3 0fbe 751b 65bd acf2 95be
00000170: b6c0 39bf f406 663e 9bee 5ebe c07e ca3e
00000180: 2764 643e f45b 9c3e ea26 d3be c424 25be
00000190: 0964 5fbe fc48 d13e 06a9 c33e bd22 533e
000001a0: 9371 ce3d 8230 acbb 73d0 2abf 4e52 0dbf
000001b0: 3915 d93d d0df 263e 0b38 fabd f694 30be
000001c0: 7e73 84be fb4d 153e 5f0c 103f 306b a03e
000001d0: 0c53 b4bd d628 96be 4a99 07bd e67d 6c3d
000001e0: afbd 4fbd d44b 44be 774e 683e 80bd ae3e
000001f0: 4aa2 ddbe c856 0f3e a182 8abe 56df 21bf
00000200: 80e0 2dbe 8cc4 4bbe 712c e4be e845 e8be
00000210: a450 f63d 3bce 92bc cf75 b4be 3805 393e
00000220: eb43 9fbe dc3c 803e b893 8abe 4d6d ac3d
00000230: 0e9f 313e 0a8b 2c3e 3b96 343e efc9 3d3e
00000240: 2f5f 073e 5cb4 7c3d 9477 07bf eecc 353e
00000250: 7ea0 5fbc c3c8 c8be 08e5 6dbf 02dc 1ebe
00000260: 65ae e83d 4fd4 62be 1172 823e bff5 453e
00000270: a250 14be aa95 083d 6614 ddbe 1b34 af3e
0.40323055 -0.24077299 0.05207887 -0.36926728 0.32598698 -0.4414009 0.048649397 -0.03713681
-0.11765839 -0.33897534 -0.29857343 -0.24873427 0.30312532 -0.22951916 -0.3810916 -0.42759082
-0.17448516 0.19838153 0.001665777 -0.5692227 -0.4135613 -0.22871646 -0.31600386 -0.2488292
-0.34525844 0.18852527 0.45264655 -0.4544352 -0.42553467 0.10852905 0.18912558 -0.36093262
0.27898052 -0.48374385 0.15519139 0.3395937 -0.39426693 -0.050798785 -0.22804976 0.07100625
0.31881464 -0.20482282 0.096799165 -0.1274625 0.22619557 -0.08409741 0.18265934 -0.32895795
-0.44564158 -0.43019006 -0.15089783 -0.3602153 0.24763636 -0.03208715 0.30339286 -0.17463313
0.476415 0.0044923783 0.30068776 -0.01093057 -0.28373706 0.07532541 -0.19977826 -0.2816715
-0.071996346 -0.07516608 -0.036237232 0.03788625 -0.13595788 0.5944426 -0.26370308 -0.07414292
-0.68115944 -0.27754685 0.19551446 0.22762215 0.16867541 -0.22393462 -0.34427053 -0.048866943
0.29363352 -0.58396125 0.4610493 -0.4672318 0.31794342 0.32579744 -0.0043602604 0.033836618
-0.0640047 -0.14027296 -0.05593439 -0.29286706 -0.7255968 0.2246359 -0.21770708 0.39549828
0.2230383 0.30538905 -0.41240627 -0.16127306 -0.21815504 0.40875995 0.38214892 0.2061872
0.10080256 -0.005254806 -0.6672432 -0.5520371 0.10599751 0.16296315 -0.122177206 -0.17244324
-0.25869364 0.14580528 0.56268877 0.31331778 -0.088049024 -0.2932803 -0.033105172 0.057737254
-0.050718006 -0.19169551 0.22686182 0.34128952 -0.4328788 0.13997948 -0.27052787 -0.6323141
-0.16980171 -0.19899195 -0.44565156 -0.45365834 0.120271 -0.017920604 -0.3524613 0.18068397
-0.31106505 0.25046432 -0.27065825 0.08419285 0.17345831 0.16849914 0.17635433 0.18534063
0.13219903 0.06169544 -0.52916837 0.17753956 -0.013649104 -0.3921567 -0.929276 -0.15513614
0.11361388 -0.22151302 0.2547765 0.19332026 -0.14483884 0.033345856 -0.43179625 0.3421944

model.output.bias f4 [10]
00000000: 5b46 db3d 6acc 993e d0d6 cbbd 29c3 3fbd
00000010: f57b 88be a1c6 b13e 84df 32be 431d 8cbe
00000020: 3c94 14be b673 90be
0.107067786 0.30038768 -0.099530816 -0.04681698 -0.26657072 0.34721854 -0.17468077 -0.27366075
-0.14509672 -0.2821328
