Models/model_optSGD_ep10_neu32_lay2_acc0.9182.pth (torch, 108276 bytes, 8 tensors)

model.input.weight f4 [32, 784]
00000000: b8c7 b0bc fe6e fd3c ee8d 19bc 8f11 063d
00000010: d4fa a1bb aeb2 fa3c c122 0c3d 4844 4b3c
00000020: b63d 983c 30af 94bb 5cee ffbb d007 16bb
00000030: 39ab 013c 0f7d 923c b60b ec3c 27e3 a4bc
00000040: 042d 783c 4003 41ba f05e aabb 88bc a53c
00000050: f8a2 a3bb 81b7 013d 9f85 043d 7cf8 66bc
00000060: 582e b93c dc9c 45bc da08 83bc e398 02bd
00000070: c6e6 fe3c 6e11 c5bc a719 083d 148e 2e3c
00000080: c000 253c 4b0b e4bb 5120 dfbc 12f5 e53c
00000090: 96ba e53c a9c5 803c e3e1 04bc ec1f bc3c
000000a0: 9b89 833c a2c4 46bc 9036 c33c 909a 12bb
000000b0: 029d e83c 6602 7c3c 1a53 d0bc 7c32 2c3b
000000c0: 5fc3 e2bb 6c7f e8bc b337 04bd acb4 1dbc
000000d0: d4a1 883c 9270 0ebd 9863 d53c 9039 0b3b
000000e0: 0452 4b3c 543b aabb d52c b9bc 09ac 053d
000000f0: ac91 e3bc 9d80 f63c 8120 f93c 423f 5136
00000100: e2a5 6c3c 89bb 14bc 92d3 f8ba 07cb a0bb
00000110: 43d8 7c3a 02a1 14bd 2f1c 843b 03be f2bc
00000120: c0ed 4ebc 5aa7 823c f21c bb3c 39bc 213c
00000130: 33d2 6ebc 9a86 053c af73 be3c 0874 983b
00000140: 71da eabb 0988 0abb ce52 ff3c 20f4 0cbb
00000150: 067a f03c acf8 c0bc a8b8 fd3b 2687 7abc
00000160: 8ebb 03bd 6b64 6d3c 732d 4b3c f76d b63b
00000170: 8800 123d d398 d1bc b6c6 983c fa8a eabc
00000180: feaf bfbc 2c86 1abd ba82 923c 9915 01bd
00000190: d2ed b13b 4c6c fb3c 23b9 423c 02ea e7bb
000001a0: e52e 0bbd d4f4 88bb 7a85 04bc f216 493c
000001b0: 7a44 083c 5722 d73c e6f9 e93c be56 8f3c
000001c0: 258e d2bc c0d0 ce3a 4479 2d3c a18e 07bd
000001d0: 6587 7bbb 0276 11bd 3be9 c33b b34f f6bc
000001e0: 54f1 be3c 463b a3bc d45e cabb c692 d1bc
000001f0: 76f3 713c a714 0abb 0342 24bd 9938 b83c
00000200: df58 f1bc fdb2 e6bc 97bd 9f3b de30 cabc
00000210: 2012 d53c bda0 cfbc 5061 86bc 1a7b d13c
00000220: ffa3 d93c b764 03bd 05f8 b23c a64c 56bc
00000230: f0d1 ea3b 2a65 dbbc 5059 b13c bd20 0b3d
00000240: cdc3 6e3c 8813 e6bc be4f 0fbc c9ea be3c
00000250: 7b92 23bc efe9 9a3c bf1c eebc 5236 1a3c
00000260: 070e 16bd 5a85 17bd a61a 68bc ac66 e63c
00000270: f28c 893c 3af7 22bc 5211 9939 b85f 693c
00000280: e78f 013d c606 513c a426 333d d276 053d
00000290: d0a1 bfbc 5375 0e3d 5269 b33c b1bb 003d
000002a0: d80e 66bc c739 0e3d 972f a5bc 78a2 febc
000002b0: 06fc e6bc 37b2 673c 241b f13c c23c dd3c
000002c0: 56c4 9d3b 0f38 d63c 0153 483c 2378 35bd
000002d0: 8e11 1bbd 784b 5ebd 2371 66bd 9529 323c
000002e0: 13d6 053d cdee a3bb bc57 043d 8e42 adbb
000002f0: 4573 e13c c7dc 033c 8019 c7bb ea72 c13c
00000300: 315e 8a38 d0f1 983c 27d2 043c b962 e6bc
00000310: e384 33bc a30c 213b b509 9e3b f4d1 dcbc
00000320: ed76 ca3b c72d 2ebd d7d9 c8bb 804f 0b3d
00000330: ccec d4bc 396a e5bc b531 883a a4a7 2ebb
00000340: 2145 87bd 3b22 8abd 0381 e9bc 2b1c 423b
00000350: c961 79bc e0d8 4b3c b370 ec3c e457 203c
00000360: 28d7 b5bc 8286 593c 4256 f43b 93c6 203d
00000370: 3415 153d 90ee 80bc 3f2a 2d3c 1a7f c33c
00000380: 6c60 d83c 02b2 0dbc 866f d63c 9b44 97bc
00000390: 2a30 0fbd e188 973c 2de1 ffbc d6c6 d93c
000003a0: 35bf 013d b455 b9b9 04bc d939 37d7 2abc
000003b0: b921 8ebc 572f 82bd f9ee 80bd 3594 9ebd
000003c0: d2ac 0bbb 09b5 f3bb 7e64 1fbd 32cc ae3c
000003d0: 8cb9 923c e170 8bbc 43fb ff3c 5b72 153d
000003e0: 3b10 bbbc 287b c83c eaf0 0b3d cb17 cdbc
000003f0: d289 52bc c8f3 ea3c 323b 0dbc bb14 ccbc
-0.021579608 0.030936714 -0.009372218 0.03273159 -0.004943231 0.03060278 0.03421283 0.012406416
0.018584114 -0.0045374855 -0.007810397 -0.002289284 0.007914358 0.017881898 0.028814178 -0.020127846
0.015147451 -0.000736285 -0.0051993057 0.0202315 -0.0049937926 0.031669144 0.032353994 -0.014097329
0.022605106 -0.012061324 -0.015995432 -0.031884085 0.0311159 -0.024056163 0.03322759 0.010653991
0.01007098 -0.006959354 -0.02723709 0.02807096 0.028043073 0.015719252 -0.008110496 0.02296444
0.016056826 -0.012131842 0.023829728 -0.0022369958 0.02839518 0.015381431 -0.02543025 0.0026275208
-0.0069202627 -0.028381072 -0.03227968 -0.009625595 0.016678728 -0.034775324 0.026048467 0.0021244027
0.012409691 -0.0051950607 -0.022604385 0.03263477 -0.027779423 0.030090624 0.030411007 3.1180248e-06
0.014443846 -0.009077915 -0.0018983951 -0.0049070152 0.00096452626 -0.03628636 0.00403168 -0.02963162
-0.012629926 0.01594894 0.02284095 0.009871536 -0.014576483 0.008149767 0.023248522 0.004652504
-0.0071671535 -0.0021138212 0.031167414 -0.0021507815 0.02935506 -0.023556076 0.00774296 -0.015291011
-0.032161288 0.014489274 0.012400973 0.005567308 0.035645038 -0.025585568 0.01864944 -0.028630722
-0.02339935 -0.037725613 0.0178846 -0.031514738 0.0054299617 0.030691288 0.01188496 -0.0070774565
-0.03398027 -0.0041795764 -0.008088464 0.012273537 0.008317107 0.026261492 0.028561544 0.017497417
-0.025702545 0.0015778765 0.010587994 -0.033095006 -0.0038380262 -0.03551293 0.005978731 -0.0300673
0.023308434 -0.019925725 -0.006175855 -0.025582682 0.014767518 -0.0021069439 -0.040102016 0.022487925
-0.029461322 -0.02816152 0.004874896 -0.024681505 0.02600962 -0.0253452 -0.016403824 0.025571395
0.026567457 -0.03207847 0.02184678 -0.013079798 0.00716614 -0.026781637 0.021649033 0.03396677
0.01457305 -0.028085485 -0.008747039 0.023305314 -0.009983654 0.018910376 -0.029066442 0.009412365
-0.03663447 -0.03699241 -0.01416651 0.02812513 0.01679084 -0.009946639 0.0002919534 0.014244013
0.031631377 0.012757963 0.043738022 0.03258402 -0.023392588 0.034779858 0.021900807 0.031428996
-0.014041625 0.03472307 -0.020164294 -0.03108333 -0.028196346 0.014141611 0.029431887 0.02700651
0.004814665 0.026149778 0.012226821 -0.044304024 -0.03785854 -0.05427119 -0.05626024 0.010874172
0.03267486 -0.0050028325 0.032310233 -0.005287475 0.027520785 0.008048243 -0.006076038 0.023614366
6.597897e-05 0.018669993 0.008106745 -0.028123247 -0.010956976 0.0024574182 0.0048229345 -0.026955582
0.006178728 -0.042524125 -0.006129484 0.034011364 -0.02599182 -0.028004752 0.001039079 -0.0026650215
-0.06604982 -0.0674481 -0.0285039 0.002961884 -0.015221068 0.012441844 0.028862333 0.00978658
-0.022197321 0.013276698 0.007456572 0.039251875 0.036397174 -0.015738755 0.010569154 0.023864318
0.026413165 -0.008648397 0.026176225 -0.01846533 -0.034958042 0.018497886 -0.031235302 0.02658407
0.03167649 -0.00035349804 0.00041529548 -0.010427288 -0.017350065 -0.063566856 -0.062955804 -0.07743112
-0.0021312726 -0.0074373526 -0.038914196 0.021337602 0.017910741 -0.017021598 0.03124774 0.03648601
-0.022834888 0.024472788 0.0341653 -0.02503576 -0.012850242 0.028680697 -0.00862007 -0.024912229

model.input.bias f4 [32]
00000000: 9f6f ba3c 531d 7abd ebfd 023e 827c bc3d
00000010: a60d 063d 2b56 98ba fc26 523e 7968 753d
00000020: 599b 04bd 5e28 ef3d ae3d c93d d928 f5bc
00000030: 18e0 403d 47f7 d63d 06e4 b03d 8953 9fbc
00000040: 1489 453c c2c1 123e ce3e 07bc 7e19 6f3e
00000050: e61f 013e e66c 9ebb 450e c23d 4b94 bf3b
00000060: 9a4a 1dbd d010 283e d9c2 ad3c eddf 533d
00000070: a961 99bc c427 303d 4bc5 613c fda6 9dbd
0.022758303 -0.061063122 0.12792175 0.092034355 0.03272786 -0.001162236 0.20522684 0.059914086
-0.032374714 0.11677621 0.098262176 -0.029926704 0.047088712 0.10496383 0.08637242 -0.019449012
0.012056608 0.14331725 -0.00825472 0.23349568 0.12609825 -0.004834759 0.09475378 0.0058465353
-0.038401224 0.16412663 0.021211075 0.051727224 -0.018723326 0.043006673 0.013779948 -0.07697866

model.dense1.weight f4 [16, 32]
00000000: cf85 c1bd 27a8 bc3d 42a8 5bbe e918 86bd
00000010: c2ed 9cbe fda1 93be f4da 62bd d8ce 0c3e
00000020: 8b75 92bd 6bdc ac3e b9fc 0b3f ed9b 17be
00000030: 21de e3bd a13d d23e a723 0b3f 8987 debe
00000040: 9dfe 00bc e48e b83e 3614 de3e 4ae2 a0bc
00000050: b3ca cd3d de3c b5bc a941 493e 1d47 eb3e
00000060: ffdf 2e3e ee0b 8fbe 49c1 163e cb93 083e
00000070: d0f8 66be 6c7a 88be b7a2 1abf e3e9 c2bd
00000080: d743 233d c4e2 1f3e 467d 66bd 48a6 82bd
00000090: b65c 23bd 6eb2 3ebd 4852 cfbc 8e05 0a3d
000000a0: 15b2 233d a957 a2bd 8407 243d 0f4d 093e
000000b0: 0439 813d 561a 5dbd 4fa5 1cbe 1d78 5cbd
000000c0: 718e d33d 0ef3 c13c b427 abbd 7675 24bd
000000d0: 7202 7dbd 5773 26be f5f2 34bc 7895 463b
000000e0: 62a9 84bd 5fb2 1ebd e758 19bd e224 1abe
000000f0: ec8a 5e3d 1c82 b33d 856a 1bbe 8db2 45bd
00000100: 3de9 26be 4645 073e 0464 183d 7efd 15be
00000110: 4e6c 6b3d c954 d7bd e558 dcbd 27a9 1bbe
00000120: be09 2239 385d 1cbd e1fe 28be 49bb 0e3e
00000130: 4e6d 2dbd 4b4b 5e3d ef3f 613d fac2 18be
00000140: 0c88 fbbc 390a 693d cbde 593c 53cd 30be
00000150: 87f7 e0bd e961 80bd 1de4 903d 3477 2dbe
00000160: 7ace f3bc 600e dbbd 7e31 f83c ac98 533d
00000170: 7285 ebbd 6fec ba3c a804 f33d 8c55 46bd
00000180: 6281 33be c58d f4ba 62f3 983d 09eb b43d
00000190: 6f39 2d3e 6558 35be ca6f 48be d714 743d
000001a0: 360c b2bd 8467 85be 357c d33e 6d95 893d
000001b0: 29ce 003c 3c16 d83e 93c3 943e 1b21 9ebd
000001c0: 82d0 50bd 793a 4b3e 81c5 723e 7c8f 253e
000001d0: d730 21be 9442 8bbe 4c8f 653e cb25 f2bd
000001e0: fa9e 8fbd 6ece da3e 99e8 3bbe 4907 a03e
000001f0: d4b7 33be 7361 403e d6b4 28be 148c b83e
00000200: 6b92 16bd 8478 edbd ed64 92bc 110a 9b3d
00000210: c31b 37be 6e64 ccbd e571 153e c3a6 91bd
00000220: 2bff 2abe 20db 363b 5278 22be a43b 0a3e
00000230: b279 acbd 82d3 a93d 4695 c9bd 8975 d1bd
00000240: 0a3b 5fbd c514 593e 4ece b23d 6607 84bb
00000250: 1c17 563e 097d 04be a9cf 1dbd 2961 afbd
00000260: 0887 c13d 6b6a e7bc 4b91 0f3d 42be 51be
00000270: 746c edbd 4869 b9bd af1f b7bd ba6a 973d
00000280: 5cb5 39be 6ffc b6bd 5380 10bd fbf7 7bbe
00000290: 6e48 babe 69e5 3ebe c8dc b7be 3fd5 113e
000002a0: 1c06 243e 693b c2bd 98fb a8bd a252 813d
000002b0: 9a9e bbbe dbf2 b0bd 41b2 0c3f 4df9 80be
000002c0: 41ac 8f3d 289d a73c c582 8a3e ffb0 aa3e
000002d0: a71b 943e 5d4d 7fbe 35f5 103d d7cc 433e
000002e0: 1eff ae3d 2f38 963d b46b b33c cbd5 003e
000002f0: effc a13d 1935 5cbe 09b1 a43d c554 973e
00000300: 8f25 ddbd 25dd a03e 79a4 aabd 37b7 423d
00000310: f455 81be c8ed ec3e 72cf 133e f20d f1bd
00000320: b8a3 46bd 65f2 0f3f 5280 3a3e be41 543c
00000330: 2a06 ab3e 9e57 c9be 3995 12be d849 273f
00000340: cfba 803e 53c2 823e 387c 50bd b029 223e
00000350: 1245 a23e f327 af3e 270d 013f a699 1d3d
00000360: 9d73 46be bd1c cabe 3898 b43e f544 ccbc
00000370: df49 2d3e 9333 bdbe c459 dabe 76fe dbbe
00000380: acc9 c2bd 8594 4bbe dbd2 283d 1050 3e3e
00000390: 4232 0bb9 95d7 183c 0a61 e53e bdec 2e3e
000003a0: ee6c 98bd a6b2 ebbc 32aa 2bbe 8f08 1a3d
000003b0: 3b3a d8be d867 093d a137 dc3d ffdc dabb
000003c0: e2cf 8fbe cabe 67be dd03 a43d 4b59 2e3f
000003d0: 5b5d cbbc 3a04 9c3d 0ebe 9abe fbf8 483d
000003e0: e5be 003e 2d08 d8bd 8ff5 0a3e 0664 383e
000003f0: f794 d03e f32b b93c defb 1b3f ed53 e23e
-0.0944935 0.0921176 -0.21450904 -0.0654772 -0.30650145 -0.28834525 -0.05538459 0.1375078
-0.07151326 0.33761916 0.546825 -0.14805575 -0.11126352 0.41062644 0.54351276 -0.4346278
-0.007873205 0.36046517 0.43374795 -0.019639153 0.100484274 -0.02212375 0.19653954 0.45952693
0.17077635 -0.2793879 0.1472217 0.13337629 -0.22555852 -0.266559 -0.60404533 -0.095172666
0.03985962 0.15613848 -0.056271814 -0.06379372 -0.039883338 -0.046556883 -0.02530779 0.033696704
0.039964754 -0.07926876 0.04004623 0.13408302 0.06309703 -0.053980194 -0.15297435 -0.053825486
0.10329903 0.023675468 -0.08357182 -0.040151082 -0.06176991 -0.16254936 -0.011044254 0.0030301493
-0.0647762 -0.038744327 -0.0374383 -0.15053132 0.054331705 0.08765051 -0.15177353 -0.048265982
-0.16299911 0.1321002 0.037204757 -0.14647481 0.057476334 -0.10514218 -0.10759143 -0.15201245
0.00015453153 -0.038174838 -0.16503479 0.13938631 -0.04234057 0.054271024 0.054992612 -0.14918128
-0.03070452 0.056894515 0.013297747 -0.17265825 -0.10984712 -0.06268675 0.07074759 -0.16940004
-0.029761542 -0.10696101 0.030297037 0.05165927 -0.11500062 0.022817818 0.118661225 -0.048421428
-0.17529824 -0.0018657973 0.074682966 0.08833892 0.1691644 -0.17709501 -0.19573894 0.059590187
-0.08693735 -0.2605554 0.413057 0.06717954 0.007861652 0.42204463 0.2905546 -0.07721158
-0.0509801 0.19846524 0.23708154 0.16168016 -0.15741287 -0.27199233 0.22417945 -0.11823615
-0.07012744 0.42735618 -0.18350448 0.31255558 -0.17550594 0.18787174 -0.16475233 0.3604437
-0.03676073 -0.11595252 -0.01787039 0.075702794 -0.17881684 -0.09980093 0.14594229 -0.071118854
-0.16698901 0.0027901605 -0.15866211 0.13499314 -0.08421649 0.08292295 -0.09842925 -0.10227496
-0.054499663 0.21199329 0.08730756 -0.0040292023 0.20907253 -0.12938322 -0.03852812 -0.08563454
0.09449583 -0.028248986 0.03505067 -0.20482734 -0.115929514 -0.09053284 -0.0894159 0.07393403
-0.1813559 -0.08934867 -0.03527863 -0.24606316 -0.36383384 -0.186422 -0.3591063 0.14241503
0.16017956 -0.09483988 -0.08251113 0.06314589 -0.3664444 -0.08640071 0.54959494 -0.251902
0.07015277 0.02046068 0.27052894 0.33338162 0.28927347 -0.24931855 0.035390098 0.19121109
0.085447535 0.07334935 0.021901943 0.12581556 0.079095714 -0.2150463 0.08041579 0.29556862
-0.10798179 0.3141872 -0.08332152 0.04753801 -0.2526089 0.46275163 0.14434603 -0.11770238
-0.048495978 0.5622924 0.18213013 0.012955127 0.3340314 -0.3932466 -0.14314736 0.6534705
0.25142524 0.25538883 -0.050899714 0.15836215 0.3169332 0.34210166 0.50410694 0.03847661
-0.1938004 -0.3947505 0.35272384 -0.024935225 0.16922711 -0.3695341 -0.4264661 -0.42967576
-0.09511122 -0.19880874 0.041216712 0.18585229 -0.00013274795 0.0093287425 0.44800597 0.17082496
-0.07442652 -0.02877171 -0.16764143 0.03760582 -0.42231926 0.0335463 0.10752798 -0.006679177
-0.2808829 -0.22631374 0.08008549 0.68105 -0.024824789 0.07617994 -0.30223125 0.04906557
0.1257282 -0.105484344 0.13570236 0.18006906 0.4073865 0.022603964 0.60931194 0.44204655

model.dense1.bias f4 [16]
00000000: a2cb a73c 3cf8 61bd d8dc 07be 83b8 a53d
00000010: 7a1a e7bc b10e 603e 2587 c33e 9f0d c13e
00000020: 4d0e ad3d cbc6 1e3e d62d 213e d442 eb3d
00000030: d779 7d3e 1479 86bd a4af a5bd 2f6f de3d
0.020482842 -0.055168375 -0.13267839 0.080918334 -0.028210867 0.21880604 0.38189045 0.37705705
0.08449993 0.15505521 0.15740141 0.11487356 0.2475351 -0.065660626 -0.080901414 0.1086105

model.dense2.weight f4 [16, 16]
00000000: 453c 83be 8928 333e f339 293e abc3 93be
00000010: 0d03 e23d a0d5 d2be 70f2 1b3f b8c0 aabd
00000020: 3060 bf3f 9c4e 1c3f 8a4f 45be 24c2 6a3e
00000030: a586 9bbe b47b 0dbe ed45 783e 888b f3be
00000040: e06d 9fbe 0132 0dbe be0f b5ba 634e a03e
00000050: 8ab7 4c3e 921f 98bd 9db7 44be 4e2d e83e
00000060: 8f28 003f 0b4c a0be e67a 1dbd 975a be3e
00000070: ae6e 203e e378 03be a79b 74be a916 ec3d
00000080: 9261 9d3e bec6 a2bd b5c3 553e 730c fb3d
00000090: 397d fa3c e6c2 303d fa36 c83e 0169 adbe
000000a0: eec9 6bbd ba54 45bd 67aa 5e3f 6e8e ad3e
000000b0: 8a56 a5be 3a3d 7a3e 9d66 5cbe f104 6ebf
000000c0: 5505 c63d c105 053e 80f7 0ebe 9d69 23be
000000d0: d9d7 4abe 816e a63c e24c 89bd 5fb8 47be
000000e0: f98c db3d f87f 06be 223f 213e 0b3c 20be
000000f0: ac00 8ebd d8f8 4d3e fe58 0fbd 966d b83d
00000100: 777e ff3e 6b8a 77bd 8dd9 1ebe e622 95bc
00000110: 0b57 5bbe 9f85 cc3d 351b 883f b343 d7be
00000120: 3d15 f0be 8d70 89bd d5dd 413f 4f52 e7bd
00000130: a9e8 e43e 0e26 20be e419 36be 4f94 c5be
00000140: 7678 0b3e 49fa e83d a145 773d 1f98 8d3e
00000150: 1b5e 533c 17e9 7d3b 5087 043e e55f ddbe
00000160: 7024 cbbd dd6d 64be b4e4 fabe 66d1 533f
00000170: 49fd f23e 0558 953d b673 8a3d 4eb8 85bd
00000180: ed24 44be 0d35 1d3e 0f38 bcbc e3a0 83bd
00000190: 205e 0d3d 5011 b93e 49eb 9ebb 46f7 113f
000001a0: 9440 f5be 7d33 b43e 90b7 a43f 051d e2be
000001b0: 467c 71bd 8c47 e23d f445 b0be e5b3 acbe
000001c0: b073 0d3e e2ea 9a3c 6d74 993d 9088 2abe
000001d0: c56d e6bd 8560 68be e0da 9a3c f1f6 06be
000001e0: 5e97 823e 7b64 0b3e 3251 abbe 31d6 72be
000001f0: 971b c9bd 1019 5ebe 5bcc 47be 8427 563e
00000200: d2bc 283e c3cc c6bd da53 23be 57d7 08be
00000210: ac3f 01be a501 b6bd 0cc2 793b e7ed 25bd
00000220: 5005 05bd 2963 81be edf5 a4bd 712f c3bd
00000230: c93e f1bd 7373 023e 0603 233e 9f02 d73d
00000240: e514 a8be 6378 3f3e e3ba 27bd 36ce 69be
00000250: 046d 83be fdcc 72be d7d0 293f 3f91 a53e
00000260: a281 d6bc 9933 84be c02e 0bbf 2b8e 2abf
00000270: 6605 213e bf07 053e 9112 cabe 1697 013e
00000280: 2944 6e3f b918 f63d 579c 563e 532d 223f
00000290: 0ee2 ae3e 1d85 3b3f f5db 85be 4cf3 313e
000002a0: deb9 603e 5458 57be 18d0 6e3e dfb7 293f
000002b0: 314b bbbe 0806 273e 2d33 663f 4a0f efbd
000002c0: d829 5abe 6d05 2c3e 8648 1dbe 7e85 bebe
000002d0: 66e6 f8bd fff4 a23e 20c5 af3e 2228 073f
000002e0: 3f87 d3be b9a8 bd3e b819 873e 5adf 313e
000002f0: 566e 033f 41ff 273e 9ea7 af3e d790 493f
00000300: 6522 0dbe 095b 723d 614b 303e 33a2 c33b
00000310: 0958 2fbe 5748 7ebe 0e68 a8bb fdf0 303e
00000320: a68c 76be d645 753e 8051 19be c97b d43d
00000330: 2219 ba3e 89c3 103e f1a6 97be 6905 6c3e
00000340: be50 69bd 69f6 6ebe 2235 483e f515 e0bc
00000350: 49ce 313e af24 64bd 609c 60bd 887b 1d3d
00000360: 742b f4bd a98b b3bd e09b 23be 5201 333e
00000370: 4d76 e9bd 05b6 88bd 5c9b 4cbe df56 06be
00000380: 1a49 b8be d71c 533e 2497 d63d fd13 603c
00000390: c48c c43c 3a62 803c f6f6 2bbe fa9c 453f
000003a0: d238 243f 67e5 23be 7db4 453f 020e efbc
000003b0: f990 e0be cd10 a3bc ea79 0c3e 11d2 1abd
000003c0: 3e50 0c3f f89d d73d 1206 e63d 2382 e9be
000003d0: d5f2 7e3e dd60 c9bd 2916 2c3f 77bd ddba
000003e0: 8c60 5fbe e590 573f fa82 f23d dc22 3abf
000003f0: 3b16 ac3b 15ca 5dbd a3e2 e23e b120 f73e
-0.2563192 0.17495932 0.16526012 -0.2886022 0.11035738 -0.41178608 0.60916805 -0.083375394
1.4951229 0.6105745 -0.19268623 0.22925621 -0.30376163 -0.1381672 0.24245425 -0.4756739
-0.31138515 -0.13788606 -0.0013813896 0.31309804 0.1999189 -0.074278966 -0.19210668 0.45347065
0.5006189 -0.31308016 -0.038447283 0.3717849 0.15667221 -0.12839083 -0.23887502 0.115277596
0.30738503 -0.07948063 0.20875438 0.12258234 0.030577289 0.04315462 0.39104444 -0.33869174
-0.057565622 -0.048176505 0.86978763 0.33897728 -0.32292587 0.24437419 -0.21523519 -0.9297629
0.09668986 0.12990476 -0.13961601 -0.15958257 -0.19808902 0.020316364 -0.06704117 -0.19503926
0.10720248 -0.13134754 0.1574674 -0.15647905 -0.06933722 0.20114458 -0.03499698 0.09005277
0.49901173 -0.06043474 -0.15512677 -0.018205117 -0.21419923 0.09986424 1.0633303 -0.42043838
-0.46891204 -0.067109205 0.75729114 -0.11294996 0.44708756 -0.15639517 -0.17783314 -0.38589713
0.13620171 0.11375863 0.060369138 0.27655122 0.012900854 0.0038743669 0.12942243 -0.43237224
-0.09919059 -0.22307535 -0.49002612 0.8274139 0.47458866 0.07292179 0.06760351 -0.06529294
-0.19154711 0.15352269 -0.02297595 -0.06427171 0.034513593 0.3614602 -0.0048498255 0.57017934
-0.47900832 0.35195532 1.2868519 -0.44162765 -0.058956407 0.11048803 -0.3442837 -0.33731
0.13813663 0.018910829 0.074929096 -0.16653657 -0.112514056 -0.2269307 0.018903196 -0.13180138
0.2550611 0.13612549 -0.33460385 -0.2371452 -0.098197155 -0.21689248 -0.19511549 0.20913512
0.16478279 -0.09707024 -0.15949956 -0.13363396 -0.12621945 -0.088870324 0.0038110046 -0.040510084
-0.03247577 -0.25270966 -0.08054719 -0.09530533 -0.117795534 0.12739353 0.15919122 0.10498547
-0.3282844 0.18698268 -0.040949713 -0.2283257 -0.2566911 -0.2371101 0.6633429 0.32337376
-0.02618486 -0.25820616 -0.5436821 -0.6662318 0.15724716 0.12991236 -0.3946729 0.12655291
0.93072754 0.12016434 0.20958076 0.6335041 0.3415684 0.7324999 -0.26144376 0.17377967
0.21945903 -0.21029788 0.23321569 0.6629619 -0.36580804 0.16310894 0.8992184 -0.11672838
-0.21305025 0.16798945 -0.15359697 -0.3721122 -0.1215332 0.31827542 0.34330082 0.5279561
-0.41314122 0.37042788 0.2638681 0.17370358 0.51340234 0.16405965 0.3430757 0.78736633
-0.13782652 0.05916885 0.17216255 0.0059702634 -0.17123426 -0.24832283 -0.0051393574 0.1727943
-0.2407709 0.23952422 -0.14972496 0.10375173 0.363473 0.1413709 -0.29619554 0.23048939
-0.056961767 -0.23336186 0.19551519 -0.02735422 0.17363848 -0.055699047 -0.05483663 0.038447887
-0.119223505 -0.087668724 -0.1597743 0.17480972 -0.11399517 -0.066753425 -0.1998114 -0.13119076
-0.35993272 0.2061647 0.104780465 0.013676641 0.023992904 0.015671838 -0.16793427 0.7719265
0.641492 -0.16005479 0.7722853 -0.029181484 -0.43860605 -0.019905472 0.13718382 -0.03779799
0.5480994 0.10528177 0.112316266 -0.456071 0.2489732 -0.09832928 0.67221314 -0.0016917427
-0.21814173 0.84205467 0.11841388 -0.7270944 0.0052516735 -0.0541478 0.44313535 0.4826713

model.dense2.bias f4 [16]
00000000: f389 353f e436 c63c d8e1 abbe 1502 7fbe
00000010: 7b40 cc3e 5b5c a13e 9de6 9a3e 4fc0 5bbe
00000020: ec4c 1abe edff 3a3e 6018 afbb a7a7 b43e
00000030: 4fd0 023e 9578 b63d 1d98 643e d0fb 84be
0.7091362 0.024196096 -0.33570743 -0.24903138 0.39892945 0.31515774 0.3025407 -0.21460079
-0.15068406 0.1826169 -0.005343482 0.3528416 0.12774776 0.08909718 0.22323652 -0.25973368

model.output.weight f4 [10, 16]
00000000: 5c3d 163f f8f7 743d b8dc ea3e 6ef2 383e
00000010: ead3 7cbe 2997 023f 95f1 29bf eb62 c3bb
00000020: a8fe c5bd 1732 d63d ffc1 3a3f 98bb 8ebf
00000030: f0f4 5e3d e810 c3bd 146c b7be 9efe 82be
00000040: 5116 9abf 12a9 3f3e 6daa ffbd 5097 30be
00000050: 4502 0ebf 71aa 57bd bcf5 743f 0bac c43d
00000060: 83a5 21be 0270 b9bd 594d 0bbf c989 213f
00000070: 8069 933e 1fb6 35be b806 063f f8e1 14be
00000080: 0773 b33c 9291 8cbd b292 6b3f 50f2 4e3e
00000090: 9e67 2a3f b199 2cbe d566 103f 94e6 57bd
000000a0: ae7c f9bd 48ac 213e bcb8 c3be 9b53 66bd
000000b0: f078 70be b5a7 6d3d 383c 563e 678c 19bd
000000c0: 77c9 5dbf bcf2 b9be 6a97 b53b 2d29 a43c
000000d0: 45c6 083e 4bb0 b9be 144a fa3e af97 0e3e
000000e0: c520 96bc 2f32 053e 90bb 803f bfab 12be
000000f0: 9150 a9bd b065 983c 6b0e a8bc 111a 983e
00000100: fb00 693f 4881 e83d 726d bf3e f2d8 343e
00000110: 924a 3abe 48fe efbe e347 94be c815 323e
00000120: cb37 eebc 2e5b 4a3f e2ae 92bf cb5c 223e
00000130: 891f 303e fb3e 4cbe 5439 aebe 866f c53e
00000140: 50cb d0be 3285 e93e b179 17bf f3ae e73b
00000150: 307b 94be f31d df3e 132b 39be 9201 333e
00000160: 81d8 653e 3098 fabc 1f76 733f 1ba5 a13e
00000170: c8b5 563e 16d0 52be 7e34 903e 3ecf 82bf
00000180: 64cd 5e3f 9eeb e63e 8deb cdbe 6c24 14be
00000190: 4284 56bf 6c86 89be 6326 c0bd be54 08bc
000001a0: 2d43 953d 54c6 cfbe 6070 e5be 85eb 67bf
000001b0: 57e8 253d 02eb 623e 18d3 293f 022a 27bf
000001c0: ce85 15bf e580 46be 505d 993d e60f 69be
000001d0: 5a31 953f a999 063f 185d 003f ef00 c8bd
000001e0: b2b8 04be d45a bebd 69c9 f1be aa1d 3c3d
000001f0: f2d6 9d3e 701d f63d 4bbf 74bf 4bdb eb3e
00000200: b81d f93d d4bf bebe 092a fabe 8dbe 69be
00000210: 0404 bbbe e892 08bf ab51 70bd a8b1 be3d
00000220: f3b5 cf3d e8c1 d4be 5b5e 8d3e 779c 853e
00000230: 60a4 e4be 9c2a 52bc a9ca 053f 41ed 2c3f
00000240: 6777 203f d14e b0be bafb 423e 8372 65be
00000250: d3b3 98bd 6d18 8e3e 0cf5 50bf be65 8fbe
00000260: e38c 1b3d d034 3bbf 2213 a0bd dedf 193f
00000270: d9b2 303e 9dbf 383e 1c83 4ebf 54af 223f
0.58687377 0.059806794 0.4587152 0.1806123 -0.24690214 0.510119 -0.6638425 -0.0059627197
-0.096677125 0.10458773 0.72952265 -1.1150999 0.05443281 -0.09524709 -0.35824645 -0.25584882
-1.203806 0.18716839 -0.12483678 -0.17245221 -0.55472213 -0.05265278 0.9568746 0.09603127
-0.15785794 -0.09054567 -0.544149 0.6310087 0.28791428 -0.17745255 0.52354 -0.14539325
0.021905435 -0.06863703 0.92020714 0.20209622 0.6656436 -0.16855504 0.5640691 -0.05271013
-0.12181984 0.15788376 -0.3822688 -0.056232076 -0.23483634 0.058021266 0.20921409 -0.037487414
-0.86635536 -0.36318004 0.0055417316 0.020039165 0.13356884 -0.36267313 0.48884642 0.1392505
-0.018326173 0.13007425 1.005724 -0.14323328 -0.0826732 0.018603176 -0.020514688 0.29707387
0.9101712 0.113527834 0.37388188 0.17660883 -0.18192509 -0.4687369 -0.28961095 0.17391121
-0.029079339 0.7904538 -1.145962 0.1585571 0.1719953 -0.199459 -0.34028113 0.38561648
-0.40780115 0.45609432 -0.5917006 0.007070416 -0.29000235 0.43577537 -0.18082838 0.17481068
0.22445871 -0.030590147 0.95102113 0.31571278 0.20967782 -0.20587191 0.28165048 -1.0219495
0.8703215 0.45101637 -0.40218773 -0.14467019 -0.8379556 -0.26860368 -0.09382322 -0.008320985
0.072882034 -0.40581 -0.44812298 -0.9059375 0.04050478 0.22159961 0.6633773 -0.65298474
-0.58407295 -0.19385107 0.07488501 -0.22759971 1.1655686 0.52578217 0.5014205 -0.09765803
-0.1296108 -0.09294668 -0.47223976 0.045926727 0.30828053 0.120173335 -0.9560439 0.46065745
0.121638715 -0.37255728 -0.48860195 -0.22826596 -0.365265 -0.5334916 -0.058671635 0.09311229
0.10142126 -0.4155419 0.2761105 0.26095936 -0.44656658 -0.012827542 0.5226236 0.6754952
0.62682194 -0.34435132 0.19041339 -0.22406964 -0.07456174 0.2775301 -0.8162391 -0.2800731
0.037976157 -0.7312746 -0.07816149 0.6010722 0.17255725 0.18041845 -0.8066881 0.6354878

model.output.bias f4 [10]
00000000: f3b6 87bd 8717 83be a970 ddbe cb83 8dbe
00000010: a5cb 1b3e 7935 ca3e daa4 923e 1416 b43e
00000020: 6e80 1abf 0907 5abd
-0.06626692 -0.25603887 -0.43250015 -0.27639613 0.15214403 0.3949392 0.28641397 0.35173094
-0.6035222 -0.053229365
