Models/model_optAdam_ep70_neu64_lay1_acc0.9524.pth (torch, 213832 bytes, 6 tensors)

model.input.weight f4 [64, 784]
00000000: 0c02 a13c ca5c ca3c 5849 a43c 3211 f13c
00000010: dc4e 513c 3824 dabc 2efc fd3c f057 263b
00000020: 60aa e53b 0100 f2bc 803a 233a e627 6bbc
00000030: 2883 a13c a86b 133c 1738 013d 70dd 8e3c
00000040: a094 0fbb 9e5a e83c 74f7 7cbc 1c6d 823c
00000050: 4c0c 8f3c 10f9 da3c 8444 613c 0a46 c03c
00000060: 8067 b539 2076 46bb b37a e7bc 6aa4 67bc
00000070: c036 1a3a 60b4 da3a 3ca2 59bc 536b c6bc
00000080: fcc8 6fbc f0da 1d3c 2557 01bd a7d0 91bc
00000090: 5c23 c9bb 6270 bb3c bafc ad3c 8420 2e3c
000000a0: c057 53ba 9453 f9bb 6095 8cbc b4f6 273c
000000b0: eede d2bc 38af 9abb 1c86 febc 3437 8f3c
000000c0: 2e50 e43c 932b ccbc a49a d3bb 3e84 c63c
000000d0: 3e1b c1bc 2075 723b 1000 ddbc baf7 bcbc
000000e0: 6079 03bc aa0b 8bbc 678b 08bd dc25 bcbc
000000f0: 31ad f0bc 08e5 8dbb f0ac dd3b 4012 f9bb
00000100: b8b9 863b 9cec 473c a6ae 0dbd 6031 dfba
00000110: b6c2 ea3c c22f e23c 72c4 63bc 5636 07bd
00000120: 40e8 193a ec6a a3bc 0283 e53c d85e 1d3c
00000130: 529f 1bbc 24d3 ebbb 8058 bebc 5cc4 a63c
00000140: 48f3 ffbb f3dc a2bc cfc3 0e3d 70fe 643b
00000150: 1abc f8bc 6ee8 86bc eaf0 e23c 403c 9b3b
00000160: e687 01bd a8d0 263c 6836 493c b2c5 45bc
00000170: 188f 5f3c e373 bfbc 4826 f8bc 1457 203c
00000180: 1822 bb3b 3810 4cbc d27a 51bc 2823 d63b
00000190: bebc ebbc 67b9 8cbc 0008 b7b7 80ec 39ba
000001a0: 5479 95bb 9279 0bbc 60c9 0e3b 14f0 f6bb
000001b0: 9123 0d3d ee3a e83c 8ed7 8bbc 9a3d 87bc
000001c0: db25 0f3d e059 ddba 3e1a 0bbd 30d6 c03b
000001d0: 20c6 19bc 789e aabc 2c46 fbbc d3da 083d
000001e0: e382 8abc fe82 9abb d6f0 a0bc f344 bfbc
000001f0: 3102 c03c 953d 02ba 4dfa 59bb 2607 49bc
00000200: db11 0ebd 4a50 2cbc 2568 ecbc 0a8b 34bc
00000210: 53e0 fabc 0e0e 90bc c0c6 ddbb ec03 d5bc
00000220: 44cf 2f3c 605c 523b 785e d83b 7c81 d73c
00000230: 18ba 2d3c b02d 0abb 1c2d 2f3c 6e0f 9c3c
00000240: 6ecb e93c 152f adbc d063 fb3b a5e7 80bc
00000250: cd98 50ba 1a3e fb3b 32f0 d8bc 6a8f c3bc
00000260: 0d00 94bc 6910 e0bc 3995 b9bc 2077 1bbb
00000270: 63c8 5b39 2ffa 0ebd 14b9 1bba 0308 14bd
00000280: ce31 f4bc 7417 c4bc 0703 b03c 4028 96bc
00000290: f809 11bd b068 a93b acfd 0cbd 7876 4c3c
000002a0: 606f a93c 80f8 353b 4f66 0c3d 0e43 55bc
000002b0: 1076 54bb bba7 02bd 0836 c63b 7674 cebc
000002c0: 3937 9bbb 9efb 6e3c 0dad 8abc 5af2 8fbc
000002d0: 1ff5 16bd 19eb aabc 04af 25bd 6b33 d53c
000002e0: f4a2 b5bb b98c 08bd e741 ddbc 7567 6dbc
000002f0: a7f5 8a3b 5845 4f3b 71d7 12bc c1bd 1bbd
00000300: 71a2 043d cc73 dbbc 3d99 0cbd 8a6b 28bc
00000310: fd61 0abd 887e febb a03e d03c 1055 d53c
00000320: 02f7 02bd 7078 be3c 9bf2 983b 3bc2 b4bc
00000330: 3c0e 1dbd 6341 3a3c 8a0d 6bbc 5cb5 87bc
00000340: a127 e1bc 4083 f2bb 337a 153c cbe7 19bd
00000350: 0302 c53c 4692 813c c451 bcbc 40aa 153b
00000360: ad43 1cbd 7881 06bb 2e0e 3c3c 5721 2e3c
00000370: d885 bfbc cfb7 11bd 3412 063c e913 113d
00000380: e029 db3c 9257 e23c e08f c93c 00e2 b0bc
00000390: c037 84ba 8077 a43c e41a 37bd 3ff0 c0bc
000003a0: a5b5 f7bb 315e e9bc aa89 23bc 3501 7ebb
000003b0: 2971 bdbc 10e1 6a3b 72a4 fbbc 2c8a fdbb
000003c0: 5740 16bd 6c72 e6ba f7e1 23bd 5284 79bb
000003d0: 33b5 bebc 145b 97bc 5653 89bb b7d0 93bc
000003e0: aacc 2abc f5e7 bebc a898 a33b aed8 923c
000003f0: fe8d debc e066 023c c0d2 d63a aa6e 85bc
0.019654296 0.024702448 0.020054504 0.029427145 0.012775149 -0.026628599 0.031004038 0.0025382005
0.0070088357 -0.029541017 0.0006226674 -0.014352774 0.01971586 0.008997835 0.031547632 0.017439574
-0.0021908656 0.028363522 -0.015439857 0.015921168 0.017461918 0.02673009 0.013749246 0.023470897
0.00034600124 -0.003028281 -0.02825675 -0.01413832 0.0005882792 0.0016685836 -0.013283309 -0.024221098
-0.014635321 0.009634718 -0.031577248 -0.017799689 -0.0061382484 0.022880737 0.021238673 0.0106278695
-0.0008062087 -0.0076088402 -0.017161071 0.01025169 -0.025741067 -0.0047205947 -0.031069808 0.017482378
0.027870264 -0.024923122 -0.0064576436 0.02423298 -0.02357256 0.0036996081 -0.026977569 -0.023067344
-0.0080245435 -0.016973335 -0.03333607 -0.022967272 -0.02937946 -0.004330281 0.0067650005 -0.0076010525
0.004111495 0.012202408 -0.034590386 -0.0017028265 0.028657299 0.027610663 -0.013901817 -0.033010803
0.0005871095 -0.019948445 0.028016571 0.009605132 -0.009498434 -0.007196801 -0.02323556 0.020357303
-0.007810984 -0.019880747 0.034854706 0.0034941696 -0.030363131 -0.016468253 0.027702767 0.004737407
-0.031623743 0.010181583 0.012281038 -0.01207106 0.013644956 -0.023370689 -0.030291691 0.009786386
0.0057108514 -0.012455039 -0.01278563 0.0065349527 -0.028776523 -0.01717825 -2.1819025e-05 -0.0007092431
-0.0045615826 -0.008512871 0.002178751 -0.0075359438 0.034457747 0.028348412 -0.017070558 -0.016508866
0.03494821 -0.0016887747 -0.033960573 0.005884908 -0.009385616 -0.020827517 -0.030673109 0.033411812
-0.016908115 -0.0047153225 -0.01964609 -0.023348307 0.023438545 -0.0004968283 -0.0033260763 -0.012269771
-0.034684997 -0.010517189 -0.028858254 -0.011019478 -0.030624544 -0.017584827 -0.0067680776 -0.026002847
0.010730568 0.0032098517 0.0066030584 0.02630686 0.01060345 -0.002108436 0.010691907 0.019050326
0.028539386 -0.021140615 0.0076718107 -0.015735457 -0.00079573394 0.007667315 -0.026481722 -0.023872096
-0.01806643 -0.027351575 -0.022654163 -0.0023722127 0.00020960117 -0.034906562 -0.00059403596 -0.036140453
-0.029808905 -0.023936965 0.021485819 -0.01832974 -0.035409898 0.0051699504 -0.034421608 0.012479417
0.02068299 0.0027766526 0.034277257 -0.013016475 -0.0032419004 -0.03189824 0.0060489215 -0.025202017
-0.0047368077 0.014586357 -0.01692822 -0.017571617 -0.03685486 -0.020864056 -0.04045011 0.026025495
-0.005543107 -0.03333733 -0.027008964 -0.014489998 0.00424071 0.0031627025 -0.008962498 -0.03802276
0.03238148 -0.026788615 -0.034325827 -0.010279546 -0.033784855 -0.0077665485 0.025420487 0.026041538
-0.031973846 0.023250788 0.0046675927 -0.022065273 -0.038343653 0.0113681285 -0.01434649 -0.016565971
-0.027484717 -0.0074009 0.009123373 -0.03757457 0.02404881 0.015816819 -0.022988208 0.0022837073
-0.03815048 -0.0020523947 0.01147799 0.010628066 -0.023379251 -0.035575684 0.008183051 0.03541938
0.026753366 0.027629647 0.024604738 -0.02159214 -0.0010087416 0.020076513 -0.04470338 -0.023552058
-0.0075594955 -0.028487297 -0.009981552 -0.0038758044 -0.023125248 0.0035839714 -0.030718062 -0.0077374186
-0.036682453 -0.0017581708 -0.04001042 -0.0038073254 -0.023279762 -0.018476047 -0.0041908426 -0.018043859
-0.010424772 -0.023303965 0.0049925633 0.017925587 -0.027167317 0.007959098 0.0016389713 -0.01628812

model.input.bias f4 [64]
00000000: 61ef 11bc a97a 443e fb0d 063e 30cf 563e
00000010: 7b76 29be 0147 2a3d e1c5 a63c a7e2 df3d
00000020: afad ffbc 7cfc 70bd 1214 47bd db55 f43d
00000030: cf3b b1bd c844 4ebd d459 f63d dec8 fc3d
00000040: f200 03bb 5c24 423c 40d6 6abe 882b 0f3e
00000050: d948 12bd 2606 9d3d 9cc6 4b3e 5d86 263e
00000060: a433 fc3d 6f12 963c 7ed1 2f3e 2850 e03d
00000070: b325 ea3d e9ec 103e 55dd a6bd ea7c 983d
00000080: c5e6 f3bd 4a8d 483c b008 3ebe 7adf 073c
00000090: d1bd 853e c1a7 493e 0357 823c 7911 c93d
000000a0: 011a d4bc fca1 913d 22f7 ec3d b207 323e
000000b0: 0f78 5dbd 500b 37bd 3ccd 423e 1d61 b43d
000000c0: 3282 1d3e 1cdd d7bd 5cc8 403e 917b 283e
000000d0: 59f0 083d 5e49 2c3e f4a5 893d c48e ff3c
000000e0: 1a3d 923d 57c1 11be dbbe 19bd 8241 cbbc
000000f0: 415d bfbd 6b72 35be 39b1 903c 2837 853d
-0.00890717 0.19187416 0.1309127 0.20977473 -0.16549103 0.04157162 0.020358028 0.109319024
-0.031210748 -0.058834538 -0.048603125 0.11930438 -0.08653986 -0.050358564 0.12028852 0.12343
-0.0019989577 0.011849489 -0.22933292 0.1398145 -0.035714004 0.07667188 0.19899982 0.16262193
0.12314537 0.018319337 0.17169759 0.109527886 0.11432972 0.14152874 -0.081476845 0.074457005
-0.1190925 0.012240717 -0.18558002 0.008293027 0.2612138 0.196929 0.015910631 0.09817786
-0.025891306 0.07110974 0.11570574 0.17385748 -0.054069575 -0.044688523 0.19023603 0.088075854
0.15381697 -0.1054022 0.18826431 0.16453387 0.03343234 0.16824862 0.06721106 0.031196006
0.071405604 -0.1423391 -0.03753553 -0.02481151 -0.09343959 -0.17719428 0.017662631 0.06504661

model.dense1.weight f4 [32, 64]
00000000: cca8 0ebc a66f 8fbe d343 cc3e 4541 9f3e
00000010: d853 d4be b9fa 4dbd 8b94 a4bd 68cb 2b3e
00000020: e963 023d d716 17be fe87 1a3f 2d2c 2f3e
00000030: f73c 22bf 54ad 803e 70c1 e1bd b0f0 c63e
00000040: d813 c8be e5c2 943e 2896 91bd eae6 ef3e
00000050: 1a88 d0be 510d 9d3e 066c 39be 99ad e93d
00000060: 2ddd 603e de2d 6c3c 9ce4 163d 44bf bb3e
00000070: 3571 8f3a 90a4 1abe d8c9 98be 8c99 31bd
00000080: 6dc0 2e3e 783b 85bd 3638 4c3d a414 9e3e
00000090: 7db2 ab3d ba43 d7be 9ccc 1f3e ad6b aa3e
000000a0: 8103 48bd 7fb2 013e d859 e43e 4979 93be
000000b0: dfc5 9b3e 1d79 753e 3dcf 7d3e ab54 86bd
000000c0: 2c3f b33e 6ca0 56bc 6aa2 023e 88be 6cbe
000000d0: 20e5 1d3e f560 953e 0669 4a3f 272f dc3e
000000e0: 6f1d 03bf 48f0 cdbe 3295 b13d ac87 863e
000000f0: 0ea9 82be 6ed5 e6be 9e86 e33d 3cc7 e93e
00000100: 71b1 9e3c 3f24 a33e 0027 d43d b91a 2dbf
00000110: 1418 1f3e ff7d 7f3e 610f bf3d b9c3 ecbe
00000120: 4c73 71bd 2a47 a2bd b461 533f 620d 97be
00000130: 2d41 633e 1c17 95be c186 debd c41f 013f
00000140: 72e4 733c 8e4e 35bd 63ef b9bd 9c2c cbbd
00000150: 3ab3 a5bd 9c4f ec3d 6cab 353e 5dbc 443d
00000160: 5f9a 86be 2df4 1c3d 91ca 8dbb 6002 c9bd
00000170: 2181 dd3d addd bf3d fff1 933e 0d13 32be
00000180: e15e f73d 586a ce3d 8d1a 2dbd 7060 4bbd
00000190: a16a 4bbe 3711 8d3e 14d3 2ebe 6bdf 5e3e
000001a0: d4c2 ed3d 3158 243d 5ec4 6abe 7409 b43e
000001b0: bf39 ef3e 38d9 84be d5cd 6b3e 6c6f a23e
000001c0: ad67 c33e 2ba8 ddbd e39a c1bd 03bc d2bd
000001d0: a946 1d3e d749 02be 0d1c 6bbe 2803 13bd
000001e0: d242 83bd 5d5f 8c3e bb26 873e 3455 e2bd
000001f0: d5bd 2b3d 6542 a53d 66a8 163e 8fae 923e
00000200: 0f8a e0bd e9d1 77bd 7f11 64be 637a ea3d
00000210: 3659 b43d 99ba 2c3e 27d4 393d 2c56 523d
00000220: 8e26 e73d 5847 1e3e 3350 2bbd 6c96 a7be
00000230: 87ac 933e aab1 553e f2da 523e 460c ebbd
00000240: 12fd 09bd fe2f 533e 44de 0c3f 8789 5bbe
00000250: ecfb 823e 0dc2 5c3e a689 f0bd 8356 50be
00000260: 1faf 28bd 9358 2d3d 3a02 e53d 5b59 5abe
00000270: ae6d 153e b04a b73e 1c2f 55be 774a e5bb
00000280: 9dc7 aebd f157 5f3d 4b95 fa3d a85f ccbe
00000290: 9039 403e a99d 503e 7bb3 0a3e c418 d7be
000002a0: 2851 203e 7fd2 603e caa8 8ebd f6d3 37bc
000002b0: 8cd8 fbbe 24bd bf3e 2963 213e 3349 84be
000002c0: 02f4 d6be 17f7 f73d e289 de3d 7f59 e3be
000002d0: 6b78 fb3d 51d1 5c3e 663e 73be e161 a4bb
000002e0: 1470 7bbd 2eee 3e3e 3e3e 04bf 9677 483e
000002f0: 8394 ca3d 319e de3e 287d 82be 2187 bebe
00000300: 64a0 0abe 9be3 e33b 7870 613d 543a 3f3e
00000310: 3042 993d a60c 423e be48 203c 596f 7bbe
00000320: 168b ce3d dcf8 2ebd 50d6 3c3e dc5e 003f
00000330: 0e12 c03d 5016 6e3e da66 cbbd ed2c 253e
00000340: 587a 73bd 79ae 0bbf 0563 00bf 96e5 91bd
00000350: c148 2fbe b0f2 cc3c c2e2 8f3c 07ca 553d
00000360: f948 42be 03ea fe3c e47a fe3e 61a0 bb3d
00000370: 189a 023e 225b 733e 35ca 54bd 4930 dfbc
00000380: 836e 1c3f 86ab 45be 46e7 16be 6ff3 bcbe
00000390: f71e f5bc 65e1 873d d95d f7bc 7071 4b3f
000003a0: aad6 b23e ea46 10bc 7687 153e a485 2e3e
000003b0: faed 3a3d 512a 3b3f 2ac0 733e d9e1 a53e
000003c0: d0c7 99be db85 cf3c 187f 22be 9c1a 2fbe
000003d0: f37a 4b3e a377 d23e d5fa eb3c 12a1 e23c
000003e0: 1232 d33e b5a2 9f3e 8fba 943d 7416 b6be
000003f0: 1351 ac3e 8ab7 79be ab21 ad3e cb84 8abd
-0.0087072365 -0.28014868 0.39895496 0.31104484 -0.41470218 -0.050287936 -0.08036145 0.16776812
0.031833563 -0.14754806 0.6036376 0.17106695 -0.63374275 0.2513224 -0.110232234 0.38855505
-0.3907764 0.29054943 -0.07108718 0.4685586 -0.40728837 0.30674222 -0.18107614 0.11410064
0.21959372 0.014415232 0.036839113 0.36669362 0.0010943773 -0.15101838 -0.29841495 -0.043359324
0.17065592 -0.065054834 0.049858294 0.30875123 0.08383653 -0.4204386 0.15605396 0.33285275
-0.048831467 0.12665747 0.44599795 -0.2880347 0.304244 0.23971982 0.24786086 -0.06559118
0.35009134 -0.013099771 0.12757269 -0.23119557 0.15419436 0.29175535 0.79066503 0.43004724
-0.5121679 -0.40222383 0.08671035 0.26275384 -0.25519603 -0.4508471 0.111096606 0.45659816
0.01937172 0.3186359 0.10359001 -0.676189 0.15536529 0.24950407 0.09329105 -0.46243075
-0.058947846 -0.0792373 0.8257096 -0.29502398 0.22192831 -0.29119194 -0.10865546 0.50439095
0.014886009 -0.04426437 -0.090788625 -0.09920618 -0.080908254 0.11538622 0.17741174 0.0480312
-0.2628965 0.0383188 -0.0043271263 -0.09814906 0.10815645 0.09368453 0.28895566 -0.1739008
0.120786436 0.10078877 -0.04226165 -0.049652517 -0.19864894 0.27552196 -0.17072707 0.21764915
0.11609426 0.04012317 -0.2292647 0.35163462 0.46723744 -0.25946975 0.23027737 0.31725633
0.38165036 -0.10823091 -0.094533704 -0.10289767 0.15358986 -0.1272348 -0.2295992 -0.035891682
-0.06409229 0.27416506 0.26396737 -0.110514075 0.041929085 0.080693044 0.14712676 0.28648803
-0.109638326 -0.06050292 -0.22272299 0.11449125 0.08806078 0.16868056 0.04536834 0.05135171
0.112866506 0.15456903 -0.04182453 -0.3273195 0.28842565 0.20868555 0.20591334 -0.1147695
-0.033688612 0.20623776 0.5502665 -0.21439181 0.25582826 0.215584 -0.11745004 -0.20345502
-0.041182633 0.0423208 0.11182065 -0.21323149 0.1459262 0.3579917 -0.20818752 -0.0069974023
-0.08534167 0.054527227 0.122355066 -0.3991673 0.18771958 0.20372643 0.13545029 -0.42011082
0.15655959 0.21955298 -0.06965788 -0.011219969 -0.4918865 0.3744899 0.15760483 -0.25837097
-0.41983038 0.121076755 0.10866143 -0.44404218 0.12278827 0.21564223 -0.23754272 -0.005016551
-0.061386183 0.18645546 -0.51657474 0.19576868 0.098916076 0.43480065 -0.25486112 -0.3721247
-0.13537747 0.006954623 0.0550389 0.18674594 0.074833274 0.18950137 0.009782968 -0.24554195
0.10085122 -0.0427178 0.18441129 0.50144744 0.09378444 0.23250699 -0.09931727 0.16130419
-0.059442848 -0.545631 -0.5015109 -0.07123868 -0.17117597 0.025018066 0.017564181 0.05219462
-0.1897315 0.031117445 0.49703133 0.09161449 0.12754095 0.23765233 -0.051950652 -0.027244704
0.6110613 -0.19303712 -0.14736661 -0.36904475 -0.029921992 0.066347875 -0.030196117 0.79469967
0.349294 -0.00880597 0.14602455 0.17043167 0.04563711 0.73111445 0.23803774 0.3239887
-0.30035257 0.025332382 -0.15868795 -0.17099994 0.1987112 0.411069 0.02880613 0.027664695
0.41249138 0.31178823 0.07262146 -0.35564005 0.33655605 -0.24386421 0.3381475 -0.067636095

model.dense1.bias f4 [32]
00000000: bc4c 1e3d cf4f 243e 94f1 363d b314 e83d
00000010: 1e60 103e b96f 41bd 38de ac3d 4ca5 bebb
00000020: d5e2 303d 8c57 a3bc 8c6e 053e 4a4f 10bc
00000030: 7675 453e ff04 093e 8786 fe3c 5859 8f3e
00000040: 782e 163e 569a cf3d cb17 073e 88d2 023c
00000050: 4bd0 ae3e 12e3 a7bc bbd4 e0bd 2973 083e
00000060: dfe5 b13d dc20 eb3d 37ff 39be 7b6c 3b3e
00000070: 0c17 2f3e 5502 78bd 7c12 c13d 69ba 853e
0.0386474 0.1604607 0.04466398 0.11332073 0.14099166 -0.047225688 0.08440822 -0.0058180448
0.043185074 -0.019939207 0.13030452 -0.0088079665 0.19283089 0.13380812 0.031070007 0.2799785
0.14666164 0.10136859 0.1319267 0.007984765 0.3414329 -0.020494018 -0.10978075 0.1332518
0.086864226 0.11480877 -0.18163763 0.18303101 0.17098635 -0.0605491 0.09427354 0.26118782

model.output.weight f4 [10, 32]
00000000: 8f0e 0abf c4f1 683e 1f44 9d3e 1022 a53d
00000010: 7e7e a63d a9f6 823e fcea 94bf d47f 54be
00000020: ca6f 753e fb6d b5be 65c3 99bf b813 9f3e
00000030: cfa2 8c3d 12c3 c0be a6a8 bcbe 4290 3ebe
00000040: 698c 62be 6c9b 103e 7f5b e13e de91 92bd
00000050: 843c 01be 9816 a13e 96ae d53e 39a6 0abf
00000060: b504 a03e f278 233e b972 75be 541d f63d
00000070: a0d6 fdbe 6dea 5dbd e61e a4be 1a6a 9abd
00000080: 8da0 babe 9d9e c8be 05fa 6f3e ed1c 41bf
00000090: 5865 bdbe c292 3e3e ff43 da3e 4f9c d43d
000000a0: 459d f0be 049a adbe f180 543e f571 fb3d
000000b0: 34eb 02bf 7c95 103e 6275 b93e 72a9 913d
000000c0: 9d73 0d3e 691a 6fbe 70f5 a1be d29f acbd
000000d0: e916 8b3e 64c3 a93d 7f18 203f 6337 1c3d
000000e0: 6aa7 4cbd b6f5 0abf 1497 8ebe 8958 e03e
000000f0: b034 27bf 46b8 273d 66a0 bd3e 616e f0be
00000100: b07a dfbd 8535 7f3e 19e6 d1be 6375 91be
00000110: a9bc 953d 55a7 43bc ea8b 02be adc3 1b3f
00000120: 65cc 3a3e 7314 eabd 47ba 193e f359 da3c
00000130: d506 e4be 0e03 933e 9269 ccbd d763 29bf
00000140: bb05 ddbd cb05 793e fbbf 833e 0f25 60bd
00000150: ba15 56be db41 d33d 9c27 1a3e 100b b93e
00000160: 53e8 46bf eee9 473e 8f2b a33e 381c 03bf
00000170: c253 6d3e f56e 393e cd16 633d 1a19 25be
00000180: febc fb3d e045 0d3e 2933 a33e e4e0 c53c
00000190: e23f 043d 3db0 81be dced 10bf 599e c3be
000001a0: 6f07 bf3e ed34 d33d 1de0 e73e fa77 17be
000001b0: b6c1 22bf 6352 02be 4ccd d1bd 68f9 cfbe
000001c0: 4c9f 8fbe 7907 36be 81f5 dbbe c979 133f
000001d0: 9712 33bc f62a 01bf 5981 adbe 4d1e 38be
000001e0: 6781 793e dc78 b1be 1efa ac3e f1ce b73d
000001f0: 3be4 29bf b8ee c33e 7cfc 5b3e 1bc8 633e
00000200: 1991 e53e 453e 8cbe 62e9 f4be d34b ddbe
00000210: 03b3 de3e ae93 4dbd e601 3fbe 959f ac3e
00000220: 9b5c 0dbf 7d82 11bf 3b00 1cbf 8d02 55be
00000230: 119b 013f 3114 20bf 3f17 853e a875 02be
00000240: f2f6 ddbe c997 2abf 5963 723d 28e5 e0be
00000250: c285 103e 3ed3 b53e cc3d 7abe 9808 7d3e
00000260: 2166 b3be 6bf0 29bf c53d 10bf 2980 293f
00000270: caaf 28be 795c 61be 7e79 0abe 2437 a4bc
00000280: 4ec9 8c3e dd45 b63e 0a43 bcbe 6f21 013f
00000290: 9f65 4cbe 6691 d6be b77f cd3e 0ad3 863e
000002a0: 20f3 263e 0528 19bf bbaa 813e f339 bcbe
000002b0: ac95 67be 6bd5 7ebe 7ecb 16bf 6cad c73e
000002c0: 29af df3e ce55 913c 21f8 98be c5af 56be
000002d0: 4924 5c3e c07a 09bf 86c3 98bb 40ba 30bf
000002e0: a194 9b3e 7276 a23d c372 d63c 37bc e43d
000002f0: d312 223d 1e52 debe 61c4 84bf d639 cb3e
00000300: a6ad 7dbe e5dc 143e 70ec 20be b6b3 78be
00000310: f539 6a3e 2104 e13e 65f2 053c 7cca d9be
00000320: 12b2 f4be 1bf1 bd3e c08f 65bf 4e8c 933c
00000330: 24d7 54be 37a9 e5bd 7217 ef3d ec78 853e
00000340: eaa2 033f ca1c 143e 677b 2c3e 5673 81bf
00000350: 6695 dcbe ec8b 19be af06 10bf dace 31bf
00000360: 4dc1 4a3e 6c6c cd3d aab8 be3e 3472 13be
00000370: 8614 023f 5a6e ac3e 8e17 c2be 2c1d 36bd
00000380: 486d 983e 5b55 f0be eb0e 51bf 2a9e 9b3e
00000390: 253c 13bf cb89 81bf b314 ecbd 3c3f 91be
000003a0: a179 293e 80af 003f bb57 2dbe 934e a33d
000003b0: 2604 03be f804 82bd 1dae 293e 7638 69be
000003c0: 1b88 683d 15b3 3cbf 4eb1 4cbf c9f7 f3bd
000003d0: e62a 7cbe ff21 c73e d694 083f 76c3 a13e
000003e0: 60f6 9bbe c55f cc3e ebab 9d3e 1c03 d4bd
000003f0: 11fe 19bf 532c 893e 836e 7bbe db07 90bb
-0.53928465 0.22748476 0.30716035 0.080631375 0.08129595 0.25578812 -1.1634212 -0.20751888
0.23968425 -0.3543547 -1.2012755 0.31069732 0.06866991 -0.37648827 -0.3684742 -0.18609717
-0.22123875 0.14121789 0.44015118 -0.07156728 -0.12620741 0.3146255 0.4173476 -0.54159886
0.3125359 0.15964106 -0.23969544 0.12017313 -0.49577808 -0.054178644 -0.32054824 -0.075397685
-0.36450616 -0.39183512 0.23435219 -0.7543476 -0.36991382 0.18610671 0.42630002 0.10381376
-0.46994987 -0.33906567 0.20752312 0.12277595 -0.5114014 0.14119524 0.36222368 0.07112397
0.13813634 -0.23349918 -0.31632566 -0.08428921 0.27165917 0.08289221 0.6253738 0.03813876
-0.049964346 -0.54281175 -0.27849638 0.43817547 -0.6531477 0.04094722 0.37036437 -0.46959212
-0.10912073 0.2492276 -0.40995863 -0.2840987 0.07311375 -0.0119417505 -0.12748685 0.6084545
0.18242033 -0.11429682 0.15012465 0.02665422 -0.44536462 0.28713268 -0.099810734 -0.6616797
-0.107921086 0.24318616 0.25732407 -0.05472284 -0.20906726 0.10315295 0.15054172 0.36141253
-0.7769825 0.19522831 0.3186917 -0.51214933 0.23176482 0.18108733 0.055441666 -0.16122857
0.12291907 0.13796186 0.3187497 0.024155088 0.032287486 -0.25329772 -0.56612945 -0.38206747
0.3731036 0.10312829 0.45288172 -0.14791861 -0.6357683 -0.1272674 -0.102442354 -0.4061997
-0.2805122 -0.17776288 -0.42960742 0.57607704 -0.010929725 -0.5045618 -0.33887747 -0.17980309
0.2436577 -0.3466252 0.33784574 0.08975018 -0.6636388 0.38268065 0.21483034 0.22244303
0.44837263 -0.27391258 -0.47834307 -0.43221912 0.4349595 -0.050189666 -0.18653068 0.337155
-0.5521943 -0.56839734 -0.6093785 -0.20801754 0.5062724 -0.6253081 0.25994298 -0.12740195
-0.43352467 -0.66637856 0.059176777 -0.43924832 0.14113525 0.35512727 -0.24437636 0.2471031
-0.35038856 -0.66382474 -0.5634425 0.6621118 -0.16473308 -0.22007932 -0.13522908 -0.020045824
0.27497333 0.35600176 -0.36769897 0.5044164 -0.1996064 -0.41907805 0.401365 0.26332885
0.16303682 -0.5982669 0.2532557 -0.36762962 -0.22615689 -0.248861 -0.58904254 0.38999498
0.43688324 0.01774111 -0.29876807 -0.20965488 0.21498217 -0.53702927 -0.00466198 -0.69034195
0.30386832 0.07932748 0.02617777 0.11168712 0.039568733 -0.43422025 -1.037243 0.39692563
-0.24773273 0.1453739 -0.15715194 -0.24287304 0.22873671 0.43948463 0.008175467 -0.42537296
-0.47792107 0.3709801 -0.8967247 0.018011238 -0.20785195 -0.11213916 0.11674394 0.2606882
0.5142046 0.14464107 0.1684395 -1.0113323 -0.43082732 -0.14994782 -0.562602 -0.69456255
0.19800301 0.100304455 0.37250262 -0.14399034 0.50812566 0.33677942 -0.37908596 -0.044461414
0.29770875 -0.4694012 -0.8166339 0.30394107 -0.5751365 -1.0120176 -0.115273856 -0.28368556
0.16550304 0.5026779 -0.16927998 0.07973971 -0.12794551 -0.06348604 0.16570325 -0.22775444
0.056770425 -0.7371076 -0.79958045 -0.11912496 -0.2462574 0.38893124 0.53352106 0.31594437
-0.30461407 0.39916816 0.30795226 -0.103521556 -0.601533 0.2679163 -0.24553876 -0.0043954677

model.output.bias f4 [10]
00000000: 9cb6 97be bf11 283e 0ce2 a0bd 8275 813b
00000010: cd4b 133e badc 7a3e d732 24be 3a9e 8fbd
00000020: 247d c23d 3370 073c
-0.29631507 0.1641302 -0.07855615 0.0039507756 0.14384384 0.24498263 -0.16035019 -0.07012601
0.09496525 0.0082664965
