Models/model_optAdam_ep10_neu32_lay1_acc0.9244.pth (torch, 106504 bytes, 6 tensors)

model.input.weight f4 [32, 784]
000000 a0 ff db bc 8a 27 de 3c e0 34 b5 bc de 7b 86 3c
       -0.02685529 0.027118463 -0.02211994 0.016416486
000010 00 e8 d9 3c fc c5 08 bc 08 14 8f 3b 45 b6 04 3d
       0.026599884 -0.008347984 0.0043664016 0.03240039
000020 36 ea b1 3c b0 6b b4 bc 03 96 a5 bc 50 83 41 bb
       0.021718126 -0.022024006 -0.020213133 -0.0029527731
000030 ee 17 43 3d 3a d4 93 3d 69 1b 30 bd 92 5e 9d bd
       0.047630243 0.072182134 -0.04299489 -0.076840535
000040 6a 6a a5 3c 30 e2 53 3b 97 4a 07 3d d0 63 54 3b
       0.020192344 0.0032330863 0.03303012 0.0032408126
000050 1e 81 b1 bc 50 90 13 3c d5 0c bc bc a0 72 73 bb
       -0.021668013 0.009006575 -0.022955338 -0.003714718
000060 08 e4 b2 3b 10 fb 75 3c 7c 1a 9b 3c df de 02 bd
       0.0054593123 0.015013471 0.018933527 -0.031950828
000070 3a 09 f5 3c c8 55 02 bd fa a2 8a 3c ae 20 b3 3c
       0.029911626 -0.03182009 0.016923416 0.021866169
000080 10 26 67 3c e0 d2 1d bd e4 90 1c be 59 36 05 be
       0.014108196 -0.038531184 -0.15289646 -0.13009013
000090 ac a9 56 bd 76 20 bb 3d a1 b8 a1 3d 8b 04 05 bb
       -0.052407905 0.09137051 0.07896543 -0.0020296897
0000a0 b7 66 2e 3d 8c af d7 3d 12 ce 89 bd 82 61 41 be
       0.042578425 0.1053153 -0.06728758 -0.18884853
0000b0 2d 6b 90 be fa fd 4a be bd 1c 02 3d ad d6 21 3d
       -0.2820677 -0.19823447 0.03176569 0.03951137
0000c0 7a 70 9a 3d aa 0c f2 3d 59 81 d7 bd 80 cc 29 be
       0.075409845 0.11818822 -0.10522718 -0.16581917
0000d0 7c bd 40 3c a4 58 00 bc db 1e 01 bd 12 c0 2a bc
       0.011763927 -0.007833634 -0.031523567 -0.01042177
0000e0 80 e4 3f 3a 0a c3 b0 bc 2c d8 90 bc b4 51 00 3c
       0.0007320121 -0.021577377 -0.017681204 0.00783198
0000f0 1c 98 a3 3c 73 a0 32 bd d4 35 92 bd ae 68 07 be
       0.019969992 -0.043610048 -0.07139173 -0.13223526
000100 1c b4 51 bd bd 12 0c bc c7 c4 1c bd 39 4f 4a bd
       -0.051197156 -0.008549389 -0.0382736 -0.04939196
000110 a0 96 0d be 12 67 c8 bd b6 db 72 3a dc 98 ac 3c
       -0.1382699 -0.09785284 0.0009264307 0.021068983
000120 d4 a7 2c 3d cf f8 d8 3d 2d a5 97 3d 5e e7 eb 3d
       0.04215224 0.105943315 0.07404552 0.11518739
000130 f6 e1 73 3d af 2c 94 3d 5f 5c e3 3d e0 9b cb bd
       0.059541665 0.07235085 0.11101603 -0.0994184
000140 6c 01 22 bd bc 87 f8 3c fa dd 86 bc f2 34 6a bc
       -0.039552137 0.03033816 -0.016463269 -0.01429485
000150 88 3a f0 bb d7 d0 93 bc 9c 40 a7 bc 97 f6 29 3d
       -0.007331196 -0.018043919 -0.02041655 0.041494932
000160 62 4f 75 bd fa 6b e8 3d b4 81 dc 3d 80 26 fc 3d
       -0.05989016 0.1134872 0.107669264 0.12312031
000170 7d fc 62 bc 9f 3c c3 bd 22 b2 dc bd 1a 1b 00 bd
       -0.013854143 -0.09533047 -0.10776164 -0.031275846
000180 b7 2a ad bd 7d 4d a2 bd 90 e3 b7 bc 42 f4 b2 bc
       -0.08455413 -0.07924936 -0.022447377 -0.021844987
000190 5c 03 56 3d e7 d1 b3 3c e4 45 51 3e 36 c2 61 3e
       0.052249297 0.021950675 0.20436817 0.22046742
0001a0 cc a3 83 3e 7b 91 4f 3e 9c bd 8c 3e 96 db 3a 3e
       0.25710905 0.2027034 0.2748841 0.18247828
0001b0 75 c5 46 3e 9b 46 2b bd 7a 20 c2 bc 00 18 86 bc
       0.19411261 -0.04181538 -0.023697127 -0.016368866
0001c0 88 ce 8a 3b a0 e0 ed 3a d2 13 63 bc 6e 98 8c 3d
       0.004236046 0.0018148609 -0.013859706 0.06865011
0001d0 05 43 c7 3d ef b5 68 3b 7e fe f7 bc c3 10 d4 bd
       0.0972958 0.0035508831 -0.030272719 -0.103547595
0001e0 25 89 7d bd e3 6b ec bd b3 e3 c7 bd 45 8c 88 bd
       -0.06189837 -0.11544015 -0.09760227 -0.06667379
0001f0 96 31 15 bd 8c 8f 17 bc 26 c2 9b bd de 98 d6 bd
       -0.036424242 -0.009250533 -0.0760539 -0.10478376
000200 d7 8f 5f bc 5d 2f 23 3c b7 71 e6 3b 1a dd c9 3d
       -0.013645134 0.009960023 0.007032599 0.09856625
000210 56 26 11 3e 6c ab 00 3e 63 e7 09 3e f3 3f 0b 3e
       0.1417478 0.12565392 0.13467173 0.13598613
000220 51 7b 49 3e f3 68 6a 3e 0c 32 ab 3d de 8d e1 bc
       0.19675948 0.22891597 0.08359155 -0.027533468
000230 28 74 30 3c 85 6e ee bc 98 72 27 be 25 0d 1b be
       0.010769881 -0.029105434 -0.16352308 -0.15141733
000240 c6 40 02 be 08 f8 45 b9 0a c3 10 3b c8 5d 17 bb
       -0.12720022 -0.00018879783 0.0022088909 -0.002309667
000250 9a d2 16 bd 31 b8 00 3e 07 d6 81 3d 35 b6 a9 3d
       -0.03682194 0.12570263 0.063396506 0.08286706
000260 fc d5 3e 3d dd 86 51 bd a6 d8 23 bd be 49 63 bd
       0.04659079 -0.051154006 -0.040001534 -0.055490248
000270 24 9a 2d bd 2f 6c 87 bb ad 44 3d bd bd cf 85 bd
       -0.042383328 -0.0041327695 -0.046208072 -0.065337636
000280 57 c4 83 bd 23 24 75 bd 3f 12 c7 bc 24 fa bb 3d
       -0.06433933 -0.059848916 -0.024300693 0.0917857
000290 e5 e7 1b 3e 11 2c 31 3e dc f3 52 bd cb 99 cb bd
       0.1522518 0.17301966 -0.051502094 -0.09941443
0002a0 cc 2d d7 bc 63 3f ad bc 34 60 16 3e 8f a0 08 be
       -0.026266955 -0.02114839 0.14685136 -0.13342498
0002b0 88 e0 c7 3c bd 0d 91 3e 3b 57 f6 3d 2c 92 06 3e
       0.024399057 0.28330794 0.12028357 0.13141698
0002c0 1b 92 1b 3e 5c 6a 53 3e 9e 38 b2 3d ff cd 2d 3d
       0.15192454 0.20646042 0.08702205 0.04243278
0002d0 9c a4 80 3d 19 2e c8 bc f3 08 58 bd 82 a7 33 be
       0.06281397 -0.024436044 -0.05274291 -0.17544368
0002e0 6e 61 2b be fe 28 82 bd 16 18 40 be f6 50 00 be
       -0.16736385 -0.06355475 -0.18759188 -0.12530884
0002f0 4c 06 db bd 21 47 90 bd 0a a9 61 3c c6 c0 06 3e
       -0.106945604 -0.07044817 0.013773212 0.13159475
000300 b6 a0 84 3e 24 26 83 3e 3d bb b6 3b 46 ae 17 be
       0.25903863 0.25615036 0.0055765198 -0.14812574
000310 78 ec a1 3d dc d0 bb 3d 76 b6 47 3e 82 da a8 3d
       0.07906431 0.09170696 0.19503197 0.08244802
000320 7e de 7b 3d 93 73 32 3e 00 81 25 3e f2 1e 5c 3e
       0.061491482 0.174269 0.16162491 0.2149618
000330 76 ec 7f 3e 52 94 6f 3e 16 90 03 3e 8e c8 8b 3d
       0.24992546 0.23396423 0.12847933 0.06825362
000340 a8 7e b0 bc b5 e5 03 be 2a 9b 63 be 74 52 60 be
       -0.02154477 -0.12880595 -0.22227159 -0.21906453
000350 9d 4c 16 be df c7 80 bd 99 de 77 bd f7 c3 e5 bc
       -0.14677663 -0.062881224 -0.06051502 -0.028047545
000360 aa df 50 3c 20 94 e6 bb ea c8 02 3d d6 23 0f 3e
       0.012748638 -0.007036701 0.031929888 0.13978514
000370 a8 8d bf 3e 57 dc b3 3e 08 b3 1f 3d 2b 6e d5 bd
       0.37412763 0.35129043 0.038989097 -0.104214035
000380 60 67 a3 3d 86 2a d9 3d a3 22 6d 3e 80 df 3c bd
       0.079787016 0.10603814 0.23157744 -0.046111584
000390 7c 9c 16 3d b0 32 9c 3c 10 77 87 3d 96 5c 2d 3e
       0.03677033 0.019067138 0.06614506 0.1692985
0003a0 25 d2 80 3e 3e 22 92 3e ee 4a 85 3d 9a b6 f6 3d
       0.25160328 0.2854175 0.06508432 0.12046547
0003b0 a8 84 7f bc 0f d6 fa bd 50 a0 8a be af d1 5f be
       -0.015595593 -0.1224786 -0.27075434 -0.21857332
0003c0 d7 87 17 be 09 ff ec bd ac d6 18 3c df c8 0b 3c
       -0.14797913 -0.115720816 0.0093285255 0.008531778
0003d0 f1 dd df 3d 80 db 8e 3d d7 2f a0 3d 9b 7c 1f 3e
       0.10931004 0.0697546 0.07821625 0.15574877
0003e0 f7 4f 9b 3e f0 9e be 3e 0c aa 04 3e aa 60 ef bd
       0.30334446 0.37230635 0.12955493 -0.11688359
0003f0 bb 72 5a 3d 17 fb 16 3e 67 00 42 3d 8d ea a7 3d
       0.05333207 0.1474422 0.047363665 0.08199034

model.input.bias f4 [32]
000000 ed 3b 57 3e 47 28 f6 bc a5 50 44 bc 7a a9 0e 3d
       0.21018954 -0.030048503 -0.011982118 0.034829594
000010 dc 31 3a bc 9a 25 40 3e fa d3 08 bd 52 5a 8f 3c
       -0.011364426 0.18764344 -0.03340528 0.017499123
000020 06 ae b5 3d 3d b2 4d 3d 81 7e d1 bc 42 87 24 3d
       0.08871083 0.05021881 -0.025573017 0.040168054
000030 6d b0 33 be a3 7d 82 3d 12 3c e7 3d e8 0d 4a 3e
       -0.1754777 0.063716196 0.112907544 0.19731867
000040 c0 2a 67 3e c7 f1 45 3e 95 64 54 3e f1 c1 0a 3d
       0.22574902 0.19330512 0.20741494 0.033876363
000050 d5 1c 69 3d 6b b6 ae 3d 75 13 8e 3d 83 da 30 bc
       0.056912262 0.08530887 0.06937305 -0.010794285
000060 25 b2 c7 3c b1 6e 14 3e 6f 74 a1 3d ff f8 aa 3d
       0.024376938 0.1449535 0.07883536 0.083482735
000070 f3 80 29 3e c9 a9 83 3d 2b 44 00 3e 6c e3 c8 bd
       0.16553096 0.06428868 0.12526004 -0.09809002

model.dense1.weight f4 [16, 32]
000000 2e 11 c3 3e ca d3 1b 3e 5d 64 d6 be ee 87 04 be
       0.38099045 0.1521751 -0.41873446 -0.12942478
000010 e4 62 05 bf 76 b9 62 3e c0 58 52 3d 74 c3 5f 3e
       -0.5210402 0.2214106 0.05135417 0.21851903
000020 6d 95 14 3e 33 ab 32 3e 35 e6 0f 3e a5 2c b2 3e
       0.14510126 0.1744812 0.14052661 0.34799686
000030 b6 ac e3 bd c2 11 05 bf 76 61 7a bd 57 a1 a6 3e
       -0.11116926 -0.5198022 -0.061128102 0.32544968
000040 7c c9 f2 3e 9e ce ad 3e 64 b1 ce bd 12 db 33 be
       0.47419345 0.339467 -0.10092428 -0.17564037
000050 bc d7 ae 3e 9c f9 30 be 0d 9e 25 be 5d d1 9d bd
       0.34148967 -0.17282718 -0.16173573 -0.077059485
000060 0d 45 cd bd f3 df c2 3d c4 55 b3 3c 58 31 02 be
       -0.10022936 0.09515371 0.021891482 -0.12714136
000070 fb 4d 06 3d 97 c4 ad bc a9 66 4a 3e d3 b6 0b 3e
       0.03278921 -0.021211905 0.19765724 0.1364396
000080 c2 a8 26 be 44 55 4d be 36 ff ad be e7 ed 8c be
       -0.16275313 -0.20052058 -0.33983773 -0.27525255
000090 35 e9 66 bd 7b 20 17 3e a6 98 88 3d 64 62 4f 3e
       -0.056374747 0.14758484 0.066697404 0.20252377
0000a0 70 ba 0b bf 05 2c 3f bd f6 0d f0 3d 98 68 a2 3e
       -0.54581356 -0.04667284 0.11721413 0.31720424
0000b0 d8 a6 a6 3d 23 61 0b 3f 14 9a 1c 3e 7d 79 4c 3d
       0.08137292 0.54445094 0.15293151 0.049920548
0000c0 34 b1 ab be 01 0e 78 3e 1d b4 a0 3b b9 78 33 3e
       -0.33533633 0.24224092 0.0049042837 0.17526521
0000d0 b9 95 8e 3e 01 98 8a be 51 ff 2a 3e 06 5c aa 3d
       0.27848604 -0.27069095 0.16698958 0.08318333
0000e0 bb 33 58 3e 4c 21 5d 3e 53 33 78 3d a0 83 ab 3e
       0.21113484 0.21594733 0.06059582 0.3349886
0000f0 e5 28 97 3e 0c 5e 8b 3e e6 2e d2 3b 7b dd ab 3e
       0.29523388 0.2722019 0.006414282 0.33567414
000100 21 a2 f4 3c 11 65 d1 bd 20 99 8f 3e f6 d0 85 3d
       0.029862465 -0.10224355 0.28046513 0.06533997
000110 b7 66 54 3e 4d ed 67 be 56 63 15 3d f8 a0 96 3e
       0.20742308 -0.22649117 0.036471687 0.29419684
000120 9f b5 53 3f 21 a2 f6 bd 92 c8 c6 3b cc 99 25 be
       0.82699007 -0.120426424 0.0060663903 -0.1617195
000130 91 99 7d 3e 89 ea 43 bd ea 63 2f 3e 01 77 d6 bc
       0.24765612 -0.047831092 0.17127958 -0.026179792
000140 9b b6 5a 3e 8c c8 cf bc 0c 9c 9e be 79 98 20 3e
       0.21358721 -0.025364183 -0.3097843 0.15683164
000150 31 83 9a 3e 68 b3 6f 3e 4e 7e 3b be 4c 9d 25 3e
       0.30178216 0.23408282 -0.183099 0.16173285
000160 b3 62 78 3e 2c b0 9d 3e e3 3c e2 3d 7a 97 a7 3e
       0.24256401 0.3079847 0.110467695 0.32732755
000170 fa 19 30 3e 97 11 a6 3e a8 eb 0e be 4b 12 48 be
       0.1719741 0.32435295 -0.13957083 -0.19538228
000180 69 6d 94 be 95 74 85 bc 55 1e b2 3e 1f 7c be 3c
       -0.28989723 -0.016290942 0.34788767 0.023252545
000190 25 dd 3c 3e 24 70 bb 3e ac 50 11 3e 01 00 aa 3e
       0.18443735 0.36608994 0.1419093 0.33203128
0001a0 dc 6a 2d 3e ff 10 ba bd dc 0e f3 3d 3a 57 3c 3e
       0.16935295 -0.09085273 0.118680686 0.1839265
0001b0 4c 08 b5 3e 53 25 ea 3d 68 01 7f be e2 04 9e 3e
       0.35357893 0.114329 -0.2490288 0.308631
0001c0 d8 5f 01 be a1 91 2d 3d ba de a4 3b cb a6 50 be
       -0.12634218 0.04237521 0.005031434 -0.20376126
0001d0 4e c8 15 be 46 71 d9 3d a4 05 53 3e c4 bc c9 bd
       -0.14627191 0.10617308 0.2060762 -0.09850457
0001e0 ff 9c 9d 3e 95 2c fa 3e 43 8d 3c 3e 52 b3 a9 3e
       0.3078384 0.48862138 0.18413262 0.33144623
0001f0 50 93 0a bd 32 92 cb bd bb 83 a6 be 3a 4b f6 bb
       -0.033831894 -0.09939994 -0.32522377 -0.007516292
000200 ed d4 d6 bd fc 13 ad 3e 0c aa 90 3e 24 a5 c3 3e
       -0.10489831 0.3380431 0.28254735 0.3821193
000210 ba e6 51 3d b5 9c 02 3e 66 91 f9 3d 7d 6a e3 bd
       0.05124543 0.12755091 0.12185936 -0.111042954
000220 87 92 8e 3d 04 09 2f bd 51 2a 50 bd 0c ae 31 3e
       0.069615416 -0.042733207 -0.050821606 0.1735155
000230 e3 bd 91 3e 3c 4f a1 be 52 b7 13 bc 04 95 b8 bd
       0.28465185 -0.31505764 -0.009015875 -0.090127975
000240 4a c7 e4 3d bc 7c 49 be 04 f3 93 3d 4a ae 27 3e
       0.11170824 -0.19676489 0.07224086 0.1637508
000250 8f 2f 86 3d bf d3 c6 3e 3e f3 f2 3d 47 1f 20 3c
       0.0655204 0.38833424 0.11862801 0.009773082
000260 dc 72 82 bc d7 ec 8b be 20 d3 68 3e 2e 7f 87 be
       -0.01592391 -0.27329132 0.22736788 -0.26464218
000270 ee 80 0c be c3 14 2a bc ad d1 5b be de bc 54 3e
       -0.13721058 -0.010380927 -0.21466704 0.20775172
000280 19 48 1c be 06 f2 3b bd 2a 41 ed bd 37 4a 32 3e
       -0.15261878 -0.04588511 -0.11584695 0.17411123
000290 82 c8 b0 3e e6 3a 95 3c ca 06 06 be 78 2f 84 be
       0.34527975 0.018216562 -0.13088527 -0.25817466
0002a0 f7 52 2a 3f eb 8f 87 3d 9f 3e 53 bd a8 9f 8b be
       0.66532844 0.06619247 -0.051573392 -0.27270246
0002b0 35 0f 96 be eb 8a ec bc 28 f1 dd 3d 53 f3 bd be
       -0.29308477 -0.028874835 0.108370125 -0.37099704
0002c0 5a e9 2f 3e cc 09 23 3e 97 42 52 3e 8c 56 8d 3e
       0.1717886 0.15921706 0.20533215 0.27605093
0002d0 d0 02 79 3d d8 92 a3 3d 34 58 76 3e 09 87 08 3e
       0.060793698 0.079869926 0.24057084 0.13332762
0002e0 83 6a b1 bd 2a fc 10 be 3f 5d 59 3e 6b 25 3e be
       -0.086628936 -0.14158693 0.21226977 -0.18568961
0002f0 62 ea d1 3d fb 4d 1f 3e f1 b3 7c 3d a8 23 2e be
       0.10249783 0.15557091 0.061695043 -0.1700579
000300 62 b1 86 3d a1 87 be 3c 7c ac 04 3d 8c 9d aa 3e
       0.06576802 0.023258032 0.032391056 0.33323324
000310 09 9e 03 3f 6f 6b 78 3c d3 d4 22 bd 3e 7c 80 3c
       0.5141302 0.015162333 -0.039753746 0.015684243
000320 c3 bf e1 3e c0 42 f2 bc 53 2e c1 3d 49 a2 8f bd
       0.44091615 -0.029572845 0.09432664 -0.07013375
000330 c9 e3 39 3c da e6 06 3f 6d c1 98 3e 73 64 69 3e
       0.011345812 0.52696 0.29835072 0.22792225
000340 51 de 44 be 39 71 9c be 10 ca 66 3e 29 01 47 bd
       -0.19225432 -0.30555132 0.22538018 -0.04858509
000350 01 01 7b be d9 ef 98 3e 1b f2 96 3e 56 d2 6a bc
       -0.24512102 0.2987049 0.29481587 -0.014332375
000360 bd eb bc bd 50 55 76 3d 6d 30 ad 3e 57 49 d2 3e
       -0.09224651 0.060139954 0.33826008 0.4107158
000370 3b e6 9c 3d af 02 91 be 1a e0 38 be b7 84 ce 3d
       0.076611005 -0.2832236 -0.18054238 0.10083907
000380 0f bf ae bd 60 e0 ea bd 5b 00 42 3e 7f 11 77 3e
       -0.08532535 -0.114685774 0.18945448 0.24127768
000390 10 ca c5 3e 57 bb 59 3e 0d 55 0c be 31 c0 c9 3e
       0.38630724 0.2126287 -0.1370432 0.39404443
0003a0 2c 10 91 be 38 db a5 bd ee 75 c9 bd 95 fa db 3c
       -0.2833265 -0.08098453 -0.098369464 0.026852885
0003b0 bc e6 af bd 21 40 18 3f 7f db 61 3e 9d 89 4b 3e
       -0.08588931 0.5947285 0.22056387 0.19876714
0003c0 ad 89 d0 be 59 4c 66 be db c3 a9 bd 59 28 b4 3e
       -0.40730038 -0.22490062 -0.082893096 0.35187033
0003d0 fb cf 5c 3e a9 84 dd 3d cf b5 99 be 63 d6 10 be
       0.21563713 0.108163185 -0.3002152 -0.14144282
0003e0 56 8d b5 bd bd 52 78 3e 12 18 b1 be c5 80 aa 3d
       -0.08864848 0.24250312 -0.34588677 0.08325342
0003f0 19 a9 4c be 56 56 8f 3e b9 61 d6 3e 64 9a cd 3d
       -0.1998638 0.27995557 0.4187143 0.10039213

model.dense1.bias f4 [16]
000000 df e9 10 3e 78 6b 0c bd 19 ab b6 bd 9e 2a 01 3d
       0.14151715 -0.034282178 -0.08919353 0.031534784
000010 8d 59 65 3d 73 42 35 3e 18 f2 c6 3a 7b 13 d8 3c
       0.055993605 0.1770113 0.0015178351 0.026376477
000020 e2 e0 8e 3e b1 1b b9 3c 72 f8 f3 3d 2d 86 75 be
       0.27905947 0.022596212 0.119126216 -0.23976965
000030 e4 7d 38 3c 83 93 64 3e 90 8a e4 3d 24 20 9f 3d
       0.011260483 0.22321896 0.11159241 0.07769802

model.output.weight f4 [10, 16]
000000 13 8f e7 3d e3 d9 6a 3e eb 60 da be cb f6 48 3e
       0.11306586 0.2293468 -0.42652068 0.19625394
000010 4f e0 88 3e 3f 55 a5 3c 36 8b 4d be 72 86 5c be
       0.26733634 0.02018225 -0.20072636 -0.21535662
000020 0b 4a f7 be b9 58 fc bd 48 04 bd be e0 d6 61 3e
       -0.48298678 -0.1232161 -0.3691733 0.22054625
000030 f2 24 80 3e 7a a5 b5 bd e4 6f 0b bf 17 36 bd 3d
       0.25028187 -0.08869453 -0.54467607 0.092388324
000040 b7 c0 27 be 74 33 a6 be 41 6c 0b 3e 0d f9 9f be
       -0.16382109 -0.3246113 0.13615514 -0.31244698
000050 22 50 6a 3c 24 03 d5 3e 74 2f 16 3c 5d c5 e4 3e
       0.014301332 0.4160396 0.009166587 0.44681826
000060 19 e5 26 3e 3a 6d d9 3c cf 99 e5 3d 12 bb 3a 3d
       0.16298331 0.026541341 0.11210977 0.04558856
000070 6f 07 2d bf 60 6e eb 3d cc 79 09 bf 35 21 f9 be
       -0.6758947 0.11495662 -0.5370147 -0.48658147
000080 e1 62 0b bf 95 70 ad 3e 01 70 0a 3e 5f f4 a3 3e
       -0.5444775 0.33874956 0.13519289 0.32022378
000090 25 ab b0 be 2c 01 00 bf bd 0b d8 bd 07 c2 97 3e
       -0.34505573 -0.5000179 -0.10549114 0.2964022
0000a0 e7 45 bb be b4 3b 3d be 59 4e 20 3e 76 f2 13 3e
       -0.3657677 -0.18479806 0.15654887 0.1444796
0000b0 1e ce b9 be 42 f6 08 3e 4a 78 39 be 29 0e 51 3c
       -0.36290067 0.1337519 -0.18112293 0.012759724
0000c0 cd 44 d3 be 1a 42 a5 be 0a db 66 3e 2d 6c b4 3c
       -0.41263428 -0.32276994 0.22544494 0.022024238
0000d0 35 c1 c9 3e d6 fa fd bd ef 49 c1 3e b2 b0 9c bb
       0.39405218 -0.12401359 0.3775172 -0.004781806
0000e0 db c1 90 be fb 39 5b 3e 7e c8 52 3e ee bd 05 be
       -0.282729 0.21408837 0.20584294 -0.13060734
0000f0 b1 e7 d8 bd 0f 5d e4 be c1 5f 12 be 86 a3 94 be
       -0.10591067 -0.44602248 -0.1429434 -0.29031008
000100 af 50 b1 3e f4 50 66 be e8 8c 6e be d5 f3 bc bc
       0.3463187 -0.22491819 -0.23295939 -0.023065487
000110 ab 7b 05 ba ea c1 c9 be 5c 4b fb be c3 34 9e bd
       -0.00050919753 -0.39405757 -0.49080932 -0.07724907
000120 41 8c 17 be 90 3c fa be d3 6b 99 3e e5 e9 37 bf
       -0.14799596 -0.4887433 0.29965076 -0.7184127
000130 0a 09 02 3e bd 5a 72 3e dd dd fc 3e 73 fe 97 be
       0.1269876 0.23667426 0.49388018 -0.29686317
000140 d9 b5 b7 3e d9 27 c0 bd e1 ba 71 3e aa aa 96 3e
       0.35880926 -0.093826 0.23606445 0.2942708
000150 44 f7 80 bc a5 63 3b 3e 9d 30 7d 3d cf c0 e0 bd
       -0.015742905 0.1829973 0.06181394 -0.10974275
000160 86 23 f5 3e d2 f4 aa be 49 ff fb be 28 b5 82 be
       0.47878665 -0.33389908 -0.49218205 -0.25528836
000170 47 08 b9 be 79 0e e1 be 81 fa ac be 76 a0 cc be
       -0.36139128 -0.43956354 -0.3378487 -0.39966172
000180 a1 70 b2 3e 85 e4 a5 3e c0 af 56 3e 35 7f 8f be
       0.34851554 0.3240091 0.20965481 -0.2802674
000190 4f 82 08 bf b0 5d 3f be 79 cd 35 bf 24 45 04 3d
       -0.53323835 -0.18688083 -0.7101665 0.0322925
0001a0 1a 6a 84 be 78 7f bd 3e ce 2b c4 3d 0c 6c 41 be
       -0.258622 0.37011313 0.095786676 -0.18888873
0001b0 d2 fd d0 bd 09 51 62 be 91 5d ec be 67 ea f4 bd
       -0.102046624 -0.22101225 -0.46165136 -0.11958771
0001c0 56 1b 48 be e9 76 c3 bd f3 c8 b7 be c0 27 db be
       -0.19541678 -0.09544165 -0.358955 -0.42803764
0001d0 af e2 e8 bd 3c ea a3 3e ca 08 c0 3e 57 61 47 3e
       -0.113713615 0.32014644 0.37506706 0.19470726
0001e0 fb 88 1b 3e 90 fc a5 bd 88 b3 a5 be 8a 0f 4e be
       0.15188973 -0.08104813 -0.32363534 -0.20123115
0001f0 4f 5d 49 be 85 e7 10 be 9f 21 40 3e 09 7c e0 3e
       -0.196645 -0.14150818 0.18762825 0.4384463
000200 42 39 92 3d 36 1e 4e bd f5 07 b2 be 4b f1 71 be
       0.07139827 -0.05032178 -0.34771696 -0.23627202
000210 45 86 60 3e 4e 64 a8 be d8 c9 38 be 25 c9 2b 3e
       0.2192622 -0.32889026 -0.18045747 0.1677595
000220 a0 8a 3c 3e 3f 27 b8 3e 99 3d 1d 3c 42 e7 bb 3e
       0.18412256 0.35967442 0.009597206 0.36699873
000230 2b 65 65 bc b3 24 1a bf 65 52 22 3e a7 b2 03 bf
       -0.014001171 -0.6021225 0.15851744 -0.51444477
000240 b0 09 8f bd a3 65 a4 be 9e 7d 2d 3e 1b 11 5f be
       -0.069842696 -0.32108793 0.1694245 -0.21783869
000250 fd 2d 31 3e 0b f2 ae 3e f9 8d f7 be 40 5e 03 bf
       0.173027 0.3416904 -0.48350504 -0.5131569
000260 97 a7 e4 3d f0 39 a4 be 4e 95 b7 be 1b 7a 8e 3e
       0.11164778 -0.32075453 -0.35856098 0.27827534
000270 75 a3 2b 3e 50 be 53 3e 6e 4e 77 3e a2 6f d9 bd
       0.16761573 0.20678067 0.24151012 -0.106169954

model.output.bias f4 [10]
000000 26 78 7d be f8 c4 b3 3c 8c c3 d9 3d 59 1d b2 3d
       -0.24752864 0.021944508 0.10633001 0.08697004
000010 99 31 05 3d 0f d0 88 3e 87 65 39 3e f2 e1 0e be
       0.032518003 0.26721236 0.18105136 -0.13953379
000020 72 12 18 be 4f d8 2e be
       -0.14850786 -0.17074703
